…
I0918 15:11:38.052551 28789 net.cpp:294] The NetState phase (0) differed from the phase (1) specified by a rule in layer accuracy
I0918 15:11:38.052557 28789 net.cpp:51] Initializing net from parameters: 
state {
  phase: TRAIN
  level: 0
  stage: ""
}
layer {
  name: "InputData"
  type: "ImageData"
  top: "data"
  top: "label"
  include {
    phase: TRAIN
  }
  transform_param {
    mirror: true
    crop_size: 32
  }
  image_data_param {
    source: "/home/jcwang/work/2.GeneratedSparseConvolution/0.CaffeSparseConv/4.TrainRuns/train.txt"
    batch_size: 32
    shuffle: true
    is_color: true
  }
}
layer {
  name: "B0_0_ConvBNScaleReLU_Conv"
  type: "Convolution"
  bottom: "data"
  top: "B0_0_ConvBNScaleReLU_Conv"
  convolution_param {
    num_output: 64
    bias_term: false
    pad: 1
    kernel_size: 3
    stride: 1
    weight_filler {
      type: "xavier"
    }
    bias_filler {
      type: "constant"
    }
  }
}
layer {
  name: "B0_0_ConvBNScaleReLU_BN"
  type: "BatchNorm"
  bottom: "B0_0_ConvBNScaleReLU_Conv"
  top: "B0_0_ConvBNScaleReLU_Conv"
  param {
    lr_mult: 0
    decay_mult: 0
  }
  param {
    lr_mult: 0
    decay_mult: 0
  }
  param {
    lr_mult: 0
    decay_mult: 0
  }
  batch_norm_param {
    moving_average_fraction: 0.999
    eps: 0.001
  }
}
layer {
  name: "B0_0_ConvBNScaleReLU_Scale"
  type: "Scale"
  bottom: "B0_0_ConvBNScaleReLU_Conv"
  top: "B0_0_ConvBNScaleReLU_Conv"
  scale_param {
    filler {
      value: 1
    }
    bias_term: true
    bias_filler {
      value: 0
    }
    l1_lambda: 0
  }
}
layer {
  name: "B0_0_ConvBNScaleReLU_ReLU"
  type: "ReLU"
  bottom: "B0_0_ConvBNScaleReLU_Conv"
  top: "B0_0_ConvBNScaleReLU_Conv"
}
layer {
  name: "B0_0_ConvBNScaleReLU_Dropout"
  type: "Dropout"
  bottom: "B0_0_ConvBNScaleReLU_Conv"
  top: "ConvBNScaleReLU"
  dropout_param {
    dropout_ratio: 0.25
  }
}
layer {
  name: "B0_1_SConv_SparseConv"
  type: "SparseConvolution"
  bottom: "ConvBNScaleReLU"
  top: "B0_1_SConvBlockV2_T1"
  sparse_convolution_param {
    weight_filler {
      type: "xavier"
    }
    channel_expand_multiplier: 4
  }
}
layer {
  name: "B0_1_SConv_BN"
  type: "BatchNorm"
  bottom: "B0_1_SConvBlockV2_T1"
  top: "B0_1_SConvBlockV2_T1"
  param {
    lr_mult: 0
    decay_mult: 0
  }
  param {
    lr_mult: 0
    decay_mult: 0
  }
  param {
    lr_mult: 0
    decay_mult: 0
  }
  batch_norm_param {
    moving_average_fraction: 0.999
    eps: 0.001
  }
}
layer {
  name: "B0_1_SConv_Scale"
  type: "Scale"
  bottom: "B0_1_SConvBlockV2_T1"
  top: "B0_1_SConvBlockV2_Scale"
  scale_param {
    bias_term: true
  }
}
layer {
  name: "B0_1_SConv_Conv1x1"
  type: "Convolution"
  bottom: "B0_1_SConvBlockV2_Scale"
  top: "B0_1_SConvBlockV2_Conv1x1"
  convolution_param {
    num_output: 64
    bias_term: true
    pad: 0
    kernel_size: 1
    stride: 1
    weight_filler {
      type: "xavier"
    }
    bias_filler {
      type: "constant"
    }
  }
}
layer {
  name: "B0_1_SConv_ReLU"
  type: "ReLU"
  bottom: "B0_1_SConvBlockV2_Conv1x1"
  top: "B0_1_SConvBlockV2_Conv1x1"
}
layer {
  name: "B0_1_SConv_Dropout"
  type: "Dropout"
  bottom: "B0_1_SConvBlockV2_Conv1x1"
  top: "B0_1_SConvBlockV2_Dropout"
  dropout_param {
    dropout_ratio: 0.25
  }
}
layer {
  name: "B0_Pooling"
  type: "Pooling"
  bottom: "B0_1_SConvBlockV2_Dropout"
  top: "Pooling1"
  pooling_param {
    pool: MAX
    kernel_size: 2
    stride: 2
    pad: 0
  }
}
layer {
  name: "B1_0_SConv_SparseConv"
  type: "SparseConvolution"
  bottom: "Pooling1"
  top: "B1_0_SConvBlockV2_T1"
  sparse_convolution_param {
    weight_filler {
      type: "xavier"
    }
    channel_expand_multiplier: 4
  }
}
layer {
  name: "B1_0_SConv_BN"
  type: "BatchNorm"
  bottom: "B1_0_SConvBlockV2_T1"
  top: "B1_0_SConvBlockV2_T1"
  param {
    lr_mult: 0
    decay_mult: 0
  }
  param {
    lr_mult: 0
    decay_mult: 0
  }
  param {
    lr_mult: 0
    decay_mult: 0
  }
  batch_norm_param {
    moving_average_fraction: 0.999
    eps: 0.001
  }
}
layer {
  name: "B1_0_SConv_Scale"
  type: "Scale"
  bottom: "B1_0_SConvBlockV2_T1"
  top: "B1_0_SConvBlockV2_Scale"
  scale_param {
    bias_term: true
  }
}
layer {
  name: "B1_0_SConv_Conv1x1"
  type: "Convolution"
  bottom: "B1_0_SConvBlockV2_Scale"
  top: "B1_0_SConvBlockV2_Conv1x1"
  convolution_param {
    num_output: 128
    bias_term: true
    pad: 0
    kernel_size: 1
    stride: 1
    weight_filler {
      type: "xavier"
    }
    bias_filler {
      type: "constant"
    }
  }
}
layer {
  name: "B1_0_SConv_ReLU"
  type: "ReLU"
  bottom: "B1_0_SConvBlockV2_Conv1x1"
  top: "B1_0_SConvBlockV2_Conv1x1"
}
layer {
  name: "B1_0_SConv_Dropout"
  type: "Dropout"
  bottom: "B1_0_SConvBlockV2_Conv1x1"
  top: "B1_0_SConvBlockV2_Dropout"
  dropout_param {
    dropout_ratio: 0.25
  }
}
layer {
  name: "B1_1_SConv_SparseConv"
  type: "SparseConvolution"
  bottom: "B1_0_SConvBlockV2_Dropout"
  top: "B1_1_SConvBlockV2_T1"
  sparse_convolution_param {
    weight_filler {
      type: "xavier"
    }
    channel_expand_multiplier: 4
  }
}
layer {
  name: "B1_1_SConv_BN"
  type: "BatchNorm"
  bottom: "B1_1_SConvBlockV2_T1"
  top: "B1_1_SConvBlockV2_T1"
  param {
    lr_mult: 0
    decay_mult: 0
  }
  param {
    lr_mult: 0
    decay_mult: 0
  }
  param {
    lr_mult: 0
    decay_mult: 0
  }
  batch_norm_param {
    moving_average_fraction: 0.999
    eps: 0.001
  }
}
layer {
  name: "B1_1_SConv_Scale"
  type: "Scale"
  bottom: "B1_1_SConvBlockV2_T1"
  top: "B1_1_SConvBlockV2_Scale"
  scale_param {
    bias_term: true
  }
}
layer {
  name: "B1_1_SConv_Conv1x1"
  type: "Convolution"
  bottom: "B1_1_SConvBlockV2_Scale"
  top: "B1_1_SConvBlockV2_Conv1x1"
  convolution_param {
    num_output: 128
    bias_term: true
    pad: 0
    kernel_size: 1
    stride: 1
    weight_filler {
      type: "xavier"
    }
    bias_filler {
      type: "constant"
    }
  }
}
layer {
  name: "B1_1_SConv_ReLU"
  type: "ReLU"
  bottom: "B1_1_SConvBlockV2_Conv1x1"
  top: "B1_1_SConvBlockV2_Conv1x1"
}
layer {
  name: "B1_1_SConv_Dropout"
  type: "Dropout"
  bottom: "B1_1_SConvBlockV2_Conv1x1"
  top: "B1_1_SConvBlockV2_Dropout"
  dropout_param {
    dropout_ratio: 0.25
  }
}
layer {
  name: "B1_Pooling"
  type: "Pooling"
  bottom: "B1_1_SConvBlockV2_Dropout"
  top: "Pooling2"
  pooling_param {
    pool: MAX
    kernel_size: 2
    stride: 2
    pad: 0
  }
}
layer {
  name: "B2_0_SConv_SparseConv"
  type: "SparseConvolution"
  bottom: "Pooling2"
  top: "B2_0_SConvBlockV2_T1"
  sparse_convolution_param {
    weight_filler {
      type: "xavier"
    }
    channel_expand_multiplier: 4
  }
}
layer {
  name: "B2_0_SConv_BN"
  type: "BatchNorm"
  bottom: "B2_0_SConvBlockV2_T1"
  top: "B2_0_SConvBlockV2_T1"
  param {
    lr_mult: 0
    decay_mult: 0
  }
  param {
    lr_mult: 0
    decay_mult: 0
  }
  param {
    lr_mult: 0
    decay_mult: 0
  }
  batch_norm_param {
    moving_average_fraction: 0.999
    eps: 0.001
  }
}
layer {
  name: "B2_0_SConv_Scale"
  type: "Scale"
  bottom: "B2_0_SConvBlockV2_T1"
  top: "B2_0_SConvBlockV2_Scale"
  scale_param {
    bias_term: true
  }
}
layer {
  name: "B2_0_SConv_Conv1x1"
  type: "Convolution"
  bottom: "B2_0_SConvBlockV2_Scale"
  top: "B2_0_SConvBlockV2_Conv1x1"
  convolution_param {
    num_output: 192
    bias_term: true
    pad: 0
    kernel_size: 1
    stride: 1
    weight_filler {
      type: "xavier"
    }
    bias_filler {
      type: "constant"
    }
  }
}
layer {
  name: "B2_0_SConv_ReLU"
  type: "ReLU"
  bottom: "B2_0_SConvBlockV2_Conv1x1"
  top: "B2_0_SConvBlockV2_Conv1x1"
}
layer {
  name: "B2_0_SConv_Dropout"
  type: "Dropout"
  bottom: "B2_0_SConvBlockV2_Conv1x1"
  top: "B2_0_SConvBlockV2_Dropout"
  dropout_param {
    dropout_ratio: 0.25
  }
}
layer {
  name: "B2_1_SConv_SparseConv"
  type: "SparseConvolution"
  bottom: "B2_0_SConvBlockV2_Dropout"
  top: "B2_1_SConvBlockV2_T1"
  sparse_convolution_param {
    weight_filler {
      type: "xavier"
    }
    channel_expand_multiplier: 4
  }
}
layer {
  name: "B2_1_SConv_BN"
  type: "BatchNorm"
  bottom: "B2_1_SConvBlockV2_T1"
  top: "B2_1_SConvBlockV2_T1"
  param {
    lr_mult: 0
    decay_mult: 0
  }
  param {
    lr_mult: 0
    decay_mult: 0
  }
  param {
    lr_mult: 0
    decay_mult: 0
  }
  batch_norm_param {
    moving_average_fraction: 0.999
    eps: 0.001
  }
}
layer {
  name: "B2_1_SConv_Scale"
  type: "Scale"
  bottom: "B2_1_SConvBlockV2_T1"
  top: "B2_1_SConvBlockV2_Scale"
  scale_param {
    bias_term: true
  }
}
layer {
  name: "B2_1_SConv_Conv1x1"
  type: "Convolution"
  bottom: "B2_1_SConvBlockV2_Scale"
  top: "B2_1_SConvBlockV2_Conv1x1"
  convolution_param {
    num_output: 192
    bias_term: true
    pad: 0
    kernel_size: 1
    stride: 1
    weight_filler {
      type: "xavier"
    }
    bias_filler {
      type: "constant"
    }
  }
}
layer {
  name: "B2_1_SConv_ReLU"
  type: "ReLU"
  bottom: "B2_1_SConvBlockV2_Conv1x1"
  top: "B2_1_SConvBlockV2_Conv1x1"
}
layer {
  name: "B2_1_SConv_Dropout"
  type: "Dropout"
  bottom: "B2_1_SConvBlockV2_Conv1x1"
  top: "B2_1_SConvBlockV2_Dropout"
  dropout_param {
    dropout_ratio: 0.25
  }
}
layer {
  name: "B2_2_SConv_SparseConv"
  type: "SparseConvolution"
  bottom: "B2_1_SConvBlockV2_Dropout"
  top: "B2_2_SConvBlockV2_T1"
  sparse_convolution_param {
    weight_filler {
      type: "xavier"
    }
    channel_expand_multiplier: 4
  }
}
layer {
  name: "B2_2_SConv_BN"
  type: "BatchNorm"
  bottom: "B2_2_SConvBlockV2_T1"
  top: "B2_2_SConvBlockV2_T1"
  param {
    lr_mult: 0
    decay_mult: 0
  }
  param {
    lr_mult: 0
    decay_mult: 0
  }
  param {
    lr_mult: 0
    decay_mult: 0
  }
  batch_norm_param {
    moving_average_fraction: 0.999
    eps: 0.001
  }
}
layer {
  name: "B2_2_SConv_Scale"
  type: "Scale"
  bottom: "B2_2_SConvBlockV2_T1"
  top: "B2_2_SConvBlockV2_Scale"
  scale_param {
    bias_term: true
  }
}
layer {
  name: "B2_2_SConv_Conv1x1"
  type: "Convolution"
  bottom: "B2_2_SConvBlockV2_Scale"
  top: "B2_2_SConvBlockV2_Conv1x1"
  convolution_param {
    num_output: 192
    bias_term: true
    pad: 0
    kernel_size: 1
    stride: 1
    weight_filler {
      type: "xavier"
    }
    bias_filler {
      type: "constant"
    }
  }
}
layer {
  name: "B2_2_SConv_ReLU"
  type: "ReLU"
  bottom: "B2_2_SConvBlockV2_Conv1x1"
  top: "B2_2_SConvBlockV2_Conv1x1"
}
layer {
  name: "B2_2_SConv_Dropout"
  type: "Dropout"
  bottom: "B2_2_SConvBlockV2_Conv1x1"
  top: "B2_2_SConvBlockV2_Dropout"
  dropout_param {
    dropout_ratio: 0.25
  }
}
layer {
  name: "B2_Pooling"
  type: "Pooling"
  bottom: "B2_2_SConvBlockV2_Dropout"
  top: "Pooling3"
  pooling_param {
    pool: MAX
    kernel_size: 2
    stride: 2
    pad: 0
  }
}
layer {
  name: "B3_0_SConv_SparseConv"
  type: "SparseConvolution"
  bottom: "Pooling3"
  top: "B3_0_SConvBlockV2_T1"
  sparse_convolution_param {
    weight_filler {
      type: "xavier"
    }
    channel_expand_multiplier: 4
  }
}
layer {
  name: "B3_0_SConv_BN"
  type: "BatchNorm"
  bottom: "B3_0_SConvBlockV2_T1"
  top: "B3_0_SConvBlockV2_T1"
  param {
    lr_mult: 0
    decay_mult: 0
  }
  param {
    lr_mult: 0
    decay_mult: 0
  }
  param {
    lr_mult: 0
    decay_mult: 0
  }
  batch_norm_param {
    moving_average_fraction: 0.999
    eps: 0.001
  }
}
layer {
  name: "B3_0_SConv_Scale"
  type: "Scale"
  bottom: "B3_0_SConvBlockV2_T1"
  top: "B3_0_SConvBlockV2_Scale"
  scale_param {
    bias_term: true
  }
}
layer {
  name: "B3_0_SConv_Conv1x1"
  type: "Convolution"
  bottom: "B3_0_SConvBlockV2_Scale"
  top: "B3_0_SConvBlockV2_Conv1x1"
  convolution_param {
    num_output: 192
    bias_term: true
    pad: 0
    kernel_size: 1
    stride: 1
    weight_filler {
      type: "xavier"
    }
    bias_filler {
      type: "constant"
    }
  }
}
layer {
  name: "B3_0_SConv_ReLU"
  type: "ReLU"
  bottom: "B3_0_SConvBlockV2_Conv1x1"
  top: "B3_0_SConvBlockV2_Conv1x1"
}
layer {
  name: "B3_0_SConv_Dropout"
  type: "Dropout"
  bottom: "B3_0_SConvBlockV2_Conv1x1"
  top: "B3_0_SConvBlockV2_Dropout"
  dropout_param {
    dropout_ratio: 0.25
  }
}
layer {
  name: "B3_1_SConv_SparseConv"
  type: "SparseConvolution"
  bottom: "B3_0_SConvBlockV2_Dropout"
  top: "B3_1_SConvBlockV2_T1"
  sparse_convolution_param {
    weight_filler {
      type: "xavier"
    }
    channel_expand_multiplier: 4
  }
}
layer {
  name: "B3_1_SConv_BN"
  type: "BatchNorm"
  bottom: "B3_1_SConvBlockV2_T1"
  top: "B3_1_SConvBlockV2_T1"
  param {
    lr_mult: 0
    decay_mult: 0
  }
  param {
    lr_mult: 0
    decay_mult: 0
  }
  param {
    lr_mult: 0
    decay_mult: 0
  }
  batch_norm_param {
    moving_average_fraction: 0.999
    eps: 0.001
  }
}
layer {
  name: "B3_1_SConv_Scale"
  type: "Scale"
  bottom: "B3_1_SConvBlockV2_T1"
  top: "B3_1_SConvBlockV2_Scale"
  scale_param {
    bias_term: true
  }
}
layer {
  name: "B3_1_SConv_Conv1x1"
  type: "Convolution"
  bottom: "B3_1_SConvBlockV2_Scale"
  top: "B3_1_SConvBlockV2_Conv1x1"
  convolution_param {
    num_output: 192
    bias_term: true
    pad: 0
    kernel_size: 1
    stride: 1
    weight_filler {
      type: "xavier"
    }
    bias_filler {
      type: "constant"
    }
  }
}
layer {
  name: "B3_1_SConv_ReLU"
  type: "ReLU"
  bottom: "B3_1_SConvBlockV2_Conv1x1"
  top: "B3_1_SConvBlockV2_Conv1x1"
}
layer {
  name: "B3_1_SConv_Dropout"
  type: "Dropout"
  bottom: "B3_1_SConvBlockV2_Conv1x1"
  top: "B3_1_SConvBlockV2_Dropout"
  dropout_param {
    dropout_ratio: 0.25
  }
}
layer {
  name: "B3_2_SConv_SparseConv"
  type: "SparseConvolution"
  bottom: "B3_1_SConvBlockV2_Dropout"
  top: "B3_2_SConvBlockV2_T1"
  sparse_convolution_param {
    weight_filler {
      type: "xavier"
    }
    channel_expand_multiplier: 4
  }
}
layer {
  name: "B3_2_SConv_BN"
  type: "BatchNorm"
  bottom: "B3_2_SConvBlockV2_T1"
  top: "B3_2_SConvBlockV2_T1"
  param {
    lr_mult: 0
    decay_mult: 0
  }
  param {
    lr_mult: 0
    decay_mult: 0
  }
  param {
    lr_mult: 0
    decay_mult: 0
  }
  batch_norm_param {
    moving_average_fraction: 0.999
    eps: 0.001
  }
}
layer {
  name: "B3_2_SConv_Scale"
  type: "Scale"
  bottom: "B3_2_SConvBlockV2_T1"
  top: "B3_2_SConvBlockV2_Scale"
  scale_param {
    bias_term: true
  }
}
layer {
  name: "B3_2_SConv_Conv1x1"
  type: "Convolution"
  bottom: "B3_2_SConvBlockV2_Scale"
  top: "B3_2_SConvBlockV2_Conv1x1"
  convolution_param {
    num_output: 192
    bias_term: true
    pad: 0
    kernel_size: 1
    stride: 1
    weight_filler {
      type: "xavier"
    }
    bias_filler {
      type: "constant"
    }
  }
}
layer {
  name: "B3_2_SConv_ReLU"
  type: "ReLU"
  bottom: "B3_2_SConvBlockV2_Conv1x1"
  top: "B3_2_SConvBlockV2_Conv1x1"
}
layer {
  name: "B3_2_SConv_Dropout"
  type: "Dropout"
  bottom: "B3_2_SConvBlockV2_Conv1x1"
  top: "B3_2_SConvBlockV2_Dropout"
  dropout_param {
    dropout_ratio: 0.25
  }
}
layer {
  name: "B3_Pooling"
  type: "Pooling"
  bottom: "B3_2_SConvBlockV2_Dropout"
  top: "Pooling4"
  pooling_param {
    pool: AVE
    global_pooling: true
  }
}
layer {
  name: "fc1"
  type: "InnerProduct"
  bottom: "Pooling4"
  top: "fc1"
  inner_product_param {
    num_output: 384
    bias_term: true
    weight_filler {
      type: "xavier"
    }
    bias_filler {
      type: "constant"
    }
  }
}
layer {
  name: "classifier"
  type: "InnerProduct"
  bottom: "fc1"
  top: "classifier"
  inner_product_param {
    num_output: 10
    bias_term: true
    weight_filler {
      type: "xavier"
    }
    bias_filler {
      type: "constant"
    }
  }
}
layer {
  name: "softmax_loss"
  type: "SoftmaxWithLoss"
  bottom: "classifier"
  bottom: "label"
  top: "softmax_loss"
}
I0918 15:11:38.052913 28789 layer_factory.hpp:77] Creating layer InputData
I0918 15:11:38.052948 28789 net.cpp:84] Creating Layer InputData
I0918 15:11:38.052955 28789 net.cpp:380] InputData -> data
I0918 15:11:38.052996 28789 net.cpp:380] InputData -> label
I0918 15:11:38.053016 28789 image_data_layer.cpp:38] Opening file /home/jcwang/work/2.GeneratedSparseConvolution/0.CaffeSparseConv/4.TrainRuns/train.txt
I0918 15:11:38.060943 28789 image_data_layer.cpp:53] Shuffling data
I0918 15:11:38.061754 28789 image_data_layer.cpp:63] A total of 50005 images.
I0918 15:11:38.062827 28789 image_data_layer.cpp:90] output data size: 32,3,32,32
I0918 15:11:38.063258 28789 net.cpp:122] Setting up InputData
I0918 15:11:38.063267 28789 net.cpp:129] Top shape: 32 3 32 32 (98304)
I0918 15:11:38.063290 28789 net.cpp:129] Top shape: 32 (32)
I0918 15:11:38.063294 28789 net.cpp:137] Memory required for data: 393344
I0918 15:11:38.063299 28789 layer_factory.hpp:77] Creating layer B0_0_ConvBNScaleReLU_Conv
I0918 15:11:38.063320 28789 net.cpp:84] Creating Layer B0_0_ConvBNScaleReLU_Conv
I0918 15:11:38.063328 28789 net.cpp:406] B0_0_ConvBNScaleReLU_Conv <- data
I0918 15:11:38.063339 28789 net.cpp:380] B0_0_ConvBNScaleReLU_Conv -> B0_0_ConvBNScaleReLU_Conv
I0918 15:11:38.063500 28789 net.cpp:122] Setting up B0_0_ConvBNScaleReLU_Conv
I0918 15:11:38.063504 28789 net.cpp:129] Top shape: 32 64 32 32 (2097152)
I0918 15:11:38.063508 28789 net.cpp:137] Memory required for data: 8781952
I0918 15:11:38.063529 28789 layer_factory.hpp:77] Creating layer B0_0_ConvBNScaleReLU_BN
I0918 15:11:38.063540 28789 net.cpp:84] Creating Layer B0_0_ConvBNScaleReLU_BN
I0918 15:11:38.063544 28789 net.cpp:406] B0_0_ConvBNScaleReLU_BN <- B0_0_ConvBNScaleReLU_Conv
I0918 15:11:38.063547 28789 net.cpp:367] B0_0_ConvBNScaleReLU_BN -> B0_0_ConvBNScaleReLU_Conv (in-place)
I0918 15:11:38.063621 28789 net.cpp:122] Setting up B0_0_ConvBNScaleReLU_BN
I0918 15:11:38.063624 28789 net.cpp:129] Top shape: 32 64 32 32 (2097152)
I0918 15:11:38.063627 28789 net.cpp:137] Memory required for data: 17170560
I0918 15:11:38.063634 28789 layer_factory.hpp:77] Creating layer B0_0_ConvBNScaleReLU_Scale
I0918 15:11:38.063642 28789 net.cpp:84] Creating Layer B0_0_ConvBNScaleReLU_Scale
I0918 15:11:38.063644 28789 net.cpp:406] B0_0_ConvBNScaleReLU_Scale <- B0_0_ConvBNScaleReLU_Conv
I0918 15:11:38.063648 28789 net.cpp:367] B0_0_ConvBNScaleReLU_Scale -> B0_0_ConvBNScaleReLU_Conv (in-place)
I0918 15:11:38.063671 28789 layer_factory.hpp:77] Creating layer B0_0_ConvBNScaleReLU_Scale
I0918 15:11:38.063741 28789 net.cpp:122] Setting up B0_0_ConvBNScaleReLU_Scale
I0918 15:11:38.063745 28789 net.cpp:129] Top shape: 32 64 32 32 (2097152)
I0918 15:11:38.063747 28789 net.cpp:137] Memory required for data: 25559168
I0918 15:11:38.063752 28789 layer_factory.hpp:77] Creating layer B0_0_ConvBNScaleReLU_ReLU
I0918 15:11:38.063756 28789 net.cpp:84] Creating Layer B0_0_ConvBNScaleReLU_ReLU
I0918 15:11:38.063760 28789 net.cpp:406] B0_0_ConvBNScaleReLU_ReLU <- B0_0_ConvBNScaleReLU_Conv
I0918 15:11:38.063764 28789 net.cpp:367] B0_0_ConvBNScaleReLU_ReLU -> B0_0_ConvBNScaleReLU_Conv (in-place)
I0918 15:11:38.063769 28789 net.cpp:122] Setting up B0_0_ConvBNScaleReLU_ReLU
I0918 15:11:38.063771 28789 net.cpp:129] Top shape: 32 64 32 32 (2097152)
I0918 15:11:38.063774 28789 net.cpp:137] Memory required for data: 33947776
I0918 15:11:38.063777 28789 layer_factory.hpp:77] Creating layer B0_0_ConvBNScaleReLU_Dropout
I0918 15:11:38.063782 28789 net.cpp:84] Creating Layer B0_0_ConvBNScaleReLU_Dropout
I0918 15:11:38.063786 28789 net.cpp:406] B0_0_ConvBNScaleReLU_Dropout <- B0_0_ConvBNScaleReLU_Conv
I0918 15:11:38.063789 28789 net.cpp:380] B0_0_ConvBNScaleReLU_Dropout -> ConvBNScaleReLU
I0918 15:11:38.063812 28789 net.cpp:122] Setting up B0_0_ConvBNScaleReLU_Dropout
I0918 15:11:38.063815 28789 net.cpp:129] Top shape: 32 64 32 32 (2097152)
I0918 15:11:38.063818 28789 net.cpp:137] Memory required for data: 42336384
I0918 15:11:38.063827 28789 layer_factory.hpp:77] Creating layer B0_1_SConv_SparseConv
I0918 15:11:38.063839 28789 net.cpp:84] Creating Layer B0_1_SConv_SparseConv
I0918 15:11:38.063843 28789 net.cpp:406] B0_1_SConv_SparseConv <- ConvBNScaleReLU
I0918 15:11:38.063846 28789 net.cpp:380] B0_1_SConv_SparseConv -> B0_1_SConvBlockV2_T1
I0918 15:11:38.063944 28789 net.cpp:122] Setting up B0_1_SConv_SparseConv
I0918 15:11:38.063947 28789 net.cpp:129] Top shape: 32 256 32 32 (8388608)
I0918 15:11:38.063951 28789 net.cpp:137] Memory required for data: 75890816
I0918 15:11:38.063954 28789 layer_factory.hpp:77] Creating layer B0_1_SConv_BN
I0918 15:11:38.063971 28789 net.cpp:84] Creating Layer B0_1_SConv_BN
I0918 15:11:38.063973 28789 net.cpp:406] B0_1_SConv_BN <- B0_1_SConvBlockV2_T1
I0918 15:11:38.063977 28789 net.cpp:367] B0_1_SConv_BN -> B0_1_SConvBlockV2_T1 (in-place)
I0918 15:11:38.064035 28789 net.cpp:122] Setting up B0_1_SConv_BN
I0918 15:11:38.064038 28789 net.cpp:129] Top shape: 32 256 32 32 (8388608)
I0918 15:11:38.064041 28789 net.cpp:137] Memory required for data: 109445248
I0918 15:11:38.064046 28789 layer_factory.hpp:77] Creating layer B0_1_SConv_Scale
I0918 15:11:38.064051 28789 net.cpp:84] Creating Layer B0_1_SConv_Scale
I0918 15:11:38.064054 28789 net.cpp:406] B0_1_SConv_Scale <- B0_1_SConvBlockV2_T1
I0918 15:11:38.064056 28789 net.cpp:380] B0_1_SConv_Scale -> B0_1_SConvBlockV2_Scale
I0918 15:11:38.064078 28789 layer_factory.hpp:77] Creating layer B0_1_SConv_Scale
I0918 15:11:38.064131 28789 net.cpp:122] Setting up B0_1_SConv_Scale
I0918 15:11:38.064134 28789 net.cpp:129] Top shape: 32 256 32 32 (8388608)
I0918 15:11:38.064137 28789 net.cpp:137] Memory required for data: 142999680
I0918 15:11:38.064141 28789 layer_factory.hpp:77] Creating layer B0_1_SConv_Conv1x1
I0918 15:11:38.064150 28789 net.cpp:84] Creating Layer B0_1_SConv_Conv1x1
I0918 15:11:38.064153 28789 net.cpp:406] B0_1_SConv_Conv1x1 <- B0_1_SConvBlockV2_Scale
I0918 15:11:38.064157 28789 net.cpp:380] B0_1_SConv_Conv1x1 -> B0_1_SConvBlockV2_Conv1x1
I0918 15:11:38.064311 28789 net.cpp:122] Setting up B0_1_SConv_Conv1x1
I0918 15:11:38.064316 28789 net.cpp:129] Top shape: 32 64 32 32 (2097152)
I0918 15:11:38.064319 28789 net.cpp:137] Memory required for data: 151388288
I0918 15:11:38.064322 28789 layer_factory.hpp:77] Creating layer B0_1_SConv_ReLU
I0918 15:11:38.064327 28789 net.cpp:84] Creating Layer B0_1_SConv_ReLU
I0918 15:11:38.064328 28789 net.cpp:406] B0_1_SConv_ReLU <- B0_1_SConvBlockV2_Conv1x1
I0918 15:11:38.064332 28789 net.cpp:367] B0_1_SConv_ReLU -> B0_1_SConvBlockV2_Conv1x1 (in-place)
I0918 15:11:38.064335 28789 net.cpp:122] Setting up B0_1_SConv_ReLU
I0918 15:11:38.064337 28789 net.cpp:129] Top shape: 32 64 32 32 (2097152)
I0918 15:11:38.064340 28789 net.cpp:137] Memory required for data: 159776896
I0918 15:11:38.064342 28789 layer_factory.hpp:77] Creating layer B0_1_SConv_Dropout
I0918 15:11:38.064345 28789 net.cpp:84] Creating Layer B0_1_SConv_Dropout
I0918 15:11:38.064348 28789 net.cpp:406] B0_1_SConv_Dropout <- B0_1_SConvBlockV2_Conv1x1
I0918 15:11:38.064352 28789 net.cpp:380] B0_1_SConv_Dropout -> B0_1_SConvBlockV2_Dropout
I0918 15:11:38.064365 28789 net.cpp:122] Setting up B0_1_SConv_Dropout
I0918 15:11:38.064368 28789 net.cpp:129] Top shape: 32 64 32 32 (2097152)
I0918 15:11:38.064371 28789 net.cpp:137] Memory required for data: 168165504
I0918 15:11:38.064373 28789 layer_factory.hpp:77] Creating layer B0_Pooling
I0918 15:11:38.064378 28789 net.cpp:84] Creating Layer B0_Pooling
I0918 15:11:38.064380 28789 net.cpp:406] B0_Pooling <- B0_1_SConvBlockV2_Dropout
I0918 15:11:38.064383 28789 net.cpp:380] B0_Pooling -> Pooling1
I0918 15:11:38.064404 28789 net.cpp:122] Setting up B0_Pooling
I0918 15:11:38.064406 28789 net.cpp:129] Top shape: 32 64 16 16 (524288)
I0918 15:11:38.064409 28789 net.cpp:137] Memory required for data: 170262656
I0918 15:11:38.064411 28789 layer_factory.hpp:77] Creating layer B1_0_SConv_SparseConv
I0918 15:11:38.064416 28789 net.cpp:84] Creating Layer B1_0_SConv_SparseConv
I0918 15:11:38.064419 28789 net.cpp:406] B1_0_SConv_SparseConv <- Pooling1
I0918 15:11:38.064429 28789 net.cpp:380] B1_0_SConv_SparseConv -> B1_0_SConvBlockV2_T1
I0918 15:11:38.064486 28789 net.cpp:122] Setting up B1_0_SConv_SparseConv
I0918 15:11:38.064489 28789 net.cpp:129] Top shape: 32 256 16 16 (2097152)
I0918 15:11:38.064492 28789 net.cpp:137] Memory required for data: 178651264
I0918 15:11:38.064496 28789 layer_factory.hpp:77] Creating layer B1_0_SConv_BN
I0918 15:11:38.064499 28789 net.cpp:84] Creating Layer B1_0_SConv_BN
I0918 15:11:38.064502 28789 net.cpp:406] B1_0_SConv_BN <- B1_0_SConvBlockV2_T1
I0918 15:11:38.064505 28789 net.cpp:367] B1_0_SConv_BN -> B1_0_SConvBlockV2_T1 (in-place)
I0918 15:11:38.064563 28789 net.cpp:122] Setting up B1_0_SConv_BN
I0918 15:11:38.064565 28789 net.cpp:129] Top shape: 32 256 16 16 (2097152)
I0918 15:11:38.064568 28789 net.cpp:137] Memory required for data: 187039872
I0918 15:11:38.064574 28789 layer_factory.hpp:77] Creating layer B1_0_SConv_Scale
I0918 15:11:38.064579 28789 net.cpp:84] Creating Layer B1_0_SConv_Scale
I0918 15:11:38.064580 28789 net.cpp:406] B1_0_SConv_Scale <- B1_0_SConvBlockV2_T1
I0918 15:11:38.064584 28789 net.cpp:380] B1_0_SConv_Scale -> B1_0_SConvBlockV2_Scale
I0918 15:11:38.064600 28789 layer_factory.hpp:77] Creating layer B1_0_SConv_Scale
I0918 15:11:38.064635 28789 net.cpp:122] Setting up B1_0_SConv_Scale
I0918 15:11:38.064638 28789 net.cpp:129] Top shape: 32 256 16 16 (2097152)
I0918 15:11:38.064641 28789 net.cpp:137] Memory required for data: 195428480
I0918 15:11:38.064644 28789 layer_factory.hpp:77] Creating layer B1_0_SConv_Conv1x1
I0918 15:11:38.064652 28789 net.cpp:84] Creating Layer B1_0_SConv_Conv1x1
I0918 15:11:38.064654 28789 net.cpp:406] B1_0_SConv_Conv1x1 <- B1_0_SConvBlockV2_Scale
I0918 15:11:38.064658 28789 net.cpp:380] B1_0_SConv_Conv1x1 -> B1_0_SConvBlockV2_Conv1x1
I0918 15:11:38.064870 28789 net.cpp:122] Setting up B1_0_SConv_Conv1x1
I0918 15:11:38.064874 28789 net.cpp:129] Top shape: 32 128 16 16 (1048576)
I0918 15:11:38.064877 28789 net.cpp:137] Memory required for data: 199622784
I0918 15:11:38.064880 28789 layer_factory.hpp:77] Creating layer B1_0_SConv_ReLU
I0918 15:11:38.064885 28789 net.cpp:84] Creating Layer B1_0_SConv_ReLU
I0918 15:11:38.064888 28789 net.cpp:406] B1_0_SConv_ReLU <- B1_0_SConvBlockV2_Conv1x1
I0918 15:11:38.064891 28789 net.cpp:367] B1_0_SConv_ReLU -> B1_0_SConvBlockV2_Conv1x1 (in-place)
I0918 15:11:38.064894 28789 net.cpp:122] Setting up B1_0_SConv_ReLU
I0918 15:11:38.064898 28789 net.cpp:129] Top shape: 32 128 16 16 (1048576)
I0918 15:11:38.064899 28789 net.cpp:137] Memory required for data: 203817088
I0918 15:11:38.064903 28789 layer_factory.hpp:77] Creating layer B1_0_SConv_Dropout
I0918 15:11:38.064905 28789 net.cpp:84] Creating Layer B1_0_SConv_Dropout
I0918 15:11:38.064908 28789 net.cpp:406] B1_0_SConv_Dropout <- B1_0_SConvBlockV2_Conv1x1
I0918 15:11:38.064913 28789 net.cpp:380] B1_0_SConv_Dropout -> B1_0_SConvBlockV2_Dropout
I0918 15:11:38.064924 28789 net.cpp:122] Setting up B1_0_SConv_Dropout
I0918 15:11:38.064926 28789 net.cpp:129] Top shape: 32 128 16 16 (1048576)
I0918 15:11:38.064929 28789 net.cpp:137] Memory required for data: 208011392
I0918 15:11:38.064931 28789 layer_factory.hpp:77] Creating layer B1_1_SConv_SparseConv
I0918 15:11:38.064936 28789 net.cpp:84] Creating Layer B1_1_SConv_SparseConv
I0918 15:11:38.064939 28789 net.cpp:406] B1_1_SConv_SparseConv <- B1_0_SConvBlockV2_Dropout
I0918 15:11:38.064942 28789 net.cpp:380] B1_1_SConv_SparseConv -> B1_1_SConvBlockV2_T1
I0918 15:11:38.065012 28789 net.cpp:122] Setting up B1_1_SConv_SparseConv
I0918 15:11:38.065016 28789 net.cpp:129] Top shape: 32 512 16 16 (4194304)
I0918 15:11:38.065018 28789 net.cpp:137] Memory required for data: 224788608
I0918 15:11:38.065021 28789 layer_factory.hpp:77] Creating layer B1_1_SConv_BN
I0918 15:11:38.065026 28789 net.cpp:84] Creating Layer B1_1_SConv_BN
I0918 15:11:38.065029 28789 net.cpp:406] B1_1_SConv_BN <- B1_1_SConvBlockV2_T1
I0918 15:11:38.065035 28789 net.cpp:367] B1_1_SConv_BN -> B1_1_SConvBlockV2_T1 (in-place)
I0918 15:11:38.065150 28789 net.cpp:122] Setting up B1_1_SConv_BN
I0918 15:11:38.065157 28789 net.cpp:129] Top shape: 32 512 16 16 (4194304)
I0918 15:11:38.065160 28789 net.cpp:137] Memory required for data: 241565824
I0918 15:11:38.065165 28789 layer_factory.hpp:77] Creating layer B1_1_SConv_Scale
I0918 15:11:38.065169 28789 net.cpp:84] Creating Layer B1_1_SConv_Scale
I0918 15:11:38.065187 28789 net.cpp:406] B1_1_SConv_Scale <- B1_1_SConvBlockV2_T1
I0918 15:11:38.065191 28789 net.cpp:380] B1_1_SConv_Scale -> B1_1_SConvBlockV2_Scale
I0918 15:11:38.065214 28789 layer_factory.hpp:77] Creating layer B1_1_SConv_Scale
I0918 15:11:38.065574 28789 net.cpp:122] Setting up B1_1_SConv_Scale
I0918 15:11:38.065578 28789 net.cpp:129] Top shape: 32 512 16 16 (4194304)
I0918 15:11:38.065582 28789 net.cpp:137] Memory required for data: 258343040
I0918 15:11:38.065584 28789 layer_factory.hpp:77] Creating layer B1_1_SConv_Conv1x1
I0918 15:11:38.065591 28789 net.cpp:84] Creating Layer B1_1_SConv_Conv1x1
I0918 15:11:38.065594 28789 net.cpp:406] B1_1_SConv_Conv1x1 <- B1_1_SConvBlockV2_Scale
I0918 15:11:38.065599 28789 net.cpp:380] B1_1_SConv_Conv1x1 -> B1_1_SConvBlockV2_Conv1x1
I0918 15:11:38.066855 28789 net.cpp:122] Setting up B1_1_SConv_Conv1x1
I0918 15:11:38.066866 28789 net.cpp:129] Top shape: 32 128 16 16 (1048576)
I0918 15:11:38.066870 28789 net.cpp:137] Memory required for data: 262537344
I0918 15:11:38.066875 28789 layer_factory.hpp:77] Creating layer B1_1_SConv_ReLU
I0918 15:11:38.066881 28789 net.cpp:84] Creating Layer B1_1_SConv_ReLU
I0918 15:11:38.066885 28789 net.cpp:406] B1_1_SConv_ReLU <- B1_1_SConvBlockV2_Conv1x1
I0918 15:11:38.066890 28789 net.cpp:367] B1_1_SConv_ReLU -> B1_1_SConvBlockV2_Conv1x1 (in-place)
I0918 15:11:38.066896 28789 net.cpp:122] Setting up B1_1_SConv_ReLU
I0918 15:11:38.066898 28789 net.cpp:129] Top shape: 32 128 16 16 (1048576)
I0918 15:11:38.066902 28789 net.cpp:137] Memory required for data: 266731648
I0918 15:11:38.066905 28789 layer_factory.hpp:77] Creating layer B1_1_SConv_Dropout
I0918 15:11:38.066908 28789 net.cpp:84] Creating Layer B1_1_SConv_Dropout
I0918 15:11:38.066911 28789 net.cpp:406] B1_1_SConv_Dropout <- B1_1_SConvBlockV2_Conv1x1
I0918 15:11:38.066916 28789 net.cpp:380] B1_1_SConv_Dropout -> B1_1_SConvBlockV2_Dropout
I0918 15:11:38.066932 28789 net.cpp:122] Setting up B1_1_SConv_Dropout
I0918 15:11:38.066936 28789 net.cpp:129] Top shape: 32 128 16 16 (1048576)
I0918 15:11:38.066939 28789 net.cpp:137] Memory required for data: 270925952
I0918 15:11:38.066941 28789 layer_factory.hpp:77] Creating layer B1_Pooling
I0918 15:11:38.066946 28789 net.cpp:84] Creating Layer B1_Pooling
I0918 15:11:38.066948 28789 net.cpp:406] B1_Pooling <- B1_1_SConvBlockV2_Dropout
I0918 15:11:38.066952 28789 net.cpp:380] B1_Pooling -> Pooling2
I0918 15:11:38.066968 28789 net.cpp:122] Setting up B1_Pooling
I0918 15:11:38.066972 28789 net.cpp:129] Top shape: 32 128 8 8 (262144)
I0918 15:11:38.066974 28789 net.cpp:137] Memory required for data: 271974528
I0918 15:11:38.066977 28789 layer_factory.hpp:77] Creating layer B2_0_SConv_SparseConv
I0918 15:11:38.066982 28789 net.cpp:84] Creating Layer B2_0_SConv_SparseConv
I0918 15:11:38.066985 28789 net.cpp:406] B2_0_SConv_SparseConv <- Pooling2
I0918 15:11:38.066989 28789 net.cpp:380] B2_0_SConv_SparseConv -> B2_0_SConvBlockV2_T1
I0918 15:11:38.067119 28789 net.cpp:122] Setting up B2_0_SConv_SparseConv
I0918 15:11:38.067122 28789 net.cpp:129] Top shape: 32 512 8 8 (1048576)
I0918 15:11:38.067126 28789 net.cpp:137] Memory required for data: 276168832
I0918 15:11:38.067129 28789 layer_factory.hpp:77] Creating layer B2_0_SConv_BN
I0918 15:11:38.067138 28789 net.cpp:84] Creating Layer B2_0_SConv_BN
I0918 15:11:38.067142 28789 net.cpp:406] B2_0_SConv_BN <- B2_0_SConvBlockV2_T1
I0918 15:11:38.067145 28789 net.cpp:367] B2_0_SConv_BN -> B2_0_SConvBlockV2_T1 (in-place)
I0918 15:11:38.067211 28789 net.cpp:122] Setting up B2_0_SConv_BN
I0918 15:11:38.067214 28789 net.cpp:129] Top shape: 32 512 8 8 (1048576)
I0918 15:11:38.067217 28789 net.cpp:137] Memory required for data: 280363136
I0918 15:11:38.067227 28789 layer_factory.hpp:77] Creating layer B2_0_SConv_Scale
I0918 15:11:38.067241 28789 net.cpp:84] Creating Layer B2_0_SConv_Scale
I0918 15:11:38.067245 28789 net.cpp:406] B2_0_SConv_Scale <- B2_0_SConvBlockV2_T1
I0918 15:11:38.067247 28789 net.cpp:380] B2_0_SConv_Scale -> B2_0_SConvBlockV2_Scale
I0918 15:11:38.067274 28789 layer_factory.hpp:77] Creating layer B2_0_SConv_Scale
I0918 15:11:38.067409 28789 net.cpp:122] Setting up B2_0_SConv_Scale
I0918 15:11:38.067412 28789 net.cpp:129] Top shape: 32 512 8 8 (1048576)
I0918 15:11:38.067418 28789 net.cpp:137] Memory required for data: 284557440
I0918 15:11:38.067422 28789 layer_factory.hpp:77] Creating layer B2_0_SConv_Conv1x1
I0918 15:11:38.067430 28789 net.cpp:84] Creating Layer B2_0_SConv_Conv1x1
I0918 15:11:38.067433 28789 net.cpp:406] B2_0_SConv_Conv1x1 <- B2_0_SConvBlockV2_Scale
I0918 15:11:38.067438 28789 net.cpp:380] B2_0_SConv_Conv1x1 -> B2_0_SConvBlockV2_Conv1x1
I0918 15:11:38.067930 28789 net.cpp:122] Setting up B2_0_SConv_Conv1x1
I0918 15:11:38.067935 28789 net.cpp:129] Top shape: 32 192 8 8 (393216)
I0918 15:11:38.067939 28789 net.cpp:137] Memory required for data: 286130304
I0918 15:11:38.067953 28789 layer_factory.hpp:77] Creating layer B2_0_SConv_ReLU
I0918 15:11:38.067957 28789 net.cpp:84] Creating Layer B2_0_SConv_ReLU
I0918 15:11:38.067960 28789 net.cpp:406] B2_0_SConv_ReLU <- B2_0_SConvBlockV2_Conv1x1
I0918 15:11:38.067965 28789 net.cpp:367] B2_0_SConv_ReLU -> B2_0_SConvBlockV2_Conv1x1 (in-place)
I0918 15:11:38.067970 28789 net.cpp:122] Setting up B2_0_SConv_ReLU
I0918 15:11:38.067971 28789 net.cpp:129] Top shape: 32 192 8 8 (393216)
I0918 15:11:38.067975 28789 net.cpp:137] Memory required for data: 287703168
I0918 15:11:38.067976 28789 layer_factory.hpp:77] Creating layer B2_0_SConv_Dropout
I0918 15:11:38.067988 28789 net.cpp:84] Creating Layer B2_0_SConv_Dropout
I0918 15:11:38.067991 28789 net.cpp:406] B2_0_SConv_Dropout <- B2_0_SConvBlockV2_Conv1x1
I0918 15:11:38.067993 28789 net.cpp:380] B2_0_SConv_Dropout -> B2_0_SConvBlockV2_Dropout
I0918 15:11:38.068008 28789 net.cpp:122] Setting up B2_0_SConv_Dropout
I0918 15:11:38.068011 28789 net.cpp:129] Top shape: 32 192 8 8 (393216)
I0918 15:11:38.068022 28789 net.cpp:137] Memory required for data: 289276032
I0918 15:11:38.068023 28789 layer_factory.hpp:77] Creating layer B2_1_SConv_SparseConv
I0918 15:11:38.068030 28789 net.cpp:84] Creating Layer B2_1_SConv_SparseConv
I0918 15:11:38.068033 28789 net.cpp:406] B2_1_SConv_SparseConv <- B2_0_SConvBlockV2_Dropout
I0918 15:11:38.068038 28789 net.cpp:380] B2_1_SConv_SparseConv -> B2_1_SConvBlockV2_T1
I0918 15:11:38.068126 28789 net.cpp:122] Setting up B2_1_SConv_SparseConv
I0918 15:11:38.068130 28789 net.cpp:129] Top shape: 32 768 8 8 (1572864)
I0918 15:11:38.068132 28789 net.cpp:137] Memory required for data: 295567488
I0918 15:11:38.068136 28789 layer_factory.hpp:77] Creating layer B2_1_SConv_BN
I0918 15:11:38.068141 28789 net.cpp:84] Creating Layer B2_1_SConv_BN
I0918 15:11:38.068145 28789 net.cpp:406] B2_1_SConv_BN <- B2_1_SConvBlockV2_T1
I0918 15:11:38.068148 28789 net.cpp:367] B2_1_SConv_BN -> B2_1_SConvBlockV2_T1 (in-place)
I0918 15:11:38.068208 28789 net.cpp:122] Setting up B2_1_SConv_BN
I0918 15:11:38.068217 28789 net.cpp:129] Top shape: 32 768 8 8 (1572864)
I0918 15:11:38.068220 28789 net.cpp:137] Memory required for data: 301858944
I0918 15:11:38.068224 28789 layer_factory.hpp:77] Creating layer B2_1_SConv_Scale
I0918 15:11:38.068228 28789 net.cpp:84] Creating Layer B2_1_SConv_Scale
I0918 15:11:38.068231 28789 net.cpp:406] B2_1_SConv_Scale <- B2_1_SConvBlockV2_T1
I0918 15:11:38.068234 28789 net.cpp:380] B2_1_SConv_Scale -> B2_1_SConvBlockV2_Scale
I0918 15:11:38.068249 28789 layer_factory.hpp:77] Creating layer B2_1_SConv_Scale
I0918 15:11:38.068290 28789 net.cpp:122] Setting up B2_1_SConv_Scale
I0918 15:11:38.068293 28789 net.cpp:129] Top shape: 32 768 8 8 (1572864)
I0918 15:11:38.068296 28789 net.cpp:137] Memory required for data: 308150400
I0918 15:11:38.068300 28789 layer_factory.hpp:77] Creating layer B2_1_SConv_Conv1x1
I0918 15:11:38.068308 28789 net.cpp:84] Creating Layer B2_1_SConv_Conv1x1
I0918 15:11:38.068315 28789 net.cpp:406] B2_1_SConv_Conv1x1 <- B2_1_SConvBlockV2_Scale
I0918 15:11:38.068320 28789 net.cpp:380] B2_1_SConv_Conv1x1 -> B2_1_SConvBlockV2_Conv1x1
I0918 15:11:38.068958 28789 net.cpp:122] Setting up B2_1_SConv_Conv1x1
I0918 15:11:38.068964 28789 net.cpp:129] Top shape: 32 192 8 8 (393216)
I0918 15:11:38.068967 28789 net.cpp:137] Memory required for data: 309723264
I0918 15:11:38.068971 28789 layer_factory.hpp:77] Creating layer B2_1_SConv_ReLU
I0918 15:11:38.068976 28789 net.cpp:84] Creating Layer B2_1_SConv_ReLU
I0918 15:11:38.068979 28789 net.cpp:406] B2_1_SConv_ReLU <- B2_1_SConvBlockV2_Conv1x1
I0918 15:11:38.068984 28789 net.cpp:367] B2_1_SConv_ReLU -> B2_1_SConvBlockV2_Conv1x1 (in-place)
I0918 15:11:38.068987 28789 net.cpp:122] Setting up B2_1_SConv_ReLU
I0918 15:11:38.068989 28789 net.cpp:129] Top shape: 32 192 8 8 (393216)
I0918 15:11:38.068992 28789 net.cpp:137] Memory required for data: 311296128
I0918 15:11:38.068995 28789 layer_factory.hpp:77] Creating layer B2_1_SConv_Dropout
I0918 15:11:38.069000 28789 net.cpp:84] Creating Layer B2_1_SConv_Dropout
I0918 15:11:38.069002 28789 net.cpp:406] B2_1_SConv_Dropout <- B2_1_SConvBlockV2_Conv1x1
I0918 15:11:38.069005 28789 net.cpp:380] B2_1_SConv_Dropout -> B2_1_SConvBlockV2_Dropout
I0918 15:11:38.069020 28789 net.cpp:122] Setting up B2_1_SConv_Dropout
I0918 15:11:38.069023 28789 net.cpp:129] Top shape: 32 192 8 8 (393216)
I0918 15:11:38.069026 28789 net.cpp:137] Memory required for data: 312868992
I0918 15:11:38.069029 28789 layer_factory.hpp:77] Creating layer B2_2_SConv_SparseConv
I0918 15:11:38.069034 28789 net.cpp:84] Creating Layer B2_2_SConv_SparseConv
I0918 15:11:38.069037 28789 net.cpp:406] B2_2_SConv_SparseConv <- B2_1_SConvBlockV2_Dropout
I0918 15:11:38.069041 28789 net.cpp:380] B2_2_SConv_SparseConv -> B2_2_SConvBlockV2_T1
I0918 15:11:38.069130 28789 net.cpp:122] Setting up B2_2_SConv_SparseConv
I0918 15:11:38.069133 28789 net.cpp:129] Top shape: 32 768 8 8 (1572864)
I0918 15:11:38.069137 28789 net.cpp:137] Memory required for data: 319160448
I0918 15:11:38.069141 28789 layer_factory.hpp:77] Creating layer B2_2_SConv_BN
I0918 15:11:38.069146 28789 net.cpp:84] Creating Layer B2_2_SConv_BN
I0918 15:11:38.069149 28789 net.cpp:406] B2_2_SConv_BN <- B2_2_SConvBlockV2_T1
I0918 15:11:38.069152 28789 net.cpp:367] B2_2_SConv_BN -> B2_2_SConvBlockV2_T1 (in-place)
I0918 15:11:38.069218 28789 net.cpp:122] Setting up B2_2_SConv_BN
I0918 15:11:38.069221 28789 net.cpp:129] Top shape: 32 768 8 8 (1572864)
I0918 15:11:38.069224 28789 net.cpp:137] Memory required for data: 325451904
I0918 15:11:38.069229 28789 layer_factory.hpp:77] Creating layer B2_2_SConv_Scale
I0918 15:11:38.069233 28789 net.cpp:84] Creating Layer B2_2_SConv_Scale
I0918 15:11:38.069236 28789 net.cpp:406] B2_2_SConv_Scale <- B2_2_SConvBlockV2_T1
I0918 15:11:38.069239 28789 net.cpp:380] B2_2_SConv_Scale -> B2_2_SConvBlockV2_Scale
I0918 15:11:38.069254 28789 layer_factory.hpp:77] Creating layer B2_2_SConv_Scale
I0918 15:11:38.069296 28789 net.cpp:122] Setting up B2_2_SConv_Scale
I0918 15:11:38.069299 28789 net.cpp:129] Top shape: 32 768 8 8 (1572864)
I0918 15:11:38.069303 28789 net.cpp:137] Memory required for data: 331743360
I0918 15:11:38.069306 28789 layer_factory.hpp:77] Creating layer B2_2_SConv_Conv1x1
I0918 15:11:38.069312 28789 net.cpp:84] Creating Layer B2_2_SConv_Conv1x1
I0918 15:11:38.069315 28789 net.cpp:406] B2_2_SConv_Conv1x1 <- B2_2_SConvBlockV2_Scale
I0918 15:11:38.069320 28789 net.cpp:380] B2_2_SConv_Conv1x1 -> B2_2_SConvBlockV2_Conv1x1
I0918 15:11:38.069954 28789 net.cpp:122] Setting up B2_2_SConv_Conv1x1
I0918 15:11:38.069959 28789 net.cpp:129] Top shape: 32 192 8 8 (393216)
I0918 15:11:38.069962 28789 net.cpp:137] Memory required for data: 333316224
I0918 15:11:38.069967 28789 layer_factory.hpp:77] Creating layer B2_2_SConv_ReLU
I0918 15:11:38.069972 28789 net.cpp:84] Creating Layer B2_2_SConv_ReLU
I0918 15:11:38.069974 28789 net.cpp:406] B2_2_SConv_ReLU <- B2_2_SConvBlockV2_Conv1x1
I0918 15:11:38.069977 28789 net.cpp:367] B2_2_SConv_ReLU -> B2_2_SConvBlockV2_Conv1x1 (in-place)
I0918 15:11:38.069991 28789 net.cpp:122] Setting up B2_2_SConv_ReLU
I0918 15:11:38.069993 28789 net.cpp:129] Top shape: 32 192 8 8 (393216)
I0918 15:11:38.069996 28789 net.cpp:137] Memory required for data: 334889088
I0918 15:11:38.069999 28789 layer_factory.hpp:77] Creating layer B2_2_SConv_Dropout
I0918 15:11:38.070003 28789 net.cpp:84] Creating Layer B2_2_SConv_Dropout
I0918 15:11:38.070006 28789 net.cpp:406] B2_2_SConv_Dropout <- B2_2_SConvBlockV2_Conv1x1
I0918 15:11:38.070019 28789 net.cpp:380] B2_2_SConv_Dropout -> B2_2_SConvBlockV2_Dropout
I0918 15:11:38.070034 28789 net.cpp:122] Setting up B2_2_SConv_Dropout
I0918 15:11:38.070037 28789 net.cpp:129] Top shape: 32 192 8 8 (393216)
I0918 15:11:38.070041 28789 net.cpp:137] Memory required for data: 336461952
I0918 15:11:38.070044 28789 layer_factory.hpp:77] Creating layer B2_Pooling
I0918 15:11:38.070047 28789 net.cpp:84] Creating Layer B2_Pooling
I0918 15:11:38.070050 28789 net.cpp:406] B2_Pooling <- B2_2_SConvBlockV2_Dropout
I0918 15:11:38.070061 28789 net.cpp:380] B2_Pooling -> Pooling3
I0918 15:11:38.070075 28789 net.cpp:122] Setting up B2_Pooling
I0918 15:11:38.070077 28789 net.cpp:129] Top shape: 32 192 4 4 (98304)
I0918 15:11:38.070080 28789 net.cpp:137] Memory required for data: 336855168
I0918 15:11:38.070089 28789 layer_factory.hpp:77] Creating layer B3_0_SConv_SparseConv
I0918 15:11:38.070094 28789 net.cpp:84] Creating Layer B3_0_SConv_SparseConv
I0918 15:11:38.070097 28789 net.cpp:406] B3_0_SConv_SparseConv <- Pooling3
I0918 15:11:38.070101 28789 net.cpp:380] B3_0_SConv_SparseConv -> B3_0_SConvBlockV2_T1
I0918 15:11:38.070188 28789 net.cpp:122] Setting up B3_0_SConv_SparseConv
I0918 15:11:38.070191 28789 net.cpp:129] Top shape: 32 768 4 4 (393216)
I0918 15:11:38.070194 28789 net.cpp:137] Memory required for data: 338428032
I0918 15:11:38.070197 28789 layer_factory.hpp:77] Creating layer B3_0_SConv_BN
I0918 15:11:38.070204 28789 net.cpp:84] Creating Layer B3_0_SConv_BN
I0918 15:11:38.070207 28789 net.cpp:406] B3_0_SConv_BN <- B3_0_SConvBlockV2_T1
I0918 15:11:38.070210 28789 net.cpp:367] B3_0_SConv_BN -> B3_0_SConvBlockV2_T1 (in-place)
I0918 15:11:38.070276 28789 net.cpp:122] Setting up B3_0_SConv_BN
I0918 15:11:38.070279 28789 net.cpp:129] Top shape: 32 768 4 4 (393216)
I0918 15:11:38.070282 28789 net.cpp:137] Memory required for data: 340000896
I0918 15:11:38.070286 28789 layer_factory.hpp:77] Creating layer B3_0_SConv_Scale
I0918 15:11:38.070291 28789 net.cpp:84] Creating Layer B3_0_SConv_Scale
I0918 15:11:38.070293 28789 net.cpp:406] B3_0_SConv_Scale <- B3_0_SConvBlockV2_T1
I0918 15:11:38.070297 28789 net.cpp:380] B3_0_SConv_Scale -> B3_0_SConvBlockV2_Scale
I0918 15:11:38.070314 28789 layer_factory.hpp:77] Creating layer B3_0_SConv_Scale
I0918 15:11:38.070361 28789 net.cpp:122] Setting up B3_0_SConv_Scale
I0918 15:11:38.070365 28789 net.cpp:129] Top shape: 32 768 4 4 (393216)
I0918 15:11:38.070367 28789 net.cpp:137] Memory required for data: 341573760
I0918 15:11:38.070371 28789 layer_factory.hpp:77] Creating layer B3_0_SConv_Conv1x1
I0918 15:11:38.070379 28789 net.cpp:84] Creating Layer B3_0_SConv_Conv1x1
I0918 15:11:38.070381 28789 net.cpp:406] B3_0_SConv_Conv1x1 <- B3_0_SConvBlockV2_Scale
I0918 15:11:38.070385 28789 net.cpp:380] B3_0_SConv_Conv1x1 -> B3_0_SConvBlockV2_Conv1x1
I0918 15:11:38.071992 28789 net.cpp:122] Setting up B3_0_SConv_Conv1x1
I0918 15:11:38.072002 28789 net.cpp:129] Top shape: 32 192 4 4 (98304)
I0918 15:11:38.072006 28789 net.cpp:137] Memory required for data: 341966976
I0918 15:11:38.072011 28789 layer_factory.hpp:77] Creating layer B3_0_SConv_ReLU
I0918 15:11:38.072018 28789 net.cpp:84] Creating Layer B3_0_SConv_ReLU
I0918 15:11:38.072021 28789 net.cpp:406] B3_0_SConv_ReLU <- B3_0_SConvBlockV2_Conv1x1
I0918 15:11:38.072026 28789 net.cpp:367] B3_0_SConv_ReLU -> B3_0_SConvBlockV2_Conv1x1 (in-place)
I0918 15:11:38.072031 28789 net.cpp:122] Setting up B3_0_SConv_ReLU
I0918 15:11:38.072033 28789 net.cpp:129] Top shape: 32 192 4 4 (98304)
I0918 15:11:38.072036 28789 net.cpp:137] Memory required for data: 342360192
I0918 15:11:38.072047 28789 layer_factory.hpp:77] Creating layer B3_0_SConv_Dropout
I0918 15:11:38.072050 28789 net.cpp:84] Creating Layer B3_0_SConv_Dropout
I0918 15:11:38.072053 28789 net.cpp:406] B3_0_SConv_Dropout <- B3_0_SConvBlockV2_Conv1x1
I0918 15:11:38.072058 28789 net.cpp:380] B3_0_SConv_Dropout -> B3_0_SConvBlockV2_Dropout
I0918 15:11:38.072104 28789 net.cpp:122] Setting up B3_0_SConv_Dropout
I0918 15:11:38.072108 28789 net.cpp:129] Top shape: 32 192 4 4 (98304)
I0918 15:11:38.072110 28789 net.cpp:137] Memory required for data: 342753408
I0918 15:11:38.072113 28789 layer_factory.hpp:77] Creating layer B3_1_SConv_SparseConv
I0918 15:11:38.072118 28789 net.cpp:84] Creating Layer B3_1_SConv_SparseConv
I0918 15:11:38.072126 28789 net.cpp:406] B3_1_SConv_SparseConv <- B3_0_SConvBlockV2_Dropout
I0918 15:11:38.072129 28789 net.cpp:380] B3_1_SConv_SparseConv -> B3_1_SConvBlockV2_T1
I0918 15:11:38.072223 28789 net.cpp:122] Setting up B3_1_SConv_SparseConv
I0918 15:11:38.072227 28789 net.cpp:129] Top shape: 32 768 4 4 (393216)
I0918 15:11:38.072230 28789 net.cpp:137] Memory required for data: 344326272
I0918 15:11:38.072233 28789 layer_factory.hpp:77] Creating layer B3_1_SConv_BN
I0918 15:11:38.072239 28789 net.cpp:84] Creating Layer B3_1_SConv_BN
I0918 15:11:38.072242 28789 net.cpp:406] B3_1_SConv_BN <- B3_1_SConvBlockV2_T1
I0918 15:11:38.072245 28789 net.cpp:367] B3_1_SConv_BN -> B3_1_SConvBlockV2_T1 (in-place)
I0918 15:11:38.072306 28789 net.cpp:122] Setting up B3_1_SConv_BN
I0918 15:11:38.072309 28789 net.cpp:129] Top shape: 32 768 4 4 (393216)
I0918 15:11:38.072312 28789 net.cpp:137] Memory required for data: 345899136
I0918 15:11:38.072322 28789 layer_factory.hpp:77] Creating layer B3_1_SConv_Scale
I0918 15:11:38.072330 28789 net.cpp:84] Creating Layer B3_1_SConv_Scale
I0918 15:11:38.072333 28789 net.cpp:406] B3_1_SConv_Scale <- B3_1_SConvBlockV2_T1
I0918 15:11:38.072336 28789 net.cpp:380] B3_1_SConv_Scale -> B3_1_SConvBlockV2_Scale
I0918 15:11:38.072355 28789 layer_factory.hpp:77] Creating layer B3_1_SConv_Scale
I0918 15:11:38.072397 28789 net.cpp:122] Setting up B3_1_SConv_Scale
I0918 15:11:38.072400 28789 net.cpp:129] Top shape: 32 768 4 4 (393216)
I0918 15:11:38.072403 28789 net.cpp:137] Memory required for data: 347472000
I0918 15:11:38.072407 28789 layer_factory.hpp:77] Creating layer B3_1_SConv_Conv1x1
I0918 15:11:38.072414 28789 net.cpp:84] Creating Layer B3_1_SConv_Conv1x1
I0918 15:11:38.072417 28789 net.cpp:406] B3_1_SConv_Conv1x1 <- B3_1_SConvBlockV2_Scale
I0918 15:11:38.072427 28789 net.cpp:380] B3_1_SConv_Conv1x1 -> B3_1_SConvBlockV2_Conv1x1
I0918 15:11:38.073061 28789 net.cpp:122] Setting up B3_1_SConv_Conv1x1
I0918 15:11:38.073066 28789 net.cpp:129] Top shape: 32 192 4 4 (98304)
I0918 15:11:38.073071 28789 net.cpp:137] Memory required for data: 347865216
I0918 15:11:38.073073 28789 layer_factory.hpp:77] Creating layer B3_1_SConv_ReLU
I0918 15:11:38.073084 28789 net.cpp:84] Creating Layer B3_1_SConv_ReLU
I0918 15:11:38.073087 28789 net.cpp:406] B3_1_SConv_ReLU <- B3_1_SConvBlockV2_Conv1x1
I0918 15:11:38.073092 28789 net.cpp:367] B3_1_SConv_ReLU -> B3_1_SConvBlockV2_Conv1x1 (in-place)
I0918 15:11:38.073097 28789 net.cpp:122] Setting up B3_1_SConv_ReLU
I0918 15:11:38.073099 28789 net.cpp:129] Top shape: 32 192 4 4 (98304)
I0918 15:11:38.073102 28789 net.cpp:137] Memory required for data: 348258432
I0918 15:11:38.073105 28789 layer_factory.hpp:77] Creating layer B3_1_SConv_Dropout
I0918 15:11:38.073109 28789 net.cpp:84] Creating Layer B3_1_SConv_Dropout
I0918 15:11:38.073112 28789 net.cpp:406] B3_1_SConv_Dropout <- B3_1_SConvBlockV2_Conv1x1
I0918 15:11:38.073114 28789 net.cpp:380] B3_1_SConv_Dropout -> B3_1_SConvBlockV2_Dropout
I0918 15:11:38.073130 28789 net.cpp:122] Setting up B3_1_SConv_Dropout
I0918 15:11:38.073133 28789 net.cpp:129] Top shape: 32 192 4 4 (98304)
I0918 15:11:38.073137 28789 net.cpp:137] Memory required for data: 348651648
I0918 15:11:38.073138 28789 layer_factory.hpp:77] Creating layer B3_2_SConv_SparseConv
I0918 15:11:38.073144 28789 net.cpp:84] Creating Layer B3_2_SConv_SparseConv
I0918 15:11:38.073154 28789 net.cpp:406] B3_2_SConv_SparseConv <- B3_1_SConvBlockV2_Dropout
I0918 15:11:38.073158 28789 net.cpp:380] B3_2_SConv_SparseConv -> B3_2_SConvBlockV2_T1
I0918 15:11:38.073249 28789 net.cpp:122] Setting up B3_2_SConv_SparseConv
I0918 15:11:38.073252 28789 net.cpp:129] Top shape: 32 768 4 4 (393216)
I0918 15:11:38.073256 28789 net.cpp:137] Memory required for data: 350224512
I0918 15:11:38.073258 28789 layer_factory.hpp:77] Creating layer B3_2_SConv_BN
I0918 15:11:38.073262 28789 net.cpp:84] Creating Layer B3_2_SConv_BN
I0918 15:11:38.073266 28789 net.cpp:406] B3_2_SConv_BN <- B3_2_SConvBlockV2_T1
I0918 15:11:38.073271 28789 net.cpp:367] B3_2_SConv_BN -> B3_2_SConvBlockV2_T1 (in-place)
I0918 15:11:38.073335 28789 net.cpp:122] Setting up B3_2_SConv_BN
I0918 15:11:38.073338 28789 net.cpp:129] Top shape: 32 768 4 4 (393216)
I0918 15:11:38.073341 28789 net.cpp:137] Memory required for data: 351797376
I0918 15:11:38.073345 28789 layer_factory.hpp:77] Creating layer B3_2_SConv_Scale
I0918 15:11:38.073348 28789 net.cpp:84] Creating Layer B3_2_SConv_Scale
I0918 15:11:38.073351 28789 net.cpp:406] B3_2_SConv_Scale <- B3_2_SConvBlockV2_T1
I0918 15:11:38.073354 28789 net.cpp:380] B3_2_SConv_Scale -> B3_2_SConvBlockV2_Scale
I0918 15:11:38.073370 28789 layer_factory.hpp:77] Creating layer B3_2_SConv_Scale
I0918 15:11:38.073411 28789 net.cpp:122] Setting up B3_2_SConv_Scale
I0918 15:11:38.073415 28789 net.cpp:129] Top shape: 32 768 4 4 (393216)
I0918 15:11:38.073417 28789 net.cpp:137] Memory required for data: 353370240
I0918 15:11:38.073422 28789 layer_factory.hpp:77] Creating layer B3_2_SConv_Conv1x1
I0918 15:11:38.073429 28789 net.cpp:84] Creating Layer B3_2_SConv_Conv1x1
I0918 15:11:38.073432 28789 net.cpp:406] B3_2_SConv_Conv1x1 <- B3_2_SConvBlockV2_Scale
I0918 15:11:38.073443 28789 net.cpp:380] B3_2_SConv_Conv1x1 -> B3_2_SConvBlockV2_Conv1x1
I0918 15:11:38.074087 28789 net.cpp:122] Setting up B3_2_SConv_Conv1x1
I0918 15:11:38.074093 28789 net.cpp:129] Top shape: 32 192 4 4 (98304)
I0918 15:11:38.074097 28789 net.cpp:137] Memory required for data: 353763456
I0918 15:11:38.074101 28789 layer_factory.hpp:77] Creating layer B3_2_SConv_ReLU
I0918 15:11:38.074105 28789 net.cpp:84] Creating Layer B3_2_SConv_ReLU
I0918 15:11:38.074108 28789 net.cpp:406] B3_2_SConv_ReLU <- B3_2_SConvBlockV2_Conv1x1
I0918 15:11:38.074112 28789 net.cpp:367] B3_2_SConv_ReLU -> B3_2_SConvBlockV2_Conv1x1 (in-place)
I0918 15:11:38.074116 28789 net.cpp:122] Setting up B3_2_SConv_ReLU
I0918 15:11:38.074118 28789 net.cpp:129] Top shape: 32 192 4 4 (98304)
I0918 15:11:38.074121 28789 net.cpp:137] Memory required for data: 354156672
I0918 15:11:38.074124 28789 layer_factory.hpp:77] Creating layer B3_2_SConv_Dropout
I0918 15:11:38.074129 28789 net.cpp:84] Creating Layer B3_2_SConv_Dropout
I0918 15:11:38.074132 28789 net.cpp:406] B3_2_SConv_Dropout <- B3_2_SConvBlockV2_Conv1x1
I0918 15:11:38.074136 28789 net.cpp:380] B3_2_SConv_Dropout -> B3_2_SConvBlockV2_Dropout
I0918 15:11:38.074151 28789 net.cpp:122] Setting up B3_2_SConv_Dropout
I0918 15:11:38.074154 28789 net.cpp:129] Top shape: 32 192 4 4 (98304)
I0918 15:11:38.074158 28789 net.cpp:137] Memory required for data: 354549888
I0918 15:11:38.074162 28789 layer_factory.hpp:77] Creating layer B3_Pooling
I0918 15:11:38.074164 28789 net.cpp:84] Creating Layer B3_Pooling
I0918 15:11:38.074167 28789 net.cpp:406] B3_Pooling <- B3_2_SConvBlockV2_Dropout
I0918 15:11:38.074170 28789 net.cpp:380] B3_Pooling -> Pooling4
I0918 15:11:38.074213 28789 net.cpp:122] Setting up B3_Pooling
I0918 15:11:38.074216 28789 net.cpp:129] Top shape: 32 192 1 1 (6144)
I0918 15:11:38.074219 28789 net.cpp:137] Memory required for data: 354574464
I0918 15:11:38.074221 28789 layer_factory.hpp:77] Creating layer fc1
I0918 15:11:38.074234 28789 net.cpp:84] Creating Layer fc1
I0918 15:11:38.074235 28789 net.cpp:406] fc1 <- Pooling4
I0918 15:11:38.074239 28789 net.cpp:380] fc1 -> fc1
I0918 15:11:38.074559 28789 net.cpp:122] Setting up fc1
I0918 15:11:38.074563 28789 net.cpp:129] Top shape: 32 384 (12288)
I0918 15:11:38.074569 28789 net.cpp:137] Memory required for data: 354623616
I0918 15:11:38.074577 28789 layer_factory.hpp:77] Creating layer classifier
I0918 15:11:38.074581 28789 net.cpp:84] Creating Layer classifier
I0918 15:11:38.074584 28789 net.cpp:406] classifier <- fc1
I0918 15:11:38.074587 28789 net.cpp:380] classifier -> classifier
I0918 15:11:38.074637 28789 net.cpp:122] Setting up classifier
I0918 15:11:38.074640 28789 net.cpp:129] Top shape: 32 10 (320)
I0918 15:11:38.074643 28789 net.cpp:137] Memory required for data: 354624896
I0918 15:11:38.074646 28789 layer_factory.hpp:77] Creating layer softmax_loss
I0918 15:11:38.074651 28789 net.cpp:84] Creating Layer softmax_loss
I0918 15:11:38.074666 28789 net.cpp:406] softmax_loss <- classifier
I0918 15:11:38.074668 28789 net.cpp:406] softmax_loss <- label
I0918 15:11:38.074673 28789 net.cpp:380] softmax_loss -> softmax_loss
…
I0918 15:11:38.075624 28789 net.cpp:294] The NetState phase (1) differed from the phase (0) specified by a rule in layer InputData
I0918 15:11:38.075647 28789 net.cpp:51] Initializing net from parameters: 
state {
  phase: TEST
}
layer {
  name: "InputData"
  type: "ImageData"
  top: "data"
  top: "label"
  include {
    phase: TEST
  }
  transform_param {
    mirror: true
    crop_size: 32
  }
  image_data_param {
    source: "/home/jcwang/work/2.GeneratedSparseConvolution/0.CaffeSparseConv/4.TrainRuns/test.txt"
    batch_size: 1
    shuffle: true
    is_color: true
  }
}
layer {
  name: "B0_0_ConvBNScaleReLU_Conv"
  type: "Convolution"
  bottom: "data"
  top: "B0_0_ConvBNScaleReLU_Conv"
  convolution_param {
    num_output: 64
    bias_term: false
    pad: 1
    kernel_size: 3
    stride: 1
    weight_filler {
      type: "xavier"
    }
    bias_filler {
      type: "constant"
    }
  }
}
layer {
  name: "B0_0_ConvBNScaleReLU_BN"
  type: "BatchNorm"
  bottom: "B0_0_ConvBNScaleReLU_Conv"
  top: "B0_0_ConvBNScaleReLU_Conv"
  param {
    lr_mult: 0
    decay_mult: 0
  }
  param {
    lr_mult: 0
    decay_mult: 0
  }
  param {
    lr_mult: 0
    decay_mult: 0
  }
  batch_norm_param {
    moving_average_fraction: 0.999
    eps: 0.001
  }
}
layer {
  name: "B0_0_ConvBNScaleReLU_Scale"
  type: "Scale"
  bottom: "B0_0_ConvBNScaleReLU_Conv"
  top: "B0_0_ConvBNScaleReLU_Conv"
  scale_param {
    filler {
      value: 1
    }
    bias_term: true
    bias_filler {
      value: 0
    }
    l1_lambda: 0
  }
}
layer {
  name: "B0_0_ConvBNScaleReLU_ReLU"
  type: "ReLU"
  bottom: "B0_0_ConvBNScaleReLU_Conv"
  top: "B0_0_ConvBNScaleReLU_Conv"
}
layer {
  name: "B0_0_ConvBNScaleReLU_Dropout"
  type: "Dropout"
  bottom: "B0_0_ConvBNScaleReLU_Conv"
  top: "ConvBNScaleReLU"
  dropout_param {
    dropout_ratio: 0.25
  }
}
layer {
  name: "B0_1_SConv_SparseConv"
  type: "SparseConvolution"
  bottom: "ConvBNScaleReLU"
  top: "B0_1_SConvBlockV2_T1"
  sparse_convolution_param {
    weight_filler {
      type: "xavier"
    }
    channel_expand_multiplier: 4
  }
}
layer {
  name: "B0_1_SConv_BN"
  type: "BatchNorm"
  bottom: "B0_1_SConvBlockV2_T1"
  top: "B0_1_SConvBlockV2_T1"
  param {
    lr_mult: 0
    decay_mult: 0
  }
  param {
    lr_mult: 0
    decay_mult: 0
  }
  param {
    lr_mult: 0
    decay_mult: 0
  }
  batch_norm_param {
    moving_average_fraction: 0.999
    eps: 0.001
  }
}
layer {
  name: "B0_1_SConv_Scale"
  type: "Scale"
  bottom: "B0_1_SConvBlockV2_T1"
  top: "B0_1_SConvBlockV2_Scale"
  scale_param {
    bias_term: true
  }
}
layer {
  name: "B0_1_SConv_Conv1x1"
  type: "Convolution"
  bottom: "B0_1_SConvBlockV2_Scale"
  top: "B0_1_SConvBlockV2_Conv1x1"
  convolution_param {
    num_output: 64
    bias_term: true
    pad: 0
    kernel_size: 1
    stride: 1
    weight_filler {
      type: "xavier"
    }
    bias_filler {
      type: "constant"
    }
  }
}
layer {
  name: "B0_1_SConv_ReLU"
  type: "ReLU"
  bottom: "B0_1_SConvBlockV2_Conv1x1"
  top: "B0_1_SConvBlockV2_Conv1x1"
}
layer {
  name: "B0_1_SConv_Dropout"
  type: "Dropout"
  bottom: "B0_1_SConvBlockV2_Conv1x1"
  top: "B0_1_SConvBlockV2_Dropout"
  dropout_param {
    dropout_ratio: 0.25
  }
}
layer {
  name: "B0_Pooling"
  type: "Pooling"
  bottom: "B0_1_SConvBlockV2_Dropout"
  top: "Pooling1"
  pooling_param {
    pool: MAX
    kernel_size: 2
    stride: 2
    pad: 0
  }
}
layer {
  name: "B1_0_SConv_SparseConv"
  type: "SparseConvolution"
  bottom: "Pooling1"
  top: "B1_0_SConvBlockV2_T1"
  sparse_convolution_param {
    weight_filler {
      type: "xavier"
    }
    channel_expand_multiplier: 4
  }
}
layer {
  name: "B1_0_SConv_BN"
  type: "BatchNorm"
  bottom: "B1_0_SConvBlockV2_T1"
  top: "B1_0_SConvBlockV2_T1"
  param {
    lr_mult: 0
    decay_mult: 0
  }
  param {
    lr_mult: 0
    decay_mult: 0
  }
  param {
    lr_mult: 0
    decay_mult: 0
  }
  batch_norm_param {
    moving_average_fraction: 0.999
    eps: 0.001
  }
}
layer {
  name: "B1_0_SConv_Scale"
  type: "Scale"
  bottom: "B1_0_SConvBlockV2_T1"
  top: "B1_0_SConvBlockV2_Scale"
  scale_param {
    bias_term: true
  }
}
layer {
  name: "B1_0_SConv_Conv1x1"
  type: "Convolution"
  bottom: "B1_0_SConvBlockV2_Scale"
  top: "B1_0_SConvBlockV2_Conv1x1"
  convolution_param {
    num_output: 128
    bias_term: true
    pad: 0
    kernel_size: 1
    stride: 1
    weight_filler {
      type: "xavier"
    }
    bias_filler {
      type: "constant"
    }
  }
}
layer {
  name: "B1_0_SConv_ReLU"
  type: "ReLU"
  bottom: "B1_0_SConvBlockV2_Conv1x1"
  top: "B1_0_SConvBlockV2_Conv1x1"
}
layer {
  name: "B1_0_SConv_Dropout"
  type: "Dropout"
  bottom: "B1_0_SConvBlockV2_Conv1x1"
  top: "B1_0_SConvBlockV2_Dropout"
  dropout_param {
    dropout_ratio: 0.25
  }
}
layer {
  name: "B1_1_SConv_SparseConv"
  type: "SparseConvolution"
  bottom: "B1_0_SConvBlockV2_Dropout"
  top: "B1_1_SConvBlockV2_T1"
  sparse_convolution_param {
    weight_filler {
      type: "xavier"
    }
    channel_expand_multiplier: 4
  }
}
layer {
  name: "B1_1_SConv_BN"
  type: "BatchNorm"
  bottom: "B1_1_SConvBlockV2_T1"
  top: "B1_1_SConvBlockV2_T1"
  param {
    lr_mult: 0
    decay_mult: 0
  }
  param {
    lr_mult: 0
    decay_mult: 0
  }
  param {
    lr_mult: 0
    decay_mult: 0
  }
  batch_norm_param {
    moving_average_fraction: 0.999
    eps: 0.001
  }
}
layer {
  name: "B1_1_SConv_Scale"
  type: "Scale"
  bottom: "B1_1_SConvBlockV2_T1"
  top: "B1_1_SConvBlockV2_Scale"
  scale_param {
    bias_term: true
  }
}
layer {
  name: "B1_1_SConv_Conv1x1"
  type: "Convolution"
  bottom: "B1_1_SConvBlockV2_Scale"
  top: "B1_1_SConvBlockV2_Conv1x1"
  convolution_param {
    num_output: 128
    bias_term: true
    pad: 0
    kernel_size: 1
    stride: 1
    weight_filler {
      type: "xavier"
    }
    bias_filler {
      type: "constant"
    }
  }
}
layer {
  name: "B1_1_SConv_ReLU"
  type: "ReLU"
  bottom: "B1_1_SConvBlockV2_Conv1x1"
  top: "B1_1_SConvBlockV2_Conv1x1"
}
layer {
  name: "B1_1_SConv_Dropout"
  type: "Dropout"
  bottom: "B1_1_SConvBlockV2_Conv1x1"
  top: "B1_1_SConvBlockV2_Dropout"
  dropout_param {
    dropout_ratio: 0.25
  }
}
layer {
  name: "B1_Pooling"
  type: "Pooling"
  bottom: "B1_1_SConvBlockV2_Dropout"
  top: "Pooling2"
  pooling_param {
    pool: MAX
    kernel_size: 2
    stride: 2
    pad: 0
  }
}
layer {
  name: "B2_0_SConv_SparseConv"
  type: "SparseConvolution"
  bottom: "Pooling2"
  top: "B2_0_SConvBlockV2_T1"
  sparse_convolution_param {
    weight_filler {
      type: "xavier"
    }
    channel_expand_multiplier: 4
  }
}
layer {
  name: "B2_0_SConv_BN"
  type: "BatchNorm"
  bottom: "B2_0_SConvBlockV2_T1"
  top: "B2_0_SConvBlockV2_T1"
  param {
    lr_mult: 0
    decay_mult: 0
  }
  param {
    lr_mult: 0
    decay_mult: 0
  }
  param {
    lr_mult: 0
    decay_mult: 0
  }
  batch_norm_param {
    moving_average_fraction: 0.999
    eps: 0.001
  }
}
layer {
  name: "B2_0_SConv_Scale"
  type: "Scale"
  bottom: "B2_0_SConvBlockV2_T1"
  top: "B2_0_SConvBlockV2_Scale"
  scale_param {
    bias_term: true
  }
}
layer {
  name: "B2_0_SConv_Conv1x1"
  type: "Convolution"
  bottom: "B2_0_SConvBlockV2_Scale"
  top: "B2_0_SConvBlockV2_Conv1x1"
  convolution_param {
    num_output: 192
    bias_term: true
    pad: 0
    kernel_size: 1
    stride: 1
    weight_filler {
      type: "xavier"
    }
    bias_filler {
      type: "constant"
    }
  }
}
layer {
  name: "B2_0_SConv_ReLU"
  type: "ReLU"
  bottom: "B2_0_SConvBlockV2_Conv1x1"
  top: "B2_0_SConvBlockV2_Conv1x1"
}
layer {
  name: "B2_0_SConv_Dropout"
  type: "Dropout"
  bottom: "B2_0_SConvBlockV2_Conv1x1"
  top: "B2_0_SConvBlockV2_Dropout"
  dropout_param {
    dropout_ratio: 0.25
  }
}
layer {
  name: "B2_1_SConv_SparseConv"
  type: "SparseConvolution"
  bottom: "B2_0_SConvBlockV2_Dropout"
  top: "B2_1_SConvBlockV2_T1"
  sparse_convolution_param {
    weight_filler {
      type: "xavier"
    }
    channel_expand_multiplier: 4
  }
}
layer {
  name: "B2_1_SConv_BN"
  type: "BatchNorm"
  bottom: "B2_1_SConvBlockV2_T1"
  top: "B2_1_SConvBlockV2_T1"
  param {
    lr_mult: 0
    decay_mult: 0
  }
  param {
    lr_mult: 0
    decay_mult: 0
  }
  param {
    lr_mult: 0
    decay_mult: 0
  }
  batch_norm_param {
    moving_average_fraction: 0.999
    eps: 0.001
  }
}
layer {
  name: "B2_1_SConv_Scale"
  type: "Scale"
  bottom: "B2_1_SConvBlockV2_T1"
  top: "B2_1_SConvBlockV2_Scale"
  scale_param {
    bias_term: true
  }
}
layer {
  name: "B2_1_SConv_Conv1x1"
  type: "Convolution"
  bottom: "B2_1_SConvBlockV2_Scale"
  top: "B2_1_SConvBlockV2_Conv1x1"
  convolution_param {
    num_output: 192
    bias_term: true
    pad: 0
    kernel_size: 1
    stride: 1
    weight_filler {
      type: "xavier"
    }
    bias_filler {
      type: "constant"
    }
  }
}
layer {
  name: "B2_1_SConv_ReLU"
  type: "ReLU"
  bottom: "B2_1_SConvBlockV2_Conv1x1"
  top: "B2_1_SConvBlockV2_Conv1x1"
}
layer {
  name: "B2_1_SConv_Dropout"
  type: "Dropout"
  bottom: "B2_1_SConvBlockV2_Conv1x1"
  top: "B2_1_SConvBlockV2_Dropout"
  dropout_param {
    dropout_ratio: 0.25
  }
}
layer {
  name: "B2_2_SConv_SparseConv"
  type: "SparseConvolution"
  bottom: "B2_1_SConvBlockV2_Dropout"
  top: "B2_2_SConvBlockV2_T1"
  sparse_convolution_param {
    weight_filler {
      type: "xavier"
    }
    channel_expand_multiplier: 4
  }
}
layer {
  name: "B2_2_SConv_BN"
  type: "BatchNorm"
  bottom: "B2_2_SConvBlockV2_T1"
  top: "B2_2_SConvBlockV2_T1"
  param {
    lr_mult: 0
    decay_mult: 0
  }
  param {
    lr_mult: 0
    decay_mult: 0
  }
  param {
    lr_mult: 0
    decay_mult: 0
  }
  batch_norm_param {
    moving_average_fraction: 0.999
    eps: 0.001
  }
}
layer {
  name: "B2_2_SConv_Scale"
  type: "Scale"
  bottom: "B2_2_SConvBlockV2_T1"
  top: "B2_2_SConvBlockV2_Scale"
  scale_param {
    bias_term: true
  }
}
layer {
  name: "B2_2_SConv_Conv1x1"
  type: "Convolution"
  bottom: "B2_2_SConvBlockV2_Scale"
  top: "B2_2_SConvBlockV2_Conv1x1"
  convolution_param {
    num_output: 192
    bias_term: true
    pad: 0
    kernel_size: 1
    stride: 1
    weight_filler {
      type: "xavier"
    }
    bias_filler {
      type: "constant"
    }
  }
}
layer {
  name: "B2_2_SConv_ReLU"
  type: "ReLU"
  bottom: "B2_2_SConvBlockV2_Conv1x1"
  top: "B2_2_SConvBlockV2_Conv1x1"
}
layer {
  name: "B2_2_SConv_Dropout"
  type: "Dropout"
  bottom: "B2_2_SConvBlockV2_Conv1x1"
  top: "B2_2_SConvBlockV2_Dropout"
  dropout_param {
    dropout_ratio: 0.25
  }
}
layer {
  name: "B2_Pooling"
  type: "Pooling"
  bottom: "B2_2_SConvBlockV2_Dropout"
  top: "Pooling3"
  pooling_param {
    pool: MAX
    kernel_size: 2
    stride: 2
    pad: 0
  }
}
layer {
  name: "B3_0_SConv_SparseConv"
  type: "SparseConvolution"
  bottom: "Pooling3"
  top: "B3_0_SConvBlockV2_T1"
  sparse_convolution_param {
    weight_filler {
      type: "xavier"
    }
    channel_expand_multiplier: 4
  }
}
layer {
  name: "B3_0_SConv_BN"
  type: "BatchNorm"
  bottom: "B3_0_SConvBlockV2_T1"
  top: "B3_0_SConvBlockV2_T1"
  param {
    lr_mult: 0
    decay_mult: 0
  }
  param {
    lr_mult: 0
    decay_mult: 0
  }
  param {
    lr_mult: 0
    decay_mult: 0
  }
  batch_norm_param {
    moving_average_fraction: 0.999
    eps: 0.001
  }
}
layer {
  name: "B3_0_SConv_Scale"
  type: "Scale"
  bottom: "B3_0_SConvBlockV2_T1"
  top: "B3_0_SConvBlockV2_Scale"
  scale_param {
    bias_term: true
  }
}
layer {
  name: "B3_0_SConv_Conv1x1"
  type: "Convolution"
  bottom: "B3_0_SConvBlockV2_Scale"
  top: "B3_0_SConvBlockV2_Conv1x1"
  convolution_param {
    num_output: 192
    bias_term: true
    pad: 0
    kernel_size: 1
    stride: 1
    weight_filler {
      type: "xavier"
    }
    bias_filler {
      type: "constant"
    }
  }
}
layer {
  name: "B3_0_SConv_ReLU"
  type: "ReLU"
  bottom: "B3_0_SConvBlockV2_Conv1x1"
  top: "B3_0_SConvBlockV2_Conv1x1"
}
layer {
  name: "B3_0_SConv_Dropout"
  type: "Dropout"
  bottom: "B3_0_SConvBlockV2_Conv1x1"
  top: "B3_0_SConvBlockV2_Dropout"
  dropout_param {
    dropout_ratio: 0.25
  }
}
layer {
  name: "B3_1_SConv_SparseConv"
  type: "SparseConvolution"
  bottom: "B3_0_SConvBlockV2_Dropout"
  top: "B3_1_SConvBlockV2_T1"
  sparse_convolution_param {
    weight_filler {
      type: "xavier"
    }
    channel_expand_multiplier: 4
  }
}
layer {
  name: "B3_1_SConv_BN"
  type: "BatchNorm"
  bottom: "B3_1_SConvBlockV2_T1"
  top: "B3_1_SConvBlockV2_T1"
  param {
    lr_mult: 0
    decay_mult: 0
  }
  param {
    lr_mult: 0
    decay_mult: 0
  }
  param {
    lr_mult: 0
    decay_mult: 0
  }
  batch_norm_param {
    moving_average_fraction: 0.999
    eps: 0.001
  }
}
layer {
  name: "B3_1_SConv_Scale"
  type: "Scale"
  bottom: "B3_1_SConvBlockV2_T1"
  top: "B3_1_SConvBlockV2_Scale"
  scale_param {
    bias_term: true
  }
}
layer {
  name: "B3_1_SConv_Conv1x1"
  type: "Convolution"
  bottom: "B3_1_SConvBlockV2_Scale"
  top: "B3_1_SConvBlockV2_Conv1x1"
  convolution_param {
    num_output: 192
    bias_term: true
    pad: 0
    kernel_size: 1
    stride: 1
    weight_filler {
      type: "xavier"
    }
    bias_filler {
      type: "constant"
    }
  }
}
layer {
  name: "B3_1_SConv_ReLU"
  type: "ReLU"
  bottom: "B3_1_SConvBlockV2_Conv1x1"
  top: "B3_1_SConvBlockV2_Conv1x1"
}
layer {
  name: "B3_1_SConv_Dropout"
  type: "Dropout"
  bottom: "B3_1_SConvBlockV2_Conv1x1"
  top: "B3_1_SConvBlockV2_Dropout"
  dropout_param {
    dropout_ratio: 0.25
  }
}
layer {
  name: "B3_2_SConv_SparseConv"
  type: "SparseConvolution"
  bottom: "B3_1_SConvBlockV2_Dropout"
  top: "B3_2_SConvBlockV2_T1"
  sparse_convolution_param {
    weight_filler {
      type: "xavier"
    }
    channel_expand_multiplier: 4
  }
}
layer {
  name: "B3_2_SConv_BN"
  type: "BatchNorm"
  bottom: "B3_2_SConvBlockV2_T1"
  top: "B3_2_SConvBlockV2_T1"
  param {
    lr_mult: 0
    decay_mult: 0
  }
  param {
    lr_mult: 0
    decay_mult: 0
  }
  param {
    lr_mult: 0
    decay_mult: 0
  }
  batch_norm_param {
    moving_average_fraction: 0.999
    eps: 0.001
  }
}
layer {
  name: "B3_2_SConv_Scale"
  type: "Scale"
  bottom: "B3_2_SConvBlockV2_T1"
  top: "B3_2_SConvBlockV2_Scale"
  scale_param {
    bias_term: true
  }
}
layer {
  name: "B3_2_SConv_Conv1x1"
  type: "Convolution"
  bottom: "B3_2_SConvBlockV2_Scale"
  top: "B3_2_SConvBlockV2_Conv1x1"
  convolution_param {
    num_output: 192
    bias_term: true
    pad: 0
    kernel_size: 1
    stride: 1
    weight_filler {
      type: "xavier"
    }
    bias_filler {
      type: "constant"
    }
  }
}
layer {
  name: "B3_2_SConv_ReLU"
  type: "ReLU"
  bottom: "B3_2_SConvBlockV2_Conv1x1"
  top: "B3_2_SConvBlockV2_Conv1x1"
}
layer {
  name: "B3_2_SConv_Dropout"
  type: "Dropout"
  bottom: "B3_2_SConvBlockV2_Conv1x1"
  top: "B3_2_SConvBlockV2_Dropout"
  dropout_param {
    dropout_ratio: 0.25
  }
}
layer {
  name: "B3_Pooling"
  type: "Pooling"
  bottom: "B3_2_SConvBlockV2_Dropout"
  top: "Pooling4"
  pooling_param {
    pool: AVE
    global_pooling: true
  }
}
layer {
  name: "fc1"
  type: "InnerProduct"
  bottom: "Pooling4"
  top: "fc1"
  inner_product_param {
    num_output: 384
    bias_term: true
    weight_filler {
      type: "xavier"
    }
    bias_filler {
      type: "constant"
    }
  }
}
layer {
  name: "classifier"
  type: "InnerProduct"
  bottom: "fc1"
  top: "classifier"
  inner_product_param {
    num_output: 10
    bias_term: true
    weight_filler {
      type: "xavier"
    }
    bias_filler {
      type: "constant"
    }
  }
}
layer {
  name: "softmax_loss"
  type: "SoftmaxWithLoss"
  bottom: "classifier"
  bottom: "label"
  top: "softmax_loss"
}
layer {
  name: "accuracy"
  type: "Accuracy"
  bottom: "classifier"
  bottom: "label"
  top: "accuracy"
  include {
    phase: TEST
  }
}
I0918 15:11:38.076056 28789 layer_factory.hpp:77] Creating layer InputData
I0918 15:11:38.076066 28789 net.cpp:84] Creating Layer InputData
I0918 15:11:38.076071 28789 net.cpp:380] InputData -> data
I0918 15:11:38.076076 28789 net.cpp:380] InputData -> label
I0918 15:11:38.076086 28789 image_data_layer.cpp:38] Opening file /home/jcwang/work/2.GeneratedSparseConvolution/0.CaffeSparseConv/4.TrainRuns/test.txt
I0918 15:11:38.077773 28789 image_data_layer.cpp:53] Shuffling data
I0918 15:11:38.077915 28789 image_data_layer.cpp:63] A total of 10001 images.
I0918 15:11:38.077984 28789 image_data_layer.cpp:90] output data size: 1,3,32,32
I0918 15:11:38.079067 28789 net.cpp:122] Setting up InputData
I0918 15:11:38.079078 28789 net.cpp:129] Top shape: 1 3 32 32 (3072)
I0918 15:11:38.079083 28789 net.cpp:129] Top shape: 1 (1)
I0918 15:11:38.079087 28789 net.cpp:137] Memory required for data: 12292
I0918 15:11:38.079089 28789 layer_factory.hpp:77] Creating layer label_InputData_1_split
I0918 15:11:38.079097 28789 net.cpp:84] Creating Layer label_InputData_1_split
I0918 15:11:38.079099 28789 net.cpp:406] label_InputData_1_split <- label
I0918 15:11:38.079104 28789 net.cpp:380] label_InputData_1_split -> label_InputData_1_split_0
I0918 15:11:38.079110 28789 net.cpp:380] label_InputData_1_split -> label_InputData_1_split_1
I0918 15:11:38.079131 28789 net.cpp:122] Setting up label_InputData_1_split
I0918 15:11:38.079139 28789 net.cpp:129] Top shape: 1 (1)
I0918 15:11:38.079142 28789 net.cpp:129] Top shape: 1 (1)
I0918 15:11:38.079145 28789 net.cpp:137] Memory required for data: 12300
I0918 15:11:38.079147 28789 layer_factory.hpp:77] Creating layer B0_0_ConvBNScaleReLU_Conv
I0918 15:11:38.079154 28789 net.cpp:84] Creating Layer B0_0_ConvBNScaleReLU_Conv
I0918 15:11:38.079156 28789 net.cpp:406] B0_0_ConvBNScaleReLU_Conv <- data
I0918 15:11:38.079160 28789 net.cpp:380] B0_0_ConvBNScaleReLU_Conv -> B0_0_ConvBNScaleReLU_Conv
I0918 15:11:38.079376 28789 net.cpp:122] Setting up B0_0_ConvBNScaleReLU_Conv
I0918 15:11:38.079380 28789 net.cpp:129] Top shape: 1 64 32 32 (65536)
I0918 15:11:38.079383 28789 net.cpp:137] Memory required for data: 274444
I0918 15:11:38.079388 28789 layer_factory.hpp:77] Creating layer B0_0_ConvBNScaleReLU_BN
I0918 15:11:38.079393 28789 net.cpp:84] Creating Layer B0_0_ConvBNScaleReLU_BN
I0918 15:11:38.079396 28789 net.cpp:406] B0_0_ConvBNScaleReLU_BN <- B0_0_ConvBNScaleReLU_Conv
I0918 15:11:38.079401 28789 net.cpp:367] B0_0_ConvBNScaleReLU_BN -> B0_0_ConvBNScaleReLU_Conv (in-place)
I0918 15:11:38.079464 28789 net.cpp:122] Setting up B0_0_ConvBNScaleReLU_BN
I0918 15:11:38.079468 28789 net.cpp:129] Top shape: 1 64 32 32 (65536)
I0918 15:11:38.079470 28789 net.cpp:137] Memory required for data: 536588
I0918 15:11:38.079475 28789 layer_factory.hpp:77] Creating layer B0_0_ConvBNScaleReLU_Scale
I0918 15:11:38.079480 28789 net.cpp:84] Creating Layer B0_0_ConvBNScaleReLU_Scale
I0918 15:11:38.079483 28789 net.cpp:406] B0_0_ConvBNScaleReLU_Scale <- B0_0_ConvBNScaleReLU_Conv
I0918 15:11:38.079486 28789 net.cpp:367] B0_0_ConvBNScaleReLU_Scale -> B0_0_ConvBNScaleReLU_Conv (in-place)
I0918 15:11:38.079504 28789 layer_factory.hpp:77] Creating layer B0_0_ConvBNScaleReLU_Scale
I0918 15:11:38.079561 28789 net.cpp:122] Setting up B0_0_ConvBNScaleReLU_Scale
I0918 15:11:38.079564 28789 net.cpp:129] Top shape: 1 64 32 32 (65536)
I0918 15:11:38.079568 28789 net.cpp:137] Memory required for data: 798732
I0918 15:11:38.079572 28789 layer_factory.hpp:77] Creating layer B0_0_ConvBNScaleReLU_ReLU
I0918 15:11:38.079576 28789 net.cpp:84] Creating Layer B0_0_ConvBNScaleReLU_ReLU
I0918 15:11:38.079578 28789 net.cpp:406] B0_0_ConvBNScaleReLU_ReLU <- B0_0_ConvBNScaleReLU_Conv
I0918 15:11:38.079582 28789 net.cpp:367] B0_0_ConvBNScaleReLU_ReLU -> B0_0_ConvBNScaleReLU_Conv (in-place)
I0918 15:11:38.079586 28789 net.cpp:122] Setting up B0_0_ConvBNScaleReLU_ReLU
I0918 15:11:38.079588 28789 net.cpp:129] Top shape: 1 64 32 32 (65536)
I0918 15:11:38.079591 28789 net.cpp:137] Memory required for data: 1060876
I0918 15:11:38.079593 28789 layer_factory.hpp:77] Creating layer B0_0_ConvBNScaleReLU_Dropout
I0918 15:11:38.079597 28789 net.cpp:84] Creating Layer B0_0_ConvBNScaleReLU_Dropout
I0918 15:11:38.079600 28789 net.cpp:406] B0_0_ConvBNScaleReLU_Dropout <- B0_0_ConvBNScaleReLU_Conv
I0918 15:11:38.079603 28789 net.cpp:380] B0_0_ConvBNScaleReLU_Dropout -> ConvBNScaleReLU
I0918 15:11:38.079622 28789 net.cpp:122] Setting up B0_0_ConvBNScaleReLU_Dropout
I0918 15:11:38.079625 28789 net.cpp:129] Top shape: 1 64 32 32 (65536)
I0918 15:11:38.079628 28789 net.cpp:137] Memory required for data: 1323020
I0918 15:11:38.079632 28789 layer_factory.hpp:77] Creating layer B0_1_SConv_SparseConv
I0918 15:11:38.079635 28789 net.cpp:84] Creating Layer B0_1_SConv_SparseConv
I0918 15:11:38.079638 28789 net.cpp:406] B0_1_SConv_SparseConv <- ConvBNScaleReLU
I0918 15:11:38.079641 28789 net.cpp:380] B0_1_SConv_SparseConv -> B0_1_SConvBlockV2_T1
I0918 15:11:38.079728 28789 net.cpp:122] Setting up B0_1_SConv_SparseConv
I0918 15:11:38.079731 28789 net.cpp:129] Top shape: 1 256 32 32 (262144)
I0918 15:11:38.079735 28789 net.cpp:137] Memory required for data: 2371596
I0918 15:11:38.079738 28789 layer_factory.hpp:77] Creating layer B0_1_SConv_BN
I0918 15:11:38.079744 28789 net.cpp:84] Creating Layer B0_1_SConv_BN
I0918 15:11:38.079746 28789 net.cpp:406] B0_1_SConv_BN <- B0_1_SConvBlockV2_T1
I0918 15:11:38.079751 28789 net.cpp:367] B0_1_SConv_BN -> B0_1_SConvBlockV2_T1 (in-place)
I0918 15:11:38.079828 28789 net.cpp:122] Setting up B0_1_SConv_BN
I0918 15:11:38.079830 28789 net.cpp:129] Top shape: 1 256 32 32 (262144)
I0918 15:11:38.079833 28789 net.cpp:137] Memory required for data: 3420172
I0918 15:11:38.079840 28789 layer_factory.hpp:77] Creating layer B0_1_SConv_Scale
I0918 15:11:38.079844 28789 net.cpp:84] Creating Layer B0_1_SConv_Scale
I0918 15:11:38.079847 28789 net.cpp:406] B0_1_SConv_Scale <- B0_1_SConvBlockV2_T1
I0918 15:11:38.079850 28789 net.cpp:380] B0_1_SConv_Scale -> B0_1_SConvBlockV2_Scale
I0918 15:11:38.079871 28789 layer_factory.hpp:77] Creating layer B0_1_SConv_Scale
I0918 15:11:38.079946 28789 net.cpp:122] Setting up B0_1_SConv_Scale
I0918 15:11:38.079948 28789 net.cpp:129] Top shape: 1 256 32 32 (262144)
I0918 15:11:38.079952 28789 net.cpp:137] Memory required for data: 4468748
I0918 15:11:38.079955 28789 layer_factory.hpp:77] Creating layer B0_1_SConv_Conv1x1
I0918 15:11:38.079962 28789 net.cpp:84] Creating Layer B0_1_SConv_Conv1x1
I0918 15:11:38.079964 28789 net.cpp:406] B0_1_SConv_Conv1x1 <- B0_1_SConvBlockV2_Scale
I0918 15:11:38.079967 28789 net.cpp:380] B0_1_SConv_Conv1x1 -> B0_1_SConvBlockV2_Conv1x1
I0918 15:11:38.080147 28789 net.cpp:122] Setting up B0_1_SConv_Conv1x1
I0918 15:11:38.080149 28789 net.cpp:129] Top shape: 1 64 32 32 (65536)
I0918 15:11:38.080153 28789 net.cpp:137] Memory required for data: 4730892
I0918 15:11:38.080157 28789 layer_factory.hpp:77] Creating layer B0_1_SConv_ReLU
I0918 15:11:38.080163 28789 net.cpp:84] Creating Layer B0_1_SConv_ReLU
I0918 15:11:38.080166 28789 net.cpp:406] B0_1_SConv_ReLU <- B0_1_SConvBlockV2_Conv1x1
I0918 15:11:38.080170 28789 net.cpp:367] B0_1_SConv_ReLU -> B0_1_SConvBlockV2_Conv1x1 (in-place)
I0918 15:11:38.080173 28789 net.cpp:122] Setting up B0_1_SConv_ReLU
I0918 15:11:38.080176 28789 net.cpp:129] Top shape: 1 64 32 32 (65536)
I0918 15:11:38.080179 28789 net.cpp:137] Memory required for data: 4993036
I0918 15:11:38.080181 28789 layer_factory.hpp:77] Creating layer B0_1_SConv_Dropout
I0918 15:11:38.080186 28789 net.cpp:84] Creating Layer B0_1_SConv_Dropout
I0918 15:11:38.080189 28789 net.cpp:406] B0_1_SConv_Dropout <- B0_1_SConvBlockV2_Conv1x1
I0918 15:11:38.080193 28789 net.cpp:380] B0_1_SConv_Dropout -> B0_1_SConvBlockV2_Dropout
I0918 15:11:38.080204 28789 net.cpp:122] Setting up B0_1_SConv_Dropout
I0918 15:11:38.080205 28789 net.cpp:129] Top shape: 1 64 32 32 (65536)
I0918 15:11:38.080209 28789 net.cpp:137] Memory required for data: 5255180
I0918 15:11:38.080211 28789 layer_factory.hpp:77] Creating layer B0_Pooling
I0918 15:11:38.080215 28789 net.cpp:84] Creating Layer B0_Pooling
I0918 15:11:38.080217 28789 net.cpp:406] B0_Pooling <- B0_1_SConvBlockV2_Dropout
I0918 15:11:38.080221 28789 net.cpp:380] B0_Pooling -> Pooling1
I0918 15:11:38.080235 28789 net.cpp:122] Setting up B0_Pooling
I0918 15:11:38.080238 28789 net.cpp:129] Top shape: 1 64 16 16 (16384)
I0918 15:11:38.080241 28789 net.cpp:137] Memory required for data: 5320716
I0918 15:11:38.080243 28789 layer_factory.hpp:77] Creating layer B1_0_SConv_SparseConv
I0918 15:11:38.080247 28789 net.cpp:84] Creating Layer B1_0_SConv_SparseConv
I0918 15:11:38.080250 28789 net.cpp:406] B1_0_SConv_SparseConv <- Pooling1
I0918 15:11:38.080253 28789 net.cpp:380] B1_0_SConv_SparseConv -> B1_0_SConvBlockV2_T1
I0918 15:11:38.080310 28789 net.cpp:122] Setting up B1_0_SConv_SparseConv
I0918 15:11:38.080313 28789 net.cpp:129] Top shape: 1 256 16 16 (65536)
I0918 15:11:38.080317 28789 net.cpp:137] Memory required for data: 5582860
I0918 15:11:38.080320 28789 layer_factory.hpp:77] Creating layer B1_0_SConv_BN
I0918 15:11:38.080324 28789 net.cpp:84] Creating Layer B1_0_SConv_BN
I0918 15:11:38.080327 28789 net.cpp:406] B1_0_SConv_BN <- B1_0_SConvBlockV2_T1
I0918 15:11:38.080330 28789 net.cpp:367] B1_0_SConv_BN -> B1_0_SConvBlockV2_T1 (in-place)
I0918 15:11:38.080395 28789 net.cpp:122] Setting up B1_0_SConv_BN
I0918 15:11:38.080399 28789 net.cpp:129] Top shape: 1 256 16 16 (65536)
I0918 15:11:38.080401 28789 net.cpp:137] Memory required for data: 5845004
I0918 15:11:38.080410 28789 layer_factory.hpp:77] Creating layer B1_0_SConv_Scale
I0918 15:11:38.080418 28789 net.cpp:84] Creating Layer B1_0_SConv_Scale
I0918 15:11:38.080421 28789 net.cpp:406] B1_0_SConv_Scale <- B1_0_SConvBlockV2_T1
I0918 15:11:38.080426 28789 net.cpp:380] B1_0_SConv_Scale -> B1_0_SConvBlockV2_Scale
I0918 15:11:38.080441 28789 layer_factory.hpp:77] Creating layer B1_0_SConv_Scale
I0918 15:11:38.080480 28789 net.cpp:122] Setting up B1_0_SConv_Scale
I0918 15:11:38.080483 28789 net.cpp:129] Top shape: 1 256 16 16 (65536)
I0918 15:11:38.080487 28789 net.cpp:137] Memory required for data: 6107148
I0918 15:11:38.080490 28789 layer_factory.hpp:77] Creating layer B1_0_SConv_Conv1x1
I0918 15:11:38.080497 28789 net.cpp:84] Creating Layer B1_0_SConv_Conv1x1
I0918 15:11:38.080499 28789 net.cpp:406] B1_0_SConv_Conv1x1 <- B1_0_SConvBlockV2_Scale
I0918 15:11:38.080504 28789 net.cpp:380] B1_0_SConv_Conv1x1 -> B1_0_SConvBlockV2_Conv1x1
I0918 15:11:38.080708 28789 net.cpp:122] Setting up B1_0_SConv_Conv1x1
I0918 15:11:38.080711 28789 net.cpp:129] Top shape: 1 128 16 16 (32768)
I0918 15:11:38.080714 28789 net.cpp:137] Memory required for data: 6238220
I0918 15:11:38.080718 28789 layer_factory.hpp:77] Creating layer B1_0_SConv_ReLU
I0918 15:11:38.080721 28789 net.cpp:84] Creating Layer B1_0_SConv_ReLU
I0918 15:11:38.080724 28789 net.cpp:406] B1_0_SConv_ReLU <- B1_0_SConvBlockV2_Conv1x1
I0918 15:11:38.080727 28789 net.cpp:367] B1_0_SConv_ReLU -> B1_0_SConvBlockV2_Conv1x1 (in-place)
I0918 15:11:38.080731 28789 net.cpp:122] Setting up B1_0_SConv_ReLU
I0918 15:11:38.080734 28789 net.cpp:129] Top shape: 1 128 16 16 (32768)
I0918 15:11:38.080736 28789 net.cpp:137] Memory required for data: 6369292
I0918 15:11:38.080739 28789 layer_factory.hpp:77] Creating layer B1_0_SConv_Dropout
I0918 15:11:38.080742 28789 net.cpp:84] Creating Layer B1_0_SConv_Dropout
I0918 15:11:38.080744 28789 net.cpp:406] B1_0_SConv_Dropout <- B1_0_SConvBlockV2_Conv1x1
I0918 15:11:38.080747 28789 net.cpp:380] B1_0_SConv_Dropout -> B1_0_SConvBlockV2_Dropout
I0918 15:11:38.080761 28789 net.cpp:122] Setting up B1_0_SConv_Dropout
I0918 15:11:38.080765 28789 net.cpp:129] Top shape: 1 128 16 16 (32768)
I0918 15:11:38.080767 28789 net.cpp:137] Memory required for data: 6500364
I0918 15:11:38.080770 28789 layer_factory.hpp:77] Creating layer B1_1_SConv_SparseConv
I0918 15:11:38.080775 28789 net.cpp:84] Creating Layer B1_1_SConv_SparseConv
I0918 15:11:38.080777 28789 net.cpp:406] B1_1_SConv_SparseConv <- B1_0_SConvBlockV2_Dropout
I0918 15:11:38.080781 28789 net.cpp:380] B1_1_SConv_SparseConv -> B1_1_SConvBlockV2_T1
I0918 15:11:38.080870 28789 net.cpp:122] Setting up B1_1_SConv_SparseConv
I0918 15:11:38.080874 28789 net.cpp:129] Top shape: 1 512 16 16 (131072)
I0918 15:11:38.080878 28789 net.cpp:137] Memory required for data: 7024652
I0918 15:11:38.080880 28789 layer_factory.hpp:77] Creating layer B1_1_SConv_BN
I0918 15:11:38.080886 28789 net.cpp:84] Creating Layer B1_1_SConv_BN
I0918 15:11:38.080889 28789 net.cpp:406] B1_1_SConv_BN <- B1_1_SConvBlockV2_T1
I0918 15:11:38.080893 28789 net.cpp:367] B1_1_SConv_BN -> B1_1_SConvBlockV2_T1 (in-place)
I0918 15:11:38.081018 28789 net.cpp:122] Setting up B1_1_SConv_BN
I0918 15:11:38.081022 28789 net.cpp:129] Top shape: 1 512 16 16 (131072)
I0918 15:11:38.081024 28789 net.cpp:137] Memory required for data: 7548940
I0918 15:11:38.081029 28789 layer_factory.hpp:77] Creating layer B1_1_SConv_Scale
I0918 15:11:38.081032 28789 net.cpp:84] Creating Layer B1_1_SConv_Scale
I0918 15:11:38.081035 28789 net.cpp:406] B1_1_SConv_Scale <- B1_1_SConvBlockV2_T1
I0918 15:11:38.081038 28789 net.cpp:380] B1_1_SConv_Scale -> B1_1_SConvBlockV2_Scale
I0918 15:11:38.081353 28789 layer_factory.hpp:77] Creating layer B1_1_SConv_Scale
I0918 15:11:38.081400 28789 net.cpp:122] Setting up B1_1_SConv_Scale
I0918 15:11:38.081403 28789 net.cpp:129] Top shape: 1 512 16 16 (131072)
I0918 15:11:38.081406 28789 net.cpp:137] Memory required for data: 8073228
I0918 15:11:38.081410 28789 layer_factory.hpp:77] Creating layer B1_1_SConv_Conv1x1
I0918 15:11:38.081419 28789 net.cpp:84] Creating Layer B1_1_SConv_Conv1x1
I0918 15:11:38.081426 28789 net.cpp:406] B1_1_SConv_Conv1x1 <- B1_1_SConvBlockV2_Scale
I0918 15:11:38.081430 28789 net.cpp:380] B1_1_SConv_Conv1x1 -> B1_1_SConvBlockV2_Conv1x1
I0918 15:11:38.081776 28789 net.cpp:122] Setting up B1_1_SConv_Conv1x1
I0918 15:11:38.081780 28789 net.cpp:129] Top shape: 1 128 16 16 (32768)
I0918 15:11:38.081784 28789 net.cpp:137] Memory required for data: 8204300
I0918 15:11:38.081789 28789 layer_factory.hpp:77] Creating layer B1_1_SConv_ReLU
I0918 15:11:38.081791 28789 net.cpp:84] Creating Layer B1_1_SConv_ReLU
I0918 15:11:38.081794 28789 net.cpp:406] B1_1_SConv_ReLU <- B1_1_SConvBlockV2_Conv1x1
I0918 15:11:38.081799 28789 net.cpp:367] B1_1_SConv_ReLU -> B1_1_SConvBlockV2_Conv1x1 (in-place)
I0918 15:11:38.081804 28789 net.cpp:122] Setting up B1_1_SConv_ReLU
I0918 15:11:38.081805 28789 net.cpp:129] Top shape: 1 128 16 16 (32768)
I0918 15:11:38.081809 28789 net.cpp:137] Memory required for data: 8335372
I0918 15:11:38.081811 28789 layer_factory.hpp:77] Creating layer B1_1_SConv_Dropout
I0918 15:11:38.081815 28789 net.cpp:84] Creating Layer B1_1_SConv_Dropout
I0918 15:11:38.081816 28789 net.cpp:406] B1_1_SConv_Dropout <- B1_1_SConvBlockV2_Conv1x1
I0918 15:11:38.081820 28789 net.cpp:380] B1_1_SConv_Dropout -> B1_1_SConvBlockV2_Dropout
I0918 15:11:38.081835 28789 net.cpp:122] Setting up B1_1_SConv_Dropout
I0918 15:11:38.081838 28789 net.cpp:129] Top shape: 1 128 16 16 (32768)
I0918 15:11:38.081841 28789 net.cpp:137] Memory required for data: 8466444
I0918 15:11:38.081843 28789 layer_factory.hpp:77] Creating layer B1_Pooling
I0918 15:11:38.081847 28789 net.cpp:84] Creating Layer B1_Pooling
I0918 15:11:38.081851 28789 net.cpp:406] B1_Pooling <- B1_1_SConvBlockV2_Dropout
I0918 15:11:38.081856 28789 net.cpp:380] B1_Pooling -> Pooling2
I0918 15:11:38.081869 28789 net.cpp:122] Setting up B1_Pooling
I0918 15:11:38.081872 28789 net.cpp:129] Top shape: 1 128 8 8 (8192)
I0918 15:11:38.081876 28789 net.cpp:137] Memory required for data: 8499212
I0918 15:11:38.081877 28789 layer_factory.hpp:77] Creating layer B2_0_SConv_SparseConv
I0918 15:11:38.081882 28789 net.cpp:84] Creating Layer B2_0_SConv_SparseConv
I0918 15:11:38.081885 28789 net.cpp:406] B2_0_SConv_SparseConv <- Pooling2
I0918 15:11:38.081889 28789 net.cpp:380] B2_0_SConv_SparseConv -> B2_0_SConvBlockV2_T1
I0918 15:11:38.081964 28789 net.cpp:122] Setting up B2_0_SConv_SparseConv
I0918 15:11:38.081969 28789 net.cpp:129] Top shape: 1 512 8 8 (32768)
I0918 15:11:38.081971 28789 net.cpp:137] Memory required for data: 8630284
I0918 15:11:38.081974 28789 layer_factory.hpp:77] Creating layer B2_0_SConv_BN
I0918 15:11:38.081979 28789 net.cpp:84] Creating Layer B2_0_SConv_BN
I0918 15:11:38.081981 28789 net.cpp:406] B2_0_SConv_BN <- B2_0_SConvBlockV2_T1
I0918 15:11:38.081984 28789 net.cpp:367] B2_0_SConv_BN -> B2_0_SConvBlockV2_T1 (in-place)
I0918 15:11:38.082047 28789 net.cpp:122] Setting up B2_0_SConv_BN
I0918 15:11:38.082051 28789 net.cpp:129] Top shape: 1 512 8 8 (32768)
I0918 15:11:38.082053 28789 net.cpp:137] Memory required for data: 8761356
I0918 15:11:38.082060 28789 layer_factory.hpp:77] Creating layer B2_0_SConv_Scale
I0918 15:11:38.082064 28789 net.cpp:84] Creating Layer B2_0_SConv_Scale
I0918 15:11:38.082067 28789 net.cpp:406] B2_0_SConv_Scale <- B2_0_SConvBlockV2_T1
I0918 15:11:38.082070 28789 net.cpp:380] B2_0_SConv_Scale -> B2_0_SConvBlockV2_Scale
I0918 15:11:38.082087 28789 layer_factory.hpp:77] Creating layer B2_0_SConv_Scale
I0918 15:11:38.082129 28789 net.cpp:122] Setting up B2_0_SConv_Scale
I0918 15:11:38.082131 28789 net.cpp:129] Top shape: 1 512 8 8 (32768)
I0918 15:11:38.082136 28789 net.cpp:137] Memory required for data: 8892428
I0918 15:11:38.082140 28789 layer_factory.hpp:77] Creating layer B2_0_SConv_Conv1x1
I0918 15:11:38.082149 28789 net.cpp:84] Creating Layer B2_0_SConv_Conv1x1
I0918 15:11:38.082152 28789 net.cpp:406] B2_0_SConv_Conv1x1 <- B2_0_SConvBlockV2_Scale
I0918 15:11:38.082156 28789 net.cpp:380] B2_0_SConv_Conv1x1 -> B2_0_SConvBlockV2_Conv1x1
I0918 15:11:38.082649 28789 net.cpp:122] Setting up B2_0_SConv_Conv1x1
I0918 15:11:38.082657 28789 net.cpp:129] Top shape: 1 192 8 8 (12288)
I0918 15:11:38.082667 28789 net.cpp:137] Memory required for data: 8941580
I0918 15:11:38.082671 28789 layer_factory.hpp:77] Creating layer B2_0_SConv_ReLU
I0918 15:11:38.082675 28789 net.cpp:84] Creating Layer B2_0_SConv_ReLU
I0918 15:11:38.082679 28789 net.cpp:406] B2_0_SConv_ReLU <- B2_0_SConvBlockV2_Conv1x1
I0918 15:11:38.082700 28789 net.cpp:367] B2_0_SConv_ReLU -> B2_0_SConvBlockV2_Conv1x1 (in-place)
I0918 15:11:38.082703 28789 net.cpp:122] Setting up B2_0_SConv_ReLU
I0918 15:11:38.082706 28789 net.cpp:129] Top shape: 1 192 8 8 (12288)
I0918 15:11:38.082710 28789 net.cpp:137] Memory required for data: 8990732
I0918 15:11:38.082711 28789 layer_factory.hpp:77] Creating layer B2_0_SConv_Dropout
I0918 15:11:38.082720 28789 net.cpp:84] Creating Layer B2_0_SConv_Dropout
I0918 15:11:38.082722 28789 net.cpp:406] B2_0_SConv_Dropout <- B2_0_SConvBlockV2_Conv1x1
I0918 15:11:38.082726 28789 net.cpp:380] B2_0_SConv_Dropout -> B2_0_SConvBlockV2_Dropout
I0918 15:11:38.082747 28789 net.cpp:122] Setting up B2_0_SConv_Dropout
I0918 15:11:38.082751 28789 net.cpp:129] Top shape: 1 192 8 8 (12288)
I0918 15:11:38.082753 28789 net.cpp:137] Memory required for data: 9039884
I0918 15:11:38.082756 28789 layer_factory.hpp:77] Creating layer B2_1_SConv_SparseConv
I0918 15:11:38.082760 28789 net.cpp:84] Creating Layer B2_1_SConv_SparseConv
I0918 15:11:38.082763 28789 net.cpp:406] B2_1_SConv_SparseConv <- B2_0_SConvBlockV2_Dropout
I0918 15:11:38.082768 28789 net.cpp:380] B2_1_SConv_SparseConv -> B2_1_SConvBlockV2_T1
I0918 15:11:38.082880 28789 net.cpp:122] Setting up B2_1_SConv_SparseConv
I0918 15:11:38.082882 28789 net.cpp:129] Top shape: 1 768 8 8 (49152)
I0918 15:11:38.082886 28789 net.cpp:137] Memory required for data: 9236492
I0918 15:11:38.082890 28789 layer_factory.hpp:77] Creating layer B2_1_SConv_BN
I0918 15:11:38.082895 28789 net.cpp:84] Creating Layer B2_1_SConv_BN
I0918 15:11:38.082898 28789 net.cpp:406] B2_1_SConv_BN <- B2_1_SConvBlockV2_T1
I0918 15:11:38.082902 28789 net.cpp:367] B2_1_SConv_BN -> B2_1_SConvBlockV2_T1 (in-place)
I0918 15:11:38.082984 28789 net.cpp:122] Setting up B2_1_SConv_BN
I0918 15:11:38.082988 28789 net.cpp:129] Top shape: 1 768 8 8 (49152)
I0918 15:11:38.082991 28789 net.cpp:137] Memory required for data: 9433100
I0918 15:11:38.082995 28789 layer_factory.hpp:77] Creating layer B2_1_SConv_Scale
I0918 15:11:38.082999 28789 net.cpp:84] Creating Layer B2_1_SConv_Scale
I0918 15:11:38.083003 28789 net.cpp:406] B2_1_SConv_Scale <- B2_1_SConvBlockV2_T1
I0918 15:11:38.083005 28789 net.cpp:380] B2_1_SConv_Scale -> B2_1_SConvBlockV2_Scale
I0918 15:11:38.083025 28789 layer_factory.hpp:77] Creating layer B2_1_SConv_Scale
I0918 15:11:38.083079 28789 net.cpp:122] Setting up B2_1_SConv_Scale
I0918 15:11:38.083082 28789 net.cpp:129] Top shape: 1 768 8 8 (49152)
I0918 15:11:38.083086 28789 net.cpp:137] Memory required for data: 9629708
I0918 15:11:38.083089 28789 layer_factory.hpp:77] Creating layer B2_1_SConv_Conv1x1
I0918 15:11:38.083096 28789 net.cpp:84] Creating Layer B2_1_SConv_Conv1x1
I0918 15:11:38.083098 28789 net.cpp:406] B2_1_SConv_Conv1x1 <- B2_1_SConvBlockV2_Scale
I0918 15:11:38.083102 28789 net.cpp:380] B2_1_SConv_Conv1x1 -> B2_1_SConvBlockV2_Conv1x1
I0918 15:11:38.083801 28789 net.cpp:122] Setting up B2_1_SConv_Conv1x1
I0918 15:11:38.083806 28789 net.cpp:129] Top shape: 1 192 8 8 (12288)
I0918 15:11:38.083808 28789 net.cpp:137] Memory required for data: 9678860
I0918 15:11:38.083812 28789 layer_factory.hpp:77] Creating layer B2_1_SConv_ReLU
I0918 15:11:38.083818 28789 net.cpp:84] Creating Layer B2_1_SConv_ReLU
I0918 15:11:38.083822 28789 net.cpp:406] B2_1_SConv_ReLU <- B2_1_SConvBlockV2_Conv1x1
I0918 15:11:38.083825 28789 net.cpp:367] B2_1_SConv_ReLU -> B2_1_SConvBlockV2_Conv1x1 (in-place)
I0918 15:11:38.083829 28789 net.cpp:122] Setting up B2_1_SConv_ReLU
I0918 15:11:38.083832 28789 net.cpp:129] Top shape: 1 192 8 8 (12288)
I0918 15:11:38.083834 28789 net.cpp:137] Memory required for data: 9728012
I0918 15:11:38.083840 28789 layer_factory.hpp:77] Creating layer B2_1_SConv_Dropout
I0918 15:11:38.083849 28789 net.cpp:84] Creating Layer B2_1_SConv_Dropout
I0918 15:11:38.083853 28789 net.cpp:406] B2_1_SConv_Dropout <- B2_1_SConvBlockV2_Conv1x1
I0918 15:11:38.083858 28789 net.cpp:380] B2_1_SConv_Dropout -> B2_1_SConvBlockV2_Dropout
I0918 15:11:38.083873 28789 net.cpp:122] Setting up B2_1_SConv_Dropout
I0918 15:11:38.083875 28789 net.cpp:129] Top shape: 1 192 8 8 (12288)
I0918 15:11:38.083878 28789 net.cpp:137] Memory required for data: 9777164
I0918 15:11:38.083881 28789 layer_factory.hpp:77] Creating layer B2_2_SConv_SparseConv
I0918 15:11:38.083886 28789 net.cpp:84] Creating Layer B2_2_SConv_SparseConv
I0918 15:11:38.083889 28789 net.cpp:406] B2_2_SConv_SparseConv <- B2_1_SConvBlockV2_Dropout
I0918 15:11:38.083894 28789 net.cpp:380] B2_2_SConv_SparseConv -> B2_2_SConvBlockV2_T1
I0918 15:11:38.083997 28789 net.cpp:122] Setting up B2_2_SConv_SparseConv
I0918 15:11:38.084002 28789 net.cpp:129] Top shape: 1 768 8 8 (49152)
I0918 15:11:38.084004 28789 net.cpp:137] Memory required for data: 9973772
I0918 15:11:38.084007 28789 layer_factory.hpp:77] Creating layer B2_2_SConv_BN
I0918 15:11:38.084012 28789 net.cpp:84] Creating Layer B2_2_SConv_BN
I0918 15:11:38.084015 28789 net.cpp:406] B2_2_SConv_BN <- B2_2_SConvBlockV2_T1
I0918 15:11:38.084019 28789 net.cpp:367] B2_2_SConv_BN -> B2_2_SConvBlockV2_T1 (in-place)
I0918 15:11:38.084084 28789 net.cpp:122] Setting up B2_2_SConv_BN
I0918 15:11:38.084086 28789 net.cpp:129] Top shape: 1 768 8 8 (49152)
I0918 15:11:38.084089 28789 net.cpp:137] Memory required for data: 10170380
I0918 15:11:38.084093 28789 layer_factory.hpp:77] Creating layer B2_2_SConv_Scale
I0918 15:11:38.084098 28789 net.cpp:84] Creating Layer B2_2_SConv_Scale
I0918 15:11:38.084101 28789 net.cpp:406] B2_2_SConv_Scale <- B2_2_SConvBlockV2_T1
I0918 15:11:38.084105 28789 net.cpp:380] B2_2_SConv_Scale -> B2_2_SConvBlockV2_Scale
I0918 15:11:38.084120 28789 layer_factory.hpp:77] Creating layer B2_2_SConv_Scale
I0918 15:11:38.084163 28789 net.cpp:122] Setting up B2_2_SConv_Scale
I0918 15:11:38.084167 28789 net.cpp:129] Top shape: 1 768 8 8 (49152)
I0918 15:11:38.084169 28789 net.cpp:137] Memory required for data: 10366988
I0918 15:11:38.084173 28789 layer_factory.hpp:77] Creating layer B2_2_SConv_Conv1x1
I0918 15:11:38.084179 28789 net.cpp:84] Creating Layer B2_2_SConv_Conv1x1
I0918 15:11:38.084182 28789 net.cpp:406] B2_2_SConv_Conv1x1 <- B2_2_SConvBlockV2_Scale
I0918 15:11:38.084185 28789 net.cpp:380] B2_2_SConv_Conv1x1 -> B2_2_SConvBlockV2_Conv1x1
I0918 15:11:38.085709 28789 net.cpp:122] Setting up B2_2_SConv_Conv1x1
I0918 15:11:38.085719 28789 net.cpp:129] Top shape: 1 192 8 8 (12288)
I0918 15:11:38.085724 28789 net.cpp:137] Memory required for data: 10416140
I0918 15:11:38.085728 28789 layer_factory.hpp:77] Creating layer B2_2_SConv_ReLU
I0918 15:11:38.085734 28789 net.cpp:84] Creating Layer B2_2_SConv_ReLU
I0918 15:11:38.085737 28789 net.cpp:406] B2_2_SConv_ReLU <- B2_2_SConvBlockV2_Conv1x1
I0918 15:11:38.085743 28789 net.cpp:367] B2_2_SConv_ReLU -> B2_2_SConvBlockV2_Conv1x1 (in-place)
I0918 15:11:38.085747 28789 net.cpp:122] Setting up B2_2_SConv_ReLU
I0918 15:11:38.085750 28789 net.cpp:129] Top shape: 1 192 8 8 (12288)
I0918 15:11:38.085753 28789 net.cpp:137] Memory required for data: 10465292
I0918 15:11:38.085755 28789 layer_factory.hpp:77] Creating layer B2_2_SConv_Dropout
I0918 15:11:38.085759 28789 net.cpp:84] Creating Layer B2_2_SConv_Dropout
I0918 15:11:38.085762 28789 net.cpp:406] B2_2_SConv_Dropout <- B2_2_SConvBlockV2_Conv1x1
I0918 15:11:38.085765 28789 net.cpp:380] B2_2_SConv_Dropout -> B2_2_SConvBlockV2_Dropout
I0918 15:11:38.085783 28789 net.cpp:122] Setting up B2_2_SConv_Dropout
I0918 15:11:38.085785 28789 net.cpp:129] Top shape: 1 192 8 8 (12288)
I0918 15:11:38.085788 28789 net.cpp:137] Memory required for data: 10514444
I0918 15:11:38.085791 28789 layer_factory.hpp:77] Creating layer B2_Pooling
I0918 15:11:38.085796 28789 net.cpp:84] Creating Layer B2_Pooling
I0918 15:11:38.085803 28789 net.cpp:406] B2_Pooling <- B2_2_SConvBlockV2_Dropout
I0918 15:11:38.085811 28789 net.cpp:380] B2_Pooling -> Pooling3
I0918 15:11:38.085830 28789 net.cpp:122] Setting up B2_Pooling
I0918 15:11:38.085834 28789 net.cpp:129] Top shape: 1 192 4 4 (3072)
I0918 15:11:38.085836 28789 net.cpp:137] Memory required for data: 10526732
I0918 15:11:38.085839 28789 layer_factory.hpp:77] Creating layer B3_0_SConv_SparseConv
I0918 15:11:38.085844 28789 net.cpp:84] Creating Layer B3_0_SConv_SparseConv
I0918 15:11:38.085847 28789 net.cpp:406] B3_0_SConv_SparseConv <- Pooling3
I0918 15:11:38.085851 28789 net.cpp:380] B3_0_SConv_SparseConv -> B3_0_SConvBlockV2_T1
I0918 15:11:38.085947 28789 net.cpp:122] Setting up B3_0_SConv_SparseConv
I0918 15:11:38.085950 28789 net.cpp:129] Top shape: 1 768 4 4 (12288)
I0918 15:11:38.085953 28789 net.cpp:137] Memory required for data: 10575884
I0918 15:11:38.085958 28789 layer_factory.hpp:77] Creating layer B3_0_SConv_BN
I0918 15:11:38.085963 28789 net.cpp:84] Creating Layer B3_0_SConv_BN
I0918 15:11:38.085966 28789 net.cpp:406] B3_0_SConv_BN <- B3_0_SConvBlockV2_T1
I0918 15:11:38.085969 28789 net.cpp:367] B3_0_SConv_BN -> B3_0_SConvBlockV2_T1 (in-place)
I0918 15:11:38.086038 28789 net.cpp:122] Setting up B3_0_SConv_BN
I0918 15:11:38.086041 28789 net.cpp:129] Top shape: 1 768 4 4 (12288)
I0918 15:11:38.086045 28789 net.cpp:137] Memory required for data: 10625036
I0918 15:11:38.086048 28789 layer_factory.hpp:77] Creating layer B3_0_SConv_Scale
I0918 15:11:38.086052 28789 net.cpp:84] Creating Layer B3_0_SConv_Scale
I0918 15:11:38.086055 28789 net.cpp:406] B3_0_SConv_Scale <- B3_0_SConvBlockV2_T1
I0918 15:11:38.086058 28789 net.cpp:380] B3_0_SConv_Scale -> B3_0_SConvBlockV2_Scale
I0918 15:11:38.086076 28789 layer_factory.hpp:77] Creating layer B3_0_SConv_Scale
I0918 15:11:38.086119 28789 net.cpp:122] Setting up B3_0_SConv_Scale
I0918 15:11:38.086122 28789 net.cpp:129] Top shape: 1 768 4 4 (12288)
I0918 15:11:38.086125 28789 net.cpp:137] Memory required for data: 10674188
I0918 15:11:38.086129 28789 layer_factory.hpp:77] Creating layer B3_0_SConv_Conv1x1
I0918 15:11:38.086135 28789 net.cpp:84] Creating Layer B3_0_SConv_Conv1x1
I0918 15:11:38.086138 28789 net.cpp:406] B3_0_SConv_Conv1x1 <- B3_0_SConvBlockV2_Scale
I0918 15:11:38.086143 28789 net.cpp:380] B3_0_SConv_Conv1x1 -> B3_0_SConvBlockV2_Conv1x1
I0918 15:11:38.088943 28789 net.cpp:122] Setting up B3_0_SConv_Conv1x1
I0918 15:11:38.088953 28789 net.cpp:129] Top shape: 1 192 4 4 (3072)
I0918 15:11:38.088958 28789 net.cpp:137] Memory required for data: 10686476
I0918 15:11:38.088964 28789 layer_factory.hpp:77] Creating layer B3_0_SConv_ReLU
I0918 15:11:38.088970 28789 net.cpp:84] Creating Layer B3_0_SConv_ReLU
I0918 15:11:38.088974 28789 net.cpp:406] B3_0_SConv_ReLU <- B3_0_SConvBlockV2_Conv1x1
I0918 15:11:38.088979 28789 net.cpp:367] B3_0_SConv_ReLU -> B3_0_SConvBlockV2_Conv1x1 (in-place)
I0918 15:11:38.088984 28789 net.cpp:122] Setting up B3_0_SConv_ReLU
I0918 15:11:38.088987 28789 net.cpp:129] Top shape: 1 192 4 4 (3072)
I0918 15:11:38.088991 28789 net.cpp:137] Memory required for data: 10698764
I0918 15:11:38.088994 28789 layer_factory.hpp:77] Creating layer B3_0_SConv_Dropout
I0918 15:11:38.089001 28789 net.cpp:84] Creating Layer B3_0_SConv_Dropout
I0918 15:11:38.089004 28789 net.cpp:406] B3_0_SConv_Dropout <- B3_0_SConvBlockV2_Conv1x1
I0918 15:11:38.089008 28789 net.cpp:380] B3_0_SConv_Dropout -> B3_0_SConvBlockV2_Dropout
I0918 15:11:38.089030 28789 net.cpp:122] Setting up B3_0_SConv_Dropout
I0918 15:11:38.089033 28789 net.cpp:129] Top shape: 1 192 4 4 (3072)
I0918 15:11:38.089037 28789 net.cpp:137] Memory required for data: 10711052
I0918 15:11:38.089041 28789 layer_factory.hpp:77] Creating layer B3_1_SConv_SparseConv
I0918 15:11:38.089046 28789 net.cpp:84] Creating Layer B3_1_SConv_SparseConv
I0918 15:11:38.089051 28789 net.cpp:406] B3_1_SConv_SparseConv <- B3_0_SConvBlockV2_Dropout
I0918 15:11:38.089056 28789 net.cpp:380] B3_1_SConv_SparseConv -> B3_1_SConvBlockV2_T1
I0918 15:11:38.089175 28789 net.cpp:122] Setting up B3_1_SConv_SparseConv
I0918 15:11:38.089183 28789 net.cpp:129] Top shape: 1 768 4 4 (12288)
I0918 15:11:38.089193 28789 net.cpp:137] Memory required for data: 10760204
I0918 15:11:38.089197 28789 layer_factory.hpp:77] Creating layer B3_1_SConv_BN
I0918 15:11:38.089206 28789 net.cpp:84] Creating Layer B3_1_SConv_BN
I0918 15:11:38.089210 28789 net.cpp:406] B3_1_SConv_BN <- B3_1_SConvBlockV2_T1
I0918 15:11:38.089215 28789 net.cpp:367] B3_1_SConv_BN -> B3_1_SConvBlockV2_T1 (in-place)
I0918 15:11:38.089300 28789 net.cpp:122] Setting up B3_1_SConv_BN
I0918 15:11:38.089304 28789 net.cpp:129] Top shape: 1 768 4 4 (12288)
I0918 15:11:38.089308 28789 net.cpp:137] Memory required for data: 10809356
I0918 15:11:38.089318 28789 layer_factory.hpp:77] Creating layer B3_1_SConv_Scale
I0918 15:11:38.089324 28789 net.cpp:84] Creating Layer B3_1_SConv_Scale
I0918 15:11:38.089329 28789 net.cpp:406] B3_1_SConv_Scale <- B3_1_SConvBlockV2_T1
I0918 15:11:38.089332 28789 net.cpp:380] B3_1_SConv_Scale -> B3_1_SConvBlockV2_Scale
I0918 15:11:38.089354 28789 layer_factory.hpp:77] Creating layer B3_1_SConv_Scale
I0918 15:11:38.089409 28789 net.cpp:122] Setting up B3_1_SConv_Scale
I0918 15:11:38.089413 28789 net.cpp:129] Top shape: 1 768 4 4 (12288)
I0918 15:11:38.089417 28789 net.cpp:137] Memory required for data: 10858508
I0918 15:11:38.089422 28789 layer_factory.hpp:77] Creating layer B3_1_SConv_Conv1x1
I0918 15:11:38.089429 28789 net.cpp:84] Creating Layer B3_1_SConv_Conv1x1
I0918 15:11:38.089433 28789 net.cpp:406] B3_1_SConv_Conv1x1 <- B3_1_SConvBlockV2_Scale
I0918 15:11:38.089438 28789 net.cpp:380] B3_1_SConv_Conv1x1 -> B3_1_SConvBlockV2_Conv1x1
I0918 15:11:38.090184 28789 net.cpp:122] Setting up B3_1_SConv_Conv1x1
I0918 15:11:38.090189 28789 net.cpp:129] Top shape: 1 192 4 4 (3072)
I0918 15:11:38.090193 28789 net.cpp:137] Memory required for data: 10870796
I0918 15:11:38.090196 28789 layer_factory.hpp:77] Creating layer B3_1_SConv_ReLU
I0918 15:11:38.090202 28789 net.cpp:84] Creating Layer B3_1_SConv_ReLU
I0918 15:11:38.090205 28789 net.cpp:406] B3_1_SConv_ReLU <- B3_1_SConvBlockV2_Conv1x1
I0918 15:11:38.090209 28789 net.cpp:367] B3_1_SConv_ReLU -> B3_1_SConvBlockV2_Conv1x1 (in-place)
I0918 15:11:38.090212 28789 net.cpp:122] Setting up B3_1_SConv_ReLU
I0918 15:11:38.090214 28789 net.cpp:129] Top shape: 1 192 4 4 (3072)
I0918 15:11:38.090217 28789 net.cpp:137] Memory required for data: 10883084
I0918 15:11:38.090219 28789 layer_factory.hpp:77] Creating layer B3_1_SConv_Dropout
I0918 15:11:38.090222 28789 net.cpp:84] Creating Layer B3_1_SConv_Dropout
I0918 15:11:38.090225 28789 net.cpp:406] B3_1_SConv_Dropout <- B3_1_SConvBlockV2_Conv1x1
I0918 15:11:38.090230 28789 net.cpp:380] B3_1_SConv_Dropout -> B3_1_SConvBlockV2_Dropout
I0918 15:11:38.090245 28789 net.cpp:122] Setting up B3_1_SConv_Dropout
I0918 15:11:38.090248 28789 net.cpp:129] Top shape: 1 192 4 4 (3072)
I0918 15:11:38.090250 28789 net.cpp:137] Memory required for data: 10895372
I0918 15:11:38.090253 28789 layer_factory.hpp:77] Creating layer B3_2_SConv_SparseConv
I0918 15:11:38.090257 28789 net.cpp:84] Creating Layer B3_2_SConv_SparseConv
I0918 15:11:38.090260 28789 net.cpp:406] B3_2_SConv_SparseConv <- B3_1_SConvBlockV2_Dropout
I0918 15:11:38.090262 28789 net.cpp:380] B3_2_SConv_SparseConv -> B3_2_SConvBlockV2_T1
I0918 15:11:38.090353 28789 net.cpp:122] Setting up B3_2_SConv_SparseConv
I0918 15:11:38.090355 28789 net.cpp:129] Top shape: 1 768 4 4 (12288)
I0918 15:11:38.090358 28789 net.cpp:137] Memory required for data: 10944524
I0918 15:11:38.090361 28789 layer_factory.hpp:77] Creating layer B3_2_SConv_BN
I0918 15:11:38.090368 28789 net.cpp:84] Creating Layer B3_2_SConv_BN
I0918 15:11:38.090369 28789 net.cpp:406] B3_2_SConv_BN <- B3_2_SConvBlockV2_T1
I0918 15:11:38.090373 28789 net.cpp:367] B3_2_SConv_BN -> B3_2_SConvBlockV2_T1 (in-place)
I0918 15:11:38.090435 28789 net.cpp:122] Setting up B3_2_SConv_BN
I0918 15:11:38.090438 28789 net.cpp:129] Top shape: 1 768 4 4 (12288)
I0918 15:11:38.090441 28789 net.cpp:137] Memory required for data: 10993676
I0918 15:11:38.090445 28789 layer_factory.hpp:77] Creating layer B3_2_SConv_Scale
I0918 15:11:38.090452 28789 net.cpp:84] Creating Layer B3_2_SConv_Scale
I0918 15:11:38.090458 28789 net.cpp:406] B3_2_SConv_Scale <- B3_2_SConvBlockV2_T1
I0918 15:11:38.090462 28789 net.cpp:380] B3_2_SConv_Scale -> B3_2_SConvBlockV2_Scale
I0918 15:11:38.090476 28789 layer_factory.hpp:77] Creating layer B3_2_SConv_Scale
I0918 15:11:38.090517 28789 net.cpp:122] Setting up B3_2_SConv_Scale
I0918 15:11:38.090520 28789 net.cpp:129] Top shape: 1 768 4 4 (12288)
I0918 15:11:38.090523 28789 net.cpp:137] Memory required for data: 11042828
I0918 15:11:38.090526 28789 layer_factory.hpp:77] Creating layer B3_2_SConv_Conv1x1
I0918 15:11:38.090533 28789 net.cpp:84] Creating Layer B3_2_SConv_Conv1x1
I0918 15:11:38.090535 28789 net.cpp:406] B3_2_SConv_Conv1x1 <- B3_2_SConvBlockV2_Scale
I0918 15:11:38.090538 28789 net.cpp:380] B3_2_SConv_Conv1x1 -> B3_2_SConvBlockV2_Conv1x1
I0918 15:11:38.092104 28789 net.cpp:122] Setting up B3_2_SConv_Conv1x1
I0918 15:11:38.092114 28789 net.cpp:129] Top shape: 1 192 4 4 (3072)
I0918 15:11:38.092118 28789 net.cpp:137] Memory required for data: 11055116
I0918 15:11:38.092123 28789 layer_factory.hpp:77] Creating layer B3_2_SConv_ReLU
I0918 15:11:38.092128 28789 net.cpp:84] Creating Layer B3_2_SConv_ReLU
I0918 15:11:38.092131 28789 net.cpp:406] B3_2_SConv_ReLU <- B3_2_SConvBlockV2_Conv1x1
I0918 15:11:38.092136 28789 net.cpp:367] B3_2_SConv_ReLU -> B3_2_SConvBlockV2_Conv1x1 (in-place)
I0918 15:11:38.092140 28789 net.cpp:122] Setting up B3_2_SConv_ReLU
I0918 15:11:38.092144 28789 net.cpp:129] Top shape: 1 192 4 4 (3072)
I0918 15:11:38.092146 28789 net.cpp:137] Memory required for data: 11067404
I0918 15:11:38.092149 28789 layer_factory.hpp:77] Creating layer B3_2_SConv_Dropout
I0918 15:11:38.092151 28789 net.cpp:84] Creating Layer B3_2_SConv_Dropout
I0918 15:11:38.092154 28789 net.cpp:406] B3_2_SConv_Dropout <- B3_2_SConvBlockV2_Conv1x1
I0918 15:11:38.092159 28789 net.cpp:380] B3_2_SConv_Dropout -> B3_2_SConvBlockV2_Dropout
I0918 15:11:38.092175 28789 net.cpp:122] Setting up B3_2_SConv_Dropout
I0918 15:11:38.092176 28789 net.cpp:129] Top shape: 1 192 4 4 (3072)
I0918 15:11:38.092195 28789 net.cpp:137] Memory required for data: 11079692
I0918 15:11:38.092198 28789 layer_factory.hpp:77] Creating layer B3_Pooling
I0918 15:11:38.092207 28789 net.cpp:84] Creating Layer B3_Pooling
I0918 15:11:38.092211 28789 net.cpp:406] B3_Pooling <- B3_2_SConvBlockV2_Dropout
I0918 15:11:38.092213 28789 net.cpp:380] B3_Pooling -> Pooling4
I0918 15:11:38.092223 28789 net.cpp:122] Setting up B3_Pooling
I0918 15:11:38.092226 28789 net.cpp:129] Top shape: 1 192 1 1 (192)
I0918 15:11:38.092229 28789 net.cpp:137] Memory required for data: 11080460
I0918 15:11:38.092231 28789 layer_factory.hpp:77] Creating layer fc1
I0918 15:11:38.092237 28789 net.cpp:84] Creating Layer fc1
I0918 15:11:38.092240 28789 net.cpp:406] fc1 <- Pooling4
I0918 15:11:38.092243 28789 net.cpp:380] fc1 -> fc1
I0918 15:11:38.092588 28789 net.cpp:122] Setting up fc1
I0918 15:11:38.092592 28789 net.cpp:129] Top shape: 1 384 (384)
I0918 15:11:38.092594 28789 net.cpp:137] Memory required for data: 11081996
I0918 15:11:38.092598 28789 layer_factory.hpp:77] Creating layer classifier
I0918 15:11:38.092602 28789 net.cpp:84] Creating Layer classifier
I0918 15:11:38.092605 28789 net.cpp:406] classifier <- fc1
I0918 15:11:38.092608 28789 net.cpp:380] classifier -> classifier
I0918 15:11:38.092660 28789 net.cpp:122] Setting up classifier
I0918 15:11:38.092664 28789 net.cpp:129] Top shape: 1 10 (10)
I0918 15:11:38.092666 28789 net.cpp:137] Memory required for data: 11082036
I0918 15:11:38.092669 28789 layer_factory.hpp:77] Creating layer classifier_classifier_0_split
I0918 15:11:38.092674 28789 net.cpp:84] Creating Layer classifier_classifier_0_split
I0918 15:11:38.092677 28789 net.cpp:406] classifier_classifier_0_split <- classifier
I0918 15:11:38.092681 28789 net.cpp:380] classifier_classifier_0_split -> classifier_classifier_0_split_0
I0918 15:11:38.092685 28789 net.cpp:380] classifier_classifier_0_split -> classifier_classifier_0_split_1
I0918 15:11:38.092703 28789 net.cpp:122] Setting up classifier_classifier_0_split
I0918 15:11:38.092710 28789 net.cpp:129] Top shape: 1 10 (10)
I0918 15:11:38.092713 28789 net.cpp:129] Top shape: 1 10 (10)
I0918 15:11:38.092716 28789 net.cpp:137] Memory required for data: 11082116
I0918 15:11:38.092718 28789 layer_factory.hpp:77] Creating layer softmax_loss
I0918 15:11:38.092722 28789 net.cpp:84] Creating Layer softmax_loss
I0918 15:11:38.092726 28789 net.cpp:406] softmax_loss <- classifier_classifier_0_split_0
I0918 15:11:38.092730 28789 net.cpp:406] softmax_loss <- label_InputData_1_split_0
…
