…
I0917 08:53:26.094297 14639 net.cpp:294] The NetState phase (0) differed from the phase (1) specified by a rule in layer accuracy
I0917 08:53:26.094302 14639 net.cpp:51] Initializing net from parameters: 
state {
  phase: TRAIN
  level: 0
  stage: ""
}
layer {
  name: "InputData"
  type: "ImageData"
  top: "data"
  top: "label"
  include {
    phase: TRAIN
  }
  transform_param {
    mirror: true
    crop_size: 32
  }
  image_data_param {
    source: "/home/jcwang/work/2.GeneratedSparseConvolution/0.CaffeSparseConv/4.TrainRuns/train.txt"
    batch_size: 32
    shuffle: true
    is_color: true
  }
}
layer {
  name: "B0_0_ConvBNScaleReLU_Conv"
  type: "Convolution"
  bottom: "data"
  top: "B0_0_ConvBNScaleReLU_Conv"
  convolution_param {
    num_output: 64
    bias_term: false
    pad: 1
    kernel_size: 3
    stride: 1
    weight_filler {
      type: "xavier"
    }
    bias_filler {
      type: "constant"
    }
  }
}
layer {
  name: "B0_0_ConvBNScaleReLU_BN"
  type: "BatchNorm"
  bottom: "B0_0_ConvBNScaleReLU_Conv"
  top: "B0_0_ConvBNScaleReLU_Conv"
  param {
    lr_mult: 0
    decay_mult: 0
  }
  param {
    lr_mult: 0
    decay_mult: 0
  }
  param {
    lr_mult: 0
    decay_mult: 0
  }
  batch_norm_param {
    moving_average_fraction: 0.999
    eps: 0.001
  }
}
layer {
  name: "B0_0_ConvBNScaleReLU_Scale"
  type: "Scale"
  bottom: "B0_0_ConvBNScaleReLU_Conv"
  top: "B0_0_ConvBNScaleReLU_Conv"
  scale_param {
    filler {
      value: 1
    }
    bias_term: true
    bias_filler {
      value: 0
    }
    l1_lambda: 0
  }
}
layer {
  name: "B0_0_ConvBNScaleReLU_ReLU"
  type: "ReLU"
  bottom: "B0_0_ConvBNScaleReLU_Conv"
  top: "B0_0_ConvBNScaleReLU_Conv"
}
layer {
  name: "B0_0_ConvBNScaleReLU_Dropout"
  type: "Dropout"
  bottom: "B0_0_ConvBNScaleReLU_Conv"
  top: "ConvBNScaleReLU"
  dropout_param {
    dropout_ratio: 0.25
  }
}
layer {
  name: "B0_1_SConv_SparseConv"
  type: "SparseConvolution"
  bottom: "ConvBNScaleReLU"
  top: "B0_1_SConvBlockV2_T1"
  sparse_convolution_param {
    weight_filler {
      type: "xavier"
    }
    channel_expand_multiplier: 4
  }
}
layer {
  name: "B0_1_SConv_BN"
  type: "BatchNorm"
  bottom: "B0_1_SConvBlockV2_T1"
  top: "B0_1_SConvBlockV2_T1"
  param {
    lr_mult: 0
    decay_mult: 0
  }
  param {
    lr_mult: 0
    decay_mult: 0
  }
  param {
    lr_mult: 0
    decay_mult: 0
  }
  batch_norm_param {
    moving_average_fraction: 0.999
    eps: 0.001
  }
}
layer {
  name: "B0_1_SConv_Scale"
  type: "Scale"
  bottom: "B0_1_SConvBlockV2_T1"
  top: "B0_1_SConvBlockV2_Scale"
  scale_param {
    bias_term: true
  }
}
layer {
  name: "B0_1_SConv_Conv1x1"
  type: "Convolution"
  bottom: "B0_1_SConvBlockV2_Scale"
  top: "B0_1_SConvBlockV2_Conv1x1"
  convolution_param {
    num_output: 64
    bias_term: true
    pad: 0
    kernel_size: 1
    stride: 1
    weight_filler {
      type: "xavier"
    }
    bias_filler {
      type: "constant"
    }
  }
}
layer {
  name: "B0_1_SConv_ReLU"
  type: "ReLU"
  bottom: "B0_1_SConvBlockV2_Conv1x1"
  top: "B0_1_SConvBlockV2_Conv1x1"
}
layer {
  name: "B0_1_SConv_Dropout"
  type: "Dropout"
  bottom: "B0_1_SConvBlockV2_Conv1x1"
  top: "B0_1_SConvBlockV2_Dropout"
  dropout_param {
    dropout_ratio: 0.25
  }
}
layer {
  name: "B0_Pooling"
  type: "Pooling"
  bottom: "B0_1_SConvBlockV2_Dropout"
  top: "Pooling1"
  pooling_param {
    pool: MAX
    kernel_size: 2
    stride: 2
    pad: 0
  }
}
layer {
  name: "B1_0_SConv_SparseConv"
  type: "SparseConvolution"
  bottom: "Pooling1"
  top: "B1_0_SConvBlockV2_T1"
  sparse_convolution_param {
    weight_filler {
      type: "xavier"
    }
    channel_expand_multiplier: 4
  }
}
layer {
  name: "B1_0_SConv_BN"
  type: "BatchNorm"
  bottom: "B1_0_SConvBlockV2_T1"
  top: "B1_0_SConvBlockV2_T1"
  param {
    lr_mult: 0
    decay_mult: 0
  }
  param {
    lr_mult: 0
    decay_mult: 0
  }
  param {
    lr_mult: 0
    decay_mult: 0
  }
  batch_norm_param {
    moving_average_fraction: 0.999
    eps: 0.001
  }
}
layer {
  name: "B1_0_SConv_Scale"
  type: "Scale"
  bottom: "B1_0_SConvBlockV2_T1"
  top: "B1_0_SConvBlockV2_Scale"
  scale_param {
    bias_term: true
  }
}
layer {
  name: "B1_0_SConv_Conv1x1"
  type: "Convolution"
  bottom: "B1_0_SConvBlockV2_Scale"
  top: "B1_0_SConvBlockV2_Conv1x1"
  convolution_param {
    num_output: 128
    bias_term: true
    pad: 0
    kernel_size: 1
    stride: 1
    weight_filler {
      type: "xavier"
    }
    bias_filler {
      type: "constant"
    }
  }
}
layer {
  name: "B1_0_SConv_ReLU"
  type: "ReLU"
  bottom: "B1_0_SConvBlockV2_Conv1x1"
  top: "B1_0_SConvBlockV2_Conv1x1"
}
layer {
  name: "B1_0_SConv_Dropout"
  type: "Dropout"
  bottom: "B1_0_SConvBlockV2_Conv1x1"
  top: "B1_0_SConvBlockV2_Dropout"
  dropout_param {
    dropout_ratio: 0.25
  }
}
layer {
  name: "B1_1_SConv_SparseConv"
  type: "SparseConvolution"
  bottom: "B1_0_SConvBlockV2_Dropout"
  top: "B1_1_SConvBlockV2_T1"
  sparse_convolution_param {
    weight_filler {
      type: "xavier"
    }
    channel_expand_multiplier: 4
  }
}
layer {
  name: "B1_1_SConv_BN"
  type: "BatchNorm"
  bottom: "B1_1_SConvBlockV2_T1"
  top: "B1_1_SConvBlockV2_T1"
  param {
    lr_mult: 0
    decay_mult: 0
  }
  param {
    lr_mult: 0
    decay_mult: 0
  }
  param {
    lr_mult: 0
    decay_mult: 0
  }
  batch_norm_param {
    moving_average_fraction: 0.999
    eps: 0.001
  }
}
layer {
  name: "B1_1_SConv_Scale"
  type: "Scale"
  bottom: "B1_1_SConvBlockV2_T1"
  top: "B1_1_SConvBlockV2_Scale"
  scale_param {
    bias_term: true
  }
}
layer {
  name: "B1_1_SConv_Conv1x1"
  type: "Convolution"
  bottom: "B1_1_SConvBlockV2_Scale"
  top: "B1_1_SConvBlockV2_Conv1x1"
  convolution_param {
    num_output: 128
    bias_term: true
    pad: 0
    kernel_size: 1
    stride: 1
    weight_filler {
      type: "xavier"
    }
    bias_filler {
      type: "constant"
    }
  }
}
layer {
  name: "B1_1_SConv_ReLU"
  type: "ReLU"
  bottom: "B1_1_SConvBlockV2_Conv1x1"
  top: "B1_1_SConvBlockV2_Conv1x1"
}
layer {
  name: "B1_1_SConv_Dropout"
  type: "Dropout"
  bottom: "B1_1_SConvBlockV2_Conv1x1"
  top: "B1_1_SConvBlockV2_Dropout"
  dropout_param {
    dropout_ratio: 0.25
  }
}
layer {
  name: "B1_Pooling"
  type: "Pooling"
  bottom: "B1_1_SConvBlockV2_Dropout"
  top: "Pooling2"
  pooling_param {
    pool: MAX
    kernel_size: 2
    stride: 2
    pad: 0
  }
}
layer {
  name: "B2_0_SConv_SparseConv"
  type: "SparseConvolution"
  bottom: "Pooling2"
  top: "B2_0_SConvBlockV2_T1"
  sparse_convolution_param {
    weight_filler {
      type: "xavier"
    }
    channel_expand_multiplier: 4
  }
}
layer {
  name: "B2_0_SConv_BN"
  type: "BatchNorm"
  bottom: "B2_0_SConvBlockV2_T1"
  top: "B2_0_SConvBlockV2_T1"
  param {
    lr_mult: 0
    decay_mult: 0
  }
  param {
    lr_mult: 0
    decay_mult: 0
  }
  param {
    lr_mult: 0
    decay_mult: 0
  }
  batch_norm_param {
    moving_average_fraction: 0.999
    eps: 0.001
  }
}
layer {
  name: "B2_0_SConv_Scale"
  type: "Scale"
  bottom: "B2_0_SConvBlockV2_T1"
  top: "B2_0_SConvBlockV2_Scale"
  scale_param {
    bias_term: true
  }
}
layer {
  name: "B2_0_SConv_Conv1x1"
  type: "Convolution"
  bottom: "B2_0_SConvBlockV2_Scale"
  top: "B2_0_SConvBlockV2_Conv1x1"
  convolution_param {
    num_output: 192
    bias_term: true
    pad: 0
    kernel_size: 1
    stride: 1
    weight_filler {
      type: "xavier"
    }
    bias_filler {
      type: "constant"
    }
  }
}
layer {
  name: "B2_0_SConv_ReLU"
  type: "ReLU"
  bottom: "B2_0_SConvBlockV2_Conv1x1"
  top: "B2_0_SConvBlockV2_Conv1x1"
}
layer {
  name: "B2_0_SConv_Dropout"
  type: "Dropout"
  bottom: "B2_0_SConvBlockV2_Conv1x1"
  top: "B2_0_SConvBlockV2_Dropout"
  dropout_param {
    dropout_ratio: 0.25
  }
}
layer {
  name: "B2_1_SConv_SparseConv"
  type: "SparseConvolution"
  bottom: "B2_0_SConvBlockV2_Dropout"
  top: "B2_1_SConvBlockV2_T1"
  sparse_convolution_param {
    weight_filler {
      type: "xavier"
    }
    channel_expand_multiplier: 4
  }
}
layer {
  name: "B2_1_SConv_BN"
  type: "BatchNorm"
  bottom: "B2_1_SConvBlockV2_T1"
  top: "B2_1_SConvBlockV2_T1"
  param {
    lr_mult: 0
    decay_mult: 0
  }
  param {
    lr_mult: 0
    decay_mult: 0
  }
  param {
    lr_mult: 0
    decay_mult: 0
  }
  batch_norm_param {
    moving_average_fraction: 0.999
    eps: 0.001
  }
}
layer {
  name: "B2_1_SConv_Scale"
  type: "Scale"
  bottom: "B2_1_SConvBlockV2_T1"
  top: "B2_1_SConvBlockV2_Scale"
  scale_param {
    bias_term: true
  }
}
layer {
  name: "B2_1_SConv_Conv1x1"
  type: "Convolution"
  bottom: "B2_1_SConvBlockV2_Scale"
  top: "B2_1_SConvBlockV2_Conv1x1"
  convolution_param {
    num_output: 192
    bias_term: true
    pad: 0
    kernel_size: 1
    stride: 1
    weight_filler {
      type: "xavier"
    }
    bias_filler {
      type: "constant"
    }
  }
}
layer {
  name: "B2_1_SConv_ReLU"
  type: "ReLU"
  bottom: "B2_1_SConvBlockV2_Conv1x1"
  top: "B2_1_SConvBlockV2_Conv1x1"
}
layer {
  name: "B2_1_SConv_Dropout"
  type: "Dropout"
  bottom: "B2_1_SConvBlockV2_Conv1x1"
  top: "B2_1_SConvBlockV2_Dropout"
  dropout_param {
    dropout_ratio: 0.25
  }
}
layer {
  name: "B2_2_SConv_SparseConv"
  type: "SparseConvolution"
  bottom: "B2_1_SConvBlockV2_Dropout"
  top: "B2_2_SConvBlockV2_T1"
  sparse_convolution_param {
    weight_filler {
      type: "xavier"
    }
    channel_expand_multiplier: 4
  }
}
layer {
  name: "B2_2_SConv_BN"
  type: "BatchNorm"
  bottom: "B2_2_SConvBlockV2_T1"
  top: "B2_2_SConvBlockV2_T1"
  param {
    lr_mult: 0
    decay_mult: 0
  }
  param {
    lr_mult: 0
    decay_mult: 0
  }
  param {
    lr_mult: 0
    decay_mult: 0
  }
  batch_norm_param {
    moving_average_fraction: 0.999
    eps: 0.001
  }
}
layer {
  name: "B2_2_SConv_Scale"
  type: "Scale"
  bottom: "B2_2_SConvBlockV2_T1"
  top: "B2_2_SConvBlockV2_Scale"
  scale_param {
    bias_term: true
  }
}
layer {
  name: "B2_2_SConv_Conv1x1"
  type: "Convolution"
  bottom: "B2_2_SConvBlockV2_Scale"
  top: "B2_2_SConvBlockV2_Conv1x1"
  convolution_param {
    num_output: 192
    bias_term: true
    pad: 0
    kernel_size: 1
    stride: 1
    weight_filler {
      type: "xavier"
    }
    bias_filler {
      type: "constant"
    }
  }
}
layer {
  name: "B2_2_SConv_ReLU"
  type: "ReLU"
  bottom: "B2_2_SConvBlockV2_Conv1x1"
  top: "B2_2_SConvBlockV2_Conv1x1"
}
layer {
  name: "B2_2_SConv_Dropout"
  type: "Dropout"
  bottom: "B2_2_SConvBlockV2_Conv1x1"
  top: "B2_2_SConvBlockV2_Dropout"
  dropout_param {
    dropout_ratio: 0.25
  }
}
layer {
  name: "B2_Pooling"
  type: "Pooling"
  bottom: "B2_2_SConvBlockV2_Dropout"
  top: "Pooling3"
  pooling_param {
    pool: MAX
    kernel_size: 2
    stride: 2
    pad: 0
  }
}
layer {
  name: "B3_0_SConv_SparseConv"
  type: "SparseConvolution"
  bottom: "Pooling3"
  top: "B3_0_SConvBlockV2_T1"
  sparse_convolution_param {
    weight_filler {
      type: "xavier"
    }
    channel_expand_multiplier: 4
  }
}
layer {
  name: "B3_0_SConv_BN"
  type: "BatchNorm"
  bottom: "B3_0_SConvBlockV2_T1"
  top: "B3_0_SConvBlockV2_T1"
  param {
    lr_mult: 0
    decay_mult: 0
  }
  param {
    lr_mult: 0
    decay_mult: 0
  }
  param {
    lr_mult: 0
    decay_mult: 0
  }
  batch_norm_param {
    moving_average_fraction: 0.999
    eps: 0.001
  }
}
layer {
  name: "B3_0_SConv_Scale"
  type: "Scale"
  bottom: "B3_0_SConvBlockV2_T1"
  top: "B3_0_SConvBlockV2_Scale"
  scale_param {
    bias_term: true
  }
}
layer {
  name: "B3_0_SConv_Conv1x1"
  type: "Convolution"
  bottom: "B3_0_SConvBlockV2_Scale"
  top: "B3_0_SConvBlockV2_Conv1x1"
  convolution_param {
    num_output: 192
    bias_term: true
    pad: 0
    kernel_size: 1
    stride: 1
    weight_filler {
      type: "xavier"
    }
    bias_filler {
      type: "constant"
    }
  }
}
layer {
  name: "B3_0_SConv_ReLU"
  type: "ReLU"
  bottom: "B3_0_SConvBlockV2_Conv1x1"
  top: "B3_0_SConvBlockV2_Conv1x1"
}
layer {
  name: "B3_0_SConv_Dropout"
  type: "Dropout"
  bottom: "B3_0_SConvBlockV2_Conv1x1"
  top: "B3_0_SConvBlockV2_Dropout"
  dropout_param {
    dropout_ratio: 0.25
  }
}
layer {
  name: "B3_1_SConv_SparseConv"
  type: "SparseConvolution"
  bottom: "B3_0_SConvBlockV2_Dropout"
  top: "B3_1_SConvBlockV2_T1"
  sparse_convolution_param {
    weight_filler {
      type: "xavier"
    }
    channel_expand_multiplier: 4
  }
}
layer {
  name: "B3_1_SConv_BN"
  type: "BatchNorm"
  bottom: "B3_1_SConvBlockV2_T1"
  top: "B3_1_SConvBlockV2_T1"
  param {
    lr_mult: 0
    decay_mult: 0
  }
  param {
    lr_mult: 0
    decay_mult: 0
  }
  param {
    lr_mult: 0
    decay_mult: 0
  }
  batch_norm_param {
    moving_average_fraction: 0.999
    eps: 0.001
  }
}
layer {
  name: "B3_1_SConv_Scale"
  type: "Scale"
  bottom: "B3_1_SConvBlockV2_T1"
  top: "B3_1_SConvBlockV2_Scale"
  scale_param {
    bias_term: true
  }
}
layer {
  name: "B3_1_SConv_Conv1x1"
  type: "Convolution"
  bottom: "B3_1_SConvBlockV2_Scale"
  top: "B3_1_SConvBlockV2_Conv1x1"
  convolution_param {
    num_output: 192
    bias_term: true
    pad: 0
    kernel_size: 1
    stride: 1
    weight_filler {
      type: "xavier"
    }
    bias_filler {
      type: "constant"
    }
  }
}
layer {
  name: "B3_1_SConv_ReLU"
  type: "ReLU"
  bottom: "B3_1_SConvBlockV2_Conv1x1"
  top: "B3_1_SConvBlockV2_Conv1x1"
}
layer {
  name: "B3_1_SConv_Dropout"
  type: "Dropout"
  bottom: "B3_1_SConvBlockV2_Conv1x1"
  top: "B3_1_SConvBlockV2_Dropout"
  dropout_param {
    dropout_ratio: 0.25
  }
}
layer {
  name: "B3_2_SConv_SparseConv"
  type: "SparseConvolution"
  bottom: "B3_1_SConvBlockV2_Dropout"
  top: "B3_2_SConvBlockV2_T1"
  sparse_convolution_param {
    weight_filler {
      type: "xavier"
    }
    channel_expand_multiplier: 4
  }
}
layer {
  name: "B3_2_SConv_BN"
  type: "BatchNorm"
  bottom: "B3_2_SConvBlockV2_T1"
  top: "B3_2_SConvBlockV2_T1"
  param {
    lr_mult: 0
    decay_mult: 0
  }
  param {
    lr_mult: 0
    decay_mult: 0
  }
  param {
    lr_mult: 0
    decay_mult: 0
  }
  batch_norm_param {
    moving_average_fraction: 0.999
    eps: 0.001
  }
}
layer {
  name: "B3_2_SConv_Scale"
  type: "Scale"
  bottom: "B3_2_SConvBlockV2_T1"
  top: "B3_2_SConvBlockV2_Scale"
  scale_param {
    bias_term: true
  }
}
layer {
  name: "B3_2_SConv_Conv1x1"
  type: "Convolution"
  bottom: "B3_2_SConvBlockV2_Scale"
  top: "B3_2_SConvBlockV2_Conv1x1"
  convolution_param {
    num_output: 192
    bias_term: true
    pad: 0
    kernel_size: 1
    stride: 1
    weight_filler {
      type: "xavier"
    }
    bias_filler {
      type: "constant"
    }
  }
}
layer {
  name: "B3_2_SConv_ReLU"
  type: "ReLU"
  bottom: "B3_2_SConvBlockV2_Conv1x1"
  top: "B3_2_SConvBlockV2_Conv1x1"
}
layer {
  name: "B3_2_SConv_Dropout"
  type: "Dropout"
  bottom: "B3_2_SConvBlockV2_Conv1x1"
  top: "B3_2_SConvBlockV2_Dropout"
  dropout_param {
    dropout_ratio: 0.25
  }
}
layer {
  name: "B3_Pooling"
  type: "Pooling"
  bottom: "B3_2_SConvBlockV2_Dropout"
  top: "Pooling4"
  pooling_param {
    pool: AVE
    global_pooling: true
  }
}
layer {
  name: "fc1"
  type: "InnerProduct"
  bottom: "Pooling4"
  top: "fc1"
  inner_product_param {
    num_output: 384
    bias_term: true
    weight_filler {
      type: "xavier"
    }
    bias_filler {
      type: "constant"
    }
  }
}
layer {
  name: "classifier"
  type: "InnerProduct"
  bottom: "fc1"
  top: "classifier"
  inner_product_param {
    num_output: 10
    bias_term: true
    weight_filler {
      type: "xavier"
    }
    bias_filler {
      type: "constant"
    }
  }
}
layer {
  name: "softmax_loss"
  type: "SoftmaxWithLoss"
  bottom: "classifier"
  bottom: "label"
  top: "softmax_loss"
}
I0917 08:53:26.094631 14639 layer_factory.hpp:77] Creating layer InputData
I0917 08:53:26.094660 14639 net.cpp:84] Creating Layer InputData
I0917 08:53:26.094666 14639 net.cpp:380] InputData -> data
I0917 08:53:26.094698 14639 net.cpp:380] InputData -> label
I0917 08:53:26.094713 14639 image_data_layer.cpp:38] Opening file /home/jcwang/work/2.GeneratedSparseConvolution/0.CaffeSparseConv/4.TrainRuns/train.txt
I0917 08:53:26.102308 14639 image_data_layer.cpp:53] Shuffling data
I0917 08:53:26.103091 14639 image_data_layer.cpp:63] A total of 50005 images.
I0917 08:53:26.104094 14639 image_data_layer.cpp:90] output data size: 32,3,32,32
I0917 08:53:26.104504 14639 net.cpp:122] Setting up InputData
I0917 08:53:26.104512 14639 net.cpp:129] Top shape: 32 3 32 32 (98304)
I0917 08:53:26.104535 14639 net.cpp:129] Top shape: 32 (32)
I0917 08:53:26.104538 14639 net.cpp:137] Memory required for data: 393344
I0917 08:53:26.104543 14639 layer_factory.hpp:77] Creating layer B0_0_ConvBNScaleReLU_Conv
I0917 08:53:26.104560 14639 net.cpp:84] Creating Layer B0_0_ConvBNScaleReLU_Conv
I0917 08:53:26.104566 14639 net.cpp:406] B0_0_ConvBNScaleReLU_Conv <- data
I0917 08:53:26.104578 14639 net.cpp:380] B0_0_ConvBNScaleReLU_Conv -> B0_0_ConvBNScaleReLU_Conv
I0917 08:53:26.104728 14639 net.cpp:122] Setting up B0_0_ConvBNScaleReLU_Conv
I0917 08:53:26.104732 14639 net.cpp:129] Top shape: 32 64 32 32 (2097152)
I0917 08:53:26.104737 14639 net.cpp:137] Memory required for data: 8781952
I0917 08:53:26.104755 14639 layer_factory.hpp:77] Creating layer B0_0_ConvBNScaleReLU_BN
I0917 08:53:26.104769 14639 net.cpp:84] Creating Layer B0_0_ConvBNScaleReLU_BN
I0917 08:53:26.104773 14639 net.cpp:406] B0_0_ConvBNScaleReLU_BN <- B0_0_ConvBNScaleReLU_Conv
I0917 08:53:26.104782 14639 net.cpp:367] B0_0_ConvBNScaleReLU_BN -> B0_0_ConvBNScaleReLU_Conv (in-place)
I0917 08:53:26.104868 14639 net.cpp:122] Setting up B0_0_ConvBNScaleReLU_BN
I0917 08:53:26.104871 14639 net.cpp:129] Top shape: 32 64 32 32 (2097152)
I0917 08:53:26.104876 14639 net.cpp:137] Memory required for data: 17170560
I0917 08:53:26.104882 14639 layer_factory.hpp:77] Creating layer B0_0_ConvBNScaleReLU_Scale
I0917 08:53:26.104887 14639 net.cpp:84] Creating Layer B0_0_ConvBNScaleReLU_Scale
I0917 08:53:26.104889 14639 net.cpp:406] B0_0_ConvBNScaleReLU_Scale <- B0_0_ConvBNScaleReLU_Conv
I0917 08:53:26.104895 14639 net.cpp:367] B0_0_ConvBNScaleReLU_Scale -> B0_0_ConvBNScaleReLU_Conv (in-place)
I0917 08:53:26.104918 14639 layer_factory.hpp:77] Creating layer B0_0_ConvBNScaleReLU_Scale
I0917 08:53:26.104990 14639 net.cpp:122] Setting up B0_0_ConvBNScaleReLU_Scale
I0917 08:53:26.104992 14639 net.cpp:129] Top shape: 32 64 32 32 (2097152)
I0917 08:53:26.104996 14639 net.cpp:137] Memory required for data: 25559168
I0917 08:53:26.105000 14639 layer_factory.hpp:77] Creating layer B0_0_ConvBNScaleReLU_ReLU
I0917 08:53:26.105007 14639 net.cpp:84] Creating Layer B0_0_ConvBNScaleReLU_ReLU
I0917 08:53:26.105010 14639 net.cpp:406] B0_0_ConvBNScaleReLU_ReLU <- B0_0_ConvBNScaleReLU_Conv
I0917 08:53:26.105013 14639 net.cpp:367] B0_0_ConvBNScaleReLU_ReLU -> B0_0_ConvBNScaleReLU_Conv (in-place)
I0917 08:53:26.105017 14639 net.cpp:122] Setting up B0_0_ConvBNScaleReLU_ReLU
I0917 08:53:26.105020 14639 net.cpp:129] Top shape: 32 64 32 32 (2097152)
I0917 08:53:26.105023 14639 net.cpp:137] Memory required for data: 33947776
I0917 08:53:26.105026 14639 layer_factory.hpp:77] Creating layer B0_0_ConvBNScaleReLU_Dropout
I0917 08:53:26.105031 14639 net.cpp:84] Creating Layer B0_0_ConvBNScaleReLU_Dropout
I0917 08:53:26.105032 14639 net.cpp:406] B0_0_ConvBNScaleReLU_Dropout <- B0_0_ConvBNScaleReLU_Conv
I0917 08:53:26.105036 14639 net.cpp:380] B0_0_ConvBNScaleReLU_Dropout -> ConvBNScaleReLU
I0917 08:53:26.105059 14639 net.cpp:122] Setting up B0_0_ConvBNScaleReLU_Dropout
I0917 08:53:26.105062 14639 net.cpp:129] Top shape: 32 64 32 32 (2097152)
I0917 08:53:26.105065 14639 net.cpp:137] Memory required for data: 42336384
I0917 08:53:26.105067 14639 layer_factory.hpp:77] Creating layer B0_1_SConv_SparseConv
I0917 08:53:26.105080 14639 net.cpp:84] Creating Layer B0_1_SConv_SparseConv
I0917 08:53:26.105083 14639 net.cpp:406] B0_1_SConv_SparseConv <- ConvBNScaleReLU
I0917 08:53:26.105088 14639 net.cpp:380] B0_1_SConv_SparseConv -> B0_1_SConvBlockV2_T1
I0917 08:53:26.105173 14639 net.cpp:122] Setting up B0_1_SConv_SparseConv
I0917 08:53:26.105177 14639 net.cpp:129] Top shape: 32 256 32 32 (8388608)
I0917 08:53:26.105180 14639 net.cpp:137] Memory required for data: 75890816
I0917 08:53:26.105183 14639 layer_factory.hpp:77] Creating layer B0_1_SConv_BN
I0917 08:53:26.105190 14639 net.cpp:84] Creating Layer B0_1_SConv_BN
I0917 08:53:26.105192 14639 net.cpp:406] B0_1_SConv_BN <- B0_1_SConvBlockV2_T1
I0917 08:53:26.105197 14639 net.cpp:367] B0_1_SConv_BN -> B0_1_SConvBlockV2_T1 (in-place)
I0917 08:53:26.105258 14639 net.cpp:122] Setting up B0_1_SConv_BN
I0917 08:53:26.105262 14639 net.cpp:129] Top shape: 32 256 32 32 (8388608)
I0917 08:53:26.105264 14639 net.cpp:137] Memory required for data: 109445248
I0917 08:53:26.105269 14639 layer_factory.hpp:77] Creating layer B0_1_SConv_Scale
I0917 08:53:26.105273 14639 net.cpp:84] Creating Layer B0_1_SConv_Scale
I0917 08:53:26.105276 14639 net.cpp:406] B0_1_SConv_Scale <- B0_1_SConvBlockV2_T1
I0917 08:53:26.105279 14639 net.cpp:380] B0_1_SConv_Scale -> B0_1_SConvBlockV2_Scale
I0917 08:53:26.105298 14639 layer_factory.hpp:77] Creating layer B0_1_SConv_Scale
I0917 08:53:26.105357 14639 net.cpp:122] Setting up B0_1_SConv_Scale
I0917 08:53:26.105360 14639 net.cpp:129] Top shape: 32 256 32 32 (8388608)
I0917 08:53:26.105365 14639 net.cpp:137] Memory required for data: 142999680
I0917 08:53:26.105370 14639 layer_factory.hpp:77] Creating layer B0_1_SConv_Conv1x1
I0917 08:53:26.105379 14639 net.cpp:84] Creating Layer B0_1_SConv_Conv1x1
I0917 08:53:26.105382 14639 net.cpp:406] B0_1_SConv_Conv1x1 <- B0_1_SConvBlockV2_Scale
I0917 08:53:26.105386 14639 net.cpp:380] B0_1_SConv_Conv1x1 -> B0_1_SConvBlockV2_Conv1x1
I0917 08:53:26.105553 14639 net.cpp:122] Setting up B0_1_SConv_Conv1x1
I0917 08:53:26.105556 14639 net.cpp:129] Top shape: 32 64 32 32 (2097152)
I0917 08:53:26.105561 14639 net.cpp:137] Memory required for data: 151388288
I0917 08:53:26.105563 14639 layer_factory.hpp:77] Creating layer B0_1_SConv_ReLU
I0917 08:53:26.105567 14639 net.cpp:84] Creating Layer B0_1_SConv_ReLU
I0917 08:53:26.105571 14639 net.cpp:406] B0_1_SConv_ReLU <- B0_1_SConvBlockV2_Conv1x1
I0917 08:53:26.105573 14639 net.cpp:367] B0_1_SConv_ReLU -> B0_1_SConvBlockV2_Conv1x1 (in-place)
I0917 08:53:26.105577 14639 net.cpp:122] Setting up B0_1_SConv_ReLU
I0917 08:53:26.105581 14639 net.cpp:129] Top shape: 32 64 32 32 (2097152)
I0917 08:53:26.105583 14639 net.cpp:137] Memory required for data: 159776896
I0917 08:53:26.105585 14639 layer_factory.hpp:77] Creating layer B0_1_SConv_Dropout
I0917 08:53:26.105589 14639 net.cpp:84] Creating Layer B0_1_SConv_Dropout
I0917 08:53:26.105592 14639 net.cpp:406] B0_1_SConv_Dropout <- B0_1_SConvBlockV2_Conv1x1
I0917 08:53:26.105598 14639 net.cpp:380] B0_1_SConv_Dropout -> B0_1_SConvBlockV2_Dropout
I0917 08:53:26.105610 14639 net.cpp:122] Setting up B0_1_SConv_Dropout
I0917 08:53:26.105613 14639 net.cpp:129] Top shape: 32 64 32 32 (2097152)
I0917 08:53:26.105616 14639 net.cpp:137] Memory required for data: 168165504
I0917 08:53:26.105619 14639 layer_factory.hpp:77] Creating layer B0_Pooling
I0917 08:53:26.105623 14639 net.cpp:84] Creating Layer B0_Pooling
I0917 08:53:26.105626 14639 net.cpp:406] B0_Pooling <- B0_1_SConvBlockV2_Dropout
I0917 08:53:26.105629 14639 net.cpp:380] B0_Pooling -> Pooling1
I0917 08:53:26.105649 14639 net.cpp:122] Setting up B0_Pooling
I0917 08:53:26.105652 14639 net.cpp:129] Top shape: 32 64 16 16 (524288)
I0917 08:53:26.105655 14639 net.cpp:137] Memory required for data: 170262656
I0917 08:53:26.105659 14639 layer_factory.hpp:77] Creating layer B1_0_SConv_SparseConv
I0917 08:53:26.105664 14639 net.cpp:84] Creating Layer B1_0_SConv_SparseConv
I0917 08:53:26.105667 14639 net.cpp:406] B1_0_SConv_SparseConv <- Pooling1
I0917 08:53:26.105675 14639 net.cpp:380] B1_0_SConv_SparseConv -> B1_0_SConvBlockV2_T1
I0917 08:53:26.105733 14639 net.cpp:122] Setting up B1_0_SConv_SparseConv
I0917 08:53:26.105736 14639 net.cpp:129] Top shape: 32 256 16 16 (2097152)
I0917 08:53:26.105739 14639 net.cpp:137] Memory required for data: 178651264
I0917 08:53:26.105743 14639 layer_factory.hpp:77] Creating layer B1_0_SConv_BN
I0917 08:53:26.105747 14639 net.cpp:84] Creating Layer B1_0_SConv_BN
I0917 08:53:26.105749 14639 net.cpp:406] B1_0_SConv_BN <- B1_0_SConvBlockV2_T1
I0917 08:53:26.105753 14639 net.cpp:367] B1_0_SConv_BN -> B1_0_SConvBlockV2_T1 (in-place)
I0917 08:53:26.105815 14639 net.cpp:122] Setting up B1_0_SConv_BN
I0917 08:53:26.105818 14639 net.cpp:129] Top shape: 32 256 16 16 (2097152)
I0917 08:53:26.105823 14639 net.cpp:137] Memory required for data: 187039872
I0917 08:53:26.105827 14639 layer_factory.hpp:77] Creating layer B1_0_SConv_Scale
I0917 08:53:26.105831 14639 net.cpp:84] Creating Layer B1_0_SConv_Scale
I0917 08:53:26.105834 14639 net.cpp:406] B1_0_SConv_Scale <- B1_0_SConvBlockV2_T1
I0917 08:53:26.105839 14639 net.cpp:380] B1_0_SConv_Scale -> B1_0_SConvBlockV2_Scale
I0917 08:53:26.105856 14639 layer_factory.hpp:77] Creating layer B1_0_SConv_Scale
I0917 08:53:26.105893 14639 net.cpp:122] Setting up B1_0_SConv_Scale
I0917 08:53:26.105897 14639 net.cpp:129] Top shape: 32 256 16 16 (2097152)
I0917 08:53:26.105901 14639 net.cpp:137] Memory required for data: 195428480
I0917 08:53:26.105904 14639 layer_factory.hpp:77] Creating layer B1_0_SConv_Conv1x1
I0917 08:53:26.105911 14639 net.cpp:84] Creating Layer B1_0_SConv_Conv1x1
I0917 08:53:26.105913 14639 net.cpp:406] B1_0_SConv_Conv1x1 <- B1_0_SConvBlockV2_Scale
I0917 08:53:26.105921 14639 net.cpp:380] B1_0_SConv_Conv1x1 -> B1_0_SConvBlockV2_Conv1x1
I0917 08:53:26.106137 14639 net.cpp:122] Setting up B1_0_SConv_Conv1x1
I0917 08:53:26.106139 14639 net.cpp:129] Top shape: 32 128 16 16 (1048576)
I0917 08:53:26.106143 14639 net.cpp:137] Memory required for data: 199622784
I0917 08:53:26.106146 14639 layer_factory.hpp:77] Creating layer B1_0_SConv_ReLU
I0917 08:53:26.106150 14639 net.cpp:84] Creating Layer B1_0_SConv_ReLU
I0917 08:53:26.106153 14639 net.cpp:406] B1_0_SConv_ReLU <- B1_0_SConvBlockV2_Conv1x1
I0917 08:53:26.106158 14639 net.cpp:367] B1_0_SConv_ReLU -> B1_0_SConvBlockV2_Conv1x1 (in-place)
I0917 08:53:26.106161 14639 net.cpp:122] Setting up B1_0_SConv_ReLU
I0917 08:53:26.106163 14639 net.cpp:129] Top shape: 32 128 16 16 (1048576)
I0917 08:53:26.106166 14639 net.cpp:137] Memory required for data: 203817088
I0917 08:53:26.106169 14639 layer_factory.hpp:77] Creating layer B1_0_SConv_Dropout
I0917 08:53:26.106173 14639 net.cpp:84] Creating Layer B1_0_SConv_Dropout
I0917 08:53:26.106175 14639 net.cpp:406] B1_0_SConv_Dropout <- B1_0_SConvBlockV2_Conv1x1
I0917 08:53:26.106178 14639 net.cpp:380] B1_0_SConv_Dropout -> B1_0_SConvBlockV2_Dropout
I0917 08:53:26.106192 14639 net.cpp:122] Setting up B1_0_SConv_Dropout
I0917 08:53:26.106195 14639 net.cpp:129] Top shape: 32 128 16 16 (1048576)
I0917 08:53:26.106199 14639 net.cpp:137] Memory required for data: 208011392
I0917 08:53:26.106200 14639 layer_factory.hpp:77] Creating layer B1_1_SConv_SparseConv
I0917 08:53:26.106204 14639 net.cpp:84] Creating Layer B1_1_SConv_SparseConv
I0917 08:53:26.106206 14639 net.cpp:406] B1_1_SConv_SparseConv <- B1_0_SConvBlockV2_Dropout
I0917 08:53:26.106212 14639 net.cpp:380] B1_1_SConv_SparseConv -> B1_1_SConvBlockV2_T1
I0917 08:53:26.106325 14639 net.cpp:122] Setting up B1_1_SConv_SparseConv
I0917 08:53:26.106329 14639 net.cpp:129] Top shape: 32 512 16 16 (4194304)
I0917 08:53:26.106333 14639 net.cpp:137] Memory required for data: 224788608
I0917 08:53:26.106335 14639 layer_factory.hpp:77] Creating layer B1_1_SConv_BN
I0917 08:53:26.106341 14639 net.cpp:84] Creating Layer B1_1_SConv_BN
I0917 08:53:26.106344 14639 net.cpp:406] B1_1_SConv_BN <- B1_1_SConvBlockV2_T1
I0917 08:53:26.106348 14639 net.cpp:367] B1_1_SConv_BN -> B1_1_SConvBlockV2_T1 (in-place)
I0917 08:53:26.106739 14639 net.cpp:122] Setting up B1_1_SConv_BN
I0917 08:53:26.106747 14639 net.cpp:129] Top shape: 32 512 16 16 (4194304)
I0917 08:53:26.106750 14639 net.cpp:137] Memory required for data: 241565824
I0917 08:53:26.106755 14639 layer_factory.hpp:77] Creating layer B1_1_SConv_Scale
I0917 08:53:26.106758 14639 net.cpp:84] Creating Layer B1_1_SConv_Scale
I0917 08:53:26.106761 14639 net.cpp:406] B1_1_SConv_Scale <- B1_1_SConvBlockV2_T1
I0917 08:53:26.106765 14639 net.cpp:380] B1_1_SConv_Scale -> B1_1_SConvBlockV2_Scale
I0917 08:53:26.106781 14639 layer_factory.hpp:77] Creating layer B1_1_SConv_Scale
I0917 08:53:26.106822 14639 net.cpp:122] Setting up B1_1_SConv_Scale
I0917 08:53:26.106825 14639 net.cpp:129] Top shape: 32 512 16 16 (4194304)
I0917 08:53:26.106828 14639 net.cpp:137] Memory required for data: 258343040
I0917 08:53:26.106832 14639 layer_factory.hpp:77] Creating layer B1_1_SConv_Conv1x1
I0917 08:53:26.106839 14639 net.cpp:84] Creating Layer B1_1_SConv_Conv1x1
I0917 08:53:26.106842 14639 net.cpp:406] B1_1_SConv_Conv1x1 <- B1_1_SConvBlockV2_Scale
I0917 08:53:26.106846 14639 net.cpp:380] B1_1_SConv_Conv1x1 -> B1_1_SConvBlockV2_Conv1x1
I0917 08:53:26.108016 14639 net.cpp:122] Setting up B1_1_SConv_Conv1x1
I0917 08:53:26.108024 14639 net.cpp:129] Top shape: 32 128 16 16 (1048576)
I0917 08:53:26.108028 14639 net.cpp:137] Memory required for data: 262537344
I0917 08:53:26.108033 14639 layer_factory.hpp:77] Creating layer B1_1_SConv_ReLU
I0917 08:53:26.108039 14639 net.cpp:84] Creating Layer B1_1_SConv_ReLU
I0917 08:53:26.108043 14639 net.cpp:406] B1_1_SConv_ReLU <- B1_1_SConvBlockV2_Conv1x1
I0917 08:53:26.108047 14639 net.cpp:367] B1_1_SConv_ReLU -> B1_1_SConvBlockV2_Conv1x1 (in-place)
I0917 08:53:26.108055 14639 net.cpp:122] Setting up B1_1_SConv_ReLU
I0917 08:53:26.108058 14639 net.cpp:129] Top shape: 32 128 16 16 (1048576)
I0917 08:53:26.108062 14639 net.cpp:137] Memory required for data: 266731648
I0917 08:53:26.108064 14639 layer_factory.hpp:77] Creating layer B1_1_SConv_Dropout
I0917 08:53:26.108068 14639 net.cpp:84] Creating Layer B1_1_SConv_Dropout
I0917 08:53:26.108072 14639 net.cpp:406] B1_1_SConv_Dropout <- B1_1_SConvBlockV2_Conv1x1
I0917 08:53:26.108075 14639 net.cpp:380] B1_1_SConv_Dropout -> B1_1_SConvBlockV2_Dropout
I0917 08:53:26.108090 14639 net.cpp:122] Setting up B1_1_SConv_Dropout
I0917 08:53:26.108093 14639 net.cpp:129] Top shape: 32 128 16 16 (1048576)
I0917 08:53:26.108098 14639 net.cpp:137] Memory required for data: 270925952
I0917 08:53:26.108099 14639 layer_factory.hpp:77] Creating layer B1_Pooling
I0917 08:53:26.108104 14639 net.cpp:84] Creating Layer B1_Pooling
I0917 08:53:26.108108 14639 net.cpp:406] B1_Pooling <- B1_1_SConvBlockV2_Dropout
I0917 08:53:26.108111 14639 net.cpp:380] B1_Pooling -> Pooling2
I0917 08:53:26.108127 14639 net.cpp:122] Setting up B1_Pooling
I0917 08:53:26.108130 14639 net.cpp:129] Top shape: 32 128 8 8 (262144)
I0917 08:53:26.108134 14639 net.cpp:137] Memory required for data: 271974528
I0917 08:53:26.108136 14639 layer_factory.hpp:77] Creating layer B2_0_SConv_SparseConv
I0917 08:53:26.108140 14639 net.cpp:84] Creating Layer B2_0_SConv_SparseConv
I0917 08:53:26.108142 14639 net.cpp:406] B2_0_SConv_SparseConv <- Pooling2
I0917 08:53:26.108147 14639 net.cpp:380] B2_0_SConv_SparseConv -> B2_0_SConvBlockV2_T1
I0917 08:53:26.108224 14639 net.cpp:122] Setting up B2_0_SConv_SparseConv
I0917 08:53:26.108228 14639 net.cpp:129] Top shape: 32 512 8 8 (1048576)
I0917 08:53:26.108232 14639 net.cpp:137] Memory required for data: 276168832
I0917 08:53:26.108234 14639 layer_factory.hpp:77] Creating layer B2_0_SConv_BN
I0917 08:53:26.108242 14639 net.cpp:84] Creating Layer B2_0_SConv_BN
I0917 08:53:26.108245 14639 net.cpp:406] B2_0_SConv_BN <- B2_0_SConvBlockV2_T1
I0917 08:53:26.108249 14639 net.cpp:367] B2_0_SConv_BN -> B2_0_SConvBlockV2_T1 (in-place)
I0917 08:53:26.108366 14639 net.cpp:122] Setting up B2_0_SConv_BN
I0917 08:53:26.108371 14639 net.cpp:129] Top shape: 32 512 8 8 (1048576)
I0917 08:53:26.108373 14639 net.cpp:137] Memory required for data: 280363136
I0917 08:53:26.108378 14639 layer_factory.hpp:77] Creating layer B2_0_SConv_Scale
I0917 08:53:26.108389 14639 net.cpp:84] Creating Layer B2_0_SConv_Scale
I0917 08:53:26.108392 14639 net.cpp:406] B2_0_SConv_Scale <- B2_0_SConvBlockV2_T1
I0917 08:53:26.108395 14639 net.cpp:380] B2_0_SConv_Scale -> B2_0_SConvBlockV2_Scale
I0917 08:53:26.108413 14639 layer_factory.hpp:77] Creating layer B2_0_SConv_Scale
I0917 08:53:26.108458 14639 net.cpp:122] Setting up B2_0_SConv_Scale
I0917 08:53:26.108460 14639 net.cpp:129] Top shape: 32 512 8 8 (1048576)
I0917 08:53:26.108464 14639 net.cpp:137] Memory required for data: 284557440
I0917 08:53:26.108467 14639 layer_factory.hpp:77] Creating layer B2_0_SConv_Conv1x1
I0917 08:53:26.108474 14639 net.cpp:84] Creating Layer B2_0_SConv_Conv1x1
I0917 08:53:26.108477 14639 net.cpp:406] B2_0_SConv_Conv1x1 <- B2_0_SConvBlockV2_Scale
I0917 08:53:26.108481 14639 net.cpp:380] B2_0_SConv_Conv1x1 -> B2_0_SConvBlockV2_Conv1x1
I0917 08:53:26.109067 14639 net.cpp:122] Setting up B2_0_SConv_Conv1x1
I0917 08:53:26.109072 14639 net.cpp:129] Top shape: 32 192 8 8 (393216)
I0917 08:53:26.109076 14639 net.cpp:137] Memory required for data: 286130304
I0917 08:53:26.109081 14639 layer_factory.hpp:77] Creating layer B2_0_SConv_ReLU
I0917 08:53:26.109086 14639 net.cpp:84] Creating Layer B2_0_SConv_ReLU
I0917 08:53:26.109089 14639 net.cpp:406] B2_0_SConv_ReLU <- B2_0_SConvBlockV2_Conv1x1
I0917 08:53:26.109093 14639 net.cpp:367] B2_0_SConv_ReLU -> B2_0_SConvBlockV2_Conv1x1 (in-place)
I0917 08:53:26.109098 14639 net.cpp:122] Setting up B2_0_SConv_ReLU
I0917 08:53:26.109102 14639 net.cpp:129] Top shape: 32 192 8 8 (393216)
I0917 08:53:26.109104 14639 net.cpp:137] Memory required for data: 287703168
I0917 08:53:26.109112 14639 layer_factory.hpp:77] Creating layer B2_0_SConv_Dropout
I0917 08:53:26.109114 14639 net.cpp:84] Creating Layer B2_0_SConv_Dropout
I0917 08:53:26.109117 14639 net.cpp:406] B2_0_SConv_Dropout <- B2_0_SConvBlockV2_Conv1x1
I0917 08:53:26.109122 14639 net.cpp:380] B2_0_SConv_Dropout -> B2_0_SConvBlockV2_Dropout
I0917 08:53:26.109138 14639 net.cpp:122] Setting up B2_0_SConv_Dropout
I0917 08:53:26.109141 14639 net.cpp:129] Top shape: 32 192 8 8 (393216)
I0917 08:53:26.109145 14639 net.cpp:137] Memory required for data: 289276032
I0917 08:53:26.109148 14639 layer_factory.hpp:77] Creating layer B2_1_SConv_SparseConv
I0917 08:53:26.109155 14639 net.cpp:84] Creating Layer B2_1_SConv_SparseConv
I0917 08:53:26.109158 14639 net.cpp:406] B2_1_SConv_SparseConv <- B2_0_SConvBlockV2_Dropout
I0917 08:53:26.109162 14639 net.cpp:380] B2_1_SConv_SparseConv -> B2_1_SConvBlockV2_T1
I0917 08:53:26.109254 14639 net.cpp:122] Setting up B2_1_SConv_SparseConv
I0917 08:53:26.109258 14639 net.cpp:129] Top shape: 32 768 8 8 (1572864)
I0917 08:53:26.109261 14639 net.cpp:137] Memory required for data: 295567488
I0917 08:53:26.109264 14639 layer_factory.hpp:77] Creating layer B2_1_SConv_BN
I0917 08:53:26.109269 14639 net.cpp:84] Creating Layer B2_1_SConv_BN
I0917 08:53:26.109272 14639 net.cpp:406] B2_1_SConv_BN <- B2_1_SConvBlockV2_T1
I0917 08:53:26.109275 14639 net.cpp:367] B2_1_SConv_BN -> B2_1_SConvBlockV2_T1 (in-place)
I0917 08:53:26.109341 14639 net.cpp:122] Setting up B2_1_SConv_BN
I0917 08:53:26.109344 14639 net.cpp:129] Top shape: 32 768 8 8 (1572864)
I0917 08:53:26.109349 14639 net.cpp:137] Memory required for data: 301858944
I0917 08:53:26.109352 14639 layer_factory.hpp:77] Creating layer B2_1_SConv_Scale
I0917 08:53:26.109359 14639 net.cpp:84] Creating Layer B2_1_SConv_Scale
I0917 08:53:26.109362 14639 net.cpp:406] B2_1_SConv_Scale <- B2_1_SConvBlockV2_T1
I0917 08:53:26.109366 14639 net.cpp:380] B2_1_SConv_Scale -> B2_1_SConvBlockV2_Scale
I0917 08:53:26.109382 14639 layer_factory.hpp:77] Creating layer B2_1_SConv_Scale
I0917 08:53:26.109427 14639 net.cpp:122] Setting up B2_1_SConv_Scale
I0917 08:53:26.109431 14639 net.cpp:129] Top shape: 32 768 8 8 (1572864)
I0917 08:53:26.109434 14639 net.cpp:137] Memory required for data: 308150400
I0917 08:53:26.109438 14639 layer_factory.hpp:77] Creating layer B2_1_SConv_Conv1x1
I0917 08:53:26.109445 14639 net.cpp:84] Creating Layer B2_1_SConv_Conv1x1
I0917 08:53:26.109453 14639 net.cpp:406] B2_1_SConv_Conv1x1 <- B2_1_SConvBlockV2_Scale
I0917 08:53:26.109458 14639 net.cpp:380] B2_1_SConv_Conv1x1 -> B2_1_SConvBlockV2_Conv1x1
I0917 08:53:26.110141 14639 net.cpp:122] Setting up B2_1_SConv_Conv1x1
I0917 08:53:26.110146 14639 net.cpp:129] Top shape: 32 192 8 8 (393216)
I0917 08:53:26.110149 14639 net.cpp:137] Memory required for data: 309723264
I0917 08:53:26.110153 14639 layer_factory.hpp:77] Creating layer B2_1_SConv_ReLU
I0917 08:53:26.110159 14639 net.cpp:84] Creating Layer B2_1_SConv_ReLU
I0917 08:53:26.110162 14639 net.cpp:406] B2_1_SConv_ReLU <- B2_1_SConvBlockV2_Conv1x1
I0917 08:53:26.110167 14639 net.cpp:367] B2_1_SConv_ReLU -> B2_1_SConvBlockV2_Conv1x1 (in-place)
I0917 08:53:26.110170 14639 net.cpp:122] Setting up B2_1_SConv_ReLU
I0917 08:53:26.110172 14639 net.cpp:129] Top shape: 32 192 8 8 (393216)
I0917 08:53:26.110177 14639 net.cpp:137] Memory required for data: 311296128
I0917 08:53:26.110178 14639 layer_factory.hpp:77] Creating layer B2_1_SConv_Dropout
I0917 08:53:26.110183 14639 net.cpp:84] Creating Layer B2_1_SConv_Dropout
I0917 08:53:26.110186 14639 net.cpp:406] B2_1_SConv_Dropout <- B2_1_SConvBlockV2_Conv1x1
I0917 08:53:26.110189 14639 net.cpp:380] B2_1_SConv_Dropout -> B2_1_SConvBlockV2_Dropout
I0917 08:53:26.110205 14639 net.cpp:122] Setting up B2_1_SConv_Dropout
I0917 08:53:26.110208 14639 net.cpp:129] Top shape: 32 192 8 8 (393216)
I0917 08:53:26.110211 14639 net.cpp:137] Memory required for data: 312868992
I0917 08:53:26.110214 14639 layer_factory.hpp:77] Creating layer B2_2_SConv_SparseConv
I0917 08:53:26.110217 14639 net.cpp:84] Creating Layer B2_2_SConv_SparseConv
I0917 08:53:26.110224 14639 net.cpp:406] B2_2_SConv_SparseConv <- B2_1_SConvBlockV2_Dropout
I0917 08:53:26.110229 14639 net.cpp:380] B2_2_SConv_SparseConv -> B2_2_SConvBlockV2_T1
I0917 08:53:26.110321 14639 net.cpp:122] Setting up B2_2_SConv_SparseConv
I0917 08:53:26.110323 14639 net.cpp:129] Top shape: 32 768 8 8 (1572864)
I0917 08:53:26.110327 14639 net.cpp:137] Memory required for data: 319160448
I0917 08:53:26.110330 14639 layer_factory.hpp:77] Creating layer B2_2_SConv_BN
I0917 08:53:26.110335 14639 net.cpp:84] Creating Layer B2_2_SConv_BN
I0917 08:53:26.110338 14639 net.cpp:406] B2_2_SConv_BN <- B2_2_SConvBlockV2_T1
I0917 08:53:26.110342 14639 net.cpp:367] B2_2_SConv_BN -> B2_2_SConvBlockV2_T1 (in-place)
I0917 08:53:26.110411 14639 net.cpp:122] Setting up B2_2_SConv_BN
I0917 08:53:26.110415 14639 net.cpp:129] Top shape: 32 768 8 8 (1572864)
I0917 08:53:26.110419 14639 net.cpp:137] Memory required for data: 325451904
I0917 08:53:26.110422 14639 layer_factory.hpp:77] Creating layer B2_2_SConv_Scale
I0917 08:53:26.110426 14639 net.cpp:84] Creating Layer B2_2_SConv_Scale
I0917 08:53:26.110430 14639 net.cpp:406] B2_2_SConv_Scale <- B2_2_SConvBlockV2_T1
I0917 08:53:26.110432 14639 net.cpp:380] B2_2_SConv_Scale -> B2_2_SConvBlockV2_Scale
I0917 08:53:26.110448 14639 layer_factory.hpp:77] Creating layer B2_2_SConv_Scale
I0917 08:53:26.110491 14639 net.cpp:122] Setting up B2_2_SConv_Scale
I0917 08:53:26.110494 14639 net.cpp:129] Top shape: 32 768 8 8 (1572864)
I0917 08:53:26.110498 14639 net.cpp:137] Memory required for data: 331743360
I0917 08:53:26.110502 14639 layer_factory.hpp:77] Creating layer B2_2_SConv_Conv1x1
I0917 08:53:26.110508 14639 net.cpp:84] Creating Layer B2_2_SConv_Conv1x1
I0917 08:53:26.110512 14639 net.cpp:406] B2_2_SConv_Conv1x1 <- B2_2_SConvBlockV2_Scale
I0917 08:53:26.110515 14639 net.cpp:380] B2_2_SConv_Conv1x1 -> B2_2_SConvBlockV2_Conv1x1
I0917 08:53:26.111178 14639 net.cpp:122] Setting up B2_2_SConv_Conv1x1
I0917 08:53:26.111184 14639 net.cpp:129] Top shape: 32 192 8 8 (393216)
I0917 08:53:26.111188 14639 net.cpp:137] Memory required for data: 333316224
I0917 08:53:26.111191 14639 layer_factory.hpp:77] Creating layer B2_2_SConv_ReLU
I0917 08:53:26.111196 14639 net.cpp:84] Creating Layer B2_2_SConv_ReLU
I0917 08:53:26.111199 14639 net.cpp:406] B2_2_SConv_ReLU <- B2_2_SConvBlockV2_Conv1x1
I0917 08:53:26.111205 14639 net.cpp:367] B2_2_SConv_ReLU -> B2_2_SConvBlockV2_Conv1x1 (in-place)
I0917 08:53:26.111214 14639 net.cpp:122] Setting up B2_2_SConv_ReLU
I0917 08:53:26.111217 14639 net.cpp:129] Top shape: 32 192 8 8 (393216)
I0917 08:53:26.111220 14639 net.cpp:137] Memory required for data: 334889088
I0917 08:53:26.111223 14639 layer_factory.hpp:77] Creating layer B2_2_SConv_Dropout
I0917 08:53:26.111227 14639 net.cpp:84] Creating Layer B2_2_SConv_Dropout
I0917 08:53:26.111229 14639 net.cpp:406] B2_2_SConv_Dropout <- B2_2_SConvBlockV2_Conv1x1
I0917 08:53:26.111232 14639 net.cpp:380] B2_2_SConv_Dropout -> B2_2_SConvBlockV2_Dropout
I0917 08:53:26.111248 14639 net.cpp:122] Setting up B2_2_SConv_Dropout
I0917 08:53:26.111251 14639 net.cpp:129] Top shape: 32 192 8 8 (393216)
I0917 08:53:26.111254 14639 net.cpp:137] Memory required for data: 336461952
I0917 08:53:26.111258 14639 layer_factory.hpp:77] Creating layer B2_Pooling
I0917 08:53:26.111263 14639 net.cpp:84] Creating Layer B2_Pooling
I0917 08:53:26.111265 14639 net.cpp:406] B2_Pooling <- B2_2_SConvBlockV2_Dropout
I0917 08:53:26.111268 14639 net.cpp:380] B2_Pooling -> Pooling3
I0917 08:53:26.111284 14639 net.cpp:122] Setting up B2_Pooling
I0917 08:53:26.111287 14639 net.cpp:129] Top shape: 32 192 4 4 (98304)
I0917 08:53:26.111290 14639 net.cpp:137] Memory required for data: 336855168
I0917 08:53:26.111294 14639 layer_factory.hpp:77] Creating layer B3_0_SConv_SparseConv
I0917 08:53:26.111296 14639 net.cpp:84] Creating Layer B3_0_SConv_SparseConv
I0917 08:53:26.111299 14639 net.cpp:406] B3_0_SConv_SparseConv <- Pooling3
I0917 08:53:26.111304 14639 net.cpp:380] B3_0_SConv_SparseConv -> B3_0_SConvBlockV2_T1
I0917 08:53:26.111392 14639 net.cpp:122] Setting up B3_0_SConv_SparseConv
I0917 08:53:26.111398 14639 net.cpp:129] Top shape: 32 768 4 4 (393216)
I0917 08:53:26.111402 14639 net.cpp:137] Memory required for data: 338428032
I0917 08:53:26.111405 14639 layer_factory.hpp:77] Creating layer B3_0_SConv_BN
I0917 08:53:26.111410 14639 net.cpp:84] Creating Layer B3_0_SConv_BN
I0917 08:53:26.111413 14639 net.cpp:406] B3_0_SConv_BN <- B3_0_SConvBlockV2_T1
I0917 08:53:26.111416 14639 net.cpp:367] B3_0_SConv_BN -> B3_0_SConvBlockV2_T1 (in-place)
I0917 08:53:26.111482 14639 net.cpp:122] Setting up B3_0_SConv_BN
I0917 08:53:26.111486 14639 net.cpp:129] Top shape: 32 768 4 4 (393216)
I0917 08:53:26.111490 14639 net.cpp:137] Memory required for data: 340000896
I0917 08:53:26.111493 14639 layer_factory.hpp:77] Creating layer B3_0_SConv_Scale
I0917 08:53:26.111498 14639 net.cpp:84] Creating Layer B3_0_SConv_Scale
I0917 08:53:26.111502 14639 net.cpp:406] B3_0_SConv_Scale <- B3_0_SConvBlockV2_T1
I0917 08:53:26.111505 14639 net.cpp:380] B3_0_SConv_Scale -> B3_0_SConvBlockV2_Scale
I0917 08:53:26.111523 14639 layer_factory.hpp:77] Creating layer B3_0_SConv_Scale
I0917 08:53:26.111565 14639 net.cpp:122] Setting up B3_0_SConv_Scale
I0917 08:53:26.111568 14639 net.cpp:129] Top shape: 32 768 4 4 (393216)
I0917 08:53:26.111572 14639 net.cpp:137] Memory required for data: 341573760
I0917 08:53:26.111575 14639 layer_factory.hpp:77] Creating layer B3_0_SConv_Conv1x1
I0917 08:53:26.111582 14639 net.cpp:84] Creating Layer B3_0_SConv_Conv1x1
I0917 08:53:26.111584 14639 net.cpp:406] B3_0_SConv_Conv1x1 <- B3_0_SConvBlockV2_Scale
I0917 08:53:26.111589 14639 net.cpp:380] B3_0_SConv_Conv1x1 -> B3_0_SConvBlockV2_Conv1x1
I0917 08:53:26.113116 14639 net.cpp:122] Setting up B3_0_SConv_Conv1x1
I0917 08:53:26.113126 14639 net.cpp:129] Top shape: 32 192 4 4 (98304)
I0917 08:53:26.113130 14639 net.cpp:137] Memory required for data: 341966976
I0917 08:53:26.113135 14639 layer_factory.hpp:77] Creating layer B3_0_SConv_ReLU
I0917 08:53:26.113142 14639 net.cpp:84] Creating Layer B3_0_SConv_ReLU
I0917 08:53:26.113147 14639 net.cpp:406] B3_0_SConv_ReLU <- B3_0_SConvBlockV2_Conv1x1
I0917 08:53:26.113150 14639 net.cpp:367] B3_0_SConv_ReLU -> B3_0_SConvBlockV2_Conv1x1 (in-place)
I0917 08:53:26.113155 14639 net.cpp:122] Setting up B3_0_SConv_ReLU
I0917 08:53:26.113158 14639 net.cpp:129] Top shape: 32 192 4 4 (98304)
I0917 08:53:26.113162 14639 net.cpp:137] Memory required for data: 342360192
I0917 08:53:26.113169 14639 layer_factory.hpp:77] Creating layer B3_0_SConv_Dropout
I0917 08:53:26.113175 14639 net.cpp:84] Creating Layer B3_0_SConv_Dropout
I0917 08:53:26.113178 14639 net.cpp:406] B3_0_SConv_Dropout <- B3_0_SConvBlockV2_Conv1x1
I0917 08:53:26.113181 14639 net.cpp:380] B3_0_SConv_Dropout -> B3_0_SConvBlockV2_Dropout
I0917 08:53:26.113201 14639 net.cpp:122] Setting up B3_0_SConv_Dropout
I0917 08:53:26.113204 14639 net.cpp:129] Top shape: 32 192 4 4 (98304)
I0917 08:53:26.113209 14639 net.cpp:137] Memory required for data: 342753408
I0917 08:53:26.113210 14639 layer_factory.hpp:77] Creating layer B3_1_SConv_SparseConv
I0917 08:53:26.113214 14639 net.cpp:84] Creating Layer B3_1_SConv_SparseConv
I0917 08:53:26.113217 14639 net.cpp:406] B3_1_SConv_SparseConv <- B3_0_SConvBlockV2_Dropout
I0917 08:53:26.113222 14639 net.cpp:380] B3_1_SConv_SparseConv -> B3_1_SConvBlockV2_T1
I0917 08:53:26.113322 14639 net.cpp:122] Setting up B3_1_SConv_SparseConv
I0917 08:53:26.113327 14639 net.cpp:129] Top shape: 32 768 4 4 (393216)
I0917 08:53:26.113329 14639 net.cpp:137] Memory required for data: 344326272
I0917 08:53:26.113333 14639 layer_factory.hpp:77] Creating layer B3_1_SConv_BN
I0917 08:53:26.113349 14639 net.cpp:84] Creating Layer B3_1_SConv_BN
I0917 08:53:26.113353 14639 net.cpp:406] B3_1_SConv_BN <- B3_1_SConvBlockV2_T1
I0917 08:53:26.113356 14639 net.cpp:367] B3_1_SConv_BN -> B3_1_SConvBlockV2_T1 (in-place)
I0917 08:53:26.113422 14639 net.cpp:122] Setting up B3_1_SConv_BN
I0917 08:53:26.113425 14639 net.cpp:129] Top shape: 32 768 4 4 (393216)
I0917 08:53:26.113428 14639 net.cpp:137] Memory required for data: 345899136
I0917 08:53:26.113440 14639 layer_factory.hpp:77] Creating layer B3_1_SConv_Scale
I0917 08:53:26.113443 14639 net.cpp:84] Creating Layer B3_1_SConv_Scale
I0917 08:53:26.113446 14639 net.cpp:406] B3_1_SConv_Scale <- B3_1_SConvBlockV2_T1
I0917 08:53:26.113451 14639 net.cpp:380] B3_1_SConv_Scale -> B3_1_SConvBlockV2_Scale
I0917 08:53:26.113469 14639 layer_factory.hpp:77] Creating layer B3_1_SConv_Scale
I0917 08:53:26.113513 14639 net.cpp:122] Setting up B3_1_SConv_Scale
I0917 08:53:26.113516 14639 net.cpp:129] Top shape: 32 768 4 4 (393216)
I0917 08:53:26.113519 14639 net.cpp:137] Memory required for data: 347472000
I0917 08:53:26.113524 14639 layer_factory.hpp:77] Creating layer B3_1_SConv_Conv1x1
I0917 08:53:26.113530 14639 net.cpp:84] Creating Layer B3_1_SConv_Conv1x1
I0917 08:53:26.113534 14639 net.cpp:406] B3_1_SConv_Conv1x1 <- B3_1_SConvBlockV2_Scale
I0917 08:53:26.113545 14639 net.cpp:380] B3_1_SConv_Conv1x1 -> B3_1_SConvBlockV2_Conv1x1
I0917 08:53:26.114234 14639 net.cpp:122] Setting up B3_1_SConv_Conv1x1
I0917 08:53:26.114239 14639 net.cpp:129] Top shape: 32 192 4 4 (98304)
I0917 08:53:26.114243 14639 net.cpp:137] Memory required for data: 347865216
I0917 08:53:26.114246 14639 layer_factory.hpp:77] Creating layer B3_1_SConv_ReLU
I0917 08:53:26.114253 14639 net.cpp:84] Creating Layer B3_1_SConv_ReLU
I0917 08:53:26.114255 14639 net.cpp:406] B3_1_SConv_ReLU <- B3_1_SConvBlockV2_Conv1x1
I0917 08:53:26.114259 14639 net.cpp:367] B3_1_SConv_ReLU -> B3_1_SConvBlockV2_Conv1x1 (in-place)
I0917 08:53:26.114264 14639 net.cpp:122] Setting up B3_1_SConv_ReLU
I0917 08:53:26.114266 14639 net.cpp:129] Top shape: 32 192 4 4 (98304)
I0917 08:53:26.114269 14639 net.cpp:137] Memory required for data: 348258432
I0917 08:53:26.114271 14639 layer_factory.hpp:77] Creating layer B3_1_SConv_Dropout
I0917 08:53:26.114275 14639 net.cpp:84] Creating Layer B3_1_SConv_Dropout
I0917 08:53:26.114279 14639 net.cpp:406] B3_1_SConv_Dropout <- B3_1_SConvBlockV2_Conv1x1
I0917 08:53:26.114284 14639 net.cpp:380] B3_1_SConv_Dropout -> B3_1_SConvBlockV2_Dropout
I0917 08:53:26.114300 14639 net.cpp:122] Setting up B3_1_SConv_Dropout
I0917 08:53:26.114302 14639 net.cpp:129] Top shape: 32 192 4 4 (98304)
I0917 08:53:26.114305 14639 net.cpp:137] Memory required for data: 348651648
I0917 08:53:26.114307 14639 layer_factory.hpp:77] Creating layer B3_2_SConv_SparseConv
I0917 08:53:26.114312 14639 net.cpp:84] Creating Layer B3_2_SConv_SparseConv
I0917 08:53:26.114322 14639 net.cpp:406] B3_2_SConv_SparseConv <- B3_1_SConvBlockV2_Dropout
I0917 08:53:26.114327 14639 net.cpp:380] B3_2_SConv_SparseConv -> B3_2_SConvBlockV2_T1
I0917 08:53:26.114418 14639 net.cpp:122] Setting up B3_2_SConv_SparseConv
I0917 08:53:26.114421 14639 net.cpp:129] Top shape: 32 768 4 4 (393216)
I0917 08:53:26.114425 14639 net.cpp:137] Memory required for data: 350224512
I0917 08:53:26.114428 14639 layer_factory.hpp:77] Creating layer B3_2_SConv_BN
I0917 08:53:26.114434 14639 net.cpp:84] Creating Layer B3_2_SConv_BN
I0917 08:53:26.114436 14639 net.cpp:406] B3_2_SConv_BN <- B3_2_SConvBlockV2_T1
I0917 08:53:26.114440 14639 net.cpp:367] B3_2_SConv_BN -> B3_2_SConvBlockV2_T1 (in-place)
I0917 08:53:26.114509 14639 net.cpp:122] Setting up B3_2_SConv_BN
I0917 08:53:26.114513 14639 net.cpp:129] Top shape: 32 768 4 4 (393216)
I0917 08:53:26.114516 14639 net.cpp:137] Memory required for data: 351797376
I0917 08:53:26.114521 14639 layer_factory.hpp:77] Creating layer B3_2_SConv_Scale
I0917 08:53:26.114526 14639 net.cpp:84] Creating Layer B3_2_SConv_Scale
I0917 08:53:26.114529 14639 net.cpp:406] B3_2_SConv_Scale <- B3_2_SConvBlockV2_T1
I0917 08:53:26.114532 14639 net.cpp:380] B3_2_SConv_Scale -> B3_2_SConvBlockV2_Scale
I0917 08:53:26.114549 14639 layer_factory.hpp:77] Creating layer B3_2_SConv_Scale
I0917 08:53:26.114593 14639 net.cpp:122] Setting up B3_2_SConv_Scale
I0917 08:53:26.114596 14639 net.cpp:129] Top shape: 32 768 4 4 (393216)
I0917 08:53:26.114599 14639 net.cpp:137] Memory required for data: 353370240
I0917 08:53:26.114604 14639 layer_factory.hpp:77] Creating layer B3_2_SConv_Conv1x1
I0917 08:53:26.114614 14639 net.cpp:84] Creating Layer B3_2_SConv_Conv1x1
I0917 08:53:26.114617 14639 net.cpp:406] B3_2_SConv_Conv1x1 <- B3_2_SConvBlockV2_Scale
I0917 08:53:26.114620 14639 net.cpp:380] B3_2_SConv_Conv1x1 -> B3_2_SConvBlockV2_Conv1x1
I0917 08:53:26.115309 14639 net.cpp:122] Setting up B3_2_SConv_Conv1x1
I0917 08:53:26.115314 14639 net.cpp:129] Top shape: 32 192 4 4 (98304)
I0917 08:53:26.115319 14639 net.cpp:137] Memory required for data: 353763456
I0917 08:53:26.115322 14639 layer_factory.hpp:77] Creating layer B3_2_SConv_ReLU
I0917 08:53:26.115326 14639 net.cpp:84] Creating Layer B3_2_SConv_ReLU
I0917 08:53:26.115329 14639 net.cpp:406] B3_2_SConv_ReLU <- B3_2_SConvBlockV2_Conv1x1
I0917 08:53:26.115334 14639 net.cpp:367] B3_2_SConv_ReLU -> B3_2_SConvBlockV2_Conv1x1 (in-place)
I0917 08:53:26.115339 14639 net.cpp:122] Setting up B3_2_SConv_ReLU
I0917 08:53:26.115341 14639 net.cpp:129] Top shape: 32 192 4 4 (98304)
I0917 08:53:26.115345 14639 net.cpp:137] Memory required for data: 354156672
I0917 08:53:26.115347 14639 layer_factory.hpp:77] Creating layer B3_2_SConv_Dropout
I0917 08:53:26.115351 14639 net.cpp:84] Creating Layer B3_2_SConv_Dropout
I0917 08:53:26.115353 14639 net.cpp:406] B3_2_SConv_Dropout <- B3_2_SConvBlockV2_Conv1x1
I0917 08:53:26.115357 14639 net.cpp:380] B3_2_SConv_Dropout -> B3_2_SConvBlockV2_Dropout
I0917 08:53:26.115423 14639 net.cpp:122] Setting up B3_2_SConv_Dropout
I0917 08:53:26.115427 14639 net.cpp:129] Top shape: 32 192 4 4 (98304)
I0917 08:53:26.115430 14639 net.cpp:137] Memory required for data: 354549888
I0917 08:53:26.115432 14639 layer_factory.hpp:77] Creating layer B3_Pooling
I0917 08:53:26.115444 14639 net.cpp:84] Creating Layer B3_Pooling
I0917 08:53:26.115447 14639 net.cpp:406] B3_Pooling <- B3_2_SConvBlockV2_Dropout
I0917 08:53:26.115450 14639 net.cpp:380] B3_Pooling -> Pooling4
I0917 08:53:26.115463 14639 net.cpp:122] Setting up B3_Pooling
I0917 08:53:26.115465 14639 net.cpp:129] Top shape: 32 192 1 1 (6144)
I0917 08:53:26.115468 14639 net.cpp:137] Memory required for data: 354574464
I0917 08:53:26.115471 14639 layer_factory.hpp:77] Creating layer fc1
I0917 08:53:26.115481 14639 net.cpp:84] Creating Layer fc1
I0917 08:53:26.115484 14639 net.cpp:406] fc1 <- Pooling4
I0917 08:53:26.115489 14639 net.cpp:380] fc1 -> fc1
I0917 08:53:26.115841 14639 net.cpp:122] Setting up fc1
I0917 08:53:26.115845 14639 net.cpp:129] Top shape: 32 384 (12288)
I0917 08:53:26.115849 14639 net.cpp:137] Memory required for data: 354623616
I0917 08:53:26.115859 14639 layer_factory.hpp:77] Creating layer classifier
I0917 08:53:26.115864 14639 net.cpp:84] Creating Layer classifier
I0917 08:53:26.115866 14639 net.cpp:406] classifier <- fc1
I0917 08:53:26.115870 14639 net.cpp:380] classifier -> classifier
I0917 08:53:26.115924 14639 net.cpp:122] Setting up classifier
I0917 08:53:26.115927 14639 net.cpp:129] Top shape: 32 10 (320)
I0917 08:53:26.115937 14639 net.cpp:137] Memory required for data: 354624896
I0917 08:53:26.115942 14639 layer_factory.hpp:77] Creating layer softmax_loss
I0917 08:53:26.115944 14639 net.cpp:84] Creating Layer softmax_loss
I0917 08:53:26.115947 14639 net.cpp:406] softmax_loss <- classifier
I0917 08:53:26.115950 14639 net.cpp:406] softmax_loss <- label
I0917 08:53:26.115957 14639 net.cpp:380] softmax_loss -> softmax_loss
…
I0917 08:53:26.119704 14639 net.cpp:294] The NetState phase (1) differed from the phase (0) specified by a rule in layer InputData
I0917 08:53:26.119736 14639 net.cpp:51] Initializing net from parameters: 
state {
  phase: TEST
}
layer {
  name: "InputData"
  type: "ImageData"
  top: "data"
  top: "label"
  include {
    phase: TEST
  }
  transform_param {
    mirror: true
    crop_size: 32
  }
  image_data_param {
    source: "/home/jcwang/work/2.GeneratedSparseConvolution/0.CaffeSparseConv/4.TrainRuns/test.txt"
    batch_size: 1
    shuffle: true
    is_color: true
  }
}
layer {
  name: "B0_0_ConvBNScaleReLU_Conv"
  type: "Convolution"
  bottom: "data"
  top: "B0_0_ConvBNScaleReLU_Conv"
  convolution_param {
    num_output: 64
    bias_term: false
    pad: 1
    kernel_size: 3
    stride: 1
    weight_filler {
      type: "xavier"
    }
    bias_filler {
      type: "constant"
    }
  }
}
layer {
  name: "B0_0_ConvBNScaleReLU_BN"
  type: "BatchNorm"
  bottom: "B0_0_ConvBNScaleReLU_Conv"
  top: "B0_0_ConvBNScaleReLU_Conv"
  param {
    lr_mult: 0
    decay_mult: 0
  }
  param {
    lr_mult: 0
    decay_mult: 0
  }
  param {
    lr_mult: 0
    decay_mult: 0
  }
  batch_norm_param {
    moving_average_fraction: 0.999
    eps: 0.001
  }
}
layer {
  name: "B0_0_ConvBNScaleReLU_Scale"
  type: "Scale"
  bottom: "B0_0_ConvBNScaleReLU_Conv"
  top: "B0_0_ConvBNScaleReLU_Conv"
  scale_param {
    filler {
      value: 1
    }
    bias_term: true
    bias_filler {
      value: 0
    }
    l1_lambda: 0
  }
}
layer {
  name: "B0_0_ConvBNScaleReLU_ReLU"
  type: "ReLU"
  bottom: "B0_0_ConvBNScaleReLU_Conv"
  top: "B0_0_ConvBNScaleReLU_Conv"
}
layer {
  name: "B0_0_ConvBNScaleReLU_Dropout"
  type: "Dropout"
  bottom: "B0_0_ConvBNScaleReLU_Conv"
  top: "ConvBNScaleReLU"
  dropout_param {
    dropout_ratio: 0.25
  }
}
layer {
  name: "B0_1_SConv_SparseConv"
  type: "SparseConvolution"
  bottom: "ConvBNScaleReLU"
  top: "B0_1_SConvBlockV2_T1"
  sparse_convolution_param {
    weight_filler {
      type: "xavier"
    }
    channel_expand_multiplier: 4
  }
}
layer {
  name: "B0_1_SConv_BN"
  type: "BatchNorm"
  bottom: "B0_1_SConvBlockV2_T1"
  top: "B0_1_SConvBlockV2_T1"
  param {
    lr_mult: 0
    decay_mult: 0
  }
  param {
    lr_mult: 0
    decay_mult: 0
  }
  param {
    lr_mult: 0
    decay_mult: 0
  }
  batch_norm_param {
    moving_average_fraction: 0.999
    eps: 0.001
  }
}
layer {
  name: "B0_1_SConv_Scale"
  type: "Scale"
  bottom: "B0_1_SConvBlockV2_T1"
  top: "B0_1_SConvBlockV2_Scale"
  scale_param {
    bias_term: true
  }
}
layer {
  name: "B0_1_SConv_Conv1x1"
  type: "Convolution"
  bottom: "B0_1_SConvBlockV2_Scale"
  top: "B0_1_SConvBlockV2_Conv1x1"
  convolution_param {
    num_output: 64
    bias_term: true
    pad: 0
    kernel_size: 1
    stride: 1
    weight_filler {
      type: "xavier"
    }
    bias_filler {
      type: "constant"
    }
  }
}
layer {
  name: "B0_1_SConv_ReLU"
  type: "ReLU"
  bottom: "B0_1_SConvBlockV2_Conv1x1"
  top: "B0_1_SConvBlockV2_Conv1x1"
}
layer {
  name: "B0_1_SConv_Dropout"
  type: "Dropout"
  bottom: "B0_1_SConvBlockV2_Conv1x1"
  top: "B0_1_SConvBlockV2_Dropout"
  dropout_param {
    dropout_ratio: 0.25
  }
}
layer {
  name: "B0_Pooling"
  type: "Pooling"
  bottom: "B0_1_SConvBlockV2_Dropout"
  top: "Pooling1"
  pooling_param {
    pool: MAX
    kernel_size: 2
    stride: 2
    pad: 0
  }
}
layer {
  name: "B1_0_SConv_SparseConv"
  type: "SparseConvolution"
  bottom: "Pooling1"
  top: "B1_0_SConvBlockV2_T1"
  sparse_convolution_param {
    weight_filler {
      type: "xavier"
    }
    channel_expand_multiplier: 4
  }
}
layer {
  name: "B1_0_SConv_BN"
  type: "BatchNorm"
  bottom: "B1_0_SConvBlockV2_T1"
  top: "B1_0_SConvBlockV2_T1"
  param {
    lr_mult: 0
    decay_mult: 0
  }
  param {
    lr_mult: 0
    decay_mult: 0
  }
  param {
    lr_mult: 0
    decay_mult: 0
  }
  batch_norm_param {
    moving_average_fraction: 0.999
    eps: 0.001
  }
}
layer {
  name: "B1_0_SConv_Scale"
  type: "Scale"
  bottom: "B1_0_SConvBlockV2_T1"
  top: "B1_0_SConvBlockV2_Scale"
  scale_param {
    bias_term: true
  }
}
layer {
  name: "B1_0_SConv_Conv1x1"
  type: "Convolution"
  bottom: "B1_0_SConvBlockV2_Scale"
  top: "B1_0_SConvBlockV2_Conv1x1"
  convolution_param {
    num_output: 128
    bias_term: true
    pad: 0
    kernel_size: 1
    stride: 1
    weight_filler {
      type: "xavier"
    }
    bias_filler {
      type: "constant"
    }
  }
}
layer {
  name: "B1_0_SConv_ReLU"
  type: "ReLU"
  bottom: "B1_0_SConvBlockV2_Conv1x1"
  top: "B1_0_SConvBlockV2_Conv1x1"
}
layer {
  name: "B1_0_SConv_Dropout"
  type: "Dropout"
  bottom: "B1_0_SConvBlockV2_Conv1x1"
  top: "B1_0_SConvBlockV2_Dropout"
  dropout_param {
    dropout_ratio: 0.25
  }
}
layer {
  name: "B1_1_SConv_SparseConv"
  type: "SparseConvolution"
  bottom: "B1_0_SConvBlockV2_Dropout"
  top: "B1_1_SConvBlockV2_T1"
  sparse_convolution_param {
    weight_filler {
      type: "xavier"
    }
    channel_expand_multiplier: 4
  }
}
layer {
  name: "B1_1_SConv_BN"
  type: "BatchNorm"
  bottom: "B1_1_SConvBlockV2_T1"
  top: "B1_1_SConvBlockV2_T1"
  param {
    lr_mult: 0
    decay_mult: 0
  }
  param {
    lr_mult: 0
    decay_mult: 0
  }
  param {
    lr_mult: 0
    decay_mult: 0
  }
  batch_norm_param {
    moving_average_fraction: 0.999
    eps: 0.001
  }
}
layer {
  name: "B1_1_SConv_Scale"
  type: "Scale"
  bottom: "B1_1_SConvBlockV2_T1"
  top: "B1_1_SConvBlockV2_Scale"
  scale_param {
    bias_term: true
  }
}
layer {
  name: "B1_1_SConv_Conv1x1"
  type: "Convolution"
  bottom: "B1_1_SConvBlockV2_Scale"
  top: "B1_1_SConvBlockV2_Conv1x1"
  convolution_param {
    num_output: 128
    bias_term: true
    pad: 0
    kernel_size: 1
    stride: 1
    weight_filler {
      type: "xavier"
    }
    bias_filler {
      type: "constant"
    }
  }
}
layer {
  name: "B1_1_SConv_ReLU"
  type: "ReLU"
  bottom: "B1_1_SConvBlockV2_Conv1x1"
  top: "B1_1_SConvBlockV2_Conv1x1"
}
layer {
  name: "B1_1_SConv_Dropout"
  type: "Dropout"
  bottom: "B1_1_SConvBlockV2_Conv1x1"
  top: "B1_1_SConvBlockV2_Dropout"
  dropout_param {
    dropout_ratio: 0.25
  }
}
layer {
  name: "B1_Pooling"
  type: "Pooling"
  bottom: "B1_1_SConvBlockV2_Dropout"
  top: "Pooling2"
  pooling_param {
    pool: MAX
    kernel_size: 2
    stride: 2
    pad: 0
  }
}
layer {
  name: "B2_0_SConv_SparseConv"
  type: "SparseConvolution"
  bottom: "Pooling2"
  top: "B2_0_SConvBlockV2_T1"
  sparse_convolution_param {
    weight_filler {
      type: "xavier"
    }
    channel_expand_multiplier: 4
  }
}
layer {
  name: "B2_0_SConv_BN"
  type: "BatchNorm"
  bottom: "B2_0_SConvBlockV2_T1"
  top: "B2_0_SConvBlockV2_T1"
  param {
    lr_mult: 0
    decay_mult: 0
  }
  param {
    lr_mult: 0
    decay_mult: 0
  }
  param {
    lr_mult: 0
    decay_mult: 0
  }
  batch_norm_param {
    moving_average_fraction: 0.999
    eps: 0.001
  }
}
layer {
  name: "B2_0_SConv_Scale"
  type: "Scale"
  bottom: "B2_0_SConvBlockV2_T1"
  top: "B2_0_SConvBlockV2_Scale"
  scale_param {
    bias_term: true
  }
}
layer {
  name: "B2_0_SConv_Conv1x1"
  type: "Convolution"
  bottom: "B2_0_SConvBlockV2_Scale"
  top: "B2_0_SConvBlockV2_Conv1x1"
  convolution_param {
    num_output: 192
    bias_term: true
    pad: 0
    kernel_size: 1
    stride: 1
    weight_filler {
      type: "xavier"
    }
    bias_filler {
      type: "constant"
    }
  }
}
layer {
  name: "B2_0_SConv_ReLU"
  type: "ReLU"
  bottom: "B2_0_SConvBlockV2_Conv1x1"
  top: "B2_0_SConvBlockV2_Conv1x1"
}
layer {
  name: "B2_0_SConv_Dropout"
  type: "Dropout"
  bottom: "B2_0_SConvBlockV2_Conv1x1"
  top: "B2_0_SConvBlockV2_Dropout"
  dropout_param {
    dropout_ratio: 0.25
  }
}
layer {
  name: "B2_1_SConv_SparseConv"
  type: "SparseConvolution"
  bottom: "B2_0_SConvBlockV2_Dropout"
  top: "B2_1_SConvBlockV2_T1"
  sparse_convolution_param {
    weight_filler {
      type: "xavier"
    }
    channel_expand_multiplier: 4
  }
}
layer {
  name: "B2_1_SConv_BN"
  type: "BatchNorm"
  bottom: "B2_1_SConvBlockV2_T1"
  top: "B2_1_SConvBlockV2_T1"
  param {
    lr_mult: 0
    decay_mult: 0
  }
  param {
    lr_mult: 0
    decay_mult: 0
  }
  param {
    lr_mult: 0
    decay_mult: 0
  }
  batch_norm_param {
    moving_average_fraction: 0.999
    eps: 0.001
  }
}
layer {
  name: "B2_1_SConv_Scale"
  type: "Scale"
  bottom: "B2_1_SConvBlockV2_T1"
  top: "B2_1_SConvBlockV2_Scale"
  scale_param {
    bias_term: true
  }
}
layer {
  name: "B2_1_SConv_Conv1x1"
  type: "Convolution"
  bottom: "B2_1_SConvBlockV2_Scale"
  top: "B2_1_SConvBlockV2_Conv1x1"
  convolution_param {
    num_output: 192
    bias_term: true
    pad: 0
    kernel_size: 1
    stride: 1
    weight_filler {
      type: "xavier"
    }
    bias_filler {
      type: "constant"
    }
  }
}
layer {
  name: "B2_1_SConv_ReLU"
  type: "ReLU"
  bottom: "B2_1_SConvBlockV2_Conv1x1"
  top: "B2_1_SConvBlockV2_Conv1x1"
}
layer {
  name: "B2_1_SConv_Dropout"
  type: "Dropout"
  bottom: "B2_1_SConvBlockV2_Conv1x1"
  top: "B2_1_SConvBlockV2_Dropout"
  dropout_param {
    dropout_ratio: 0.25
  }
}
layer {
  name: "B2_2_SConv_SparseConv"
  type: "SparseConvolution"
  bottom: "B2_1_SConvBlockV2_Dropout"
  top: "B2_2_SConvBlockV2_T1"
  sparse_convolution_param {
    weight_filler {
      type: "xavier"
    }
    channel_expand_multiplier: 4
  }
}
layer {
  name: "B2_2_SConv_BN"
  type: "BatchNorm"
  bottom: "B2_2_SConvBlockV2_T1"
  top: "B2_2_SConvBlockV2_T1"
  param {
    lr_mult: 0
    decay_mult: 0
  }
  param {
    lr_mult: 0
    decay_mult: 0
  }
  param {
    lr_mult: 0
    decay_mult: 0
  }
  batch_norm_param {
    moving_average_fraction: 0.999
    eps: 0.001
  }
}
layer {
  name: "B2_2_SConv_Scale"
  type: "Scale"
  bottom: "B2_2_SConvBlockV2_T1"
  top: "B2_2_SConvBlockV2_Scale"
  scale_param {
    bias_term: true
  }
}
layer {
  name: "B2_2_SConv_Conv1x1"
  type: "Convolution"
  bottom: "B2_2_SConvBlockV2_Scale"
  top: "B2_2_SConvBlockV2_Conv1x1"
  convolution_param {
    num_output: 192
    bias_term: true
    pad: 0
    kernel_size: 1
    stride: 1
    weight_filler {
      type: "xavier"
    }
    bias_filler {
      type: "constant"
    }
  }
}
layer {
  name: "B2_2_SConv_ReLU"
  type: "ReLU"
  bottom: "B2_2_SConvBlockV2_Conv1x1"
  top: "B2_2_SConvBlockV2_Conv1x1"
}
layer {
  name: "B2_2_SConv_Dropout"
  type: "Dropout"
  bottom: "B2_2_SConvBlockV2_Conv1x1"
  top: "B2_2_SConvBlockV2_Dropout"
  dropout_param {
    dropout_ratio: 0.25
  }
}
layer {
  name: "B2_Pooling"
  type: "Pooling"
  bottom: "B2_2_SConvBlockV2_Dropout"
  top: "Pooling3"
  pooling_param {
    pool: MAX
    kernel_size: 2
    stride: 2
    pad: 0
  }
}
layer {
  name: "B3_0_SConv_SparseConv"
  type: "SparseConvolution"
  bottom: "Pooling3"
  top: "B3_0_SConvBlockV2_T1"
  sparse_convolution_param {
    weight_filler {
      type: "xavier"
    }
    channel_expand_multiplier: 4
  }
}
layer {
  name: "B3_0_SConv_BN"
  type: "BatchNorm"
  bottom: "B3_0_SConvBlockV2_T1"
  top: "B3_0_SConvBlockV2_T1"
  param {
    lr_mult: 0
    decay_mult: 0
  }
  param {
    lr_mult: 0
    decay_mult: 0
  }
  param {
    lr_mult: 0
    decay_mult: 0
  }
  batch_norm_param {
    moving_average_fraction: 0.999
    eps: 0.001
  }
}
layer {
  name: "B3_0_SConv_Scale"
  type: "Scale"
  bottom: "B3_0_SConvBlockV2_T1"
  top: "B3_0_SConvBlockV2_Scale"
  scale_param {
    bias_term: true
  }
}
layer {
  name: "B3_0_SConv_Conv1x1"
  type: "Convolution"
  bottom: "B3_0_SConvBlockV2_Scale"
  top: "B3_0_SConvBlockV2_Conv1x1"
  convolution_param {
    num_output: 192
    bias_term: true
    pad: 0
    kernel_size: 1
    stride: 1
    weight_filler {
      type: "xavier"
    }
    bias_filler {
      type: "constant"
    }
  }
}
layer {
  name: "B3_0_SConv_ReLU"
  type: "ReLU"
  bottom: "B3_0_SConvBlockV2_Conv1x1"
  top: "B3_0_SConvBlockV2_Conv1x1"
}
layer {
  name: "B3_0_SConv_Dropout"
  type: "Dropout"
  bottom: "B3_0_SConvBlockV2_Conv1x1"
  top: "B3_0_SConvBlockV2_Dropout"
  dropout_param {
    dropout_ratio: 0.25
  }
}
layer {
  name: "B3_1_SConv_SparseConv"
  type: "SparseConvolution"
  bottom: "B3_0_SConvBlockV2_Dropout"
  top: "B3_1_SConvBlockV2_T1"
  sparse_convolution_param {
    weight_filler {
      type: "xavier"
    }
    channel_expand_multiplier: 4
  }
}
layer {
  name: "B3_1_SConv_BN"
  type: "BatchNorm"
  bottom: "B3_1_SConvBlockV2_T1"
  top: "B3_1_SConvBlockV2_T1"
  param {
    lr_mult: 0
    decay_mult: 0
  }
  param {
    lr_mult: 0
    decay_mult: 0
  }
  param {
    lr_mult: 0
    decay_mult: 0
  }
  batch_norm_param {
    moving_average_fraction: 0.999
    eps: 0.001
  }
}
layer {
  name: "B3_1_SConv_Scale"
  type: "Scale"
  bottom: "B3_1_SConvBlockV2_T1"
  top: "B3_1_SConvBlockV2_Scale"
  scale_param {
    bias_term: true
  }
}
layer {
  name: "B3_1_SConv_Conv1x1"
  type: "Convolution"
  bottom: "B3_1_SConvBlockV2_Scale"
  top: "B3_1_SConvBlockV2_Conv1x1"
  convolution_param {
    num_output: 192
    bias_term: true
    pad: 0
    kernel_size: 1
    stride: 1
    weight_filler {
      type: "xavier"
    }
    bias_filler {
      type: "constant"
    }
  }
}
layer {
  name: "B3_1_SConv_ReLU"
  type: "ReLU"
  bottom: "B3_1_SConvBlockV2_Conv1x1"
  top: "B3_1_SConvBlockV2_Conv1x1"
}
layer {
  name: "B3_1_SConv_Dropout"
  type: "Dropout"
  bottom: "B3_1_SConvBlockV2_Conv1x1"
  top: "B3_1_SConvBlockV2_Dropout"
  dropout_param {
    dropout_ratio: 0.25
  }
}
layer {
  name: "B3_2_SConv_SparseConv"
  type: "SparseConvolution"
  bottom: "B3_1_SConvBlockV2_Dropout"
  top: "B3_2_SConvBlockV2_T1"
  sparse_convolution_param {
    weight_filler {
      type: "xavier"
    }
    channel_expand_multiplier: 4
  }
}
layer {
  name: "B3_2_SConv_BN"
  type: "BatchNorm"
  bottom: "B3_2_SConvBlockV2_T1"
  top: "B3_2_SConvBlockV2_T1"
  param {
    lr_mult: 0
    decay_mult: 0
  }
  param {
    lr_mult: 0
    decay_mult: 0
  }
  param {
    lr_mult: 0
    decay_mult: 0
  }
  batch_norm_param {
    moving_average_fraction: 0.999
    eps: 0.001
  }
}
layer {
  name: "B3_2_SConv_Scale"
  type: "Scale"
  bottom: "B3_2_SConvBlockV2_T1"
  top: "B3_2_SConvBlockV2_Scale"
  scale_param {
    bias_term: true
  }
}
layer {
  name: "B3_2_SConv_Conv1x1"
  type: "Convolution"
  bottom: "B3_2_SConvBlockV2_Scale"
  top: "B3_2_SConvBlockV2_Conv1x1"
  convolution_param {
    num_output: 192
    bias_term: true
    pad: 0
    kernel_size: 1
    stride: 1
    weight_filler {
      type: "xavier"
    }
    bias_filler {
      type: "constant"
    }
  }
}
layer {
  name: "B3_2_SConv_ReLU"
  type: "ReLU"
  bottom: "B3_2_SConvBlockV2_Conv1x1"
  top: "B3_2_SConvBlockV2_Conv1x1"
}
layer {
  name: "B3_2_SConv_Dropout"
  type: "Dropout"
  bottom: "B3_2_SConvBlockV2_Conv1x1"
  top: "B3_2_SConvBlockV2_Dropout"
  dropout_param {
    dropout_ratio: 0.25
  }
}
layer {
  name: "B3_Pooling"
  type: "Pooling"
  bottom: "B3_2_SConvBlockV2_Dropout"
  top: "Pooling4"
  pooling_param {
    pool: AVE
    global_pooling: true
  }
}
layer {
  name: "fc1"
  type: "InnerProduct"
  bottom: "Pooling4"
  top: "fc1"
  inner_product_param {
    num_output: 384
    bias_term: true
    weight_filler {
      type: "xavier"
    }
    bias_filler {
      type: "constant"
    }
  }
}
layer {
  name: "classifier"
  type: "InnerProduct"
  bottom: "fc1"
  top: "classifier"
  inner_product_param {
    num_output: 10
    bias_term: true
    weight_filler {
      type: "xavier"
    }
    bias_filler {
      type: "constant"
    }
  }
}
layer {
  name: "softmax_loss"
  type: "SoftmaxWithLoss"
  bottom: "classifier"
  bottom: "label"
  top: "softmax_loss"
}
layer {
  name: "accuracy"
  type: "Accuracy"
  bottom: "classifier"
  bottom: "label"
  top: "accuracy"
  include {
    phase: TEST
  }
}
I0917 08:53:26.120187 14639 layer_factory.hpp:77] Creating layer InputData
I0917 08:53:26.120198 14639 net.cpp:84] Creating Layer InputData
I0917 08:53:26.120204 14639 net.cpp:380] InputData -> data
I0917 08:53:26.120211 14639 net.cpp:380] InputData -> label
I0917 08:53:26.120221 14639 image_data_layer.cpp:38] Opening file /home/jcwang/work/2.GeneratedSparseConvolution/0.CaffeSparseConv/4.TrainRuns/test.txt
I0917 08:53:26.121927 14639 image_data_layer.cpp:53] Shuffling data
I0917 08:53:26.122083 14639 image_data_layer.cpp:63] A total of 10001 images.
I0917 08:53:26.122146 14639 image_data_layer.cpp:90] output data size: 1,3,32,32
I0917 08:53:26.123144 14639 net.cpp:122] Setting up InputData
I0917 08:53:26.123153 14639 net.cpp:129] Top shape: 1 3 32 32 (3072)
I0917 08:53:26.123157 14639 net.cpp:129] Top shape: 1 (1)
I0917 08:53:26.123176 14639 net.cpp:137] Memory required for data: 12292
I0917 08:53:26.123180 14639 layer_factory.hpp:77] Creating layer label_InputData_1_split
I0917 08:53:26.123186 14639 net.cpp:84] Creating Layer label_InputData_1_split
I0917 08:53:26.123189 14639 net.cpp:406] label_InputData_1_split <- label
I0917 08:53:26.123194 14639 net.cpp:380] label_InputData_1_split -> label_InputData_1_split_0
I0917 08:53:26.123199 14639 net.cpp:380] label_InputData_1_split -> label_InputData_1_split_1
I0917 08:53:26.123215 14639 net.cpp:122] Setting up label_InputData_1_split
I0917 08:53:26.123224 14639 net.cpp:129] Top shape: 1 (1)
I0917 08:53:26.123227 14639 net.cpp:129] Top shape: 1 (1)
I0917 08:53:26.123230 14639 net.cpp:137] Memory required for data: 12300
I0917 08:53:26.123232 14639 layer_factory.hpp:77] Creating layer B0_0_ConvBNScaleReLU_Conv
I0917 08:53:26.123239 14639 net.cpp:84] Creating Layer B0_0_ConvBNScaleReLU_Conv
I0917 08:53:26.123241 14639 net.cpp:406] B0_0_ConvBNScaleReLU_Conv <- data
I0917 08:53:26.123245 14639 net.cpp:380] B0_0_ConvBNScaleReLU_Conv -> B0_0_ConvBNScaleReLU_Conv
I0917 08:53:26.123440 14639 net.cpp:122] Setting up B0_0_ConvBNScaleReLU_Conv
I0917 08:53:26.123443 14639 net.cpp:129] Top shape: 1 64 32 32 (65536)
I0917 08:53:26.123447 14639 net.cpp:137] Memory required for data: 274444
I0917 08:53:26.123451 14639 layer_factory.hpp:77] Creating layer B0_0_ConvBNScaleReLU_BN
I0917 08:53:26.123456 14639 net.cpp:84] Creating Layer B0_0_ConvBNScaleReLU_BN
I0917 08:53:26.123459 14639 net.cpp:406] B0_0_ConvBNScaleReLU_BN <- B0_0_ConvBNScaleReLU_Conv
I0917 08:53:26.123463 14639 net.cpp:367] B0_0_ConvBNScaleReLU_BN -> B0_0_ConvBNScaleReLU_Conv (in-place)
I0917 08:53:26.123525 14639 net.cpp:122] Setting up B0_0_ConvBNScaleReLU_BN
I0917 08:53:26.123528 14639 net.cpp:129] Top shape: 1 64 32 32 (65536)
I0917 08:53:26.123531 14639 net.cpp:137] Memory required for data: 536588
I0917 08:53:26.123536 14639 layer_factory.hpp:77] Creating layer B0_0_ConvBNScaleReLU_Scale
I0917 08:53:26.123543 14639 net.cpp:84] Creating Layer B0_0_ConvBNScaleReLU_Scale
I0917 08:53:26.123546 14639 net.cpp:406] B0_0_ConvBNScaleReLU_Scale <- B0_0_ConvBNScaleReLU_Conv
I0917 08:53:26.123549 14639 net.cpp:367] B0_0_ConvBNScaleReLU_Scale -> B0_0_ConvBNScaleReLU_Conv (in-place)
I0917 08:53:26.123571 14639 layer_factory.hpp:77] Creating layer B0_0_ConvBNScaleReLU_Scale
I0917 08:53:26.123632 14639 net.cpp:122] Setting up B0_0_ConvBNScaleReLU_Scale
I0917 08:53:26.123636 14639 net.cpp:129] Top shape: 1 64 32 32 (65536)
I0917 08:53:26.123638 14639 net.cpp:137] Memory required for data: 798732
I0917 08:53:26.123643 14639 layer_factory.hpp:77] Creating layer B0_0_ConvBNScaleReLU_ReLU
I0917 08:53:26.123646 14639 net.cpp:84] Creating Layer B0_0_ConvBNScaleReLU_ReLU
I0917 08:53:26.123649 14639 net.cpp:406] B0_0_ConvBNScaleReLU_ReLU <- B0_0_ConvBNScaleReLU_Conv
I0917 08:53:26.123652 14639 net.cpp:367] B0_0_ConvBNScaleReLU_ReLU -> B0_0_ConvBNScaleReLU_Conv (in-place)
I0917 08:53:26.123656 14639 net.cpp:122] Setting up B0_0_ConvBNScaleReLU_ReLU
I0917 08:53:26.123659 14639 net.cpp:129] Top shape: 1 64 32 32 (65536)
I0917 08:53:26.123662 14639 net.cpp:137] Memory required for data: 1060876
I0917 08:53:26.123664 14639 layer_factory.hpp:77] Creating layer B0_0_ConvBNScaleReLU_Dropout
I0917 08:53:26.123667 14639 net.cpp:84] Creating Layer B0_0_ConvBNScaleReLU_Dropout
I0917 08:53:26.123670 14639 net.cpp:406] B0_0_ConvBNScaleReLU_Dropout <- B0_0_ConvBNScaleReLU_Conv
I0917 08:53:26.123673 14639 net.cpp:380] B0_0_ConvBNScaleReLU_Dropout -> ConvBNScaleReLU
I0917 08:53:26.123692 14639 net.cpp:122] Setting up B0_0_ConvBNScaleReLU_Dropout
I0917 08:53:26.123694 14639 net.cpp:129] Top shape: 1 64 32 32 (65536)
I0917 08:53:26.123697 14639 net.cpp:137] Memory required for data: 1323020
I0917 08:53:26.123700 14639 layer_factory.hpp:77] Creating layer B0_1_SConv_SparseConv
I0917 08:53:26.123704 14639 net.cpp:84] Creating Layer B0_1_SConv_SparseConv
I0917 08:53:26.123708 14639 net.cpp:406] B0_1_SConv_SparseConv <- ConvBNScaleReLU
I0917 08:53:26.123710 14639 net.cpp:380] B0_1_SConv_SparseConv -> B0_1_SConvBlockV2_T1
I0917 08:53:26.123795 14639 net.cpp:122] Setting up B0_1_SConv_SparseConv
I0917 08:53:26.123798 14639 net.cpp:129] Top shape: 1 256 32 32 (262144)
I0917 08:53:26.123802 14639 net.cpp:137] Memory required for data: 2371596
I0917 08:53:26.123805 14639 layer_factory.hpp:77] Creating layer B0_1_SConv_BN
I0917 08:53:26.123811 14639 net.cpp:84] Creating Layer B0_1_SConv_BN
I0917 08:53:26.123813 14639 net.cpp:406] B0_1_SConv_BN <- B0_1_SConvBlockV2_T1
I0917 08:53:26.123817 14639 net.cpp:367] B0_1_SConv_BN -> B0_1_SConvBlockV2_T1 (in-place)
I0917 08:53:26.123926 14639 net.cpp:122] Setting up B0_1_SConv_BN
I0917 08:53:26.123929 14639 net.cpp:129] Top shape: 1 256 32 32 (262144)
I0917 08:53:26.123932 14639 net.cpp:137] Memory required for data: 3420172
I0917 08:53:26.123939 14639 layer_factory.hpp:77] Creating layer B0_1_SConv_Scale
I0917 08:53:26.123944 14639 net.cpp:84] Creating Layer B0_1_SConv_Scale
I0917 08:53:26.123946 14639 net.cpp:406] B0_1_SConv_Scale <- B0_1_SConvBlockV2_T1
I0917 08:53:26.123950 14639 net.cpp:380] B0_1_SConv_Scale -> B0_1_SConvBlockV2_Scale
I0917 08:53:26.123963 14639 layer_factory.hpp:77] Creating layer B0_1_SConv_Scale
I0917 08:53:26.124002 14639 net.cpp:122] Setting up B0_1_SConv_Scale
I0917 08:53:26.124006 14639 net.cpp:129] Top shape: 1 256 32 32 (262144)
I0917 08:53:26.124008 14639 net.cpp:137] Memory required for data: 4468748
I0917 08:53:26.124012 14639 layer_factory.hpp:77] Creating layer B0_1_SConv_Conv1x1
I0917 08:53:26.124017 14639 net.cpp:84] Creating Layer B0_1_SConv_Conv1x1
I0917 08:53:26.124019 14639 net.cpp:406] B0_1_SConv_Conv1x1 <- B0_1_SConvBlockV2_Scale
I0917 08:53:26.124023 14639 net.cpp:380] B0_1_SConv_Conv1x1 -> B0_1_SConvBlockV2_Conv1x1
I0917 08:53:26.124202 14639 net.cpp:122] Setting up B0_1_SConv_Conv1x1
I0917 08:53:26.124204 14639 net.cpp:129] Top shape: 1 64 32 32 (65536)
I0917 08:53:26.124207 14639 net.cpp:137] Memory required for data: 4730892
I0917 08:53:26.124212 14639 layer_factory.hpp:77] Creating layer B0_1_SConv_ReLU
I0917 08:53:26.124218 14639 net.cpp:84] Creating Layer B0_1_SConv_ReLU
I0917 08:53:26.124222 14639 net.cpp:406] B0_1_SConv_ReLU <- B0_1_SConvBlockV2_Conv1x1
I0917 08:53:26.124228 14639 net.cpp:367] B0_1_SConv_ReLU -> B0_1_SConvBlockV2_Conv1x1 (in-place)
I0917 08:53:26.124231 14639 net.cpp:122] Setting up B0_1_SConv_ReLU
I0917 08:53:26.124234 14639 net.cpp:129] Top shape: 1 64 32 32 (65536)
I0917 08:53:26.124238 14639 net.cpp:137] Memory required for data: 4993036
I0917 08:53:26.124239 14639 layer_factory.hpp:77] Creating layer B0_1_SConv_Dropout
I0917 08:53:26.124243 14639 net.cpp:84] Creating Layer B0_1_SConv_Dropout
I0917 08:53:26.124245 14639 net.cpp:406] B0_1_SConv_Dropout <- B0_1_SConvBlockV2_Conv1x1
I0917 08:53:26.124250 14639 net.cpp:380] B0_1_SConv_Dropout -> B0_1_SConvBlockV2_Dropout
I0917 08:53:26.124261 14639 net.cpp:122] Setting up B0_1_SConv_Dropout
I0917 08:53:26.124264 14639 net.cpp:129] Top shape: 1 64 32 32 (65536)
I0917 08:53:26.124267 14639 net.cpp:137] Memory required for data: 5255180
I0917 08:53:26.124270 14639 layer_factory.hpp:77] Creating layer B0_Pooling
I0917 08:53:26.124274 14639 net.cpp:84] Creating Layer B0_Pooling
I0917 08:53:26.124276 14639 net.cpp:406] B0_Pooling <- B0_1_SConvBlockV2_Dropout
I0917 08:53:26.124279 14639 net.cpp:380] B0_Pooling -> Pooling1
I0917 08:53:26.124291 14639 net.cpp:122] Setting up B0_Pooling
I0917 08:53:26.124294 14639 net.cpp:129] Top shape: 1 64 16 16 (16384)
I0917 08:53:26.124297 14639 net.cpp:137] Memory required for data: 5320716
I0917 08:53:26.124300 14639 layer_factory.hpp:77] Creating layer B1_0_SConv_SparseConv
I0917 08:53:26.124305 14639 net.cpp:84] Creating Layer B1_0_SConv_SparseConv
I0917 08:53:26.124307 14639 net.cpp:406] B1_0_SConv_SparseConv <- Pooling1
I0917 08:53:26.124311 14639 net.cpp:380] B1_0_SConv_SparseConv -> B1_0_SConvBlockV2_T1
I0917 08:53:26.124368 14639 net.cpp:122] Setting up B1_0_SConv_SparseConv
I0917 08:53:26.124372 14639 net.cpp:129] Top shape: 1 256 16 16 (65536)
I0917 08:53:26.124374 14639 net.cpp:137] Memory required for data: 5582860
I0917 08:53:26.124377 14639 layer_factory.hpp:77] Creating layer B1_0_SConv_BN
I0917 08:53:26.124382 14639 net.cpp:84] Creating Layer B1_0_SConv_BN
I0917 08:53:26.124384 14639 net.cpp:406] B1_0_SConv_BN <- B1_0_SConvBlockV2_T1
I0917 08:53:26.124387 14639 net.cpp:367] B1_0_SConv_BN -> B1_0_SConvBlockV2_T1 (in-place)
I0917 08:53:26.124452 14639 net.cpp:122] Setting up B1_0_SConv_BN
I0917 08:53:26.124455 14639 net.cpp:129] Top shape: 1 256 16 16 (65536)
I0917 08:53:26.124459 14639 net.cpp:137] Memory required for data: 5845004
I0917 08:53:26.124464 14639 layer_factory.hpp:77] Creating layer B1_0_SConv_Scale
I0917 08:53:26.124472 14639 net.cpp:84] Creating Layer B1_0_SConv_Scale
I0917 08:53:26.124475 14639 net.cpp:406] B1_0_SConv_Scale <- B1_0_SConvBlockV2_T1
I0917 08:53:26.124478 14639 net.cpp:380] B1_0_SConv_Scale -> B1_0_SConvBlockV2_Scale
I0917 08:53:26.124493 14639 layer_factory.hpp:77] Creating layer B1_0_SConv_Scale
I0917 08:53:26.124532 14639 net.cpp:122] Setting up B1_0_SConv_Scale
I0917 08:53:26.124536 14639 net.cpp:129] Top shape: 1 256 16 16 (65536)
I0917 08:53:26.124538 14639 net.cpp:137] Memory required for data: 6107148
I0917 08:53:26.124542 14639 layer_factory.hpp:77] Creating layer B1_0_SConv_Conv1x1
I0917 08:53:26.124548 14639 net.cpp:84] Creating Layer B1_0_SConv_Conv1x1
I0917 08:53:26.124552 14639 net.cpp:406] B1_0_SConv_Conv1x1 <- B1_0_SConvBlockV2_Scale
I0917 08:53:26.124555 14639 net.cpp:380] B1_0_SConv_Conv1x1 -> B1_0_SConvBlockV2_Conv1x1
I0917 08:53:26.124788 14639 net.cpp:122] Setting up B1_0_SConv_Conv1x1
I0917 08:53:26.124792 14639 net.cpp:129] Top shape: 1 128 16 16 (32768)
I0917 08:53:26.124812 14639 net.cpp:137] Memory required for data: 6238220
I0917 08:53:26.124816 14639 layer_factory.hpp:77] Creating layer B1_0_SConv_ReLU
I0917 08:53:26.124821 14639 net.cpp:84] Creating Layer B1_0_SConv_ReLU
I0917 08:53:26.124825 14639 net.cpp:406] B1_0_SConv_ReLU <- B1_0_SConvBlockV2_Conv1x1
I0917 08:53:26.124827 14639 net.cpp:367] B1_0_SConv_ReLU -> B1_0_SConvBlockV2_Conv1x1 (in-place)
I0917 08:53:26.124831 14639 net.cpp:122] Setting up B1_0_SConv_ReLU
I0917 08:53:26.124835 14639 net.cpp:129] Top shape: 1 128 16 16 (32768)
I0917 08:53:26.124837 14639 net.cpp:137] Memory required for data: 6369292
I0917 08:53:26.124842 14639 layer_factory.hpp:77] Creating layer B1_0_SConv_Dropout
I0917 08:53:26.124847 14639 net.cpp:84] Creating Layer B1_0_SConv_Dropout
I0917 08:53:26.124850 14639 net.cpp:406] B1_0_SConv_Dropout <- B1_0_SConvBlockV2_Conv1x1
I0917 08:53:26.124853 14639 net.cpp:380] B1_0_SConv_Dropout -> B1_0_SConvBlockV2_Dropout
I0917 08:53:26.124867 14639 net.cpp:122] Setting up B1_0_SConv_Dropout
I0917 08:53:26.124871 14639 net.cpp:129] Top shape: 1 128 16 16 (32768)
I0917 08:53:26.124874 14639 net.cpp:137] Memory required for data: 6500364
I0917 08:53:26.124876 14639 layer_factory.hpp:77] Creating layer B1_1_SConv_SparseConv
I0917 08:53:26.124881 14639 net.cpp:84] Creating Layer B1_1_SConv_SparseConv
I0917 08:53:26.124883 14639 net.cpp:406] B1_1_SConv_SparseConv <- B1_0_SConvBlockV2_Dropout
I0917 08:53:26.124888 14639 net.cpp:380] B1_1_SConv_SparseConv -> B1_1_SConvBlockV2_T1
I0917 08:53:26.124964 14639 net.cpp:122] Setting up B1_1_SConv_SparseConv
I0917 08:53:26.124967 14639 net.cpp:129] Top shape: 1 512 16 16 (131072)
I0917 08:53:26.124970 14639 net.cpp:137] Memory required for data: 7024652
I0917 08:53:26.124974 14639 layer_factory.hpp:77] Creating layer B1_1_SConv_BN
I0917 08:53:26.124977 14639 net.cpp:84] Creating Layer B1_1_SConv_BN
I0917 08:53:26.124980 14639 net.cpp:406] B1_1_SConv_BN <- B1_1_SConvBlockV2_T1
I0917 08:53:26.124985 14639 net.cpp:367] B1_1_SConv_BN -> B1_1_SConvBlockV2_T1 (in-place)
I0917 08:53:26.125129 14639 net.cpp:122] Setting up B1_1_SConv_BN
I0917 08:53:26.125133 14639 net.cpp:129] Top shape: 1 512 16 16 (131072)
I0917 08:53:26.125136 14639 net.cpp:137] Memory required for data: 7548940
I0917 08:53:26.125140 14639 layer_factory.hpp:77] Creating layer B1_1_SConv_Scale
I0917 08:53:26.125145 14639 net.cpp:84] Creating Layer B1_1_SConv_Scale
I0917 08:53:26.125149 14639 net.cpp:406] B1_1_SConv_Scale <- B1_1_SConvBlockV2_T1
I0917 08:53:26.125152 14639 net.cpp:380] B1_1_SConv_Scale -> B1_1_SConvBlockV2_Scale
I0917 08:53:26.125176 14639 layer_factory.hpp:77] Creating layer B1_1_SConv_Scale
I0917 08:53:26.125542 14639 net.cpp:122] Setting up B1_1_SConv_Scale
I0917 08:53:26.125546 14639 net.cpp:129] Top shape: 1 512 16 16 (131072)
I0917 08:53:26.125550 14639 net.cpp:137] Memory required for data: 8073228
I0917 08:53:26.125553 14639 layer_factory.hpp:77] Creating layer B1_1_SConv_Conv1x1
I0917 08:53:26.125560 14639 net.cpp:84] Creating Layer B1_1_SConv_Conv1x1
I0917 08:53:26.125567 14639 net.cpp:406] B1_1_SConv_Conv1x1 <- B1_1_SConvBlockV2_Scale
I0917 08:53:26.125571 14639 net.cpp:380] B1_1_SConv_Conv1x1 -> B1_1_SConvBlockV2_Conv1x1
I0917 08:53:26.125919 14639 net.cpp:122] Setting up B1_1_SConv_Conv1x1
I0917 08:53:26.125922 14639 net.cpp:129] Top shape: 1 128 16 16 (32768)
I0917 08:53:26.125926 14639 net.cpp:137] Memory required for data: 8204300
I0917 08:53:26.125929 14639 layer_factory.hpp:77] Creating layer B1_1_SConv_ReLU
I0917 08:53:26.125936 14639 net.cpp:84] Creating Layer B1_1_SConv_ReLU
I0917 08:53:26.125938 14639 net.cpp:406] B1_1_SConv_ReLU <- B1_1_SConvBlockV2_Conv1x1
I0917 08:53:26.125941 14639 net.cpp:367] B1_1_SConv_ReLU -> B1_1_SConvBlockV2_Conv1x1 (in-place)
I0917 08:53:26.125946 14639 net.cpp:122] Setting up B1_1_SConv_ReLU
I0917 08:53:26.125947 14639 net.cpp:129] Top shape: 1 128 16 16 (32768)
I0917 08:53:26.125950 14639 net.cpp:137] Memory required for data: 8335372
I0917 08:53:26.125953 14639 layer_factory.hpp:77] Creating layer B1_1_SConv_Dropout
I0917 08:53:26.125958 14639 net.cpp:84] Creating Layer B1_1_SConv_Dropout
I0917 08:53:26.125960 14639 net.cpp:406] B1_1_SConv_Dropout <- B1_1_SConvBlockV2_Conv1x1
I0917 08:53:26.125964 14639 net.cpp:380] B1_1_SConv_Dropout -> B1_1_SConvBlockV2_Dropout
I0917 08:53:26.125977 14639 net.cpp:122] Setting up B1_1_SConv_Dropout
I0917 08:53:26.125981 14639 net.cpp:129] Top shape: 1 128 16 16 (32768)
I0917 08:53:26.125984 14639 net.cpp:137] Memory required for data: 8466444
I0917 08:53:26.125988 14639 layer_factory.hpp:77] Creating layer B1_Pooling
I0917 08:53:26.126001 14639 net.cpp:84] Creating Layer B1_Pooling
I0917 08:53:26.126006 14639 net.cpp:406] B1_Pooling <- B1_1_SConvBlockV2_Dropout
I0917 08:53:26.126010 14639 net.cpp:380] B1_Pooling -> Pooling2
I0917 08:53:26.126026 14639 net.cpp:122] Setting up B1_Pooling
I0917 08:53:26.126029 14639 net.cpp:129] Top shape: 1 128 8 8 (8192)
I0917 08:53:26.126032 14639 net.cpp:137] Memory required for data: 8499212
I0917 08:53:26.126034 14639 layer_factory.hpp:77] Creating layer B2_0_SConv_SparseConv
I0917 08:53:26.126040 14639 net.cpp:84] Creating Layer B2_0_SConv_SparseConv
I0917 08:53:26.126042 14639 net.cpp:406] B2_0_SConv_SparseConv <- Pooling2
I0917 08:53:26.126046 14639 net.cpp:380] B2_0_SConv_SparseConv -> B2_0_SConvBlockV2_T1
I0917 08:53:26.126137 14639 net.cpp:122] Setting up B2_0_SConv_SparseConv
I0917 08:53:26.126139 14639 net.cpp:129] Top shape: 1 512 8 8 (32768)
I0917 08:53:26.126142 14639 net.cpp:137] Memory required for data: 8630284
I0917 08:53:26.126147 14639 layer_factory.hpp:77] Creating layer B2_0_SConv_BN
I0917 08:53:26.126152 14639 net.cpp:84] Creating Layer B2_0_SConv_BN
I0917 08:53:26.126155 14639 net.cpp:406] B2_0_SConv_BN <- B2_0_SConvBlockV2_T1
I0917 08:53:26.126159 14639 net.cpp:367] B2_0_SConv_BN -> B2_0_SConvBlockV2_T1 (in-place)
I0917 08:53:26.126222 14639 net.cpp:122] Setting up B2_0_SConv_BN
I0917 08:53:26.126225 14639 net.cpp:129] Top shape: 1 512 8 8 (32768)
I0917 08:53:26.126228 14639 net.cpp:137] Memory required for data: 8761356
I0917 08:53:26.126235 14639 layer_factory.hpp:77] Creating layer B2_0_SConv_Scale
I0917 08:53:26.126240 14639 net.cpp:84] Creating Layer B2_0_SConv_Scale
I0917 08:53:26.126242 14639 net.cpp:406] B2_0_SConv_Scale <- B2_0_SConvBlockV2_T1
I0917 08:53:26.126245 14639 net.cpp:380] B2_0_SConv_Scale -> B2_0_SConvBlockV2_Scale
I0917 08:53:26.126261 14639 layer_factory.hpp:77] Creating layer B2_0_SConv_Scale
I0917 08:53:26.126303 14639 net.cpp:122] Setting up B2_0_SConv_Scale
I0917 08:53:26.126307 14639 net.cpp:129] Top shape: 1 512 8 8 (32768)
I0917 08:53:26.126309 14639 net.cpp:137] Memory required for data: 8892428
I0917 08:53:26.126313 14639 layer_factory.hpp:77] Creating layer B2_0_SConv_Conv1x1
I0917 08:53:26.126322 14639 net.cpp:84] Creating Layer B2_0_SConv_Conv1x1
I0917 08:53:26.126324 14639 net.cpp:406] B2_0_SConv_Conv1x1 <- B2_0_SConvBlockV2_Scale
I0917 08:53:26.126329 14639 net.cpp:380] B2_0_SConv_Conv1x1 -> B2_0_SConvBlockV2_Conv1x1
I0917 08:53:26.126828 14639 net.cpp:122] Setting up B2_0_SConv_Conv1x1
I0917 08:53:26.126840 14639 net.cpp:129] Top shape: 1 192 8 8 (12288)
I0917 08:53:26.126843 14639 net.cpp:137] Memory required for data: 8941580
I0917 08:53:26.126847 14639 layer_factory.hpp:77] Creating layer B2_0_SConv_ReLU
I0917 08:53:26.126853 14639 net.cpp:84] Creating Layer B2_0_SConv_ReLU
I0917 08:53:26.126857 14639 net.cpp:406] B2_0_SConv_ReLU <- B2_0_SConvBlockV2_Conv1x1
I0917 08:53:26.126859 14639 net.cpp:367] B2_0_SConv_ReLU -> B2_0_SConvBlockV2_Conv1x1 (in-place)
I0917 08:53:26.126863 14639 net.cpp:122] Setting up B2_0_SConv_ReLU
I0917 08:53:26.126866 14639 net.cpp:129] Top shape: 1 192 8 8 (12288)
I0917 08:53:26.126869 14639 net.cpp:137] Memory required for data: 8990732
I0917 08:53:26.126873 14639 layer_factory.hpp:77] Creating layer B2_0_SConv_Dropout
I0917 08:53:26.126879 14639 net.cpp:84] Creating Layer B2_0_SConv_Dropout
I0917 08:53:26.126883 14639 net.cpp:406] B2_0_SConv_Dropout <- B2_0_SConvBlockV2_Conv1x1
I0917 08:53:26.126888 14639 net.cpp:380] B2_0_SConv_Dropout -> B2_0_SConvBlockV2_Dropout
I0917 08:53:26.126901 14639 net.cpp:122] Setting up B2_0_SConv_Dropout
I0917 08:53:26.126905 14639 net.cpp:129] Top shape: 1 192 8 8 (12288)
I0917 08:53:26.126909 14639 net.cpp:137] Memory required for data: 9039884
I0917 08:53:26.126910 14639 layer_factory.hpp:77] Creating layer B2_1_SConv_SparseConv
I0917 08:53:26.126916 14639 net.cpp:84] Creating Layer B2_1_SConv_SparseConv
I0917 08:53:26.126919 14639 net.cpp:406] B2_1_SConv_SparseConv <- B2_0_SConvBlockV2_Dropout
I0917 08:53:26.126922 14639 net.cpp:380] B2_1_SConv_SparseConv -> B2_1_SConvBlockV2_T1
I0917 08:53:26.127022 14639 net.cpp:122] Setting up B2_1_SConv_SparseConv
I0917 08:53:26.127027 14639 net.cpp:129] Top shape: 1 768 8 8 (49152)
I0917 08:53:26.127032 14639 net.cpp:137] Memory required for data: 9236492
I0917 08:53:26.127034 14639 layer_factory.hpp:77] Creating layer B2_1_SConv_BN
I0917 08:53:26.127038 14639 net.cpp:84] Creating Layer B2_1_SConv_BN
I0917 08:53:26.127043 14639 net.cpp:406] B2_1_SConv_BN <- B2_1_SConvBlockV2_T1
I0917 08:53:26.127053 14639 net.cpp:367] B2_1_SConv_BN -> B2_1_SConvBlockV2_T1 (in-place)
I0917 08:53:26.127195 14639 net.cpp:122] Setting up B2_1_SConv_BN
I0917 08:53:26.127205 14639 net.cpp:129] Top shape: 1 768 8 8 (49152)
I0917 08:53:26.127208 14639 net.cpp:137] Memory required for data: 9433100
I0917 08:53:26.127213 14639 layer_factory.hpp:77] Creating layer B2_1_SConv_Scale
I0917 08:53:26.127216 14639 net.cpp:84] Creating Layer B2_1_SConv_Scale
I0917 08:53:26.127219 14639 net.cpp:406] B2_1_SConv_Scale <- B2_1_SConvBlockV2_T1
I0917 08:53:26.127223 14639 net.cpp:380] B2_1_SConv_Scale -> B2_1_SConvBlockV2_Scale
I0917 08:53:26.127240 14639 layer_factory.hpp:77] Creating layer B2_1_SConv_Scale
I0917 08:53:26.127308 14639 net.cpp:122] Setting up B2_1_SConv_Scale
I0917 08:53:26.127311 14639 net.cpp:129] Top shape: 1 768 8 8 (49152)
I0917 08:53:26.127315 14639 net.cpp:137] Memory required for data: 9629708
I0917 08:53:26.127318 14639 layer_factory.hpp:77] Creating layer B2_1_SConv_Conv1x1
I0917 08:53:26.127326 14639 net.cpp:84] Creating Layer B2_1_SConv_Conv1x1
I0917 08:53:26.127328 14639 net.cpp:406] B2_1_SConv_Conv1x1 <- B2_1_SConvBlockV2_Scale
I0917 08:53:26.127331 14639 net.cpp:380] B2_1_SConv_Conv1x1 -> B2_1_SConvBlockV2_Conv1x1
I0917 08:53:26.128012 14639 net.cpp:122] Setting up B2_1_SConv_Conv1x1
I0917 08:53:26.128017 14639 net.cpp:129] Top shape: 1 192 8 8 (12288)
I0917 08:53:26.128021 14639 net.cpp:137] Memory required for data: 9678860
I0917 08:53:26.128024 14639 layer_factory.hpp:77] Creating layer B2_1_SConv_ReLU
I0917 08:53:26.128028 14639 net.cpp:84] Creating Layer B2_1_SConv_ReLU
I0917 08:53:26.128031 14639 net.cpp:406] B2_1_SConv_ReLU <- B2_1_SConvBlockV2_Conv1x1
I0917 08:53:26.128037 14639 net.cpp:367] B2_1_SConv_ReLU -> B2_1_SConvBlockV2_Conv1x1 (in-place)
I0917 08:53:26.128041 14639 net.cpp:122] Setting up B2_1_SConv_ReLU
I0917 08:53:26.128043 14639 net.cpp:129] Top shape: 1 192 8 8 (12288)
I0917 08:53:26.128046 14639 net.cpp:137] Memory required for data: 9728012
I0917 08:53:26.128049 14639 layer_factory.hpp:77] Creating layer B2_1_SConv_Dropout
I0917 08:53:26.128057 14639 net.cpp:84] Creating Layer B2_1_SConv_Dropout
I0917 08:53:26.128060 14639 net.cpp:406] B2_1_SConv_Dropout <- B2_1_SConvBlockV2_Conv1x1
I0917 08:53:26.128063 14639 net.cpp:380] B2_1_SConv_Dropout -> B2_1_SConvBlockV2_Dropout
I0917 08:53:26.128079 14639 net.cpp:122] Setting up B2_1_SConv_Dropout
I0917 08:53:26.128082 14639 net.cpp:129] Top shape: 1 192 8 8 (12288)
I0917 08:53:26.128085 14639 net.cpp:137] Memory required for data: 9777164
I0917 08:53:26.128087 14639 layer_factory.hpp:77] Creating layer B2_2_SConv_SparseConv
I0917 08:53:26.128093 14639 net.cpp:84] Creating Layer B2_2_SConv_SparseConv
I0917 08:53:26.128095 14639 net.cpp:406] B2_2_SConv_SparseConv <- B2_1_SConvBlockV2_Dropout
I0917 08:53:26.128098 14639 net.cpp:380] B2_2_SConv_SparseConv -> B2_2_SConvBlockV2_T1
I0917 08:53:26.128190 14639 net.cpp:122] Setting up B2_2_SConv_SparseConv
I0917 08:53:26.128193 14639 net.cpp:129] Top shape: 1 768 8 8 (49152)
I0917 08:53:26.128196 14639 net.cpp:137] Memory required for data: 9973772
I0917 08:53:26.128199 14639 layer_factory.hpp:77] Creating layer B2_2_SConv_BN
I0917 08:53:26.128206 14639 net.cpp:84] Creating Layer B2_2_SConv_BN
I0917 08:53:26.128209 14639 net.cpp:406] B2_2_SConv_BN <- B2_2_SConvBlockV2_T1
I0917 08:53:26.128213 14639 net.cpp:367] B2_2_SConv_BN -> B2_2_SConvBlockV2_T1 (in-place)
I0917 08:53:26.128274 14639 net.cpp:122] Setting up B2_2_SConv_BN
I0917 08:53:26.128278 14639 net.cpp:129] Top shape: 1 768 8 8 (49152)
I0917 08:53:26.128280 14639 net.cpp:137] Memory required for data: 10170380
I0917 08:53:26.128285 14639 layer_factory.hpp:77] Creating layer B2_2_SConv_Scale
I0917 08:53:26.128290 14639 net.cpp:84] Creating Layer B2_2_SConv_Scale
I0917 08:53:26.128293 14639 net.cpp:406] B2_2_SConv_Scale <- B2_2_SConvBlockV2_T1
I0917 08:53:26.128298 14639 net.cpp:380] B2_2_SConv_Scale -> B2_2_SConvBlockV2_Scale
I0917 08:53:26.128314 14639 layer_factory.hpp:77] Creating layer B2_2_SConv_Scale
I0917 08:53:26.128353 14639 net.cpp:122] Setting up B2_2_SConv_Scale
I0917 08:53:26.128356 14639 net.cpp:129] Top shape: 1 768 8 8 (49152)
I0917 08:53:26.128360 14639 net.cpp:137] Memory required for data: 10366988
I0917 08:53:26.128363 14639 layer_factory.hpp:77] Creating layer B2_2_SConv_Conv1x1
I0917 08:53:26.128369 14639 net.cpp:84] Creating Layer B2_2_SConv_Conv1x1
I0917 08:53:26.128371 14639 net.cpp:406] B2_2_SConv_Conv1x1 <- B2_2_SConvBlockV2_Scale
I0917 08:53:26.128376 14639 net.cpp:380] B2_2_SConv_Conv1x1 -> B2_2_SConvBlockV2_Conv1x1
I0917 08:53:26.129904 14639 net.cpp:122] Setting up B2_2_SConv_Conv1x1
I0917 08:53:26.129914 14639 net.cpp:129] Top shape: 1 192 8 8 (12288)
I0917 08:53:26.129918 14639 net.cpp:137] Memory required for data: 10416140
I0917 08:53:26.129923 14639 layer_factory.hpp:77] Creating layer B2_2_SConv_ReLU
I0917 08:53:26.129930 14639 net.cpp:84] Creating Layer B2_2_SConv_ReLU
I0917 08:53:26.129933 14639 net.cpp:406] B2_2_SConv_ReLU <- B2_2_SConvBlockV2_Conv1x1
I0917 08:53:26.129937 14639 net.cpp:367] B2_2_SConv_ReLU -> B2_2_SConvBlockV2_Conv1x1 (in-place)
I0917 08:53:26.129941 14639 net.cpp:122] Setting up B2_2_SConv_ReLU
I0917 08:53:26.129945 14639 net.cpp:129] Top shape: 1 192 8 8 (12288)
I0917 08:53:26.129947 14639 net.cpp:137] Memory required for data: 10465292
I0917 08:53:26.129951 14639 layer_factory.hpp:77] Creating layer B2_2_SConv_Dropout
I0917 08:53:26.129956 14639 net.cpp:84] Creating Layer B2_2_SConv_Dropout
I0917 08:53:26.129958 14639 net.cpp:406] B2_2_SConv_Dropout <- B2_2_SConvBlockV2_Conv1x1
I0917 08:53:26.129961 14639 net.cpp:380] B2_2_SConv_Dropout -> B2_2_SConvBlockV2_Dropout
I0917 08:53:26.129978 14639 net.cpp:122] Setting up B2_2_SConv_Dropout
I0917 08:53:26.129981 14639 net.cpp:129] Top shape: 1 192 8 8 (12288)
I0917 08:53:26.129984 14639 net.cpp:137] Memory required for data: 10514444
I0917 08:53:26.129987 14639 layer_factory.hpp:77] Creating layer B2_Pooling
I0917 08:53:26.129992 14639 net.cpp:84] Creating Layer B2_Pooling
I0917 08:53:26.129993 14639 net.cpp:406] B2_Pooling <- B2_2_SConvBlockV2_Dropout
I0917 08:53:26.130003 14639 net.cpp:380] B2_Pooling -> Pooling3
I0917 08:53:26.130021 14639 net.cpp:122] Setting up B2_Pooling
I0917 08:53:26.130024 14639 net.cpp:129] Top shape: 1 192 4 4 (3072)
I0917 08:53:26.130028 14639 net.cpp:137] Memory required for data: 10526732
I0917 08:53:26.130030 14639 layer_factory.hpp:77] Creating layer B3_0_SConv_SparseConv
I0917 08:53:26.130035 14639 net.cpp:84] Creating Layer B3_0_SConv_SparseConv
I0917 08:53:26.130049 14639 net.cpp:406] B3_0_SConv_SparseConv <- Pooling3
I0917 08:53:26.130053 14639 net.cpp:380] B3_0_SConv_SparseConv -> B3_0_SConvBlockV2_T1
I0917 08:53:26.130141 14639 net.cpp:122] Setting up B3_0_SConv_SparseConv
I0917 08:53:26.130144 14639 net.cpp:129] Top shape: 1 768 4 4 (12288)
I0917 08:53:26.130147 14639 net.cpp:137] Memory required for data: 10575884
I0917 08:53:26.130151 14639 layer_factory.hpp:77] Creating layer B3_0_SConv_BN
I0917 08:53:26.130156 14639 net.cpp:84] Creating Layer B3_0_SConv_BN
I0917 08:53:26.130158 14639 net.cpp:406] B3_0_SConv_BN <- B3_0_SConvBlockV2_T1
I0917 08:53:26.130162 14639 net.cpp:367] B3_0_SConv_BN -> B3_0_SConvBlockV2_T1 (in-place)
I0917 08:53:26.130228 14639 net.cpp:122] Setting up B3_0_SConv_BN
I0917 08:53:26.130231 14639 net.cpp:129] Top shape: 1 768 4 4 (12288)
I0917 08:53:26.130234 14639 net.cpp:137] Memory required for data: 10625036
I0917 08:53:26.130239 14639 layer_factory.hpp:77] Creating layer B3_0_SConv_Scale
I0917 08:53:26.130241 14639 net.cpp:84] Creating Layer B3_0_SConv_Scale
I0917 08:53:26.130244 14639 net.cpp:406] B3_0_SConv_Scale <- B3_0_SConvBlockV2_T1
I0917 08:53:26.130247 14639 net.cpp:380] B3_0_SConv_Scale -> B3_0_SConvBlockV2_Scale
I0917 08:53:26.130265 14639 layer_factory.hpp:77] Creating layer B3_0_SConv_Scale
I0917 08:53:26.130306 14639 net.cpp:122] Setting up B3_0_SConv_Scale
I0917 08:53:26.130307 14639 net.cpp:129] Top shape: 1 768 4 4 (12288)
I0917 08:53:26.130311 14639 net.cpp:137] Memory required for data: 10674188
I0917 08:53:26.130314 14639 layer_factory.hpp:77] Creating layer B3_0_SConv_Conv1x1
I0917 08:53:26.130321 14639 net.cpp:84] Creating Layer B3_0_SConv_Conv1x1
I0917 08:53:26.130322 14639 net.cpp:406] B3_0_SConv_Conv1x1 <- B3_0_SConvBlockV2_Scale
I0917 08:53:26.130326 14639 net.cpp:380] B3_0_SConv_Conv1x1 -> B3_0_SConvBlockV2_Conv1x1
I0917 08:53:26.130959 14639 net.cpp:122] Setting up B3_0_SConv_Conv1x1
I0917 08:53:26.130964 14639 net.cpp:129] Top shape: 1 192 4 4 (3072)
I0917 08:53:26.130967 14639 net.cpp:137] Memory required for data: 10686476
I0917 08:53:26.130970 14639 layer_factory.hpp:77] Creating layer B3_0_SConv_ReLU
I0917 08:53:26.130975 14639 net.cpp:84] Creating Layer B3_0_SConv_ReLU
I0917 08:53:26.130978 14639 net.cpp:406] B3_0_SConv_ReLU <- B3_0_SConvBlockV2_Conv1x1
I0917 08:53:26.130982 14639 net.cpp:367] B3_0_SConv_ReLU -> B3_0_SConvBlockV2_Conv1x1 (in-place)
I0917 08:53:26.130985 14639 net.cpp:122] Setting up B3_0_SConv_ReLU
I0917 08:53:26.130988 14639 net.cpp:129] Top shape: 1 192 4 4 (3072)
I0917 08:53:26.130991 14639 net.cpp:137] Memory required for data: 10698764
I0917 08:53:26.130993 14639 layer_factory.hpp:77] Creating layer B3_0_SConv_Dropout
I0917 08:53:26.130996 14639 net.cpp:84] Creating Layer B3_0_SConv_Dropout
I0917 08:53:26.131000 14639 net.cpp:406] B3_0_SConv_Dropout <- B3_0_SConvBlockV2_Conv1x1
I0917 08:53:26.131002 14639 net.cpp:380] B3_0_SConv_Dropout -> B3_0_SConvBlockV2_Dropout
I0917 08:53:26.131017 14639 net.cpp:122] Setting up B3_0_SConv_Dropout
I0917 08:53:26.131021 14639 net.cpp:129] Top shape: 1 192 4 4 (3072)
I0917 08:53:26.131023 14639 net.cpp:137] Memory required for data: 10711052
I0917 08:53:26.131026 14639 layer_factory.hpp:77] Creating layer B3_1_SConv_SparseConv
I0917 08:53:26.131031 14639 net.cpp:84] Creating Layer B3_1_SConv_SparseConv
I0917 08:53:26.131033 14639 net.cpp:406] B3_1_SConv_SparseConv <- B3_0_SConvBlockV2_Dropout
I0917 08:53:26.131036 14639 net.cpp:380] B3_1_SConv_SparseConv -> B3_1_SConvBlockV2_T1
I0917 08:53:26.131126 14639 net.cpp:122] Setting up B3_1_SConv_SparseConv
I0917 08:53:26.131129 14639 net.cpp:129] Top shape: 1 768 4 4 (12288)
I0917 08:53:26.131137 14639 net.cpp:137] Memory required for data: 10760204
I0917 08:53:26.131140 14639 layer_factory.hpp:77] Creating layer B3_1_SConv_BN
I0917 08:53:26.131145 14639 net.cpp:84] Creating Layer B3_1_SConv_BN
I0917 08:53:26.131148 14639 net.cpp:406] B3_1_SConv_BN <- B3_1_SConvBlockV2_T1
I0917 08:53:26.131151 14639 net.cpp:367] B3_1_SConv_BN -> B3_1_SConvBlockV2_T1 (in-place)
I0917 08:53:26.131212 14639 net.cpp:122] Setting up B3_1_SConv_BN
I0917 08:53:26.131215 14639 net.cpp:129] Top shape: 1 768 4 4 (12288)
I0917 08:53:26.131218 14639 net.cpp:137] Memory required for data: 10809356
I0917 08:53:26.131225 14639 layer_factory.hpp:77] Creating layer B3_1_SConv_Scale
I0917 08:53:26.131228 14639 net.cpp:84] Creating Layer B3_1_SConv_Scale
I0917 08:53:26.131232 14639 net.cpp:406] B3_1_SConv_Scale <- B3_1_SConvBlockV2_T1
I0917 08:53:26.131237 14639 net.cpp:380] B3_1_SConv_Scale -> B3_1_SConvBlockV2_Scale
I0917 08:53:26.131253 14639 layer_factory.hpp:77] Creating layer B3_1_SConv_Scale
I0917 08:53:26.131292 14639 net.cpp:122] Setting up B3_1_SConv_Scale
I0917 08:53:26.131295 14639 net.cpp:129] Top shape: 1 768 4 4 (12288)
I0917 08:53:26.131299 14639 net.cpp:137] Memory required for data: 10858508
I0917 08:53:26.131302 14639 layer_factory.hpp:77] Creating layer B3_1_SConv_Conv1x1
I0917 08:53:26.131307 14639 net.cpp:84] Creating Layer B3_1_SConv_Conv1x1
I0917 08:53:26.131310 14639 net.cpp:406] B3_1_SConv_Conv1x1 <- B3_1_SConvBlockV2_Scale
I0917 08:53:26.131314 14639 net.cpp:380] B3_1_SConv_Conv1x1 -> B3_1_SConvBlockV2_Conv1x1
I0917 08:53:26.131944 14639 net.cpp:122] Setting up B3_1_SConv_Conv1x1
I0917 08:53:26.131953 14639 net.cpp:129] Top shape: 1 192 4 4 (3072)
I0917 08:53:26.131956 14639 net.cpp:137] Memory required for data: 10870796
I0917 08:53:26.131959 14639 layer_factory.hpp:77] Creating layer B3_1_SConv_ReLU
I0917 08:53:26.131963 14639 net.cpp:84] Creating Layer B3_1_SConv_ReLU
I0917 08:53:26.131966 14639 net.cpp:406] B3_1_SConv_ReLU <- B3_1_SConvBlockV2_Conv1x1
I0917 08:53:26.131969 14639 net.cpp:367] B3_1_SConv_ReLU -> B3_1_SConvBlockV2_Conv1x1 (in-place)
I0917 08:53:26.131973 14639 net.cpp:122] Setting up B3_1_SConv_ReLU
I0917 08:53:26.131975 14639 net.cpp:129] Top shape: 1 192 4 4 (3072)
I0917 08:53:26.131978 14639 net.cpp:137] Memory required for data: 10883084
I0917 08:53:26.131981 14639 layer_factory.hpp:77] Creating layer B3_1_SConv_Dropout
I0917 08:53:26.131985 14639 net.cpp:84] Creating Layer B3_1_SConv_Dropout
I0917 08:53:26.131989 14639 net.cpp:406] B3_1_SConv_Dropout <- B3_1_SConvBlockV2_Conv1x1
I0917 08:53:26.131991 14639 net.cpp:380] B3_1_SConv_Dropout -> B3_1_SConvBlockV2_Dropout
I0917 08:53:26.132006 14639 net.cpp:122] Setting up B3_1_SConv_Dropout
I0917 08:53:26.132009 14639 net.cpp:129] Top shape: 1 192 4 4 (3072)
I0917 08:53:26.132012 14639 net.cpp:137] Memory required for data: 10895372
I0917 08:53:26.132014 14639 layer_factory.hpp:77] Creating layer B3_2_SConv_SparseConv
I0917 08:53:26.132019 14639 net.cpp:84] Creating Layer B3_2_SConv_SparseConv
I0917 08:53:26.132022 14639 net.cpp:406] B3_2_SConv_SparseConv <- B3_1_SConvBlockV2_Dropout
I0917 08:53:26.132025 14639 net.cpp:380] B3_2_SConv_SparseConv -> B3_2_SConvBlockV2_T1
I0917 08:53:26.132114 14639 net.cpp:122] Setting up B3_2_SConv_SparseConv
I0917 08:53:26.132117 14639 net.cpp:129] Top shape: 1 768 4 4 (12288)
I0917 08:53:26.132119 14639 net.cpp:137] Memory required for data: 10944524
I0917 08:53:26.132123 14639 layer_factory.hpp:77] Creating layer B3_2_SConv_BN
I0917 08:53:26.132128 14639 net.cpp:84] Creating Layer B3_2_SConv_BN
I0917 08:53:26.132130 14639 net.cpp:406] B3_2_SConv_BN <- B3_2_SConvBlockV2_T1
I0917 08:53:26.132135 14639 net.cpp:367] B3_2_SConv_BN -> B3_2_SConvBlockV2_T1 (in-place)
I0917 08:53:26.132197 14639 net.cpp:122] Setting up B3_2_SConv_BN
I0917 08:53:26.132200 14639 net.cpp:129] Top shape: 1 768 4 4 (12288)
I0917 08:53:26.132203 14639 net.cpp:137] Memory required for data: 10993676
I0917 08:53:26.132207 14639 layer_factory.hpp:77] Creating layer B3_2_SConv_Scale
I0917 08:53:26.132211 14639 net.cpp:84] Creating Layer B3_2_SConv_Scale
I0917 08:53:26.132217 14639 net.cpp:406] B3_2_SConv_Scale <- B3_2_SConvBlockV2_T1
I0917 08:53:26.132221 14639 net.cpp:380] B3_2_SConv_Scale -> B3_2_SConvBlockV2_Scale
I0917 08:53:26.132236 14639 layer_factory.hpp:77] Creating layer B3_2_SConv_Scale
I0917 08:53:26.132274 14639 net.cpp:122] Setting up B3_2_SConv_Scale
I0917 08:53:26.132277 14639 net.cpp:129] Top shape: 1 768 4 4 (12288)
I0917 08:53:26.132280 14639 net.cpp:137] Memory required for data: 11042828
I0917 08:53:26.132283 14639 layer_factory.hpp:77] Creating layer B3_2_SConv_Conv1x1
I0917 08:53:26.132289 14639 net.cpp:84] Creating Layer B3_2_SConv_Conv1x1
I0917 08:53:26.132292 14639 net.cpp:406] B3_2_SConv_Conv1x1 <- B3_2_SConvBlockV2_Scale
I0917 08:53:26.132297 14639 net.cpp:380] B3_2_SConv_Conv1x1 -> B3_2_SConvBlockV2_Conv1x1
I0917 08:53:26.133813 14639 net.cpp:122] Setting up B3_2_SConv_Conv1x1
I0917 08:53:26.133824 14639 net.cpp:129] Top shape: 1 192 4 4 (3072)
I0917 08:53:26.133828 14639 net.cpp:137] Memory required for data: 11055116
I0917 08:53:26.133833 14639 layer_factory.hpp:77] Creating layer B3_2_SConv_ReLU
I0917 08:53:26.133837 14639 net.cpp:84] Creating Layer B3_2_SConv_ReLU
I0917 08:53:26.133841 14639 net.cpp:406] B3_2_SConv_ReLU <- B3_2_SConvBlockV2_Conv1x1
I0917 08:53:26.133846 14639 net.cpp:367] B3_2_SConv_ReLU -> B3_2_SConvBlockV2_Conv1x1 (in-place)
I0917 08:53:26.133850 14639 net.cpp:122] Setting up B3_2_SConv_ReLU
I0917 08:53:26.133852 14639 net.cpp:129] Top shape: 1 192 4 4 (3072)
I0917 08:53:26.133855 14639 net.cpp:137] Memory required for data: 11067404
I0917 08:53:26.133858 14639 layer_factory.hpp:77] Creating layer B3_2_SConv_Dropout
I0917 08:53:26.133867 14639 net.cpp:84] Creating Layer B3_2_SConv_Dropout
I0917 08:53:26.133869 14639 net.cpp:406] B3_2_SConv_Dropout <- B3_2_SConvBlockV2_Conv1x1
I0917 08:53:26.133873 14639 net.cpp:380] B3_2_SConv_Dropout -> B3_2_SConvBlockV2_Dropout
I0917 08:53:26.133891 14639 net.cpp:122] Setting up B3_2_SConv_Dropout
I0917 08:53:26.133894 14639 net.cpp:129] Top shape: 1 192 4 4 (3072)
I0917 08:53:26.133898 14639 net.cpp:137] Memory required for data: 11079692
I0917 08:53:26.133900 14639 layer_factory.hpp:77] Creating layer B3_Pooling
I0917 08:53:26.133909 14639 net.cpp:84] Creating Layer B3_Pooling
I0917 08:53:26.133911 14639 net.cpp:406] B3_Pooling <- B3_2_SConvBlockV2_Dropout
I0917 08:53:26.133915 14639 net.cpp:380] B3_Pooling -> Pooling4
I0917 08:53:26.133926 14639 net.cpp:122] Setting up B3_Pooling
I0917 08:53:26.133929 14639 net.cpp:129] Top shape: 1 192 1 1 (192)
I0917 08:53:26.133932 14639 net.cpp:137] Memory required for data: 11080460
I0917 08:53:26.133935 14639 layer_factory.hpp:77] Creating layer fc1
I0917 08:53:26.133939 14639 net.cpp:84] Creating Layer fc1
I0917 08:53:26.133942 14639 net.cpp:406] fc1 <- Pooling4
I0917 08:53:26.133947 14639 net.cpp:380] fc1 -> fc1
I0917 08:53:26.134281 14639 net.cpp:122] Setting up fc1
I0917 08:53:26.134284 14639 net.cpp:129] Top shape: 1 384 (384)
I0917 08:53:26.134287 14639 net.cpp:137] Memory required for data: 11081996
I0917 08:53:26.134291 14639 layer_factory.hpp:77] Creating layer classifier
I0917 08:53:26.134294 14639 net.cpp:84] Creating Layer classifier
I0917 08:53:26.134297 14639 net.cpp:406] classifier <- fc1
I0917 08:53:26.134300 14639 net.cpp:380] classifier -> classifier
I0917 08:53:26.134348 14639 net.cpp:122] Setting up classifier
I0917 08:53:26.134351 14639 net.cpp:129] Top shape: 1 10 (10)
I0917 08:53:26.134354 14639 net.cpp:137] Memory required for data: 11082036
I0917 08:53:26.134357 14639 layer_factory.hpp:77] Creating layer classifier_classifier_0_split
I0917 08:53:26.134361 14639 net.cpp:84] Creating Layer classifier_classifier_0_split
I0917 08:53:26.134363 14639 net.cpp:406] classifier_classifier_0_split <- classifier
I0917 08:53:26.134367 14639 net.cpp:380] classifier_classifier_0_split -> classifier_classifier_0_split_0
I0917 08:53:26.134372 14639 net.cpp:380] classifier_classifier_0_split -> classifier_classifier_0_split_1
I0917 08:53:26.134384 14639 net.cpp:122] Setting up classifier_classifier_0_split
I0917 08:53:26.134392 14639 net.cpp:129] Top shape: 1 10 (10)
I0917 08:53:26.134394 14639 net.cpp:129] Top shape: 1 10 (10)
I0917 08:53:26.134397 14639 net.cpp:137] Memory required for data: 11082116
I0917 08:53:26.134399 14639 layer_factory.hpp:77] Creating layer softmax_loss
I0917 08:53:26.134404 14639 net.cpp:84] Creating Layer softmax_loss
I0917 08:53:26.134407 14639 net.cpp:406] softmax_loss <- classifier_classifier_0_split_0
I0917 08:53:26.134410 14639 net.cpp:406] softmax_loss <- label_InputData_1_split_0
…
