…
I0907 09:42:56.386436 81223 net.cpp:294] The NetState phase (0) differed from the phase (1) specified by a rule in layer accuracy
I0907 09:42:56.386451 81223 net.cpp:51] Initializing net from parameters: 
state {
  phase: TRAIN
  level: 0
  stage: ""
}
layer {
  name: "InputData"
  type: "ImageData"
  top: "data"
  top: "label"
  include {
    phase: TRAIN
  }
  transform_param {
    mirror: true
    crop_size: 32
  }
  image_data_param {
    source: "/home/jcwang/work/1.CIFAR10/train.txt"
    batch_size: 32
    shuffle: true
    is_color: true
  }
}
layer {
  name: "B0_0_ConvBNScaleReLU_Conv"
  type: "Convolution"
  bottom: "data"
  top: "B0_0_ConvBNScaleReLU_Conv"
  convolution_param {
    num_output: 64
    bias_term: false
    pad: 1
    kernel_size: 3
    stride: 1
    weight_filler {
      type: "xavier"
    }
    bias_filler {
      type: "constant"
    }
  }
}
layer {
  name: "B0_0_ConvBNScaleReLU_BN"
  type: "BatchNorm"
  bottom: "B0_0_ConvBNScaleReLU_Conv"
  top: "B0_0_ConvBNScaleReLU_Conv"
  param {
    lr_mult: 0
    decay_mult: 0
  }
  param {
    lr_mult: 0
    decay_mult: 0
  }
  param {
    lr_mult: 0
    decay_mult: 0
  }
  batch_norm_param {
    moving_average_fraction: 0.999
    eps: 0.001
  }
}
layer {
  name: "B0_0_ConvBNScaleReLU_Scale"
  type: "Scale"
  bottom: "B0_0_ConvBNScaleReLU_Conv"
  top: "B0_0_ConvBNScaleReLU_Conv"
  scale_param {
    filler {
      value: 1
    }
    bias_term: true
    bias_filler {
      value: 0
    }
    l1_lambda: 0
  }
}
layer {
  name: "B0_0_ConvBNScaleReLU_ReLU"
  type: "ReLU"
  bottom: "B0_0_ConvBNScaleReLU_Conv"
  top: "B0_0_ConvBNScaleReLU_Conv"
}
layer {
  name: "B0_0_ConvBNScaleReLU_Dropout"
  type: "Dropout"
  bottom: "B0_0_ConvBNScaleReLU_Conv"
  top: "ConvBNScaleReLU"
  dropout_param {
    dropout_ratio: 0.25
  }
}
layer {
  name: "B0_1_SConv_SparseConv"
  type: "SparseConvolution"
  bottom: "ConvBNScaleReLU"
  top: "B0_1_SConvBlockV2_T1"
  sparse_convolution_param {
    weight_filler {
      type: "xavier"
    }
    channel_expand_multiplier: 12
  }
}
layer {
  name: "B0_1_SConv_BN"
  type: "BatchNorm"
  bottom: "B0_1_SConvBlockV2_T1"
  top: "B0_1_SConvBlockV2_T1"
  param {
    lr_mult: 0
    decay_mult: 0
  }
  param {
    lr_mult: 0
    decay_mult: 0
  }
  param {
    lr_mult: 0
    decay_mult: 0
  }
  batch_norm_param {
    moving_average_fraction: 0.999
    eps: 0.001
  }
}
layer {
  name: "B0_1_SConv_Scale"
  type: "Scale"
  bottom: "B0_1_SConvBlockV2_T1"
  top: "B0_1_SConvBlockV2_Scale"
  scale_param {
    bias_term: true
  }
}
layer {
  name: "B0_1_SConv_Conv1x1"
  type: "Convolution"
  bottom: "B0_1_SConvBlockV2_Scale"
  top: "B0_1_SConvBlockV2_Conv1x1"
  convolution_param {
    num_output: 64
    bias_term: true
    pad: 0
    kernel_size: 1
    stride: 1
    weight_filler {
      type: "xavier"
    }
    bias_filler {
      type: "constant"
    }
  }
}
layer {
  name: "B0_1_SConv_ReLU"
  type: "ReLU"
  bottom: "B0_1_SConvBlockV2_Conv1x1"
  top: "B0_1_SConvBlockV2_Conv1x1"
}
layer {
  name: "B0_1_SConv_Dropout"
  type: "Dropout"
  bottom: "B0_1_SConvBlockV2_Conv1x1"
  top: "B0_1_SConvBlockV2_Dropout"
  dropout_param {
    dropout_ratio: 0.25
  }
}
layer {
  name: "B0_Pooling"
  type: "Pooling"
  bottom: "B0_1_SConvBlockV2_Dropout"
  top: "Pooling1"
  pooling_param {
    pool: MAX
    kernel_size: 2
    stride: 2
    pad: 0
  }
}
layer {
  name: "B1_0_SConv_SparseConv"
  type: "SparseConvolution"
  bottom: "Pooling1"
  top: "B1_0_SConvBlockV2_T1"
  sparse_convolution_param {
    weight_filler {
      type: "xavier"
    }
    channel_expand_multiplier: 12
  }
}
layer {
  name: "B1_0_SConv_BN"
  type: "BatchNorm"
  bottom: "B1_0_SConvBlockV2_T1"
  top: "B1_0_SConvBlockV2_T1"
  param {
    lr_mult: 0
    decay_mult: 0
  }
  param {
    lr_mult: 0
    decay_mult: 0
  }
  param {
    lr_mult: 0
    decay_mult: 0
  }
  batch_norm_param {
    moving_average_fraction: 0.999
    eps: 0.001
  }
}
layer {
  name: "B1_0_SConv_Scale"
  type: "Scale"
  bottom: "B1_0_SConvBlockV2_T1"
  top: "B1_0_SConvBlockV2_Scale"
  scale_param {
    bias_term: true
  }
}
layer {
  name: "B1_0_SConv_Conv1x1"
  type: "Convolution"
  bottom: "B1_0_SConvBlockV2_Scale"
  top: "B1_0_SConvBlockV2_Conv1x1"
  convolution_param {
    num_output: 128
    bias_term: true
    pad: 0
    kernel_size: 1
    stride: 1
    weight_filler {
      type: "xavier"
    }
    bias_filler {
      type: "constant"
    }
  }
}
layer {
  name: "B1_0_SConv_ReLU"
  type: "ReLU"
  bottom: "B1_0_SConvBlockV2_Conv1x1"
  top: "B1_0_SConvBlockV2_Conv1x1"
}
layer {
  name: "B1_0_SConv_Dropout"
  type: "Dropout"
  bottom: "B1_0_SConvBlockV2_Conv1x1"
  top: "B1_0_SConvBlockV2_Dropout"
  dropout_param {
    dropout_ratio: 0.25
  }
}
layer {
  name: "B1_1_SConv_SparseConv"
  type: "SparseConvolution"
  bottom: "B1_0_SConvBlockV2_Dropout"
  top: "B1_1_SConvBlockV2_T1"
  sparse_convolution_param {
    weight_filler {
      type: "xavier"
    }
    channel_expand_multiplier: 12
  }
}
layer {
  name: "B1_1_SConv_BN"
  type: "BatchNorm"
  bottom: "B1_1_SConvBlockV2_T1"
  top: "B1_1_SConvBlockV2_T1"
  param {
    lr_mult: 0
    decay_mult: 0
  }
  param {
    lr_mult: 0
    decay_mult: 0
  }
  param {
    lr_mult: 0
    decay_mult: 0
  }
  batch_norm_param {
    moving_average_fraction: 0.999
    eps: 0.001
  }
}
layer {
  name: "B1_1_SConv_Scale"
  type: "Scale"
  bottom: "B1_1_SConvBlockV2_T1"
  top: "B1_1_SConvBlockV2_Scale"
  scale_param {
    bias_term: true
  }
}
layer {
  name: "B1_1_SConv_Conv1x1"
  type: "Convolution"
  bottom: "B1_1_SConvBlockV2_Scale"
  top: "B1_1_SConvBlockV2_Conv1x1"
  convolution_param {
    num_output: 128
    bias_term: true
    pad: 0
    kernel_size: 1
    stride: 1
    weight_filler {
      type: "xavier"
    }
    bias_filler {
      type: "constant"
    }
  }
}
layer {
  name: "B1_1_SConv_ReLU"
  type: "ReLU"
  bottom: "B1_1_SConvBlockV2_Conv1x1"
  top: "B1_1_SConvBlockV2_Conv1x1"
}
layer {
  name: "B1_1_SConv_Dropout"
  type: "Dropout"
  bottom: "B1_1_SConvBlockV2_Conv1x1"
  top: "B1_1_SConvBlockV2_Dropout"
  dropout_param {
    dropout_ratio: 0.25
  }
}
layer {
  name: "B1_Pooling"
  type: "Pooling"
  bottom: "B1_1_SConvBlockV2_Dropout"
  top: "Pooling2"
  pooling_param {
    pool: MAX
    kernel_size: 2
    stride: 2
    pad: 0
  }
}
layer {
  name: "B2_0_SConv_SparseConv"
  type: "SparseConvolution"
  bottom: "Pooling2"
  top: "B2_0_SConvBlockV2_T1"
  sparse_convolution_param {
    weight_filler {
      type: "xavier"
    }
    channel_expand_multiplier: 12
  }
}
layer {
  name: "B2_0_SConv_BN"
  type: "BatchNorm"
  bottom: "B2_0_SConvBlockV2_T1"
  top: "B2_0_SConvBlockV2_T1"
  param {
    lr_mult: 0
    decay_mult: 0
  }
  param {
    lr_mult: 0
    decay_mult: 0
  }
  param {
    lr_mult: 0
    decay_mult: 0
  }
  batch_norm_param {
    moving_average_fraction: 0.999
    eps: 0.001
  }
}
layer {
  name: "B2_0_SConv_Scale"
  type: "Scale"
  bottom: "B2_0_SConvBlockV2_T1"
  top: "B2_0_SConvBlockV2_Scale"
  scale_param {
    bias_term: true
  }
}
layer {
  name: "B2_0_SConv_Conv1x1"
  type: "Convolution"
  bottom: "B2_0_SConvBlockV2_Scale"
  top: "B2_0_SConvBlockV2_Conv1x1"
  convolution_param {
    num_output: 192
    bias_term: true
    pad: 0
    kernel_size: 1
    stride: 1
    weight_filler {
      type: "xavier"
    }
    bias_filler {
      type: "constant"
    }
  }
}
layer {
  name: "B2_0_SConv_ReLU"
  type: "ReLU"
  bottom: "B2_0_SConvBlockV2_Conv1x1"
  top: "B2_0_SConvBlockV2_Conv1x1"
}
layer {
  name: "B2_0_SConv_Dropout"
  type: "Dropout"
  bottom: "B2_0_SConvBlockV2_Conv1x1"
  top: "B2_0_SConvBlockV2_Dropout"
  dropout_param {
    dropout_ratio: 0.25
  }
}
layer {
  name: "B2_1_SConv_SparseConv"
  type: "SparseConvolution"
  bottom: "B2_0_SConvBlockV2_Dropout"
  top: "B2_1_SConvBlockV2_T1"
  sparse_convolution_param {
    weight_filler {
      type: "xavier"
    }
    channel_expand_multiplier: 12
  }
}
layer {
  name: "B2_1_SConv_BN"
  type: "BatchNorm"
  bottom: "B2_1_SConvBlockV2_T1"
  top: "B2_1_SConvBlockV2_T1"
  param {
    lr_mult: 0
    decay_mult: 0
  }
  param {
    lr_mult: 0
    decay_mult: 0
  }
  param {
    lr_mult: 0
    decay_mult: 0
  }
  batch_norm_param {
    moving_average_fraction: 0.999
    eps: 0.001
  }
}
layer {
  name: "B2_1_SConv_Scale"
  type: "Scale"
  bottom: "B2_1_SConvBlockV2_T1"
  top: "B2_1_SConvBlockV2_Scale"
  scale_param {
    bias_term: true
  }
}
layer {
  name: "B2_1_SConv_Conv1x1"
  type: "Convolution"
  bottom: "B2_1_SConvBlockV2_Scale"
  top: "B2_1_SConvBlockV2_Conv1x1"
  convolution_param {
    num_output: 192
    bias_term: true
    pad: 0
    kernel_size: 1
    stride: 1
    weight_filler {
      type: "xavier"
    }
    bias_filler {
      type: "constant"
    }
  }
}
layer {
  name: "B2_1_SConv_ReLU"
  type: "ReLU"
  bottom: "B2_1_SConvBlockV2_Conv1x1"
  top: "B2_1_SConvBlockV2_Conv1x1"
}
layer {
  name: "B2_1_SConv_Dropout"
  type: "Dropout"
  bottom: "B2_1_SConvBlockV2_Conv1x1"
  top: "B2_1_SConvBlockV2_Dropout"
  dropout_param {
    dropout_ratio: 0.25
  }
}
layer {
  name: "B2_2_SConv_SparseConv"
  type: "SparseConvolution"
  bottom: "B2_1_SConvBlockV2_Dropout"
  top: "B2_2_SConvBlockV2_T1"
  sparse_convolution_param {
    weight_filler {
      type: "xavier"
    }
    channel_expand_multiplier: 12
  }
}
layer {
  name: "B2_2_SConv_BN"
  type: "BatchNorm"
  bottom: "B2_2_SConvBlockV2_T1"
  top: "B2_2_SConvBlockV2_T1"
  param {
    lr_mult: 0
    decay_mult: 0
  }
  param {
    lr_mult: 0
    decay_mult: 0
  }
  param {
    lr_mult: 0
    decay_mult: 0
  }
  batch_norm_param {
    moving_average_fraction: 0.999
    eps: 0.001
  }
}
layer {
  name: "B2_2_SConv_Scale"
  type: "Scale"
  bottom: "B2_2_SConvBlockV2_T1"
  top: "B2_2_SConvBlockV2_Scale"
  scale_param {
    bias_term: true
  }
}
layer {
  name: "B2_2_SConv_Conv1x1"
  type: "Convolution"
  bottom: "B2_2_SConvBlockV2_Scale"
  top: "B2_2_SConvBlockV2_Conv1x1"
  convolution_param {
    num_output: 192
    bias_term: true
    pad: 0
    kernel_size: 1
    stride: 1
    weight_filler {
      type: "xavier"
    }
    bias_filler {
      type: "constant"
    }
  }
}
layer {
  name: "B2_2_SConv_ReLU"
  type: "ReLU"
  bottom: "B2_2_SConvBlockV2_Conv1x1"
  top: "B2_2_SConvBlockV2_Conv1x1"
}
layer {
  name: "B2_2_SConv_Dropout"
  type: "Dropout"
  bottom: "B2_2_SConvBlockV2_Conv1x1"
  top: "B2_2_SConvBlockV2_Dropout"
  dropout_param {
    dropout_ratio: 0.25
  }
}
layer {
  name: "B2_Pooling"
  type: "Pooling"
  bottom: "B2_2_SConvBlockV2_Dropout"
  top: "Pooling3"
  pooling_param {
    pool: MAX
    kernel_size: 2
    stride: 2
    pad: 0
  }
}
layer {
  name: "B3_0_SConv_SparseConv"
  type: "SparseConvolution"
  bottom: "Pooling3"
  top: "B3_0_SConvBlockV2_T1"
  sparse_convolution_param {
    weight_filler {
      type: "xavier"
    }
    channel_expand_multiplier: 12
  }
}
layer {
  name: "B3_0_SConv_BN"
  type: "BatchNorm"
  bottom: "B3_0_SConvBlockV2_T1"
  top: "B3_0_SConvBlockV2_T1"
  param {
    lr_mult: 0
    decay_mult: 0
  }
  param {
    lr_mult: 0
    decay_mult: 0
  }
  param {
    lr_mult: 0
    decay_mult: 0
  }
  batch_norm_param {
    moving_average_fraction: 0.999
    eps: 0.001
  }
}
layer {
  name: "B3_0_SConv_Scale"
  type: "Scale"
  bottom: "B3_0_SConvBlockV2_T1"
  top: "B3_0_SConvBlockV2_Scale"
  scale_param {
    bias_term: true
  }
}
layer {
  name: "B3_0_SConv_Conv1x1"
  type: "Convolution"
  bottom: "B3_0_SConvBlockV2_Scale"
  top: "B3_0_SConvBlockV2_Conv1x1"
  convolution_param {
    num_output: 192
    bias_term: true
    pad: 0
    kernel_size: 1
    stride: 1
    weight_filler {
      type: "xavier"
    }
    bias_filler {
      type: "constant"
    }
  }
}
layer {
  name: "B3_0_SConv_ReLU"
  type: "ReLU"
  bottom: "B3_0_SConvBlockV2_Conv1x1"
  top: "B3_0_SConvBlockV2_Conv1x1"
}
layer {
  name: "B3_0_SConv_Dropout"
  type: "Dropout"
  bottom: "B3_0_SConvBlockV2_Conv1x1"
  top: "B3_0_SConvBlockV2_Dropout"
  dropout_param {
    dropout_ratio: 0.25
  }
}
layer {
  name: "B3_1_SConv_SparseConv"
  type: "SparseConvolution"
  bottom: "B3_0_SConvBlockV2_Dropout"
  top: "B3_1_SConvBlockV2_T1"
  sparse_convolution_param {
    weight_filler {
      type: "xavier"
    }
    channel_expand_multiplier: 12
  }
}
layer {
  name: "B3_1_SConv_BN"
  type: "BatchNorm"
  bottom: "B3_1_SConvBlockV2_T1"
  top: "B3_1_SConvBlockV2_T1"
  param {
    lr_mult: 0
    decay_mult: 0
  }
  param {
    lr_mult: 0
    decay_mult: 0
  }
  param {
    lr_mult: 0
    decay_mult: 0
  }
  batch_norm_param {
    moving_average_fraction: 0.999
    eps: 0.001
  }
}
layer {
  name: "B3_1_SConv_Scale"
  type: "Scale"
  bottom: "B3_1_SConvBlockV2_T1"
  top: "B3_1_SConvBlockV2_Scale"
  scale_param {
    bias_term: true
  }
}
layer {
  name: "B3_1_SConv_Conv1x1"
  type: "Convolution"
  bottom: "B3_1_SConvBlockV2_Scale"
  top: "B3_1_SConvBlockV2_Conv1x1"
  convolution_param {
    num_output: 192
    bias_term: true
    pad: 0
    kernel_size: 1
    stride: 1
    weight_filler {
      type: "xavier"
    }
    bias_filler {
      type: "constant"
    }
  }
}
layer {
  name: "B3_1_SConv_ReLU"
  type: "ReLU"
  bottom: "B3_1_SConvBlockV2_Conv1x1"
  top: "B3_1_SConvBlockV2_Conv1x1"
}
layer {
  name: "B3_1_SConv_Dropout"
  type: "Dropout"
  bottom: "B3_1_SConvBlockV2_Conv1x1"
  top: "B3_1_SConvBlockV2_Dropout"
  dropout_param {
    dropout_ratio: 0.25
  }
}
layer {
  name: "B3_2_SConv_SparseConv"
  type: "SparseConvolution"
  bottom: "B3_1_SConvBlockV2_Dropout"
  top: "B3_2_SConvBlockV2_T1"
  sparse_convolution_param {
    weight_filler {
      type: "xavier"
    }
    channel_expand_multiplier: 12
  }
}
layer {
  name: "B3_2_SConv_BN"
  type: "BatchNorm"
  bottom: "B3_2_SConvBlockV2_T1"
  top: "B3_2_SConvBlockV2_T1"
  param {
    lr_mult: 0
    decay_mult: 0
  }
  param {
    lr_mult: 0
    decay_mult: 0
  }
  param {
    lr_mult: 0
    decay_mult: 0
  }
  batch_norm_param {
    moving_average_fraction: 0.999
    eps: 0.001
  }
}
layer {
  name: "B3_2_SConv_Scale"
  type: "Scale"
  bottom: "B3_2_SConvBlockV2_T1"
  top: "B3_2_SConvBlockV2_Scale"
  scale_param {
    bias_term: true
  }
}
layer {
  name: "B3_2_SConv_Conv1x1"
  type: "Convolution"
  bottom: "B3_2_SConvBlockV2_Scale"
  top: "B3_2_SConvBlockV2_Conv1x1"
  convolution_param {
    num_output: 192
    bias_term: true
    pad: 0
    kernel_size: 1
    stride: 1
    weight_filler {
      type: "xavier"
    }
    bias_filler {
      type: "constant"
    }
  }
}
layer {
  name: "B3_2_SConv_ReLU"
  type: "ReLU"
  bottom: "B3_2_SConvBlockV2_Conv1x1"
  top: "B3_2_SConvBlockV2_Conv1x1"
}
layer {
  name: "B3_2_SConv_Dropout"
  type: "Dropout"
  bottom: "B3_2_SConvBlockV2_Conv1x1"
  top: "B3_2_SConvBlockV2_Dropout"
  dropout_param {
    dropout_ratio: 0.25
  }
}
layer {
  name: "B3_Pooling"
  type: "Pooling"
  bottom: "B3_2_SConvBlockV2_Dropout"
  top: "Pooling4"
  pooling_param {
    pool: AVE
    global_pooling: true
  }
}
layer {
  name: "fc1"
  type: "InnerProduct"
  bottom: "Pooling4"
  top: "fc1"
  inner_product_param {
    num_output: 384
    bias_term: true
    weight_filler {
      type: "xavier"
    }
    bias_filler {
      type: "constant"
    }
  }
}
layer {
  name: "classifier"
  type: "InnerProduct"
  bottom: "fc1"
  top: "classifier"
  inner_product_param {
    num_output: 10
    bias_term: true
    weight_filler {
      type: "xavier"
    }
    bias_filler {
      type: "constant"
    }
  }
}
layer {
  name: "softmax_loss"
  type: "SoftmaxWithLoss"
  bottom: "classifier"
  bottom: "label"
  top: "softmax_loss"
}
I0907 09:42:56.386909 81223 layer_factory.hpp:77] Creating layer InputData
I0907 09:42:56.386953 81223 net.cpp:84] Creating Layer InputData
I0907 09:42:56.386963 81223 net.cpp:380] InputData -> data
I0907 09:42:56.386996 81223 net.cpp:380] InputData -> label
I0907 09:42:56.387022 81223 image_data_layer.cpp:38] Opening file /home/jcwang/work/1.CIFAR10/train.txt
I0907 09:42:56.396553 81223 image_data_layer.cpp:53] Shuffling data
I0907 09:42:56.397351 81223 image_data_layer.cpp:63] A total of 50005 images.
I0907 09:42:56.398490 81223 image_data_layer.cpp:90] output data size: 32,3,32,32
I0907 09:42:56.399004 81223 net.cpp:122] Setting up InputData
I0907 09:42:56.399019 81223 net.cpp:129] Top shape: 32 3 32 32 (98304)
I0907 09:42:56.399026 81223 net.cpp:129] Top shape: 32 (32)
I0907 09:42:56.399031 81223 net.cpp:137] Memory required for data: 393344
I0907 09:42:56.399039 81223 layer_factory.hpp:77] Creating layer B0_0_ConvBNScaleReLU_Conv
I0907 09:42:56.399055 81223 net.cpp:84] Creating Layer B0_0_ConvBNScaleReLU_Conv
I0907 09:42:56.399062 81223 net.cpp:406] B0_0_ConvBNScaleReLU_Conv <- data
I0907 09:42:56.399075 81223 net.cpp:380] B0_0_ConvBNScaleReLU_Conv -> B0_0_ConvBNScaleReLU_Conv
I0907 09:42:56.399319 81223 net.cpp:122] Setting up B0_0_ConvBNScaleReLU_Conv
I0907 09:42:56.399329 81223 net.cpp:129] Top shape: 32 64 32 32 (2097152)
I0907 09:42:56.399335 81223 net.cpp:137] Memory required for data: 8781952
I0907 09:42:56.399348 81223 layer_factory.hpp:77] Creating layer B0_0_ConvBNScaleReLU_BN
I0907 09:42:56.399358 81223 net.cpp:84] Creating Layer B0_0_ConvBNScaleReLU_BN
I0907 09:42:56.399361 81223 net.cpp:406] B0_0_ConvBNScaleReLU_BN <- B0_0_ConvBNScaleReLU_Conv
I0907 09:42:56.399367 81223 net.cpp:367] B0_0_ConvBNScaleReLU_BN -> B0_0_ConvBNScaleReLU_Conv (in-place)
I0907 09:42:56.399471 81223 net.cpp:122] Setting up B0_0_ConvBNScaleReLU_BN
I0907 09:42:56.399479 81223 net.cpp:129] Top shape: 32 64 32 32 (2097152)
I0907 09:42:56.399484 81223 net.cpp:137] Memory required for data: 17170560
I0907 09:42:56.399493 81223 layer_factory.hpp:77] Creating layer B0_0_ConvBNScaleReLU_Scale
I0907 09:42:56.399503 81223 net.cpp:84] Creating Layer B0_0_ConvBNScaleReLU_Scale
I0907 09:42:56.399507 81223 net.cpp:406] B0_0_ConvBNScaleReLU_Scale <- B0_0_ConvBNScaleReLU_Conv
I0907 09:42:56.399513 81223 net.cpp:367] B0_0_ConvBNScaleReLU_Scale -> B0_0_ConvBNScaleReLU_Conv (in-place)
I0907 09:42:56.399546 81223 layer_factory.hpp:77] Creating layer B0_0_ConvBNScaleReLU_Scale
I0907 09:42:56.399633 81223 net.cpp:122] Setting up B0_0_ConvBNScaleReLU_Scale
I0907 09:42:56.399641 81223 net.cpp:129] Top shape: 32 64 32 32 (2097152)
I0907 09:42:56.399646 81223 net.cpp:137] Memory required for data: 25559168
I0907 09:42:56.399652 81223 layer_factory.hpp:77] Creating layer B0_0_ConvBNScaleReLU_ReLU
I0907 09:42:56.399662 81223 net.cpp:84] Creating Layer B0_0_ConvBNScaleReLU_ReLU
I0907 09:42:56.399667 81223 net.cpp:406] B0_0_ConvBNScaleReLU_ReLU <- B0_0_ConvBNScaleReLU_Conv
I0907 09:42:56.399672 81223 net.cpp:367] B0_0_ConvBNScaleReLU_ReLU -> B0_0_ConvBNScaleReLU_Conv (in-place)
I0907 09:42:56.399678 81223 net.cpp:122] Setting up B0_0_ConvBNScaleReLU_ReLU
I0907 09:42:56.399682 81223 net.cpp:129] Top shape: 32 64 32 32 (2097152)
I0907 09:42:56.399688 81223 net.cpp:137] Memory required for data: 33947776
I0907 09:42:56.399691 81223 layer_factory.hpp:77] Creating layer B0_0_ConvBNScaleReLU_Dropout
I0907 09:42:56.399698 81223 net.cpp:84] Creating Layer B0_0_ConvBNScaleReLU_Dropout
I0907 09:42:56.399701 81223 net.cpp:406] B0_0_ConvBNScaleReLU_Dropout <- B0_0_ConvBNScaleReLU_Conv
I0907 09:42:56.399708 81223 net.cpp:380] B0_0_ConvBNScaleReLU_Dropout -> ConvBNScaleReLU
I0907 09:42:56.399739 81223 net.cpp:122] Setting up B0_0_ConvBNScaleReLU_Dropout
I0907 09:42:56.399744 81223 net.cpp:129] Top shape: 32 64 32 32 (2097152)
I0907 09:42:56.399749 81223 net.cpp:137] Memory required for data: 42336384
I0907 09:42:56.399753 81223 layer_factory.hpp:77] Creating layer B0_1_SConv_SparseConv
I0907 09:42:56.399771 81223 net.cpp:84] Creating Layer B0_1_SConv_SparseConv
I0907 09:42:56.399783 81223 net.cpp:406] B0_1_SConv_SparseConv <- ConvBNScaleReLU
I0907 09:42:56.399789 81223 net.cpp:380] B0_1_SConv_SparseConv -> B0_1_SConvBlockV2_T1
I0907 09:42:56.399917 81223 net.cpp:122] Setting up B0_1_SConv_SparseConv
I0907 09:42:56.399924 81223 net.cpp:129] Top shape: 32 768 32 32 (25165824)
I0907 09:42:56.399930 81223 net.cpp:137] Memory required for data: 142999680
I0907 09:42:56.399935 81223 layer_factory.hpp:77] Creating layer B0_1_SConv_BN
I0907 09:42:56.399945 81223 net.cpp:84] Creating Layer B0_1_SConv_BN
I0907 09:42:56.399948 81223 net.cpp:406] B0_1_SConv_BN <- B0_1_SConvBlockV2_T1
I0907 09:42:56.399955 81223 net.cpp:367] B0_1_SConv_BN -> B0_1_SConvBlockV2_T1 (in-place)
I0907 09:42:56.400070 81223 net.cpp:122] Setting up B0_1_SConv_BN
I0907 09:42:56.400076 81223 net.cpp:129] Top shape: 32 768 32 32 (25165824)
I0907 09:42:56.400082 81223 net.cpp:137] Memory required for data: 243662976
I0907 09:42:56.400089 81223 layer_factory.hpp:77] Creating layer B0_1_SConv_Scale
I0907 09:42:56.400097 81223 net.cpp:84] Creating Layer B0_1_SConv_Scale
I0907 09:42:56.400102 81223 net.cpp:406] B0_1_SConv_Scale <- B0_1_SConvBlockV2_T1
I0907 09:42:56.400107 81223 net.cpp:380] B0_1_SConv_Scale -> B0_1_SConvBlockV2_Scale
I0907 09:42:56.400137 81223 layer_factory.hpp:77] Creating layer B0_1_SConv_Scale
I0907 09:42:56.400213 81223 net.cpp:122] Setting up B0_1_SConv_Scale
I0907 09:42:56.400219 81223 net.cpp:129] Top shape: 32 768 32 32 (25165824)
I0907 09:42:56.400224 81223 net.cpp:137] Memory required for data: 344326272
I0907 09:42:56.400230 81223 layer_factory.hpp:77] Creating layer B0_1_SConv_Conv1x1
I0907 09:42:56.400244 81223 net.cpp:84] Creating Layer B0_1_SConv_Conv1x1
I0907 09:42:56.400249 81223 net.cpp:406] B0_1_SConv_Conv1x1 <- B0_1_SConvBlockV2_Scale
I0907 09:42:56.400255 81223 net.cpp:380] B0_1_SConv_Conv1x1 -> B0_1_SConvBlockV2_Conv1x1
I0907 09:42:56.400651 81223 net.cpp:122] Setting up B0_1_SConv_Conv1x1
I0907 09:42:56.400660 81223 net.cpp:129] Top shape: 32 64 32 32 (2097152)
I0907 09:42:56.400665 81223 net.cpp:137] Memory required for data: 352714880
I0907 09:42:56.400671 81223 layer_factory.hpp:77] Creating layer B0_1_SConv_ReLU
I0907 09:42:56.400676 81223 net.cpp:84] Creating Layer B0_1_SConv_ReLU
I0907 09:42:56.400681 81223 net.cpp:406] B0_1_SConv_ReLU <- B0_1_SConvBlockV2_Conv1x1
I0907 09:42:56.400686 81223 net.cpp:367] B0_1_SConv_ReLU -> B0_1_SConvBlockV2_Conv1x1 (in-place)
I0907 09:42:56.400692 81223 net.cpp:122] Setting up B0_1_SConv_ReLU
I0907 09:42:56.400696 81223 net.cpp:129] Top shape: 32 64 32 32 (2097152)
I0907 09:42:56.400701 81223 net.cpp:137] Memory required for data: 361103488
I0907 09:42:56.400705 81223 layer_factory.hpp:77] Creating layer B0_1_SConv_Dropout
I0907 09:42:56.400712 81223 net.cpp:84] Creating Layer B0_1_SConv_Dropout
I0907 09:42:56.400715 81223 net.cpp:406] B0_1_SConv_Dropout <- B0_1_SConvBlockV2_Conv1x1
I0907 09:42:56.400722 81223 net.cpp:380] B0_1_SConv_Dropout -> B0_1_SConvBlockV2_Dropout
I0907 09:42:56.400751 81223 net.cpp:122] Setting up B0_1_SConv_Dropout
I0907 09:42:56.400758 81223 net.cpp:129] Top shape: 32 64 32 32 (2097152)
I0907 09:42:56.400763 81223 net.cpp:137] Memory required for data: 369492096
I0907 09:42:56.400766 81223 layer_factory.hpp:77] Creating layer B0_Pooling
I0907 09:42:56.400774 81223 net.cpp:84] Creating Layer B0_Pooling
I0907 09:42:56.400777 81223 net.cpp:406] B0_Pooling <- B0_1_SConvBlockV2_Dropout
I0907 09:42:56.400782 81223 net.cpp:380] B0_Pooling -> Pooling1
I0907 09:42:56.400811 81223 net.cpp:122] Setting up B0_Pooling
I0907 09:42:56.400818 81223 net.cpp:129] Top shape: 32 64 16 16 (524288)
I0907 09:42:56.400823 81223 net.cpp:137] Memory required for data: 371589248
I0907 09:42:56.400827 81223 layer_factory.hpp:77] Creating layer B1_0_SConv_SparseConv
I0907 09:42:56.400836 81223 net.cpp:84] Creating Layer B1_0_SConv_SparseConv
I0907 09:42:56.400840 81223 net.cpp:406] B1_0_SConv_SparseConv <- Pooling1
I0907 09:42:56.400846 81223 net.cpp:380] B1_0_SConv_SparseConv -> B1_0_SConvBlockV2_T1
I0907 09:42:56.400964 81223 net.cpp:122] Setting up B1_0_SConv_SparseConv
I0907 09:42:56.400970 81223 net.cpp:129] Top shape: 32 768 16 16 (6291456)
I0907 09:42:56.400975 81223 net.cpp:137] Memory required for data: 396755072
I0907 09:42:56.400981 81223 layer_factory.hpp:77] Creating layer B1_0_SConv_BN
I0907 09:42:56.400987 81223 net.cpp:84] Creating Layer B1_0_SConv_BN
I0907 09:42:56.400992 81223 net.cpp:406] B1_0_SConv_BN <- B1_0_SConvBlockV2_T1
I0907 09:42:56.400997 81223 net.cpp:367] B1_0_SConv_BN -> B1_0_SConvBlockV2_T1 (in-place)
I0907 09:42:56.401075 81223 net.cpp:122] Setting up B1_0_SConv_BN
I0907 09:42:56.401082 81223 net.cpp:129] Top shape: 32 768 16 16 (6291456)
I0907 09:42:56.401087 81223 net.cpp:137] Memory required for data: 421920896
I0907 09:42:56.401095 81223 layer_factory.hpp:77] Creating layer B1_0_SConv_Scale
I0907 09:42:56.401101 81223 net.cpp:84] Creating Layer B1_0_SConv_Scale
I0907 09:42:56.401105 81223 net.cpp:406] B1_0_SConv_Scale <- B1_0_SConvBlockV2_T1
I0907 09:42:56.401113 81223 net.cpp:380] B1_0_SConv_Scale -> B1_0_SConvBlockV2_Scale
I0907 09:42:56.401139 81223 layer_factory.hpp:77] Creating layer B1_0_SConv_Scale
I0907 09:42:56.401199 81223 net.cpp:122] Setting up B1_0_SConv_Scale
I0907 09:42:56.401206 81223 net.cpp:129] Top shape: 32 768 16 16 (6291456)
I0907 09:42:56.401212 81223 net.cpp:137] Memory required for data: 447086720
I0907 09:42:56.401217 81223 layer_factory.hpp:77] Creating layer B1_0_SConv_Conv1x1
I0907 09:42:56.401227 81223 net.cpp:84] Creating Layer B1_0_SConv_Conv1x1
I0907 09:42:56.401232 81223 net.cpp:406] B1_0_SConv_Conv1x1 <- B1_0_SConvBlockV2_Scale
I0907 09:42:56.401239 81223 net.cpp:380] B1_0_SConv_Conv1x1 -> B1_0_SConvBlockV2_Conv1x1
I0907 09:42:56.402957 81223 net.cpp:122] Setting up B1_0_SConv_Conv1x1
I0907 09:42:56.402971 81223 net.cpp:129] Top shape: 32 128 16 16 (1048576)
I0907 09:42:56.402977 81223 net.cpp:137] Memory required for data: 451281024
I0907 09:42:56.402983 81223 layer_factory.hpp:77] Creating layer B1_0_SConv_ReLU
I0907 09:42:56.402992 81223 net.cpp:84] Creating Layer B1_0_SConv_ReLU
I0907 09:42:56.402997 81223 net.cpp:406] B1_0_SConv_ReLU <- B1_0_SConvBlockV2_Conv1x1
I0907 09:42:56.403003 81223 net.cpp:367] B1_0_SConv_ReLU -> B1_0_SConvBlockV2_Conv1x1 (in-place)
I0907 09:42:56.403010 81223 net.cpp:122] Setting up B1_0_SConv_ReLU
I0907 09:42:56.403014 81223 net.cpp:129] Top shape: 32 128 16 16 (1048576)
I0907 09:42:56.403019 81223 net.cpp:137] Memory required for data: 455475328
I0907 09:42:56.403023 81223 layer_factory.hpp:77] Creating layer B1_0_SConv_Dropout
I0907 09:42:56.403029 81223 net.cpp:84] Creating Layer B1_0_SConv_Dropout
I0907 09:42:56.403033 81223 net.cpp:406] B1_0_SConv_Dropout <- B1_0_SConvBlockV2_Conv1x1
I0907 09:42:56.403038 81223 net.cpp:380] B1_0_SConv_Dropout -> B1_0_SConvBlockV2_Dropout
I0907 09:42:56.403062 81223 net.cpp:122] Setting up B1_0_SConv_Dropout
I0907 09:42:56.403069 81223 net.cpp:129] Top shape: 32 128 16 16 (1048576)
I0907 09:42:56.403074 81223 net.cpp:137] Memory required for data: 459669632
I0907 09:42:56.403077 81223 layer_factory.hpp:77] Creating layer B1_1_SConv_SparseConv
I0907 09:42:56.403086 81223 net.cpp:84] Creating Layer B1_1_SConv_SparseConv
I0907 09:42:56.403090 81223 net.cpp:406] B1_1_SConv_SparseConv <- B1_0_SConvBlockV2_Dropout
I0907 09:42:56.403096 81223 net.cpp:380] B1_1_SConv_SparseConv -> B1_1_SConvBlockV2_T1
I0907 09:42:56.403256 81223 net.cpp:122] Setting up B1_1_SConv_SparseConv
I0907 09:42:56.403263 81223 net.cpp:129] Top shape: 32 1536 16 16 (12582912)
I0907 09:42:56.403268 81223 net.cpp:137] Memory required for data: 510001280
I0907 09:42:56.403275 81223 layer_factory.hpp:77] Creating layer B1_1_SConv_BN
I0907 09:42:56.403283 81223 net.cpp:84] Creating Layer B1_1_SConv_BN
I0907 09:42:56.403287 81223 net.cpp:406] B1_1_SConv_BN <- B1_1_SConvBlockV2_T1
I0907 09:42:56.403293 81223 net.cpp:367] B1_1_SConv_BN -> B1_1_SConvBlockV2_T1 (in-place)
I0907 09:42:56.403371 81223 net.cpp:122] Setting up B1_1_SConv_BN
I0907 09:42:56.403378 81223 net.cpp:129] Top shape: 32 1536 16 16 (12582912)
I0907 09:42:56.403393 81223 net.cpp:137] Memory required for data: 560332928
I0907 09:42:56.403400 81223 layer_factory.hpp:77] Creating layer B1_1_SConv_Scale
I0907 09:42:56.403409 81223 net.cpp:84] Creating Layer B1_1_SConv_Scale
I0907 09:42:56.403414 81223 net.cpp:406] B1_1_SConv_Scale <- B1_1_SConvBlockV2_T1
I0907 09:42:56.403419 81223 net.cpp:380] B1_1_SConv_Scale -> B1_1_SConvBlockV2_Scale
I0907 09:42:56.403445 81223 layer_factory.hpp:77] Creating layer B1_1_SConv_Scale
I0907 09:42:56.403497 81223 net.cpp:122] Setting up B1_1_SConv_Scale
I0907 09:42:56.403504 81223 net.cpp:129] Top shape: 32 1536 16 16 (12582912)
I0907 09:42:56.403509 81223 net.cpp:137] Memory required for data: 610664576
I0907 09:42:56.403515 81223 layer_factory.hpp:77] Creating layer B1_1_SConv_Conv1x1
I0907 09:42:56.403525 81223 net.cpp:84] Creating Layer B1_1_SConv_Conv1x1
I0907 09:42:56.403529 81223 net.cpp:406] B1_1_SConv_Conv1x1 <- B1_1_SConvBlockV2_Scale
I0907 09:42:56.403535 81223 net.cpp:380] B1_1_SConv_Conv1x1 -> B1_1_SConvBlockV2_Conv1x1
I0907 09:42:56.404608 81223 net.cpp:122] Setting up B1_1_SConv_Conv1x1
I0907 09:42:56.404615 81223 net.cpp:129] Top shape: 32 128 16 16 (1048576)
I0907 09:42:56.404621 81223 net.cpp:137] Memory required for data: 614858880
I0907 09:42:56.404628 81223 layer_factory.hpp:77] Creating layer B1_1_SConv_ReLU
I0907 09:42:56.404633 81223 net.cpp:84] Creating Layer B1_1_SConv_ReLU
I0907 09:42:56.404637 81223 net.cpp:406] B1_1_SConv_ReLU <- B1_1_SConvBlockV2_Conv1x1
I0907 09:42:56.404645 81223 net.cpp:367] B1_1_SConv_ReLU -> B1_1_SConvBlockV2_Conv1x1 (in-place)
I0907 09:42:56.404651 81223 net.cpp:122] Setting up B1_1_SConv_ReLU
I0907 09:42:56.404656 81223 net.cpp:129] Top shape: 32 128 16 16 (1048576)
I0907 09:42:56.404661 81223 net.cpp:137] Memory required for data: 619053184
I0907 09:42:56.404665 81223 layer_factory.hpp:77] Creating layer B1_1_SConv_Dropout
I0907 09:42:56.404670 81223 net.cpp:84] Creating Layer B1_1_SConv_Dropout
I0907 09:42:56.404675 81223 net.cpp:406] B1_1_SConv_Dropout <- B1_1_SConvBlockV2_Conv1x1
I0907 09:42:56.404680 81223 net.cpp:380] B1_1_SConv_Dropout -> B1_1_SConvBlockV2_Dropout
I0907 09:42:56.404704 81223 net.cpp:122] Setting up B1_1_SConv_Dropout
I0907 09:42:56.404711 81223 net.cpp:129] Top shape: 32 128 16 16 (1048576)
I0907 09:42:56.404716 81223 net.cpp:137] Memory required for data: 623247488
I0907 09:42:56.404721 81223 layer_factory.hpp:77] Creating layer B1_Pooling
I0907 09:42:56.404727 81223 net.cpp:84] Creating Layer B1_Pooling
I0907 09:42:56.404731 81223 net.cpp:406] B1_Pooling <- B1_1_SConvBlockV2_Dropout
I0907 09:42:56.404740 81223 net.cpp:380] B1_Pooling -> Pooling2
I0907 09:42:56.404762 81223 net.cpp:122] Setting up B1_Pooling
I0907 09:42:56.404769 81223 net.cpp:129] Top shape: 32 128 8 8 (262144)
I0907 09:42:56.404774 81223 net.cpp:137] Memory required for data: 624296064
I0907 09:42:56.404778 81223 layer_factory.hpp:77] Creating layer B2_0_SConv_SparseConv
I0907 09:42:56.404788 81223 net.cpp:84] Creating Layer B2_0_SConv_SparseConv
I0907 09:42:56.404793 81223 net.cpp:406] B2_0_SConv_SparseConv <- Pooling2
I0907 09:42:56.404798 81223 net.cpp:380] B2_0_SConv_SparseConv -> B2_0_SConvBlockV2_T1
I0907 09:42:56.404953 81223 net.cpp:122] Setting up B2_0_SConv_SparseConv
I0907 09:42:56.404960 81223 net.cpp:129] Top shape: 32 1536 8 8 (3145728)
I0907 09:42:56.404965 81223 net.cpp:137] Memory required for data: 636878976
I0907 09:42:56.404971 81223 layer_factory.hpp:77] Creating layer B2_0_SConv_BN
I0907 09:42:56.404995 81223 net.cpp:84] Creating Layer B2_0_SConv_BN
I0907 09:42:56.405000 81223 net.cpp:406] B2_0_SConv_BN <- B2_0_SConvBlockV2_T1
I0907 09:42:56.405006 81223 net.cpp:367] B2_0_SConv_BN -> B2_0_SConvBlockV2_T1 (in-place)
I0907 09:42:56.405094 81223 net.cpp:122] Setting up B2_0_SConv_BN
I0907 09:42:56.405100 81223 net.cpp:129] Top shape: 32 1536 8 8 (3145728)
I0907 09:42:56.405117 81223 net.cpp:137] Memory required for data: 649461888
I0907 09:42:56.405129 81223 layer_factory.hpp:77] Creating layer B2_0_SConv_Scale
I0907 09:42:56.405141 81223 net.cpp:84] Creating Layer B2_0_SConv_Scale
I0907 09:42:56.405151 81223 net.cpp:406] B2_0_SConv_Scale <- B2_0_SConvBlockV2_T1
I0907 09:42:56.405158 81223 net.cpp:380] B2_0_SConv_Scale -> B2_0_SConvBlockV2_Scale
I0907 09:42:56.405184 81223 layer_factory.hpp:77] Creating layer B2_0_SConv_Scale
I0907 09:42:56.405243 81223 net.cpp:122] Setting up B2_0_SConv_Scale
I0907 09:42:56.405249 81223 net.cpp:129] Top shape: 32 1536 8 8 (3145728)
I0907 09:42:56.405256 81223 net.cpp:137] Memory required for data: 662044800
I0907 09:42:56.405261 81223 layer_factory.hpp:77] Creating layer B2_0_SConv_Conv1x1
I0907 09:42:56.405272 81223 net.cpp:84] Creating Layer B2_0_SConv_Conv1x1
I0907 09:42:56.405277 81223 net.cpp:406] B2_0_SConv_Conv1x1 <- B2_0_SConvBlockV2_Scale
I0907 09:42:56.405284 81223 net.cpp:380] B2_0_SConv_Conv1x1 -> B2_0_SConvBlockV2_Conv1x1
I0907 09:42:56.407737 81223 net.cpp:122] Setting up B2_0_SConv_Conv1x1
I0907 09:42:56.407750 81223 net.cpp:129] Top shape: 32 192 8 8 (393216)
I0907 09:42:56.407757 81223 net.cpp:137] Memory required for data: 663617664
I0907 09:42:56.407764 81223 layer_factory.hpp:77] Creating layer B2_0_SConv_ReLU
I0907 09:42:56.407773 81223 net.cpp:84] Creating Layer B2_0_SConv_ReLU
I0907 09:42:56.407778 81223 net.cpp:406] B2_0_SConv_ReLU <- B2_0_SConvBlockV2_Conv1x1
I0907 09:42:56.407783 81223 net.cpp:367] B2_0_SConv_ReLU -> B2_0_SConvBlockV2_Conv1x1 (in-place)
I0907 09:42:56.407789 81223 net.cpp:122] Setting up B2_0_SConv_ReLU
I0907 09:42:56.407794 81223 net.cpp:129] Top shape: 32 192 8 8 (393216)
I0907 09:42:56.407799 81223 net.cpp:137] Memory required for data: 665190528
I0907 09:42:56.407804 81223 layer_factory.hpp:77] Creating layer B2_0_SConv_Dropout
I0907 09:42:56.407812 81223 net.cpp:84] Creating Layer B2_0_SConv_Dropout
I0907 09:42:56.407816 81223 net.cpp:406] B2_0_SConv_Dropout <- B2_0_SConvBlockV2_Conv1x1
I0907 09:42:56.407821 81223 net.cpp:380] B2_0_SConv_Dropout -> B2_0_SConvBlockV2_Dropout
I0907 09:42:56.407847 81223 net.cpp:122] Setting up B2_0_SConv_Dropout
I0907 09:42:56.407853 81223 net.cpp:129] Top shape: 32 192 8 8 (393216)
I0907 09:42:56.407858 81223 net.cpp:137] Memory required for data: 666763392
I0907 09:42:56.407862 81223 layer_factory.hpp:77] Creating layer B2_1_SConv_SparseConv
I0907 09:42:56.407874 81223 net.cpp:84] Creating Layer B2_1_SConv_SparseConv
I0907 09:42:56.407878 81223 net.cpp:406] B2_1_SConv_SparseConv <- B2_0_SConvBlockV2_Dropout
I0907 09:42:56.407886 81223 net.cpp:380] B2_1_SConv_SparseConv -> B2_1_SConvBlockV2_T1
I0907 09:42:56.408092 81223 net.cpp:122] Setting up B2_1_SConv_SparseConv
I0907 09:42:56.408099 81223 net.cpp:129] Top shape: 32 2304 8 8 (4718592)
I0907 09:42:56.408105 81223 net.cpp:137] Memory required for data: 685637760
I0907 09:42:56.408111 81223 layer_factory.hpp:77] Creating layer B2_1_SConv_BN
I0907 09:42:56.408118 81223 net.cpp:84] Creating Layer B2_1_SConv_BN
I0907 09:42:56.408123 81223 net.cpp:406] B2_1_SConv_BN <- B2_1_SConvBlockV2_T1
I0907 09:42:56.408128 81223 net.cpp:367] B2_1_SConv_BN -> B2_1_SConvBlockV2_T1 (in-place)
I0907 09:42:56.408207 81223 net.cpp:122] Setting up B2_1_SConv_BN
I0907 09:42:56.408213 81223 net.cpp:129] Top shape: 32 2304 8 8 (4718592)
I0907 09:42:56.408219 81223 net.cpp:137] Memory required for data: 704512128
I0907 09:42:56.408226 81223 layer_factory.hpp:77] Creating layer B2_1_SConv_Scale
I0907 09:42:56.408233 81223 net.cpp:84] Creating Layer B2_1_SConv_Scale
I0907 09:42:56.408238 81223 net.cpp:406] B2_1_SConv_Scale <- B2_1_SConvBlockV2_T1
I0907 09:42:56.408244 81223 net.cpp:380] B2_1_SConv_Scale -> B2_1_SConvBlockV2_Scale
I0907 09:42:56.408268 81223 layer_factory.hpp:77] Creating layer B2_1_SConv_Scale
I0907 09:42:56.408326 81223 net.cpp:122] Setting up B2_1_SConv_Scale
I0907 09:42:56.408332 81223 net.cpp:129] Top shape: 32 2304 8 8 (4718592)
I0907 09:42:56.408337 81223 net.cpp:137] Memory required for data: 723386496
I0907 09:42:56.408357 81223 layer_factory.hpp:77] Creating layer B2_1_SConv_Conv1x1
I0907 09:42:56.408368 81223 net.cpp:84] Creating Layer B2_1_SConv_Conv1x1
I0907 09:42:56.408372 81223 net.cpp:406] B2_1_SConv_Conv1x1 <- B2_1_SConvBlockV2_Scale
I0907 09:42:56.408390 81223 net.cpp:380] B2_1_SConv_Conv1x1 -> B2_1_SConvBlockV2_Conv1x1
I0907 09:42:56.411569 81223 net.cpp:122] Setting up B2_1_SConv_Conv1x1
I0907 09:42:56.411582 81223 net.cpp:129] Top shape: 32 192 8 8 (393216)
I0907 09:42:56.411589 81223 net.cpp:137] Memory required for data: 724959360
I0907 09:42:56.411595 81223 layer_factory.hpp:77] Creating layer B2_1_SConv_ReLU
I0907 09:42:56.411602 81223 net.cpp:84] Creating Layer B2_1_SConv_ReLU
I0907 09:42:56.411607 81223 net.cpp:406] B2_1_SConv_ReLU <- B2_1_SConvBlockV2_Conv1x1
I0907 09:42:56.411615 81223 net.cpp:367] B2_1_SConv_ReLU -> B2_1_SConvBlockV2_Conv1x1 (in-place)
I0907 09:42:56.411623 81223 net.cpp:122] Setting up B2_1_SConv_ReLU
I0907 09:42:56.411628 81223 net.cpp:129] Top shape: 32 192 8 8 (393216)
I0907 09:42:56.411633 81223 net.cpp:137] Memory required for data: 726532224
I0907 09:42:56.411636 81223 layer_factory.hpp:77] Creating layer B2_1_SConv_Dropout
I0907 09:42:56.411643 81223 net.cpp:84] Creating Layer B2_1_SConv_Dropout
I0907 09:42:56.411648 81223 net.cpp:406] B2_1_SConv_Dropout <- B2_1_SConvBlockV2_Conv1x1
I0907 09:42:56.411653 81223 net.cpp:380] B2_1_SConv_Dropout -> B2_1_SConvBlockV2_Dropout
I0907 09:42:56.411677 81223 net.cpp:122] Setting up B2_1_SConv_Dropout
I0907 09:42:56.411684 81223 net.cpp:129] Top shape: 32 192 8 8 (393216)
I0907 09:42:56.411689 81223 net.cpp:137] Memory required for data: 728105088
I0907 09:42:56.411692 81223 layer_factory.hpp:77] Creating layer B2_2_SConv_SparseConv
I0907 09:42:56.411701 81223 net.cpp:84] Creating Layer B2_2_SConv_SparseConv
I0907 09:42:56.411705 81223 net.cpp:406] B2_2_SConv_SparseConv <- B2_1_SConvBlockV2_Dropout
I0907 09:42:56.411711 81223 net.cpp:380] B2_2_SConv_SparseConv -> B2_2_SConvBlockV2_T1
I0907 09:42:56.411923 81223 net.cpp:122] Setting up B2_2_SConv_SparseConv
I0907 09:42:56.411931 81223 net.cpp:129] Top shape: 32 2304 8 8 (4718592)
I0907 09:42:56.411936 81223 net.cpp:137] Memory required for data: 746979456
I0907 09:42:56.411942 81223 layer_factory.hpp:77] Creating layer B2_2_SConv_BN
I0907 09:42:56.411948 81223 net.cpp:84] Creating Layer B2_2_SConv_BN
I0907 09:42:56.411957 81223 net.cpp:406] B2_2_SConv_BN <- B2_2_SConvBlockV2_T1
I0907 09:42:56.411963 81223 net.cpp:367] B2_2_SConv_BN -> B2_2_SConvBlockV2_T1 (in-place)
I0907 09:42:56.412042 81223 net.cpp:122] Setting up B2_2_SConv_BN
I0907 09:42:56.412048 81223 net.cpp:129] Top shape: 32 2304 8 8 (4718592)
I0907 09:42:56.412055 81223 net.cpp:137] Memory required for data: 765853824
I0907 09:42:56.412060 81223 layer_factory.hpp:77] Creating layer B2_2_SConv_Scale
I0907 09:42:56.412067 81223 net.cpp:84] Creating Layer B2_2_SConv_Scale
I0907 09:42:56.412071 81223 net.cpp:406] B2_2_SConv_Scale <- B2_2_SConvBlockV2_T1
I0907 09:42:56.412078 81223 net.cpp:380] B2_2_SConv_Scale -> B2_2_SConvBlockV2_Scale
I0907 09:42:56.412103 81223 layer_factory.hpp:77] Creating layer B2_2_SConv_Scale
I0907 09:42:56.412161 81223 net.cpp:122] Setting up B2_2_SConv_Scale
I0907 09:42:56.412168 81223 net.cpp:129] Top shape: 32 2304 8 8 (4718592)
I0907 09:42:56.412173 81223 net.cpp:137] Memory required for data: 784728192
I0907 09:42:56.412178 81223 layer_factory.hpp:77] Creating layer B2_2_SConv_Conv1x1
I0907 09:42:56.412189 81223 net.cpp:84] Creating Layer B2_2_SConv_Conv1x1
I0907 09:42:56.412194 81223 net.cpp:406] B2_2_SConv_Conv1x1 <- B2_2_SConvBlockV2_Scale
I0907 09:42:56.412199 81223 net.cpp:380] B2_2_SConv_Conv1x1 -> B2_2_SConvBlockV2_Conv1x1
I0907 09:42:56.415356 81223 net.cpp:122] Setting up B2_2_SConv_Conv1x1
I0907 09:42:56.415369 81223 net.cpp:129] Top shape: 32 192 8 8 (393216)
I0907 09:42:56.415376 81223 net.cpp:137] Memory required for data: 786301056
I0907 09:42:56.415382 81223 layer_factory.hpp:77] Creating layer B2_2_SConv_ReLU
I0907 09:42:56.415390 81223 net.cpp:84] Creating Layer B2_2_SConv_ReLU
I0907 09:42:56.415393 81223 net.cpp:406] B2_2_SConv_ReLU <- B2_2_SConvBlockV2_Conv1x1
I0907 09:42:56.415401 81223 net.cpp:367] B2_2_SConv_ReLU -> B2_2_SConvBlockV2_Conv1x1 (in-place)
I0907 09:42:56.415413 81223 net.cpp:122] Setting up B2_2_SConv_ReLU
I0907 09:42:56.415424 81223 net.cpp:129] Top shape: 32 192 8 8 (393216)
I0907 09:42:56.415429 81223 net.cpp:137] Memory required for data: 787873920
I0907 09:42:56.415433 81223 layer_factory.hpp:77] Creating layer B2_2_SConv_Dropout
I0907 09:42:56.415439 81223 net.cpp:84] Creating Layer B2_2_SConv_Dropout
I0907 09:42:56.415443 81223 net.cpp:406] B2_2_SConv_Dropout <- B2_2_SConvBlockV2_Conv1x1
I0907 09:42:56.415448 81223 net.cpp:380] B2_2_SConv_Dropout -> B2_2_SConvBlockV2_Dropout
I0907 09:42:56.415474 81223 net.cpp:122] Setting up B2_2_SConv_Dropout
I0907 09:42:56.415480 81223 net.cpp:129] Top shape: 32 192 8 8 (393216)
I0907 09:42:56.415485 81223 net.cpp:137] Memory required for data: 789446784
I0907 09:42:56.415489 81223 layer_factory.hpp:77] Creating layer B2_Pooling
I0907 09:42:56.415496 81223 net.cpp:84] Creating Layer B2_Pooling
I0907 09:42:56.415500 81223 net.cpp:406] B2_Pooling <- B2_2_SConvBlockV2_Dropout
I0907 09:42:56.415506 81223 net.cpp:380] B2_Pooling -> Pooling3
I0907 09:42:56.415529 81223 net.cpp:122] Setting up B2_Pooling
I0907 09:42:56.415534 81223 net.cpp:129] Top shape: 32 192 4 4 (98304)
I0907 09:42:56.415539 81223 net.cpp:137] Memory required for data: 789840000
I0907 09:42:56.415544 81223 layer_factory.hpp:77] Creating layer B3_0_SConv_SparseConv
I0907 09:42:56.415552 81223 net.cpp:84] Creating Layer B3_0_SConv_SparseConv
I0907 09:42:56.415556 81223 net.cpp:406] B3_0_SConv_SparseConv <- Pooling3
I0907 09:42:56.415562 81223 net.cpp:380] B3_0_SConv_SparseConv -> B3_0_SConvBlockV2_T1
I0907 09:42:56.415778 81223 net.cpp:122] Setting up B3_0_SConv_SparseConv
I0907 09:42:56.415786 81223 net.cpp:129] Top shape: 32 2304 4 4 (1179648)
I0907 09:42:56.415791 81223 net.cpp:137] Memory required for data: 794558592
I0907 09:42:56.415796 81223 layer_factory.hpp:77] Creating layer B3_0_SConv_BN
I0907 09:42:56.415803 81223 net.cpp:84] Creating Layer B3_0_SConv_BN
I0907 09:42:56.415808 81223 net.cpp:406] B3_0_SConv_BN <- B3_0_SConvBlockV2_T1
I0907 09:42:56.415813 81223 net.cpp:367] B3_0_SConv_BN -> B3_0_SConvBlockV2_T1 (in-place)
I0907 09:42:56.415895 81223 net.cpp:122] Setting up B3_0_SConv_BN
I0907 09:42:56.415901 81223 net.cpp:129] Top shape: 32 2304 4 4 (1179648)
I0907 09:42:56.415907 81223 net.cpp:137] Memory required for data: 799277184
I0907 09:42:56.415913 81223 layer_factory.hpp:77] Creating layer B3_0_SConv_Scale
I0907 09:42:56.415920 81223 net.cpp:84] Creating Layer B3_0_SConv_Scale
I0907 09:42:56.415925 81223 net.cpp:406] B3_0_SConv_Scale <- B3_0_SConvBlockV2_T1
I0907 09:42:56.415931 81223 net.cpp:380] B3_0_SConv_Scale -> B3_0_SConvBlockV2_Scale
I0907 09:42:56.415959 81223 layer_factory.hpp:77] Creating layer B3_0_SConv_Scale
I0907 09:42:56.416018 81223 net.cpp:122] Setting up B3_0_SConv_Scale
I0907 09:42:56.416024 81223 net.cpp:129] Top shape: 32 2304 4 4 (1179648)
I0907 09:42:56.416030 81223 net.cpp:137] Memory required for data: 803995776
I0907 09:42:56.416035 81223 layer_factory.hpp:77] Creating layer B3_0_SConv_Conv1x1
I0907 09:42:56.416045 81223 net.cpp:84] Creating Layer B3_0_SConv_Conv1x1
I0907 09:42:56.416050 81223 net.cpp:406] B3_0_SConv_Conv1x1 <- B3_0_SConvBlockV2_Scale
I0907 09:42:56.416056 81223 net.cpp:380] B3_0_SConv_Conv1x1 -> B3_0_SConvBlockV2_Conv1x1
I0907 09:42:56.419251 81223 net.cpp:122] Setting up B3_0_SConv_Conv1x1
I0907 09:42:56.419265 81223 net.cpp:129] Top shape: 32 192 4 4 (98304)
I0907 09:42:56.419271 81223 net.cpp:137] Memory required for data: 804388992
I0907 09:42:56.419277 81223 layer_factory.hpp:77] Creating layer B3_0_SConv_ReLU
I0907 09:42:56.419284 81223 net.cpp:84] Creating Layer B3_0_SConv_ReLU
I0907 09:42:56.419289 81223 net.cpp:406] B3_0_SConv_ReLU <- B3_0_SConvBlockV2_Conv1x1
I0907 09:42:56.419296 81223 net.cpp:367] B3_0_SConv_ReLU -> B3_0_SConvBlockV2_Conv1x1 (in-place)
I0907 09:42:56.419304 81223 net.cpp:122] Setting up B3_0_SConv_ReLU
I0907 09:42:56.419308 81223 net.cpp:129] Top shape: 32 192 4 4 (98304)
I0907 09:42:56.419313 81223 net.cpp:137] Memory required for data: 804782208
I0907 09:42:56.419322 81223 layer_factory.hpp:77] Creating layer B3_0_SConv_Dropout
I0907 09:42:56.419333 81223 net.cpp:84] Creating Layer B3_0_SConv_Dropout
I0907 09:42:56.419338 81223 net.cpp:406] B3_0_SConv_Dropout <- B3_0_SConvBlockV2_Conv1x1
I0907 09:42:56.419346 81223 net.cpp:380] B3_0_SConv_Dropout -> B3_0_SConvBlockV2_Dropout
I0907 09:42:56.419370 81223 net.cpp:122] Setting up B3_0_SConv_Dropout
I0907 09:42:56.419376 81223 net.cpp:129] Top shape: 32 192 4 4 (98304)
I0907 09:42:56.419381 81223 net.cpp:137] Memory required for data: 805175424
I0907 09:42:56.419385 81223 layer_factory.hpp:77] Creating layer B3_1_SConv_SparseConv
I0907 09:42:56.419394 81223 net.cpp:84] Creating Layer B3_1_SConv_SparseConv
I0907 09:42:56.419399 81223 net.cpp:406] B3_1_SConv_SparseConv <- B3_0_SConvBlockV2_Dropout
I0907 09:42:56.419404 81223 net.cpp:380] B3_1_SConv_SparseConv -> B3_1_SConvBlockV2_T1
I0907 09:42:56.419612 81223 net.cpp:122] Setting up B3_1_SConv_SparseConv
I0907 09:42:56.419621 81223 net.cpp:129] Top shape: 32 2304 4 4 (1179648)
I0907 09:42:56.419627 81223 net.cpp:137] Memory required for data: 809894016
I0907 09:42:56.419632 81223 layer_factory.hpp:77] Creating layer B3_1_SConv_BN
I0907 09:42:56.419639 81223 net.cpp:84] Creating Layer B3_1_SConv_BN
I0907 09:42:56.419643 81223 net.cpp:406] B3_1_SConv_BN <- B3_1_SConvBlockV2_T1
I0907 09:42:56.419651 81223 net.cpp:367] B3_1_SConv_BN -> B3_1_SConvBlockV2_T1 (in-place)
I0907 09:42:56.419739 81223 net.cpp:122] Setting up B3_1_SConv_BN
I0907 09:42:56.419745 81223 net.cpp:129] Top shape: 32 2304 4 4 (1179648)
I0907 09:42:56.419750 81223 net.cpp:137] Memory required for data: 814612608
I0907 09:42:56.419761 81223 layer_factory.hpp:77] Creating layer B3_1_SConv_Scale
I0907 09:42:56.419768 81223 net.cpp:84] Creating Layer B3_1_SConv_Scale
I0907 09:42:56.419772 81223 net.cpp:406] B3_1_SConv_Scale <- B3_1_SConvBlockV2_T1
I0907 09:42:56.419777 81223 net.cpp:380] B3_1_SConv_Scale -> B3_1_SConvBlockV2_Scale
I0907 09:42:56.419806 81223 layer_factory.hpp:77] Creating layer B3_1_SConv_Scale
I0907 09:42:56.419867 81223 net.cpp:122] Setting up B3_1_SConv_Scale
I0907 09:42:56.419873 81223 net.cpp:129] Top shape: 32 2304 4 4 (1179648)
I0907 09:42:56.419878 81223 net.cpp:137] Memory required for data: 819331200
I0907 09:42:56.419884 81223 layer_factory.hpp:77] Creating layer B3_1_SConv_Conv1x1
I0907 09:42:56.419896 81223 net.cpp:84] Creating Layer B3_1_SConv_Conv1x1
I0907 09:42:56.419901 81223 net.cpp:406] B3_1_SConv_Conv1x1 <- B3_1_SConvBlockV2_Scale
I0907 09:42:56.419907 81223 net.cpp:380] B3_1_SConv_Conv1x1 -> B3_1_SConvBlockV2_Conv1x1
I0907 09:42:56.423128 81223 net.cpp:122] Setting up B3_1_SConv_Conv1x1
I0907 09:42:56.423141 81223 net.cpp:129] Top shape: 32 192 4 4 (98304)
I0907 09:42:56.423148 81223 net.cpp:137] Memory required for data: 819724416
I0907 09:42:56.423154 81223 layer_factory.hpp:77] Creating layer B3_1_SConv_ReLU
I0907 09:42:56.423161 81223 net.cpp:84] Creating Layer B3_1_SConv_ReLU
I0907 09:42:56.423166 81223 net.cpp:406] B3_1_SConv_ReLU <- B3_1_SConvBlockV2_Conv1x1
I0907 09:42:56.423174 81223 net.cpp:367] B3_1_SConv_ReLU -> B3_1_SConvBlockV2_Conv1x1 (in-place)
I0907 09:42:56.423182 81223 net.cpp:122] Setting up B3_1_SConv_ReLU
I0907 09:42:56.423187 81223 net.cpp:129] Top shape: 32 192 4 4 (98304)
I0907 09:42:56.423192 81223 net.cpp:137] Memory required for data: 820117632
I0907 09:42:56.423195 81223 layer_factory.hpp:77] Creating layer B3_1_SConv_Dropout
I0907 09:42:56.423202 81223 net.cpp:84] Creating Layer B3_1_SConv_Dropout
I0907 09:42:56.423205 81223 net.cpp:406] B3_1_SConv_Dropout <- B3_1_SConvBlockV2_Conv1x1
I0907 09:42:56.423213 81223 net.cpp:380] B3_1_SConv_Dropout -> B3_1_SConvBlockV2_Dropout
I0907 09:42:56.423236 81223 net.cpp:122] Setting up B3_1_SConv_Dropout
I0907 09:42:56.423242 81223 net.cpp:129] Top shape: 32 192 4 4 (98304)
I0907 09:42:56.423247 81223 net.cpp:137] Memory required for data: 820510848
I0907 09:42:56.423251 81223 layer_factory.hpp:77] Creating layer B3_2_SConv_SparseConv
I0907 09:42:56.423259 81223 net.cpp:84] Creating Layer B3_2_SConv_SparseConv
I0907 09:42:56.423269 81223 net.cpp:406] B3_2_SConv_SparseConv <- B3_1_SConvBlockV2_Dropout
I0907 09:42:56.423280 81223 net.cpp:380] B3_2_SConv_SparseConv -> B3_2_SConvBlockV2_T1
I0907 09:42:56.423496 81223 net.cpp:122] Setting up B3_2_SConv_SparseConv
I0907 09:42:56.423502 81223 net.cpp:129] Top shape: 32 2304 4 4 (1179648)
I0907 09:42:56.423508 81223 net.cpp:137] Memory required for data: 825229440
I0907 09:42:56.423513 81223 layer_factory.hpp:77] Creating layer B3_2_SConv_BN
I0907 09:42:56.423521 81223 net.cpp:84] Creating Layer B3_2_SConv_BN
I0907 09:42:56.423524 81223 net.cpp:406] B3_2_SConv_BN <- B3_2_SConvBlockV2_T1
I0907 09:42:56.423532 81223 net.cpp:367] B3_2_SConv_BN -> B3_2_SConvBlockV2_T1 (in-place)
I0907 09:42:56.423615 81223 net.cpp:122] Setting up B3_2_SConv_BN
I0907 09:42:56.423621 81223 net.cpp:129] Top shape: 32 2304 4 4 (1179648)
I0907 09:42:56.423627 81223 net.cpp:137] Memory required for data: 829948032
I0907 09:42:56.423633 81223 layer_factory.hpp:77] Creating layer B3_2_SConv_Scale
I0907 09:42:56.423640 81223 net.cpp:84] Creating Layer B3_2_SConv_Scale
I0907 09:42:56.423645 81223 net.cpp:406] B3_2_SConv_Scale <- B3_2_SConvBlockV2_T1
I0907 09:42:56.423650 81223 net.cpp:380] B3_2_SConv_Scale -> B3_2_SConvBlockV2_Scale
I0907 09:42:56.423673 81223 layer_factory.hpp:77] Creating layer B3_2_SConv_Scale
I0907 09:42:56.423730 81223 net.cpp:122] Setting up B3_2_SConv_Scale
I0907 09:42:56.423736 81223 net.cpp:129] Top shape: 32 2304 4 4 (1179648)
I0907 09:42:56.423741 81223 net.cpp:137] Memory required for data: 834666624
I0907 09:42:56.423748 81223 layer_factory.hpp:77] Creating layer B3_2_SConv_Conv1x1
I0907 09:42:56.423758 81223 net.cpp:84] Creating Layer B3_2_SConv_Conv1x1
I0907 09:42:56.423761 81223 net.cpp:406] B3_2_SConv_Conv1x1 <- B3_2_SConvBlockV2_Scale
I0907 09:42:56.423768 81223 net.cpp:380] B3_2_SConv_Conv1x1 -> B3_2_SConvBlockV2_Conv1x1
I0907 09:42:56.426965 81223 net.cpp:122] Setting up B3_2_SConv_Conv1x1
I0907 09:42:56.426978 81223 net.cpp:129] Top shape: 32 192 4 4 (98304)
I0907 09:42:56.426985 81223 net.cpp:137] Memory required for data: 835059840
I0907 09:42:56.426991 81223 layer_factory.hpp:77] Creating layer B3_2_SConv_ReLU
I0907 09:42:56.426998 81223 net.cpp:84] Creating Layer B3_2_SConv_ReLU
I0907 09:42:56.427003 81223 net.cpp:406] B3_2_SConv_ReLU <- B3_2_SConvBlockV2_Conv1x1
I0907 09:42:56.427011 81223 net.cpp:367] B3_2_SConv_ReLU -> B3_2_SConvBlockV2_Conv1x1 (in-place)
I0907 09:42:56.427018 81223 net.cpp:122] Setting up B3_2_SConv_ReLU
I0907 09:42:56.427022 81223 net.cpp:129] Top shape: 32 192 4 4 (98304)
I0907 09:42:56.427027 81223 net.cpp:137] Memory required for data: 835453056
I0907 09:42:56.427032 81223 layer_factory.hpp:77] Creating layer B3_2_SConv_Dropout
I0907 09:42:56.427037 81223 net.cpp:84] Creating Layer B3_2_SConv_Dropout
I0907 09:42:56.427042 81223 net.cpp:406] B3_2_SConv_Dropout <- B3_2_SConvBlockV2_Conv1x1
I0907 09:42:56.427049 81223 net.cpp:380] B3_2_SConv_Dropout -> B3_2_SConvBlockV2_Dropout
I0907 09:42:56.427073 81223 net.cpp:122] Setting up B3_2_SConv_Dropout
I0907 09:42:56.427078 81223 net.cpp:129] Top shape: 32 192 4 4 (98304)
I0907 09:42:56.427083 81223 net.cpp:137] Memory required for data: 835846272
I0907 09:42:56.427088 81223 layer_factory.hpp:77] Creating layer B3_Pooling
I0907 09:42:56.427094 81223 net.cpp:84] Creating Layer B3_Pooling
I0907 09:42:56.427098 81223 net.cpp:406] B3_Pooling <- B3_2_SConvBlockV2_Dropout
I0907 09:42:56.427105 81223 net.cpp:380] B3_Pooling -> Pooling4
I0907 09:42:56.427120 81223 net.cpp:122] Setting up B3_Pooling
I0907 09:42:56.427125 81223 net.cpp:129] Top shape: 32 192 1 1 (6144)
I0907 09:42:56.427130 81223 net.cpp:137] Memory required for data: 835870848
I0907 09:42:56.427134 81223 layer_factory.hpp:77] Creating layer fc1
I0907 09:42:56.427150 81223 net.cpp:84] Creating Layer fc1
I0907 09:42:56.427153 81223 net.cpp:406] fc1 <- Pooling4
I0907 09:42:56.427160 81223 net.cpp:380] fc1 -> fc1
I0907 09:42:56.427585 81223 net.cpp:122] Setting up fc1
I0907 09:42:56.427593 81223 net.cpp:129] Top shape: 32 384 (12288)
I0907 09:42:56.427598 81223 net.cpp:137] Memory required for data: 835920000
I0907 09:42:56.427615 81223 layer_factory.hpp:77] Creating layer classifier
I0907 09:42:56.427623 81223 net.cpp:84] Creating Layer classifier
I0907 09:42:56.427626 81223 net.cpp:406] classifier <- fc1
I0907 09:42:56.427632 81223 net.cpp:380] classifier -> classifier
I0907 09:42:56.427697 81223 net.cpp:122] Setting up classifier
I0907 09:42:56.427704 81223 net.cpp:129] Top shape: 32 10 (320)
I0907 09:42:56.427709 81223 net.cpp:137] Memory required for data: 835921280
I0907 09:42:56.427714 81223 layer_factory.hpp:77] Creating layer softmax_loss
I0907 09:42:56.427727 81223 net.cpp:84] Creating Layer softmax_loss
I0907 09:42:56.427732 81223 net.cpp:406] softmax_loss <- classifier
I0907 09:42:56.427736 81223 net.cpp:406] softmax_loss <- label
I0907 09:42:56.427743 81223 net.cpp:380] softmax_loss -> softmax_loss
…
I0907 09:42:56.428668 81223 solver.cpp:172] Creating test net (#0) specified by net file: train_test.pt
I0907 09:42:56.428725 81223 net.cpp:294] The NetState phase (1) differed from the phase (0) specified by a rule in layer InputData
I0907 09:42:56.428753 81223 net.cpp:51] Initializing net from parameters: 
state {
  phase: TEST
}
layer {
  name: "InputData"
  type: "ImageData"
  top: "data"
  top: "label"
  include {
    phase: TEST
  }
  transform_param {
    mirror: true
    crop_size: 32
  }
  image_data_param {
    source: "/home/jcwang/work/1.CIFAR10/test.txt"
    batch_size: 1
    shuffle: true
    is_color: true
  }
}
layer {
  name: "B0_0_ConvBNScaleReLU_Conv"
  type: "Convolution"
  bottom: "data"
  top: "B0_0_ConvBNScaleReLU_Conv"
  convolution_param {
    num_output: 64
    bias_term: false
    pad: 1
    kernel_size: 3
    stride: 1
    weight_filler {
      type: "xavier"
    }
    bias_filler {
      type: "constant"
    }
  }
}
layer {
  name: "B0_0_ConvBNScaleReLU_BN"
  type: "BatchNorm"
  bottom: "B0_0_ConvBNScaleReLU_Conv"
  top: "B0_0_ConvBNScaleReLU_Conv"
  param {
    lr_mult: 0
    decay_mult: 0
  }
  param {
    lr_mult: 0
    decay_mult: 0
  }
  param {
    lr_mult: 0
    decay_mult: 0
  }
  batch_norm_param {
    moving_average_fraction: 0.999
    eps: 0.001
  }
}
layer {
  name: "B0_0_ConvBNScaleReLU_Scale"
  type: "Scale"
  bottom: "B0_0_ConvBNScaleReLU_Conv"
  top: "B0_0_ConvBNScaleReLU_Conv"
  scale_param {
    filler {
      value: 1
    }
    bias_term: true
    bias_filler {
      value: 0
    }
    l1_lambda: 0
  }
}
layer {
  name: "B0_0_ConvBNScaleReLU_ReLU"
  type: "ReLU"
  bottom: "B0_0_ConvBNScaleReLU_Conv"
  top: "B0_0_ConvBNScaleReLU_Conv"
}
layer {
  name: "B0_0_ConvBNScaleReLU_Dropout"
  type: "Dropout"
  bottom: "B0_0_ConvBNScaleReLU_Conv"
  top: "ConvBNScaleReLU"
  dropout_param {
    dropout_ratio: 0.25
  }
}
layer {
  name: "B0_1_SConv_SparseConv"
  type: "SparseConvolution"
  bottom: "ConvBNScaleReLU"
  top: "B0_1_SConvBlockV2_T1"
  sparse_convolution_param {
    weight_filler {
      type: "xavier"
    }
    channel_expand_multiplier: 12
  }
}
layer {
  name: "B0_1_SConv_BN"
  type: "BatchNorm"
  bottom: "B0_1_SConvBlockV2_T1"
  top: "B0_1_SConvBlockV2_T1"
  param {
    lr_mult: 0
    decay_mult: 0
  }
  param {
    lr_mult: 0
    decay_mult: 0
  }
  param {
    lr_mult: 0
    decay_mult: 0
  }
  batch_norm_param {
    moving_average_fraction: 0.999
    eps: 0.001
  }
}
layer {
  name: "B0_1_SConv_Scale"
  type: "Scale"
  bottom: "B0_1_SConvBlockV2_T1"
  top: "B0_1_SConvBlockV2_Scale"
  scale_param {
    bias_term: true
  }
}
layer {
  name: "B0_1_SConv_Conv1x1"
  type: "Convolution"
  bottom: "B0_1_SConvBlockV2_Scale"
  top: "B0_1_SConvBlockV2_Conv1x1"
  convolution_param {
    num_output: 64
    bias_term: true
    pad: 0
    kernel_size: 1
    stride: 1
    weight_filler {
      type: "xavier"
    }
    bias_filler {
      type: "constant"
    }
  }
}
layer {
  name: "B0_1_SConv_ReLU"
  type: "ReLU"
  bottom: "B0_1_SConvBlockV2_Conv1x1"
  top: "B0_1_SConvBlockV2_Conv1x1"
}
layer {
  name: "B0_1_SConv_Dropout"
  type: "Dropout"
  bottom: "B0_1_SConvBlockV2_Conv1x1"
  top: "B0_1_SConvBlockV2_Dropout"
  dropout_param {
    dropout_ratio: 0.25
  }
}
layer {
  name: "B0_Pooling"
  type: "Pooling"
  bottom: "B0_1_SConvBlockV2_Dropout"
  top: "Pooling1"
  pooling_param {
    pool: MAX
    kernel_size: 2
    stride: 2
    pad: 0
  }
}
layer {
  name: "B1_0_SConv_SparseConv"
  type: "SparseConvolution"
  bottom: "Pooling1"
  top: "B1_0_SConvBlockV2_T1"
  sparse_convolution_param {
    weight_filler {
      type: "xavier"
    }
    channel_expand_multiplier: 12
  }
}
layer {
  name: "B1_0_SConv_BN"
  type: "BatchNorm"
  bottom: "B1_0_SConvBlockV2_T1"
  top: "B1_0_SConvBlockV2_T1"
  param {
    lr_mult: 0
    decay_mult: 0
  }
  param {
    lr_mult: 0
    decay_mult: 0
  }
  param {
    lr_mult: 0
    decay_mult: 0
  }
  batch_norm_param {
    moving_average_fraction: 0.999
    eps: 0.001
  }
}
layer {
  name: "B1_0_SConv_Scale"
  type: "Scale"
  bottom: "B1_0_SConvBlockV2_T1"
  top: "B1_0_SConvBlockV2_Scale"
  scale_param {
    bias_term: true
  }
}
layer {
  name: "B1_0_SConv_Conv1x1"
  type: "Convolution"
  bottom: "B1_0_SConvBlockV2_Scale"
  top: "B1_0_SConvBlockV2_Conv1x1"
  convolution_param {
    num_output: 128
    bias_term: true
    pad: 0
    kernel_size: 1
    stride: 1
    weight_filler {
      type: "xavier"
    }
    bias_filler {
      type: "constant"
    }
  }
}
layer {
  name: "B1_0_SConv_ReLU"
  type: "ReLU"
  bottom: "B1_0_SConvBlockV2_Conv1x1"
  top: "B1_0_SConvBlockV2_Conv1x1"
}
layer {
  name: "B1_0_SConv_Dropout"
  type: "Dropout"
  bottom: "B1_0_SConvBlockV2_Conv1x1"
  top: "B1_0_SConvBlockV2_Dropout"
  dropout_param {
    dropout_ratio: 0.25
  }
}
layer {
  name: "B1_1_SConv_SparseConv"
  type: "SparseConvolution"
  bottom: "B1_0_SConvBlockV2_Dropout"
  top: "B1_1_SConvBlockV2_T1"
  sparse_convolution_param {
    weight_filler {
      type: "xavier"
    }
    channel_expand_multiplier: 12
  }
}
layer {
  name: "B1_1_SConv_BN"
  type: "BatchNorm"
  bottom: "B1_1_SConvBlockV2_T1"
  top: "B1_1_SConvBlockV2_T1"
  param {
    lr_mult: 0
    decay_mult: 0
  }
  param {
    lr_mult: 0
    decay_mult: 0
  }
  param {
    lr_mult: 0
    decay_mult: 0
  }
  batch_norm_param {
    moving_average_fraction: 0.999
    eps: 0.001
  }
}
layer {
  name: "B1_1_SConv_Scale"
  type: "Scale"
  bottom: "B1_1_SConvBlockV2_T1"
  top: "B1_1_SConvBlockV2_Scale"
  scale_param {
    bias_term: true
  }
}
layer {
  name: "B1_1_SConv_Conv1x1"
  type: "Convolution"
  bottom: "B1_1_SConvBlockV2_Scale"
  top: "B1_1_SConvBlockV2_Conv1x1"
  convolution_param {
    num_output: 128
    bias_term: true
    pad: 0
    kernel_size: 1
    stride: 1
    weight_filler {
      type: "xavier"
    }
    bias_filler {
      type: "constant"
    }
  }
}
layer {
  name: "B1_1_SConv_ReLU"
  type: "ReLU"
  bottom: "B1_1_SConvBlockV2_Conv1x1"
  top: "B1_1_SConvBlockV2_Conv1x1"
}
layer {
  name: "B1_1_SConv_Dropout"
  type: "Dropout"
  bottom: "B1_1_SConvBlockV2_Conv1x1"
  top: "B1_1_SConvBlockV2_Dropout"
  dropout_param {
    dropout_ratio: 0.25
  }
}
layer {
  name: "B1_Pooling"
  type: "Pooling"
  bottom: "B1_1_SConvBlockV2_Dropout"
  top: "Pooling2"
  pooling_param {
    pool: MAX
    kernel_size: 2
    stride: 2
    pad: 0
  }
}
layer {
  name: "B2_0_SConv_SparseConv"
  type: "SparseConvolution"
  bottom: "Pooling2"
  top: "B2_0_SConvBlockV2_T1"
  sparse_convolution_param {
    weight_filler {
      type: "xavier"
    }
    channel_expand_multiplier: 12
  }
}
layer {
  name: "B2_0_SConv_BN"
  type: "BatchNorm"
  bottom: "B2_0_SConvBlockV2_T1"
  top: "B2_0_SConvBlockV2_T1"
  param {
    lr_mult: 0
    decay_mult: 0
  }
  param {
    lr_mult: 0
    decay_mult: 0
  }
  param {
    lr_mult: 0
    decay_mult: 0
  }
  batch_norm_param {
    moving_average_fraction: 0.999
    eps: 0.001
  }
}
layer {
  name: "B2_0_SConv_Scale"
  type: "Scale"
  bottom: "B2_0_SConvBlockV2_T1"
  top: "B2_0_SConvBlockV2_Scale"
  scale_param {
    bias_term: true
  }
}
layer {
  name: "B2_0_SConv_Conv1x1"
  type: "Convolution"
  bottom: "B2_0_SConvBlockV2_Scale"
  top: "B2_0_SConvBlockV2_Conv1x1"
  convolution_param {
    num_output: 192
    bias_term: true
    pad: 0
    kernel_size: 1
    stride: 1
    weight_filler {
      type: "xavier"
    }
    bias_filler {
      type: "constant"
    }
  }
}
layer {
  name: "B2_0_SConv_ReLU"
  type: "ReLU"
  bottom: "B2_0_SConvBlockV2_Conv1x1"
  top: "B2_0_SConvBlockV2_Conv1x1"
}
layer {
  name: "B2_0_SConv_Dropout"
  type: "Dropout"
  bottom: "B2_0_SConvBlockV2_Conv1x1"
  top: "B2_0_SConvBlockV2_Dropout"
  dropout_param {
    dropout_ratio: 0.25
  }
}
layer {
  name: "B2_1_SConv_SparseConv"
  type: "SparseConvolution"
  bottom: "B2_0_SConvBlockV2_Dropout"
  top: "B2_1_SConvBlockV2_T1"
  sparse_convolution_param {
    weight_filler {
      type: "xavier"
    }
    channel_expand_multiplier: 12
  }
}
layer {
  name: "B2_1_SConv_BN"
  type: "BatchNorm"
  bottom: "B2_1_SConvBlockV2_T1"
  top: "B2_1_SConvBlockV2_T1"
  param {
    lr_mult: 0
    decay_mult: 0
  }
  param {
    lr_mult: 0
    decay_mult: 0
  }
  param {
    lr_mult: 0
    decay_mult: 0
  }
  batch_norm_param {
    moving_average_fraction: 0.999
    eps: 0.001
  }
}
layer {
  name: "B2_1_SConv_Scale"
  type: "Scale"
  bottom: "B2_1_SConvBlockV2_T1"
  top: "B2_1_SConvBlockV2_Scale"
  scale_param {
    bias_term: true
  }
}
layer {
  name: "B2_1_SConv_Conv1x1"
  type: "Convolution"
  bottom: "B2_1_SConvBlockV2_Scale"
  top: "B2_1_SConvBlockV2_Conv1x1"
  convolution_param {
    num_output: 192
    bias_term: true
    pad: 0
    kernel_size: 1
    stride: 1
    weight_filler {
      type: "xavier"
    }
    bias_filler {
      type: "constant"
    }
  }
}
layer {
  name: "B2_1_SConv_ReLU"
  type: "ReLU"
  bottom: "B2_1_SConvBlockV2_Conv1x1"
  top: "B2_1_SConvBlockV2_Conv1x1"
}
layer {
  name: "B2_1_SConv_Dropout"
  type: "Dropout"
  bottom: "B2_1_SConvBlockV2_Conv1x1"
  top: "B2_1_SConvBlockV2_Dropout"
  dropout_param {
    dropout_ratio: 0.25
  }
}
layer {
  name: "B2_2_SConv_SparseConv"
  type: "SparseConvolution"
  bottom: "B2_1_SConvBlockV2_Dropout"
  top: "B2_2_SConvBlockV2_T1"
  sparse_convolution_param {
    weight_filler {
      type: "xavier"
    }
    channel_expand_multiplier: 12
  }
}
layer {
  name: "B2_2_SConv_BN"
  type: "BatchNorm"
  bottom: "B2_2_SConvBlockV2_T1"
  top: "B2_2_SConvBlockV2_T1"
  param {
    lr_mult: 0
    decay_mult: 0
  }
  param {
    lr_mult: 0
    decay_mult: 0
  }
  param {
    lr_mult: 0
    decay_mult: 0
  }
  batch_norm_param {
    moving_average_fraction: 0.999
    eps: 0.001
  }
}
layer {
  name: "B2_2_SConv_Scale"
  type: "Scale"
  bottom: "B2_2_SConvBlockV2_T1"
  top: "B2_2_SConvBlockV2_Scale"
  scale_param {
    bias_term: true
  }
}
layer {
  name: "B2_2_SConv_Conv1x1"
  type: "Convolution"
  bottom: "B2_2_SConvBlockV2_Scale"
  top: "B2_2_SConvBlockV2_Conv1x1"
  convolution_param {
    num_output: 192
    bias_term: true
    pad: 0
    kernel_size: 1
    stride: 1
    weight_filler {
      type: "xavier"
    }
    bias_filler {
      type: "constant"
    }
  }
}
layer {
  name: "B2_2_SConv_ReLU"
  type: "ReLU"
  bottom: "B2_2_SConvBlockV2_Conv1x1"
  top: "B2_2_SConvBlockV2_Conv1x1"
}
layer {
  name: "B2_2_SConv_Dropout"
  type: "Dropout"
  bottom: "B2_2_SConvBlockV2_Conv1x1"
  top: "B2_2_SConvBlockV2_Dropout"
  dropout_param {
    dropout_ratio: 0.25
  }
}
layer {
  name: "B2_Pooling"
  type: "Pooling"
  bottom: "B2_2_SConvBlockV2_Dropout"
  top: "Pooling3"
  pooling_param {
    pool: MAX
    kernel_size: 2
    stride: 2
    pad: 0
  }
}
layer {
  name: "B3_0_SConv_SparseConv"
  type: "SparseConvolution"
  bottom: "Pooling3"
  top: "B3_0_SConvBlockV2_T1"
  sparse_convolution_param {
    weight_filler {
      type: "xavier"
    }
    channel_expand_multiplier: 12
  }
}
layer {
  name: "B3_0_SConv_BN"
  type: "BatchNorm"
  bottom: "B3_0_SConvBlockV2_T1"
  top: "B3_0_SConvBlockV2_T1"
  param {
    lr_mult: 0
    decay_mult: 0
  }
  param {
    lr_mult: 0
    decay_mult: 0
  }
  param {
    lr_mult: 0
    decay_mult: 0
  }
  batch_norm_param {
    moving_average_fraction: 0.999
    eps: 0.001
  }
}
layer {
  name: "B3_0_SConv_Scale"
  type: "Scale"
  bottom: "B3_0_SConvBlockV2_T1"
  top: "B3_0_SConvBlockV2_Scale"
  scale_param {
    bias_term: true
  }
}
layer {
  name: "B3_0_SConv_Conv1x1"
  type: "Convolution"
  bottom: "B3_0_SConvBlockV2_Scale"
  top: "B3_0_SConvBlockV2_Conv1x1"
  convolution_param {
    num_output: 192
    bias_term: true
    pad: 0
    kernel_size: 1
    stride: 1
    weight_filler {
      type: "xavier"
    }
    bias_filler {
      type: "constant"
    }
  }
}
layer {
  name: "B3_0_SConv_ReLU"
  type: "ReLU"
  bottom: "B3_0_SConvBlockV2_Conv1x1"
  top: "B3_0_SConvBlockV2_Conv1x1"
}
layer {
  name: "B3_0_SConv_Dropout"
  type: "Dropout"
  bottom: "B3_0_SConvBlockV2_Conv1x1"
  top: "B3_0_SConvBlockV2_Dropout"
  dropout_param {
    dropout_ratio: 0.25
  }
}
layer {
  name: "B3_1_SConv_SparseConv"
  type: "SparseConvolution"
  bottom: "B3_0_SConvBlockV2_Dropout"
  top: "B3_1_SConvBlockV2_T1"
  sparse_convolution_param {
    weight_filler {
      type: "xavier"
    }
    channel_expand_multiplier: 12
  }
}
layer {
  name: "B3_1_SConv_BN"
  type: "BatchNorm"
  bottom: "B3_1_SConvBlockV2_T1"
  top: "B3_1_SConvBlockV2_T1"
  param {
    lr_mult: 0
    decay_mult: 0
  }
  param {
    lr_mult: 0
    decay_mult: 0
  }
  param {
    lr_mult: 0
    decay_mult: 0
  }
  batch_norm_param {
    moving_average_fraction: 0.999
    eps: 0.001
  }
}
layer {
  name: "B3_1_SConv_Scale"
  type: "Scale"
  bottom: "B3_1_SConvBlockV2_T1"
  top: "B3_1_SConvBlockV2_Scale"
  scale_param {
    bias_term: true
  }
}
layer {
  name: "B3_1_SConv_Conv1x1"
  type: "Convolution"
  bottom: "B3_1_SConvBlockV2_Scale"
  top: "B3_1_SConvBlockV2_Conv1x1"
  convolution_param {
    num_output: 192
    bias_term: true
    pad: 0
    kernel_size: 1
    stride: 1
    weight_filler {
      type: "xavier"
    }
    bias_filler {
      type: "constant"
    }
  }
}
layer {
  name: "B3_1_SConv_ReLU"
  type: "ReLU"
  bottom: "B3_1_SConvBlockV2_Conv1x1"
  top: "B3_1_SConvBlockV2_Conv1x1"
}
layer {
  name: "B3_1_SConv_Dropout"
  type: "Dropout"
  bottom: "B3_1_SConvBlockV2_Conv1x1"
  top: "B3_1_SConvBlockV2_Dropout"
  dropout_param {
    dropout_ratio: 0.25
  }
}
layer {
  name: "B3_2_SConv_SparseConv"
  type: "SparseConvolution"
  bottom: "B3_1_SConvBlockV2_Dropout"
  top: "B3_2_SConvBlockV2_T1"
  sparse_convolution_param {
    weight_filler {
      type: "xavier"
    }
    channel_expand_multiplier: 12
  }
}
layer {
  name: "B3_2_SConv_BN"
  type: "BatchNorm"
  bottom: "B3_2_SConvBlockV2_T1"
  top: "B3_2_SConvBlockV2_T1"
  param {
    lr_mult: 0
    decay_mult: 0
  }
  param {
    lr_mult: 0
    decay_mult: 0
  }
  param {
    lr_mult: 0
    decay_mult: 0
  }
  batch_norm_param {
    moving_average_fraction: 0.999
    eps: 0.001
  }
}
layer {
  name: "B3_2_SConv_Scale"
  type: "Scale"
  bottom: "B3_2_SConvBlockV2_T1"
  top: "B3_2_SConvBlockV2_Scale"
  scale_param {
    bias_term: true
  }
}
layer {
  name: "B3_2_SConv_Conv1x1"
  type: "Convolution"
  bottom: "B3_2_SConvBlockV2_Scale"
  top: "B3_2_SConvBlockV2_Conv1x1"
  convolution_param {
    num_output: 192
    bias_term: true
    pad: 0
    kernel_size: 1
    stride: 1
    weight_filler {
      type: "xavier"
    }
    bias_filler {
      type: "constant"
    }
  }
}
layer {
  name: "B3_2_SConv_ReLU"
  type: "ReLU"
  bottom: "B3_2_SConvBlockV2_Conv1x1"
  top: "B3_2_SConvBlockV2_Conv1x1"
}
layer {
  name: "B3_2_SConv_Dropout"
  type: "Dropout"
  bottom: "B3_2_SConvBlockV2_Conv1x1"
  top: "B3_2_SConvBlockV2_Dropout"
  dropout_param {
    dropout_ratio: 0.25
  }
}
layer {
  name: "B3_Pooling"
  type: "Pooling"
  bottom: "B3_2_SConvBlockV2_Dropout"
  top: "Pooling4"
  pooling_param {
    pool: AVE
    global_pooling: true
  }
}
layer {
  name: "fc1"
  type: "InnerProduct"
  bottom: "Pooling4"
  top: "fc1"
  inner_product_param {
    num_output: 384
    bias_term: true
    weight_filler {
      type: "xavier"
    }
    bias_filler {
      type: "constant"
    }
  }
}
layer {
  name: "classifier"
  type: "InnerProduct"
  bottom: "fc1"
  top: "classifier"
  inner_product_param {
    num_output: 10
    bias_term: true
    weight_filler {
      type: "xavier"
    }
    bias_filler {
      type: "constant"
    }
  }
}
layer {
  name: "softmax_loss"
  type: "SoftmaxWithLoss"
  bottom: "classifier"
  bottom: "label"
  top: "softmax_loss"
}
layer {
  name: "accuracy"
  type: "Accuracy"
  bottom: "classifier"
  bottom: "label"
  top: "accuracy"
  include {
    phase: TEST
  }
}
I0907 09:42:56.429229 81223 layer_factory.hpp:77] Creating layer InputData
I0907 09:42:56.429244 81223 net.cpp:84] Creating Layer InputData
I0907 09:42:56.429250 81223 net.cpp:380] InputData -> data
I0907 09:42:56.429258 81223 net.cpp:380] InputData -> label
I0907 09:42:56.429271 81223 image_data_layer.cpp:38] Opening file /home/jcwang/work/1.CIFAR10/test.txt
I0907 09:42:56.431264 81223 image_data_layer.cpp:53] Shuffling data
I0907 09:42:56.431421 81223 image_data_layer.cpp:63] A total of 10001 images.
I0907 09:42:56.431502 81223 image_data_layer.cpp:90] output data size: 1,3,32,32
I0907 09:42:56.431735 81223 net.cpp:122] Setting up InputData
I0907 09:42:56.431746 81223 net.cpp:129] Top shape: 1 3 32 32 (3072)
I0907 09:42:56.431752 81223 net.cpp:129] Top shape: 1 (1)
I0907 09:42:56.431757 81223 net.cpp:137] Memory required for data: 12292
I0907 09:42:56.431762 81223 layer_factory.hpp:77] Creating layer label_InputData_1_split
I0907 09:42:56.431769 81223 net.cpp:84] Creating Layer label_InputData_1_split
I0907 09:42:56.431773 81223 net.cpp:406] label_InputData_1_split <- label
I0907 09:42:56.431780 81223 net.cpp:380] label_InputData_1_split -> label_InputData_1_split_0
I0907 09:42:56.431789 81223 net.cpp:380] label_InputData_1_split -> label_InputData_1_split_1
I0907 09:42:56.431813 81223 net.cpp:122] Setting up label_InputData_1_split
I0907 09:42:56.431820 81223 net.cpp:129] Top shape: 1 (1)
I0907 09:42:56.431824 81223 net.cpp:129] Top shape: 1 (1)
I0907 09:42:56.431835 81223 net.cpp:137] Memory required for data: 12300
I0907 09:42:56.431845 81223 layer_factory.hpp:77] Creating layer B0_0_ConvBNScaleReLU_Conv
I0907 09:42:56.431854 81223 net.cpp:84] Creating Layer B0_0_ConvBNScaleReLU_Conv
I0907 09:42:56.431859 81223 net.cpp:406] B0_0_ConvBNScaleReLU_Conv <- data
I0907 09:42:56.431864 81223 net.cpp:380] B0_0_ConvBNScaleReLU_Conv -> B0_0_ConvBNScaleReLU_Conv
I0907 09:42:56.432016 81223 net.cpp:122] Setting up B0_0_ConvBNScaleReLU_Conv
I0907 09:42:56.432026 81223 net.cpp:129] Top shape: 1 64 32 32 (65536)
I0907 09:42:56.432032 81223 net.cpp:137] Memory required for data: 274444
I0907 09:42:56.432039 81223 layer_factory.hpp:77] Creating layer B0_0_ConvBNScaleReLU_BN
I0907 09:42:56.432045 81223 net.cpp:84] Creating Layer B0_0_ConvBNScaleReLU_BN
I0907 09:42:56.432050 81223 net.cpp:406] B0_0_ConvBNScaleReLU_BN <- B0_0_ConvBNScaleReLU_Conv
I0907 09:42:56.432055 81223 net.cpp:367] B0_0_ConvBNScaleReLU_BN -> B0_0_ConvBNScaleReLU_Conv (in-place)
I0907 09:42:56.432134 81223 net.cpp:122] Setting up B0_0_ConvBNScaleReLU_BN
I0907 09:42:56.432140 81223 net.cpp:129] Top shape: 1 64 32 32 (65536)
I0907 09:42:56.432145 81223 net.cpp:137] Memory required for data: 536588
I0907 09:42:56.432153 81223 layer_factory.hpp:77] Creating layer B0_0_ConvBNScaleReLU_Scale
I0907 09:42:56.432161 81223 net.cpp:84] Creating Layer B0_0_ConvBNScaleReLU_Scale
I0907 09:42:56.432165 81223 net.cpp:406] B0_0_ConvBNScaleReLU_Scale <- B0_0_ConvBNScaleReLU_Conv
I0907 09:42:56.432170 81223 net.cpp:367] B0_0_ConvBNScaleReLU_Scale -> B0_0_ConvBNScaleReLU_Conv (in-place)
I0907 09:42:56.432204 81223 layer_factory.hpp:77] Creating layer B0_0_ConvBNScaleReLU_Scale
I0907 09:42:56.432276 81223 net.cpp:122] Setting up B0_0_ConvBNScaleReLU_Scale
I0907 09:42:56.432282 81223 net.cpp:129] Top shape: 1 64 32 32 (65536)
I0907 09:42:56.432288 81223 net.cpp:137] Memory required for data: 798732
I0907 09:42:56.432294 81223 layer_factory.hpp:77] Creating layer B0_0_ConvBNScaleReLU_ReLU
I0907 09:42:56.432301 81223 net.cpp:84] Creating Layer B0_0_ConvBNScaleReLU_ReLU
I0907 09:42:56.432305 81223 net.cpp:406] B0_0_ConvBNScaleReLU_ReLU <- B0_0_ConvBNScaleReLU_Conv
I0907 09:42:56.432310 81223 net.cpp:367] B0_0_ConvBNScaleReLU_ReLU -> B0_0_ConvBNScaleReLU_Conv (in-place)
I0907 09:42:56.432317 81223 net.cpp:122] Setting up B0_0_ConvBNScaleReLU_ReLU
I0907 09:42:56.432320 81223 net.cpp:129] Top shape: 1 64 32 32 (65536)
I0907 09:42:56.432325 81223 net.cpp:137] Memory required for data: 1060876
I0907 09:42:56.432329 81223 layer_factory.hpp:77] Creating layer B0_0_ConvBNScaleReLU_Dropout
I0907 09:42:56.432335 81223 net.cpp:84] Creating Layer B0_0_ConvBNScaleReLU_Dropout
I0907 09:42:56.432339 81223 net.cpp:406] B0_0_ConvBNScaleReLU_Dropout <- B0_0_ConvBNScaleReLU_Conv
I0907 09:42:56.432344 81223 net.cpp:380] B0_0_ConvBNScaleReLU_Dropout -> ConvBNScaleReLU
I0907 09:42:56.432368 81223 net.cpp:122] Setting up B0_0_ConvBNScaleReLU_Dropout
I0907 09:42:56.432374 81223 net.cpp:129] Top shape: 1 64 32 32 (65536)
I0907 09:42:56.432379 81223 net.cpp:137] Memory required for data: 1323020
I0907 09:42:56.432384 81223 layer_factory.hpp:77] Creating layer B0_1_SConv_SparseConv
I0907 09:42:56.432389 81223 net.cpp:84] Creating Layer B0_1_SConv_SparseConv
I0907 09:42:56.432394 81223 net.cpp:406] B0_1_SConv_SparseConv <- ConvBNScaleReLU
I0907 09:42:56.432399 81223 net.cpp:380] B0_1_SConv_SparseConv -> B0_1_SConvBlockV2_T1
I0907 09:42:56.432518 81223 net.cpp:122] Setting up B0_1_SConv_SparseConv
I0907 09:42:56.432524 81223 net.cpp:129] Top shape: 1 768 32 32 (786432)
I0907 09:42:56.432530 81223 net.cpp:137] Memory required for data: 4468748
I0907 09:42:56.432535 81223 layer_factory.hpp:77] Creating layer B0_1_SConv_BN
I0907 09:42:56.432544 81223 net.cpp:84] Creating Layer B0_1_SConv_BN
I0907 09:42:56.432549 81223 net.cpp:406] B0_1_SConv_BN <- B0_1_SConvBlockV2_T1
I0907 09:42:56.432556 81223 net.cpp:367] B0_1_SConv_BN -> B0_1_SConvBlockV2_T1 (in-place)
I0907 09:42:56.432675 81223 net.cpp:122] Setting up B0_1_SConv_BN
I0907 09:42:56.432687 81223 net.cpp:129] Top shape: 1 768 32 32 (786432)
I0907 09:42:56.432696 81223 net.cpp:137] Memory required for data: 7614476
I0907 09:42:56.432706 81223 layer_factory.hpp:77] Creating layer B0_1_SConv_Scale
I0907 09:42:56.432713 81223 net.cpp:84] Creating Layer B0_1_SConv_Scale
I0907 09:42:56.432718 81223 net.cpp:406] B0_1_SConv_Scale <- B0_1_SConvBlockV2_T1
I0907 09:42:56.432723 81223 net.cpp:380] B0_1_SConv_Scale -> B0_1_SConvBlockV2_Scale
I0907 09:42:56.432751 81223 layer_factory.hpp:77] Creating layer B0_1_SConv_Scale
I0907 09:42:56.432824 81223 net.cpp:122] Setting up B0_1_SConv_Scale
I0907 09:42:56.432832 81223 net.cpp:129] Top shape: 1 768 32 32 (786432)
I0907 09:42:56.432837 81223 net.cpp:137] Memory required for data: 10760204
I0907 09:42:56.432843 81223 layer_factory.hpp:77] Creating layer B0_1_SConv_Conv1x1
I0907 09:42:56.432852 81223 net.cpp:84] Creating Layer B0_1_SConv_Conv1x1
I0907 09:42:56.432857 81223 net.cpp:406] B0_1_SConv_Conv1x1 <- B0_1_SConvBlockV2_Scale
I0907 09:42:56.432863 81223 net.cpp:380] B0_1_SConv_Conv1x1 -> B0_1_SConvBlockV2_Conv1x1
I0907 09:42:56.433249 81223 net.cpp:122] Setting up B0_1_SConv_Conv1x1
I0907 09:42:56.433257 81223 net.cpp:129] Top shape: 1 64 32 32 (65536)
I0907 09:42:56.433262 81223 net.cpp:137] Memory required for data: 11022348
I0907 09:42:56.433269 81223 layer_factory.hpp:77] Creating layer B0_1_SConv_ReLU
I0907 09:42:56.433281 81223 net.cpp:84] Creating Layer B0_1_SConv_ReLU
I0907 09:42:56.433286 81223 net.cpp:406] B0_1_SConv_ReLU <- B0_1_SConvBlockV2_Conv1x1
I0907 09:42:56.433291 81223 net.cpp:367] B0_1_SConv_ReLU -> B0_1_SConvBlockV2_Conv1x1 (in-place)
I0907 09:42:56.433298 81223 net.cpp:122] Setting up B0_1_SConv_ReLU
I0907 09:42:56.433302 81223 net.cpp:129] Top shape: 1 64 32 32 (65536)
I0907 09:42:56.433307 81223 net.cpp:137] Memory required for data: 11284492
I0907 09:42:56.433311 81223 layer_factory.hpp:77] Creating layer B0_1_SConv_Dropout
I0907 09:42:56.433316 81223 net.cpp:84] Creating Layer B0_1_SConv_Dropout
I0907 09:42:56.433321 81223 net.cpp:406] B0_1_SConv_Dropout <- B0_1_SConvBlockV2_Conv1x1
I0907 09:42:56.433326 81223 net.cpp:380] B0_1_SConv_Dropout -> B0_1_SConvBlockV2_Dropout
I0907 09:42:56.433346 81223 net.cpp:122] Setting up B0_1_SConv_Dropout
I0907 09:42:56.433351 81223 net.cpp:129] Top shape: 1 64 32 32 (65536)
I0907 09:42:56.433357 81223 net.cpp:137] Memory required for data: 11546636
I0907 09:42:56.433360 81223 layer_factory.hpp:77] Creating layer B0_Pooling
I0907 09:42:56.433365 81223 net.cpp:84] Creating Layer B0_Pooling
I0907 09:42:56.433369 81223 net.cpp:406] B0_Pooling <- B0_1_SConvBlockV2_Dropout
I0907 09:42:56.433375 81223 net.cpp:380] B0_Pooling -> Pooling1
I0907 09:42:56.433398 81223 net.cpp:122] Setting up B0_Pooling
I0907 09:42:56.433404 81223 net.cpp:129] Top shape: 1 64 16 16 (16384)
I0907 09:42:56.433409 81223 net.cpp:137] Memory required for data: 11612172
I0907 09:42:56.433413 81223 layer_factory.hpp:77] Creating layer B1_0_SConv_SparseConv
I0907 09:42:56.433420 81223 net.cpp:84] Creating Layer B1_0_SConv_SparseConv
I0907 09:42:56.433424 81223 net.cpp:406] B1_0_SConv_SparseConv <- Pooling1
I0907 09:42:56.433429 81223 net.cpp:380] B1_0_SConv_SparseConv -> B1_0_SConvBlockV2_T1
I0907 09:42:56.433542 81223 net.cpp:122] Setting up B1_0_SConv_SparseConv
I0907 09:42:56.433549 81223 net.cpp:129] Top shape: 1 768 16 16 (196608)
I0907 09:42:56.433554 81223 net.cpp:137] Memory required for data: 12398604
I0907 09:42:56.433559 81223 layer_factory.hpp:77] Creating layer B1_0_SConv_BN
I0907 09:42:56.433566 81223 net.cpp:84] Creating Layer B1_0_SConv_BN
I0907 09:42:56.433570 81223 net.cpp:406] B1_0_SConv_BN <- B1_0_SConvBlockV2_T1
I0907 09:42:56.433576 81223 net.cpp:367] B1_0_SConv_BN -> B1_0_SConvBlockV2_T1 (in-place)
I0907 09:42:56.433672 81223 net.cpp:122] Setting up B1_0_SConv_BN
I0907 09:42:56.433679 81223 net.cpp:129] Top shape: 1 768 16 16 (196608)
I0907 09:42:56.433684 81223 net.cpp:137] Memory required for data: 13185036
I0907 09:42:56.433691 81223 layer_factory.hpp:77] Creating layer B1_0_SConv_Scale
I0907 09:42:56.433702 81223 net.cpp:84] Creating Layer B1_0_SConv_Scale
I0907 09:42:56.433715 81223 net.cpp:406] B1_0_SConv_Scale <- B1_0_SConvBlockV2_T1
I0907 09:42:56.433722 81223 net.cpp:380] B1_0_SConv_Scale -> B1_0_SConvBlockV2_Scale
I0907 09:42:56.433753 81223 layer_factory.hpp:77] Creating layer B1_0_SConv_Scale
I0907 09:42:56.433830 81223 net.cpp:122] Setting up B1_0_SConv_Scale
I0907 09:42:56.433835 81223 net.cpp:129] Top shape: 1 768 16 16 (196608)
I0907 09:42:56.433841 81223 net.cpp:137] Memory required for data: 13971468
I0907 09:42:56.433846 81223 layer_factory.hpp:77] Creating layer B1_0_SConv_Conv1x1
I0907 09:42:56.433856 81223 net.cpp:84] Creating Layer B1_0_SConv_Conv1x1
I0907 09:42:56.433861 81223 net.cpp:406] B1_0_SConv_Conv1x1 <- B1_0_SConvBlockV2_Scale
I0907 09:42:56.433866 81223 net.cpp:380] B1_0_SConv_Conv1x1 -> B1_0_SConvBlockV2_Conv1x1
I0907 09:42:56.434701 81223 net.cpp:122] Setting up B1_0_SConv_Conv1x1
I0907 09:42:56.434712 81223 net.cpp:129] Top shape: 1 128 16 16 (32768)
I0907 09:42:56.434718 81223 net.cpp:137] Memory required for data: 14102540
I0907 09:42:56.434723 81223 layer_factory.hpp:77] Creating layer B1_0_SConv_ReLU
I0907 09:42:56.434729 81223 net.cpp:84] Creating Layer B1_0_SConv_ReLU
I0907 09:42:56.434734 81223 net.cpp:406] B1_0_SConv_ReLU <- B1_0_SConvBlockV2_Conv1x1
I0907 09:42:56.434739 81223 net.cpp:367] B1_0_SConv_ReLU -> B1_0_SConvBlockV2_Conv1x1 (in-place)
I0907 09:42:56.434746 81223 net.cpp:122] Setting up B1_0_SConv_ReLU
I0907 09:42:56.434749 81223 net.cpp:129] Top shape: 1 128 16 16 (32768)
I0907 09:42:56.434756 81223 net.cpp:137] Memory required for data: 14233612
I0907 09:42:56.434758 81223 layer_factory.hpp:77] Creating layer B1_0_SConv_Dropout
I0907 09:42:56.434767 81223 net.cpp:84] Creating Layer B1_0_SConv_Dropout
I0907 09:42:56.434770 81223 net.cpp:406] B1_0_SConv_Dropout <- B1_0_SConvBlockV2_Conv1x1
I0907 09:42:56.434775 81223 net.cpp:380] B1_0_SConv_Dropout -> B1_0_SConvBlockV2_Dropout
I0907 09:42:56.434800 81223 net.cpp:122] Setting up B1_0_SConv_Dropout
I0907 09:42:56.434806 81223 net.cpp:129] Top shape: 1 128 16 16 (32768)
I0907 09:42:56.434811 81223 net.cpp:137] Memory required for data: 14364684
I0907 09:42:56.434815 81223 layer_factory.hpp:77] Creating layer B1_1_SConv_SparseConv
I0907 09:42:56.434823 81223 net.cpp:84] Creating Layer B1_1_SConv_SparseConv
I0907 09:42:56.434826 81223 net.cpp:406] B1_1_SConv_SparseConv <- B1_0_SConvBlockV2_Dropout
I0907 09:42:56.434834 81223 net.cpp:380] B1_1_SConv_SparseConv -> B1_1_SConvBlockV2_T1
I0907 09:42:56.434994 81223 net.cpp:122] Setting up B1_1_SConv_SparseConv
I0907 09:42:56.435001 81223 net.cpp:129] Top shape: 1 1536 16 16 (393216)
I0907 09:42:56.435006 81223 net.cpp:137] Memory required for data: 15937548
I0907 09:42:56.435012 81223 layer_factory.hpp:77] Creating layer B1_1_SConv_BN
I0907 09:42:56.435020 81223 net.cpp:84] Creating Layer B1_1_SConv_BN
I0907 09:42:56.435024 81223 net.cpp:406] B1_1_SConv_BN <- B1_1_SConvBlockV2_T1
I0907 09:42:56.435030 81223 net.cpp:367] B1_1_SConv_BN -> B1_1_SConvBlockV2_T1 (in-place)
I0907 09:42:56.435107 81223 net.cpp:122] Setting up B1_1_SConv_BN
I0907 09:42:56.435113 81223 net.cpp:129] Top shape: 1 1536 16 16 (393216)
I0907 09:42:56.435119 81223 net.cpp:137] Memory required for data: 17510412
I0907 09:42:56.435125 81223 layer_factory.hpp:77] Creating layer B1_1_SConv_Scale
I0907 09:42:56.435132 81223 net.cpp:84] Creating Layer B1_1_SConv_Scale
I0907 09:42:56.435135 81223 net.cpp:406] B1_1_SConv_Scale <- B1_1_SConvBlockV2_T1
I0907 09:42:56.435142 81223 net.cpp:380] B1_1_SConv_Scale -> B1_1_SConvBlockV2_Scale
I0907 09:42:56.435170 81223 layer_factory.hpp:77] Creating layer B1_1_SConv_Scale
I0907 09:42:56.435230 81223 net.cpp:122] Setting up B1_1_SConv_Scale
I0907 09:42:56.435236 81223 net.cpp:129] Top shape: 1 1536 16 16 (393216)
I0907 09:42:56.435241 81223 net.cpp:137] Memory required for data: 19083276
I0907 09:42:56.435247 81223 layer_factory.hpp:77] Creating layer B1_1_SConv_Conv1x1
I0907 09:42:56.435256 81223 net.cpp:84] Creating Layer B1_1_SConv_Conv1x1
I0907 09:42:56.435261 81223 net.cpp:406] B1_1_SConv_Conv1x1 <- B1_1_SConvBlockV2_Scale
I0907 09:42:56.435277 81223 net.cpp:380] B1_1_SConv_Conv1x1 -> B1_1_SConvBlockV2_Conv1x1
I0907 09:42:56.436379 81223 net.cpp:122] Setting up B1_1_SConv_Conv1x1
I0907 09:42:56.436388 81223 net.cpp:129] Top shape: 1 128 16 16 (32768)
I0907 09:42:56.436393 81223 net.cpp:137] Memory required for data: 19214348
I0907 09:42:56.436399 81223 layer_factory.hpp:77] Creating layer B1_1_SConv_ReLU
I0907 09:42:56.436405 81223 net.cpp:84] Creating Layer B1_1_SConv_ReLU
I0907 09:42:56.436409 81223 net.cpp:406] B1_1_SConv_ReLU <- B1_1_SConvBlockV2_Conv1x1
I0907 09:42:56.436414 81223 net.cpp:367] B1_1_SConv_ReLU -> B1_1_SConvBlockV2_Conv1x1 (in-place)
I0907 09:42:56.436420 81223 net.cpp:122] Setting up B1_1_SConv_ReLU
I0907 09:42:56.436425 81223 net.cpp:129] Top shape: 1 128 16 16 (32768)
I0907 09:42:56.436430 81223 net.cpp:137] Memory required for data: 19345420
I0907 09:42:56.436434 81223 layer_factory.hpp:77] Creating layer B1_1_SConv_Dropout
I0907 09:42:56.436439 81223 net.cpp:84] Creating Layer B1_1_SConv_Dropout
I0907 09:42:56.436444 81223 net.cpp:406] B1_1_SConv_Dropout <- B1_1_SConvBlockV2_Conv1x1
I0907 09:42:56.436451 81223 net.cpp:380] B1_1_SConv_Dropout -> B1_1_SConvBlockV2_Dropout
I0907 09:42:56.436471 81223 net.cpp:122] Setting up B1_1_SConv_Dropout
I0907 09:42:56.436477 81223 net.cpp:129] Top shape: 1 128 16 16 (32768)
I0907 09:42:56.436482 81223 net.cpp:137] Memory required for data: 19476492
I0907 09:42:56.436486 81223 layer_factory.hpp:77] Creating layer B1_Pooling
I0907 09:42:56.436492 81223 net.cpp:84] Creating Layer B1_Pooling
I0907 09:42:56.436497 81223 net.cpp:406] B1_Pooling <- B1_1_SConvBlockV2_Dropout
I0907 09:42:56.436502 81223 net.cpp:380] B1_Pooling -> Pooling2
I0907 09:42:56.436525 81223 net.cpp:122] Setting up B1_Pooling
I0907 09:42:56.436532 81223 net.cpp:129] Top shape: 1 128 8 8 (8192)
I0907 09:42:56.436537 81223 net.cpp:137] Memory required for data: 19509260
I0907 09:42:56.436542 81223 layer_factory.hpp:77] Creating layer B2_0_SConv_SparseConv
I0907 09:42:56.436550 81223 net.cpp:84] Creating Layer B2_0_SConv_SparseConv
I0907 09:42:56.436555 81223 net.cpp:406] B2_0_SConv_SparseConv <- Pooling2
I0907 09:42:56.436560 81223 net.cpp:380] B2_0_SConv_SparseConv -> B2_0_SConvBlockV2_T1
I0907 09:42:56.436739 81223 net.cpp:122] Setting up B2_0_SConv_SparseConv
I0907 09:42:56.436748 81223 net.cpp:129] Top shape: 1 1536 8 8 (98304)
I0907 09:42:56.436753 81223 net.cpp:137] Memory required for data: 19902476
I0907 09:42:56.436758 81223 layer_factory.hpp:77] Creating layer B2_0_SConv_BN
I0907 09:42:56.436769 81223 net.cpp:84] Creating Layer B2_0_SConv_BN
I0907 09:42:56.436772 81223 net.cpp:406] B2_0_SConv_BN <- B2_0_SConvBlockV2_T1
I0907 09:42:56.436779 81223 net.cpp:367] B2_0_SConv_BN -> B2_0_SConvBlockV2_T1 (in-place)
I0907 09:42:56.436878 81223 net.cpp:122] Setting up B2_0_SConv_BN
I0907 09:42:56.436885 81223 net.cpp:129] Top shape: 1 1536 8 8 (98304)
I0907 09:42:56.436892 81223 net.cpp:137] Memory required for data: 20295692
I0907 09:42:56.436900 81223 layer_factory.hpp:77] Creating layer B2_0_SConv_Scale
I0907 09:42:56.436908 81223 net.cpp:84] Creating Layer B2_0_SConv_Scale
I0907 09:42:56.436911 81223 net.cpp:406] B2_0_SConv_Scale <- B2_0_SConvBlockV2_T1
I0907 09:42:56.436916 81223 net.cpp:380] B2_0_SConv_Scale -> B2_0_SConvBlockV2_Scale
I0907 09:42:56.436942 81223 layer_factory.hpp:77] Creating layer B2_0_SConv_Scale
I0907 09:42:56.437001 81223 net.cpp:122] Setting up B2_0_SConv_Scale
I0907 09:42:56.437007 81223 net.cpp:129] Top shape: 1 1536 8 8 (98304)
I0907 09:42:56.437014 81223 net.cpp:137] Memory required for data: 20688908
I0907 09:42:56.437021 81223 layer_factory.hpp:77] Creating layer B2_0_SConv_Conv1x1
I0907 09:42:56.437034 81223 net.cpp:84] Creating Layer B2_0_SConv_Conv1x1
I0907 09:42:56.437039 81223 net.cpp:406] B2_0_SConv_Conv1x1 <- B2_0_SConvBlockV2_Scale
I0907 09:42:56.437045 81223 net.cpp:380] B2_0_SConv_Conv1x1 -> B2_0_SConvBlockV2_Conv1x1
I0907 09:42:56.439539 81223 net.cpp:122] Setting up B2_0_SConv_Conv1x1
I0907 09:42:56.439553 81223 net.cpp:129] Top shape: 1 192 8 8 (12288)
I0907 09:42:56.439564 81223 net.cpp:137] Memory required for data: 20738060
I0907 09:42:56.439576 81223 layer_factory.hpp:77] Creating layer B2_0_SConv_ReLU
I0907 09:42:56.439582 81223 net.cpp:84] Creating Layer B2_0_SConv_ReLU
I0907 09:42:56.439587 81223 net.cpp:406] B2_0_SConv_ReLU <- B2_0_SConvBlockV2_Conv1x1
I0907 09:42:56.439595 81223 net.cpp:367] B2_0_SConv_ReLU -> B2_0_SConvBlockV2_Conv1x1 (in-place)
I0907 09:42:56.439604 81223 net.cpp:122] Setting up B2_0_SConv_ReLU
I0907 09:42:56.439607 81223 net.cpp:129] Top shape: 1 192 8 8 (12288)
I0907 09:42:56.439612 81223 net.cpp:137] Memory required for data: 20787212
I0907 09:42:56.439616 81223 layer_factory.hpp:77] Creating layer B2_0_SConv_Dropout
I0907 09:42:56.439626 81223 net.cpp:84] Creating Layer B2_0_SConv_Dropout
I0907 09:42:56.439630 81223 net.cpp:406] B2_0_SConv_Dropout <- B2_0_SConvBlockV2_Conv1x1
I0907 09:42:56.439636 81223 net.cpp:380] B2_0_SConv_Dropout -> B2_0_SConvBlockV2_Dropout
I0907 09:42:56.439661 81223 net.cpp:122] Setting up B2_0_SConv_Dropout
I0907 09:42:56.439667 81223 net.cpp:129] Top shape: 1 192 8 8 (12288)
I0907 09:42:56.439672 81223 net.cpp:137] Memory required for data: 20836364
I0907 09:42:56.439677 81223 layer_factory.hpp:77] Creating layer B2_1_SConv_SparseConv
I0907 09:42:56.439685 81223 net.cpp:84] Creating Layer B2_1_SConv_SparseConv
I0907 09:42:56.439689 81223 net.cpp:406] B2_1_SConv_SparseConv <- B2_0_SConvBlockV2_Dropout
I0907 09:42:56.439695 81223 net.cpp:380] B2_1_SConv_SparseConv -> B2_1_SConvBlockV2_T1
I0907 09:42:56.439910 81223 net.cpp:122] Setting up B2_1_SConv_SparseConv
I0907 09:42:56.439918 81223 net.cpp:129] Top shape: 1 2304 8 8 (147456)
I0907 09:42:56.439924 81223 net.cpp:137] Memory required for data: 21426188
I0907 09:42:56.439929 81223 layer_factory.hpp:77] Creating layer B2_1_SConv_BN
I0907 09:42:56.439935 81223 net.cpp:84] Creating Layer B2_1_SConv_BN
I0907 09:42:56.439939 81223 net.cpp:406] B2_1_SConv_BN <- B2_1_SConvBlockV2_T1
I0907 09:42:56.439947 81223 net.cpp:367] B2_1_SConv_BN -> B2_1_SConvBlockV2_T1 (in-place)
I0907 09:42:56.440034 81223 net.cpp:122] Setting up B2_1_SConv_BN
I0907 09:42:56.440042 81223 net.cpp:129] Top shape: 1 2304 8 8 (147456)
I0907 09:42:56.440047 81223 net.cpp:137] Memory required for data: 22016012
I0907 09:42:56.440053 81223 layer_factory.hpp:77] Creating layer B2_1_SConv_Scale
I0907 09:42:56.440061 81223 net.cpp:84] Creating Layer B2_1_SConv_Scale
I0907 09:42:56.440065 81223 net.cpp:406] B2_1_SConv_Scale <- B2_1_SConvBlockV2_T1
I0907 09:42:56.440071 81223 net.cpp:380] B2_1_SConv_Scale -> B2_1_SConvBlockV2_Scale
I0907 09:42:56.440096 81223 layer_factory.hpp:77] Creating layer B2_1_SConv_Scale
I0907 09:42:56.440153 81223 net.cpp:122] Setting up B2_1_SConv_Scale
I0907 09:42:56.440160 81223 net.cpp:129] Top shape: 1 2304 8 8 (147456)
I0907 09:42:56.440165 81223 net.cpp:137] Memory required for data: 22605836
I0907 09:42:56.440171 81223 layer_factory.hpp:77] Creating layer B2_1_SConv_Conv1x1
I0907 09:42:56.440181 81223 net.cpp:84] Creating Layer B2_1_SConv_Conv1x1
I0907 09:42:56.440186 81223 net.cpp:406] B2_1_SConv_Conv1x1 <- B2_1_SConvBlockV2_Scale
I0907 09:42:56.440192 81223 net.cpp:380] B2_1_SConv_Conv1x1 -> B2_1_SConvBlockV2_Conv1x1
I0907 09:42:56.443390 81223 net.cpp:122] Setting up B2_1_SConv_Conv1x1
I0907 09:42:56.443403 81223 net.cpp:129] Top shape: 1 192 8 8 (12288)
I0907 09:42:56.443410 81223 net.cpp:137] Memory required for data: 22654988
I0907 09:42:56.443416 81223 layer_factory.hpp:77] Creating layer B2_1_SConv_ReLU
I0907 09:42:56.443424 81223 net.cpp:84] Creating Layer B2_1_SConv_ReLU
I0907 09:42:56.443430 81223 net.cpp:406] B2_1_SConv_ReLU <- B2_1_SConvBlockV2_Conv1x1
I0907 09:42:56.443435 81223 net.cpp:367] B2_1_SConv_ReLU -> B2_1_SConvBlockV2_Conv1x1 (in-place)
I0907 09:42:56.443442 81223 net.cpp:122] Setting up B2_1_SConv_ReLU
I0907 09:42:56.443446 81223 net.cpp:129] Top shape: 1 192 8 8 (12288)
I0907 09:42:56.443451 81223 net.cpp:137] Memory required for data: 22704140
I0907 09:42:56.443455 81223 layer_factory.hpp:77] Creating layer B2_1_SConv_Dropout
I0907 09:42:56.443470 81223 net.cpp:84] Creating Layer B2_1_SConv_Dropout
I0907 09:42:56.443480 81223 net.cpp:406] B2_1_SConv_Dropout <- B2_1_SConvBlockV2_Conv1x1
I0907 09:42:56.443486 81223 net.cpp:380] B2_1_SConv_Dropout -> B2_1_SConvBlockV2_Dropout
I0907 09:42:56.443512 81223 net.cpp:122] Setting up B2_1_SConv_Dropout
I0907 09:42:56.443518 81223 net.cpp:129] Top shape: 1 192 8 8 (12288)
I0907 09:42:56.443523 81223 net.cpp:137] Memory required for data: 22753292
I0907 09:42:56.443527 81223 layer_factory.hpp:77] Creating layer B2_2_SConv_SparseConv
I0907 09:42:56.443534 81223 net.cpp:84] Creating Layer B2_2_SConv_SparseConv
I0907 09:42:56.443538 81223 net.cpp:406] B2_2_SConv_SparseConv <- B2_1_SConvBlockV2_Dropout
I0907 09:42:56.443545 81223 net.cpp:380] B2_2_SConv_SparseConv -> B2_2_SConvBlockV2_T1
I0907 09:42:56.443776 81223 net.cpp:122] Setting up B2_2_SConv_SparseConv
I0907 09:42:56.443784 81223 net.cpp:129] Top shape: 1 2304 8 8 (147456)
I0907 09:42:56.443790 81223 net.cpp:137] Memory required for data: 23343116
I0907 09:42:56.443795 81223 layer_factory.hpp:77] Creating layer B2_2_SConv_BN
I0907 09:42:56.443804 81223 net.cpp:84] Creating Layer B2_2_SConv_BN
I0907 09:42:56.443809 81223 net.cpp:406] B2_2_SConv_BN <- B2_2_SConvBlockV2_T1
I0907 09:42:56.443814 81223 net.cpp:367] B2_2_SConv_BN -> B2_2_SConvBlockV2_T1 (in-place)
I0907 09:42:56.443897 81223 net.cpp:122] Setting up B2_2_SConv_BN
I0907 09:42:56.443903 81223 net.cpp:129] Top shape: 1 2304 8 8 (147456)
I0907 09:42:56.443908 81223 net.cpp:137] Memory required for data: 23932940
I0907 09:42:56.443915 81223 layer_factory.hpp:77] Creating layer B2_2_SConv_Scale
I0907 09:42:56.443922 81223 net.cpp:84] Creating Layer B2_2_SConv_Scale
I0907 09:42:56.443925 81223 net.cpp:406] B2_2_SConv_Scale <- B2_2_SConvBlockV2_T1
I0907 09:42:56.443933 81223 net.cpp:380] B2_2_SConv_Scale -> B2_2_SConvBlockV2_Scale
I0907 09:42:56.443958 81223 layer_factory.hpp:77] Creating layer B2_2_SConv_Scale
I0907 09:42:56.444017 81223 net.cpp:122] Setting up B2_2_SConv_Scale
I0907 09:42:56.444023 81223 net.cpp:129] Top shape: 1 2304 8 8 (147456)
I0907 09:42:56.444028 81223 net.cpp:137] Memory required for data: 24522764
I0907 09:42:56.444034 81223 layer_factory.hpp:77] Creating layer B2_2_SConv_Conv1x1
I0907 09:42:56.444044 81223 net.cpp:84] Creating Layer B2_2_SConv_Conv1x1
I0907 09:42:56.444048 81223 net.cpp:406] B2_2_SConv_Conv1x1 <- B2_2_SConvBlockV2_Scale
I0907 09:42:56.444054 81223 net.cpp:380] B2_2_SConv_Conv1x1 -> B2_2_SConvBlockV2_Conv1x1
I0907 09:42:56.447273 81223 net.cpp:122] Setting up B2_2_SConv_Conv1x1
I0907 09:42:56.447286 81223 net.cpp:129] Top shape: 1 192 8 8 (12288)
I0907 09:42:56.447293 81223 net.cpp:137] Memory required for data: 24571916
I0907 09:42:56.447299 81223 layer_factory.hpp:77] Creating layer B2_2_SConv_ReLU
I0907 09:42:56.447307 81223 net.cpp:84] Creating Layer B2_2_SConv_ReLU
I0907 09:42:56.447312 81223 net.cpp:406] B2_2_SConv_ReLU <- B2_2_SConvBlockV2_Conv1x1
I0907 09:42:56.447319 81223 net.cpp:367] B2_2_SConv_ReLU -> B2_2_SConvBlockV2_Conv1x1 (in-place)
I0907 09:42:56.447325 81223 net.cpp:122] Setting up B2_2_SConv_ReLU
I0907 09:42:56.447329 81223 net.cpp:129] Top shape: 1 192 8 8 (12288)
I0907 09:42:56.447335 81223 net.cpp:137] Memory required for data: 24621068
I0907 09:42:56.447338 81223 layer_factory.hpp:77] Creating layer B2_2_SConv_Dropout
I0907 09:42:56.447345 81223 net.cpp:84] Creating Layer B2_2_SConv_Dropout
I0907 09:42:56.447348 81223 net.cpp:406] B2_2_SConv_Dropout <- B2_2_SConvBlockV2_Conv1x1
I0907 09:42:56.447353 81223 net.cpp:380] B2_2_SConv_Dropout -> B2_2_SConvBlockV2_Dropout
I0907 09:42:56.447379 81223 net.cpp:122] Setting up B2_2_SConv_Dropout
I0907 09:42:56.447386 81223 net.cpp:129] Top shape: 1 192 8 8 (12288)
I0907 09:42:56.447391 81223 net.cpp:137] Memory required for data: 24670220
I0907 09:42:56.447394 81223 layer_factory.hpp:77] Creating layer B2_Pooling
I0907 09:42:56.447402 81223 net.cpp:84] Creating Layer B2_Pooling
I0907 09:42:56.447407 81223 net.cpp:406] B2_Pooling <- B2_2_SConvBlockV2_Dropout
I0907 09:42:56.447412 81223 net.cpp:380] B2_Pooling -> Pooling3
I0907 09:42:56.447448 81223 net.cpp:122] Setting up B2_Pooling
I0907 09:42:56.447455 81223 net.cpp:129] Top shape: 1 192 4 4 (3072)
I0907 09:42:56.447461 81223 net.cpp:137] Memory required for data: 24682508
I0907 09:42:56.447465 81223 layer_factory.hpp:77] Creating layer B3_0_SConv_SparseConv
I0907 09:42:56.447475 81223 net.cpp:84] Creating Layer B3_0_SConv_SparseConv
I0907 09:42:56.447480 81223 net.cpp:406] B3_0_SConv_SparseConv <- Pooling3
I0907 09:42:56.447485 81223 net.cpp:380] B3_0_SConv_SparseConv -> B3_0_SConvBlockV2_T1
I0907 09:42:56.447705 81223 net.cpp:122] Setting up B3_0_SConv_SparseConv
I0907 09:42:56.447712 81223 net.cpp:129] Top shape: 1 2304 4 4 (36864)
I0907 09:42:56.447718 81223 net.cpp:137] Memory required for data: 24829964
I0907 09:42:56.447723 81223 layer_factory.hpp:77] Creating layer B3_0_SConv_BN
I0907 09:42:56.447731 81223 net.cpp:84] Creating Layer B3_0_SConv_BN
I0907 09:42:56.447736 81223 net.cpp:406] B3_0_SConv_BN <- B3_0_SConvBlockV2_T1
I0907 09:42:56.447742 81223 net.cpp:367] B3_0_SConv_BN -> B3_0_SConvBlockV2_T1 (in-place)
I0907 09:42:56.447826 81223 net.cpp:122] Setting up B3_0_SConv_BN
I0907 09:42:56.447832 81223 net.cpp:129] Top shape: 1 2304 4 4 (36864)
I0907 09:42:56.447839 81223 net.cpp:137] Memory required for data: 24977420
I0907 09:42:56.447844 81223 layer_factory.hpp:77] Creating layer B3_0_SConv_Scale
I0907 09:42:56.447850 81223 net.cpp:84] Creating Layer B3_0_SConv_Scale
I0907 09:42:56.447855 81223 net.cpp:406] B3_0_SConv_Scale <- B3_0_SConvBlockV2_T1
I0907 09:42:56.447860 81223 net.cpp:380] B3_0_SConv_Scale -> B3_0_SConvBlockV2_Scale
I0907 09:42:56.447886 81223 layer_factory.hpp:77] Creating layer B3_0_SConv_Scale
I0907 09:42:56.447945 81223 net.cpp:122] Setting up B3_0_SConv_Scale
I0907 09:42:56.447952 81223 net.cpp:129] Top shape: 1 2304 4 4 (36864)
I0907 09:42:56.447957 81223 net.cpp:137] Memory required for data: 25124876
I0907 09:42:56.447963 81223 layer_factory.hpp:77] Creating layer B3_0_SConv_Conv1x1
I0907 09:42:56.447973 81223 net.cpp:84] Creating Layer B3_0_SConv_Conv1x1
I0907 09:42:56.447978 81223 net.cpp:406] B3_0_SConv_Conv1x1 <- B3_0_SConvBlockV2_Scale
I0907 09:42:56.447986 81223 net.cpp:380] B3_0_SConv_Conv1x1 -> B3_0_SConvBlockV2_Conv1x1
I0907 09:42:56.451241 81223 net.cpp:122] Setting up B3_0_SConv_Conv1x1
I0907 09:42:56.451253 81223 net.cpp:129] Top shape: 1 192 4 4 (3072)
I0907 09:42:56.451261 81223 net.cpp:137] Memory required for data: 25137164
I0907 09:42:56.451267 81223 layer_factory.hpp:77] Creating layer B3_0_SConv_ReLU
I0907 09:42:56.451275 81223 net.cpp:84] Creating Layer B3_0_SConv_ReLU
I0907 09:42:56.451280 81223 net.cpp:406] B3_0_SConv_ReLU <- B3_0_SConvBlockV2_Conv1x1
I0907 09:42:56.451285 81223 net.cpp:367] B3_0_SConv_ReLU -> B3_0_SConvBlockV2_Conv1x1 (in-place)
I0907 09:42:56.451293 81223 net.cpp:122] Setting up B3_0_SConv_ReLU
I0907 09:42:56.451297 81223 net.cpp:129] Top shape: 1 192 4 4 (3072)
I0907 09:42:56.451303 81223 net.cpp:137] Memory required for data: 25149452
I0907 09:42:56.451306 81223 layer_factory.hpp:77] Creating layer B3_0_SConv_Dropout
I0907 09:42:56.451313 81223 net.cpp:84] Creating Layer B3_0_SConv_Dropout
I0907 09:42:56.451318 81223 net.cpp:406] B3_0_SConv_Dropout <- B3_0_SConvBlockV2_Conv1x1
I0907 09:42:56.451323 81223 net.cpp:380] B3_0_SConv_Dropout -> B3_0_SConvBlockV2_Dropout
I0907 09:42:56.451349 81223 net.cpp:122] Setting up B3_0_SConv_Dropout
I0907 09:42:56.451355 81223 net.cpp:129] Top shape: 1 192 4 4 (3072)
I0907 09:42:56.451360 81223 net.cpp:137] Memory required for data: 25161740
I0907 09:42:56.451364 81223 layer_factory.hpp:77] Creating layer B3_1_SConv_SparseConv
I0907 09:42:56.451371 81223 net.cpp:84] Creating Layer B3_1_SConv_SparseConv
I0907 09:42:56.451375 81223 net.cpp:406] B3_1_SConv_SparseConv <- B3_0_SConvBlockV2_Dropout
I0907 09:42:56.451383 81223 net.cpp:380] B3_1_SConv_SparseConv -> B3_1_SConvBlockV2_T1
I0907 09:42:56.451597 81223 net.cpp:122] Setting up B3_1_SConv_SparseConv
I0907 09:42:56.451604 81223 net.cpp:129] Top shape: 1 2304 4 4 (36864)
I0907 09:42:56.451614 81223 net.cpp:137] Memory required for data: 25309196
I0907 09:42:56.451627 81223 layer_factory.hpp:77] Creating layer B3_1_SConv_BN
I0907 09:42:56.451634 81223 net.cpp:84] Creating Layer B3_1_SConv_BN
I0907 09:42:56.451639 81223 net.cpp:406] B3_1_SConv_BN <- B3_1_SConvBlockV2_T1
I0907 09:42:56.451645 81223 net.cpp:367] B3_1_SConv_BN -> B3_1_SConvBlockV2_T1 (in-place)
I0907 09:42:56.451726 81223 net.cpp:122] Setting up B3_1_SConv_BN
I0907 09:42:56.451732 81223 net.cpp:129] Top shape: 1 2304 4 4 (36864)
I0907 09:42:56.451738 81223 net.cpp:137] Memory required for data: 25456652
I0907 09:42:56.451750 81223 layer_factory.hpp:77] Creating layer B3_1_SConv_Scale
I0907 09:42:56.451756 81223 net.cpp:84] Creating Layer B3_1_SConv_Scale
I0907 09:42:56.451761 81223 net.cpp:406] B3_1_SConv_Scale <- B3_1_SConvBlockV2_T1
I0907 09:42:56.451766 81223 net.cpp:380] B3_1_SConv_Scale -> B3_1_SConvBlockV2_Scale
I0907 09:42:56.451792 81223 layer_factory.hpp:77] Creating layer B3_1_SConv_Scale
I0907 09:42:56.451849 81223 net.cpp:122] Setting up B3_1_SConv_Scale
I0907 09:42:56.451855 81223 net.cpp:129] Top shape: 1 2304 4 4 (36864)
I0907 09:42:56.451861 81223 net.cpp:137] Memory required for data: 25604108
I0907 09:42:56.451866 81223 layer_factory.hpp:77] Creating layer B3_1_SConv_Conv1x1
I0907 09:42:56.451876 81223 net.cpp:84] Creating Layer B3_1_SConv_Conv1x1
I0907 09:42:56.451881 81223 net.cpp:406] B3_1_SConv_Conv1x1 <- B3_1_SConvBlockV2_Scale
I0907 09:42:56.451887 81223 net.cpp:380] B3_1_SConv_Conv1x1 -> B3_1_SConvBlockV2_Conv1x1
I0907 09:42:56.455111 81223 net.cpp:122] Setting up B3_1_SConv_Conv1x1
I0907 09:42:56.455124 81223 net.cpp:129] Top shape: 1 192 4 4 (3072)
I0907 09:42:56.455132 81223 net.cpp:137] Memory required for data: 25616396
I0907 09:42:56.455137 81223 layer_factory.hpp:77] Creating layer B3_1_SConv_ReLU
I0907 09:42:56.455147 81223 net.cpp:84] Creating Layer B3_1_SConv_ReLU
I0907 09:42:56.455152 81223 net.cpp:406] B3_1_SConv_ReLU <- B3_1_SConvBlockV2_Conv1x1
I0907 09:42:56.455157 81223 net.cpp:367] B3_1_SConv_ReLU -> B3_1_SConvBlockV2_Conv1x1 (in-place)
I0907 09:42:56.455164 81223 net.cpp:122] Setting up B3_1_SConv_ReLU
I0907 09:42:56.455168 81223 net.cpp:129] Top shape: 1 192 4 4 (3072)
I0907 09:42:56.455173 81223 net.cpp:137] Memory required for data: 25628684
I0907 09:42:56.455178 81223 layer_factory.hpp:77] Creating layer B3_1_SConv_Dropout
I0907 09:42:56.455184 81223 net.cpp:84] Creating Layer B3_1_SConv_Dropout
I0907 09:42:56.455189 81223 net.cpp:406] B3_1_SConv_Dropout <- B3_1_SConvBlockV2_Conv1x1
I0907 09:42:56.455194 81223 net.cpp:380] B3_1_SConv_Dropout -> B3_1_SConvBlockV2_Dropout
I0907 09:42:56.455219 81223 net.cpp:122] Setting up B3_1_SConv_Dropout
I0907 09:42:56.455225 81223 net.cpp:129] Top shape: 1 192 4 4 (3072)
I0907 09:42:56.455230 81223 net.cpp:137] Memory required for data: 25640972
I0907 09:42:56.455235 81223 layer_factory.hpp:77] Creating layer B3_2_SConv_SparseConv
I0907 09:42:56.455241 81223 net.cpp:84] Creating Layer B3_2_SConv_SparseConv
I0907 09:42:56.455245 81223 net.cpp:406] B3_2_SConv_SparseConv <- B3_1_SConvBlockV2_Dropout
I0907 09:42:56.455253 81223 net.cpp:380] B3_2_SConv_SparseConv -> B3_2_SConvBlockV2_T1
I0907 09:42:56.455467 81223 net.cpp:122] Setting up B3_2_SConv_SparseConv
I0907 09:42:56.455474 81223 net.cpp:129] Top shape: 1 2304 4 4 (36864)
I0907 09:42:56.455480 81223 net.cpp:137] Memory required for data: 25788428
I0907 09:42:56.455485 81223 layer_factory.hpp:77] Creating layer B3_2_SConv_BN
I0907 09:42:56.455494 81223 net.cpp:84] Creating Layer B3_2_SConv_BN
I0907 09:42:56.455498 81223 net.cpp:406] B3_2_SConv_BN <- B3_2_SConvBlockV2_T1
I0907 09:42:56.455504 81223 net.cpp:367] B3_2_SConv_BN -> B3_2_SConvBlockV2_T1 (in-place)
I0907 09:42:56.455583 81223 net.cpp:122] Setting up B3_2_SConv_BN
I0907 09:42:56.455590 81223 net.cpp:129] Top shape: 1 2304 4 4 (36864)
I0907 09:42:56.455595 81223 net.cpp:137] Memory required for data: 25935884
I0907 09:42:56.455601 81223 layer_factory.hpp:77] Creating layer B3_2_SConv_Scale
I0907 09:42:56.455607 81223 net.cpp:84] Creating Layer B3_2_SConv_Scale
I0907 09:42:56.455616 81223 net.cpp:406] B3_2_SConv_Scale <- B3_2_SConvBlockV2_T1
I0907 09:42:56.455627 81223 net.cpp:380] B3_2_SConv_Scale -> B3_2_SConvBlockV2_Scale
I0907 09:42:56.455652 81223 layer_factory.hpp:77] Creating layer B3_2_SConv_Scale
I0907 09:42:56.455710 81223 net.cpp:122] Setting up B3_2_SConv_Scale
I0907 09:42:56.455718 81223 net.cpp:129] Top shape: 1 2304 4 4 (36864)
I0907 09:42:56.455722 81223 net.cpp:137] Memory required for data: 26083340
I0907 09:42:56.455729 81223 layer_factory.hpp:77] Creating layer B3_2_SConv_Conv1x1
I0907 09:42:56.455737 81223 net.cpp:84] Creating Layer B3_2_SConv_Conv1x1
I0907 09:42:56.455742 81223 net.cpp:406] B3_2_SConv_Conv1x1 <- B3_2_SConvBlockV2_Scale
I0907 09:42:56.455747 81223 net.cpp:380] B3_2_SConv_Conv1x1 -> B3_2_SConvBlockV2_Conv1x1
I0907 09:42:56.459007 81223 net.cpp:122] Setting up B3_2_SConv_Conv1x1
I0907 09:42:56.459020 81223 net.cpp:129] Top shape: 1 192 4 4 (3072)
I0907 09:42:56.459028 81223 net.cpp:137] Memory required for data: 26095628
I0907 09:42:56.459033 81223 layer_factory.hpp:77] Creating layer B3_2_SConv_ReLU
I0907 09:42:56.459039 81223 net.cpp:84] Creating Layer B3_2_SConv_ReLU
I0907 09:42:56.459044 81223 net.cpp:406] B3_2_SConv_ReLU <- B3_2_SConvBlockV2_Conv1x1
I0907 09:42:56.459053 81223 net.cpp:367] B3_2_SConv_ReLU -> B3_2_SConvBlockV2_Conv1x1 (in-place)
I0907 09:42:56.459059 81223 net.cpp:122] Setting up B3_2_SConv_ReLU
I0907 09:42:56.459064 81223 net.cpp:129] Top shape: 1 192 4 4 (3072)
I0907 09:42:56.459069 81223 net.cpp:137] Memory required for data: 26107916
I0907 09:42:56.459074 81223 layer_factory.hpp:77] Creating layer B3_2_SConv_Dropout
I0907 09:42:56.459079 81223 net.cpp:84] Creating Layer B3_2_SConv_Dropout
I0907 09:42:56.459082 81223 net.cpp:406] B3_2_SConv_Dropout <- B3_2_SConvBlockV2_Conv1x1
I0907 09:42:56.459089 81223 net.cpp:380] B3_2_SConv_Dropout -> B3_2_SConvBlockV2_Dropout
I0907 09:42:56.459115 81223 net.cpp:122] Setting up B3_2_SConv_Dropout
I0907 09:42:56.459120 81223 net.cpp:129] Top shape: 1 192 4 4 (3072)
I0907 09:42:56.459125 81223 net.cpp:137] Memory required for data: 26120204
I0907 09:42:56.459129 81223 layer_factory.hpp:77] Creating layer B3_Pooling
I0907 09:42:56.459141 81223 net.cpp:84] Creating Layer B3_Pooling
I0907 09:42:56.459146 81223 net.cpp:406] B3_Pooling <- B3_2_SConvBlockV2_Dropout
I0907 09:42:56.459152 81223 net.cpp:380] B3_Pooling -> Pooling4
I0907 09:42:56.459167 81223 net.cpp:122] Setting up B3_Pooling
I0907 09:42:56.459173 81223 net.cpp:129] Top shape: 1 192 1 1 (192)
I0907 09:42:56.459178 81223 net.cpp:137] Memory required for data: 26120972
I0907 09:42:56.459182 81223 layer_factory.hpp:77] Creating layer fc1
I0907 09:42:56.459192 81223 net.cpp:84] Creating Layer fc1
I0907 09:42:56.459197 81223 net.cpp:406] fc1 <- Pooling4
I0907 09:42:56.459201 81223 net.cpp:380] fc1 -> fc1
I0907 09:42:56.459623 81223 net.cpp:122] Setting up fc1
I0907 09:42:56.459631 81223 net.cpp:129] Top shape: 1 384 (384)
I0907 09:42:56.459635 81223 net.cpp:137] Memory required for data: 26122508
I0907 09:42:56.459641 81223 layer_factory.hpp:77] Creating layer classifier
I0907 09:42:56.459647 81223 net.cpp:84] Creating Layer classifier
I0907 09:42:56.459651 81223 net.cpp:406] classifier <- fc1
I0907 09:42:56.459657 81223 net.cpp:380] classifier -> classifier
I0907 09:42:56.459723 81223 net.cpp:122] Setting up classifier
I0907 09:42:56.459729 81223 net.cpp:129] Top shape: 1 10 (10)
I0907 09:42:56.459734 81223 net.cpp:137] Memory required for data: 26122548
I0907 09:42:56.459739 81223 layer_factory.hpp:77] Creating layer classifier_classifier_0_split
I0907 09:42:56.459746 81223 net.cpp:84] Creating Layer classifier_classifier_0_split
I0907 09:42:56.459750 81223 net.cpp:406] classifier_classifier_0_split <- classifier
I0907 09:42:56.459758 81223 net.cpp:380] classifier_classifier_0_split -> classifier_classifier_0_split_0
I0907 09:42:56.459764 81223 net.cpp:380] classifier_classifier_0_split -> classifier_classifier_0_split_1
I0907 09:42:56.459786 81223 net.cpp:122] Setting up classifier_classifier_0_split
I0907 09:42:56.459797 81223 net.cpp:129] Top shape: 1 10 (10)
I0907 09:42:56.459807 81223 net.cpp:129] Top shape: 1 10 (10)
I0907 09:42:56.459812 81223 net.cpp:137] Memory required for data: 26122628
I0907 09:42:56.459816 81223 layer_factory.hpp:77] Creating layer softmax_loss
I0907 09:42:56.459823 81223 net.cpp:84] Creating Layer softmax_loss
I0907 09:42:56.459827 81223 net.cpp:406] softmax_loss <- classifier_classifier_0_split_0
I0907 09:42:56.459832 81223 net.cpp:406] softmax_loss <- label_InputData_1_split_0
…
