…
I0918 13:32:00.410951 57672 net.cpp:294] The NetState phase (0) differed from the phase (1) specified by a rule in layer accuracy
I0918 13:32:00.410965 57672 net.cpp:51] Initializing net from parameters: 
state {
  phase: TRAIN
  level: 0
  stage: ""
}
layer {
  name: "InputData"
  type: "ImageData"
  top: "data"
  top: "label"
  include {
    phase: TRAIN
  }
  transform_param {
    mirror: true
    crop_size: 32
  }
  image_data_param {
    source: "/home/jcwang/work/1.CIFAR10/train.txt"
    batch_size: 32
    shuffle: true
    is_color: true
  }
}
layer {
  name: "B0_0_ConvBNScaleReLU_Conv"
  type: "Convolution"
  bottom: "data"
  top: "B0_0_ConvBNScaleReLU_Conv"
  convolution_param {
    num_output: 64
    bias_term: false
    pad: 1
    kernel_size: 3
    stride: 1
    weight_filler {
      type: "xavier"
    }
    bias_filler {
      type: "constant"
    }
  }
}
layer {
  name: "B0_0_ConvBNScaleReLU_BN"
  type: "BatchNorm"
  bottom: "B0_0_ConvBNScaleReLU_Conv"
  top: "B0_0_ConvBNScaleReLU_Conv"
  param {
    lr_mult: 0
    decay_mult: 0
  }
  param {
    lr_mult: 0
    decay_mult: 0
  }
  param {
    lr_mult: 0
    decay_mult: 0
  }
  batch_norm_param {
    moving_average_fraction: 0.999
    eps: 0.001
  }
}
layer {
  name: "B0_0_ConvBNScaleReLU_Scale"
  type: "Scale"
  bottom: "B0_0_ConvBNScaleReLU_Conv"
  top: "B0_0_ConvBNScaleReLU_Conv"
  scale_param {
    filler {
      value: 1
    }
    bias_term: true
    bias_filler {
      value: 0
    }
    l1_lambda: 0
  }
}
layer {
  name: "B0_0_ConvBNScaleReLU_ReLU"
  type: "ReLU"
  bottom: "B0_0_ConvBNScaleReLU_Conv"
  top: "B0_0_ConvBNScaleReLU_Conv"
}
layer {
  name: "B0_0_ConvBNScaleReLU_Dropout"
  type: "Dropout"
  bottom: "B0_0_ConvBNScaleReLU_Conv"
  top: "ConvBNScaleReLU"
  dropout_param {
    dropout_ratio: 0.25
  }
}
layer {
  name: "B0_1_SConv_SparseConv"
  type: "SparseConvolution"
  bottom: "ConvBNScaleReLU"
  top: "B0_1_SConvBlockV2_T1"
  sparse_convolution_param {
    weight_filler {
      type: "xavier"
    }
    channel_expand_multiplier: 12
  }
}
layer {
  name: "B0_1_SConv_BN"
  type: "BatchNorm"
  bottom: "B0_1_SConvBlockV2_T1"
  top: "B0_1_SConvBlockV2_T1"
  param {
    lr_mult: 0
    decay_mult: 0
  }
  param {
    lr_mult: 0
    decay_mult: 0
  }
  param {
    lr_mult: 0
    decay_mult: 0
  }
  batch_norm_param {
    moving_average_fraction: 0.999
    eps: 0.001
  }
}
layer {
  name: "B0_1_SConv_Scale"
  type: "Scale"
  bottom: "B0_1_SConvBlockV2_T1"
  top: "B0_1_SConvBlockV2_Scale"
  scale_param {
    bias_term: true
  }
}
layer {
  name: "B0_1_SConv_Conv1x1"
  type: "Convolution"
  bottom: "B0_1_SConvBlockV2_Scale"
  top: "B0_1_SConvBlockV2_Conv1x1"
  convolution_param {
    num_output: 64
    bias_term: true
    pad: 0
    kernel_size: 1
    stride: 1
    weight_filler {
      type: "xavier"
    }
    bias_filler {
      type: "constant"
    }
  }
}
layer {
  name: "B0_1_SConv_ReLU"
  type: "ReLU"
  bottom: "B0_1_SConvBlockV2_Conv1x1"
  top: "B0_1_SConvBlockV2_Conv1x1"
}
layer {
  name: "B0_1_SConv_Dropout"
  type: "Dropout"
  bottom: "B0_1_SConvBlockV2_Conv1x1"
  top: "B0_1_SConvBlockV2_Dropout"
  dropout_param {
    dropout_ratio: 0.25
  }
}
layer {
  name: "B0_Pooling"
  type: "Pooling"
  bottom: "B0_1_SConvBlockV2_Dropout"
  top: "Pooling1"
  pooling_param {
    pool: MAX
    kernel_size: 2
    stride: 2
    pad: 0
  }
}
layer {
  name: "B1_0_SConv_SparseConv"
  type: "SparseConvolution"
  bottom: "Pooling1"
  top: "B1_0_SConvBlockV2_T1"
  sparse_convolution_param {
    weight_filler {
      type: "xavier"
    }
    channel_expand_multiplier: 12
  }
}
layer {
  name: "B1_0_SConv_BN"
  type: "BatchNorm"
  bottom: "B1_0_SConvBlockV2_T1"
  top: "B1_0_SConvBlockV2_T1"
  param {
    lr_mult: 0
    decay_mult: 0
  }
  param {
    lr_mult: 0
    decay_mult: 0
  }
  param {
    lr_mult: 0
    decay_mult: 0
  }
  batch_norm_param {
    moving_average_fraction: 0.999
    eps: 0.001
  }
}
layer {
  name: "B1_0_SConv_Scale"
  type: "Scale"
  bottom: "B1_0_SConvBlockV2_T1"
  top: "B1_0_SConvBlockV2_Scale"
  scale_param {
    bias_term: true
  }
}
layer {
  name: "B1_0_SConv_Conv1x1"
  type: "Convolution"
  bottom: "B1_0_SConvBlockV2_Scale"
  top: "B1_0_SConvBlockV2_Conv1x1"
  convolution_param {
    num_output: 128
    bias_term: true
    pad: 0
    kernel_size: 1
    stride: 1
    weight_filler {
      type: "xavier"
    }
    bias_filler {
      type: "constant"
    }
  }
}
layer {
  name: "B1_0_SConv_ReLU"
  type: "ReLU"
  bottom: "B1_0_SConvBlockV2_Conv1x1"
  top: "B1_0_SConvBlockV2_Conv1x1"
}
layer {
  name: "B1_0_SConv_Dropout"
  type: "Dropout"
  bottom: "B1_0_SConvBlockV2_Conv1x1"
  top: "B1_0_SConvBlockV2_Dropout"
  dropout_param {
    dropout_ratio: 0.25
  }
}
layer {
  name: "B1_1_SConv_SparseConv"
  type: "SparseConvolution"
  bottom: "B1_0_SConvBlockV2_Dropout"
  top: "B1_1_SConvBlockV2_T1"
  sparse_convolution_param {
    weight_filler {
      type: "xavier"
    }
    channel_expand_multiplier: 12
  }
}
layer {
  name: "B1_1_SConv_BN"
  type: "BatchNorm"
  bottom: "B1_1_SConvBlockV2_T1"
  top: "B1_1_SConvBlockV2_T1"
  param {
    lr_mult: 0
    decay_mult: 0
  }
  param {
    lr_mult: 0
    decay_mult: 0
  }
  param {
    lr_mult: 0
    decay_mult: 0
  }
  batch_norm_param {
    moving_average_fraction: 0.999
    eps: 0.001
  }
}
layer {
  name: "B1_1_SConv_Scale"
  type: "Scale"
  bottom: "B1_1_SConvBlockV2_T1"
  top: "B1_1_SConvBlockV2_Scale"
  scale_param {
    bias_term: true
  }
}
layer {
  name: "B1_1_SConv_Conv1x1"
  type: "Convolution"
  bottom: "B1_1_SConvBlockV2_Scale"
  top: "B1_1_SConvBlockV2_Conv1x1"
  convolution_param {
    num_output: 128
    bias_term: true
    pad: 0
    kernel_size: 1
    stride: 1
    weight_filler {
      type: "xavier"
    }
    bias_filler {
      type: "constant"
    }
  }
}
layer {
  name: "B1_1_SConv_ReLU"
  type: "ReLU"
  bottom: "B1_1_SConvBlockV2_Conv1x1"
  top: "B1_1_SConvBlockV2_Conv1x1"
}
layer {
  name: "B1_1_SConv_Dropout"
  type: "Dropout"
  bottom: "B1_1_SConvBlockV2_Conv1x1"
  top: "B1_1_SConvBlockV2_Dropout"
  dropout_param {
    dropout_ratio: 0.25
  }
}
layer {
  name: "B1_Pooling"
  type: "Pooling"
  bottom: "B1_1_SConvBlockV2_Dropout"
  top: "Pooling2"
  pooling_param {
    pool: MAX
    kernel_size: 2
    stride: 2
    pad: 0
  }
}
layer {
  name: "B2_0_SConv_SparseConv"
  type: "SparseConvolution"
  bottom: "Pooling2"
  top: "B2_0_SConvBlockV2_T1"
  sparse_convolution_param {
    weight_filler {
      type: "xavier"
    }
    channel_expand_multiplier: 12
  }
}
layer {
  name: "B2_0_SConv_BN"
  type: "BatchNorm"
  bottom: "B2_0_SConvBlockV2_T1"
  top: "B2_0_SConvBlockV2_T1"
  param {
    lr_mult: 0
    decay_mult: 0
  }
  param {
    lr_mult: 0
    decay_mult: 0
  }
  param {
    lr_mult: 0
    decay_mult: 0
  }
  batch_norm_param {
    moving_average_fraction: 0.999
    eps: 0.001
  }
}
layer {
  name: "B2_0_SConv_Scale"
  type: "Scale"
  bottom: "B2_0_SConvBlockV2_T1"
  top: "B2_0_SConvBlockV2_Scale"
  scale_param {
    bias_term: true
  }
}
layer {
  name: "B2_0_SConv_Conv1x1"
  type: "Convolution"
  bottom: "B2_0_SConvBlockV2_Scale"
  top: "B2_0_SConvBlockV2_Conv1x1"
  convolution_param {
    num_output: 192
    bias_term: true
    pad: 0
    kernel_size: 1
    stride: 1
    weight_filler {
      type: "xavier"
    }
    bias_filler {
      type: "constant"
    }
  }
}
layer {
  name: "B2_0_SConv_ReLU"
  type: "ReLU"
  bottom: "B2_0_SConvBlockV2_Conv1x1"
  top: "B2_0_SConvBlockV2_Conv1x1"
}
layer {
  name: "B2_0_SConv_Dropout"
  type: "Dropout"
  bottom: "B2_0_SConvBlockV2_Conv1x1"
  top: "B2_0_SConvBlockV2_Dropout"
  dropout_param {
    dropout_ratio: 0.25
  }
}
layer {
  name: "B2_1_SConv_SparseConv"
  type: "SparseConvolution"
  bottom: "B2_0_SConvBlockV2_Dropout"
  top: "B2_1_SConvBlockV2_T1"
  sparse_convolution_param {
    weight_filler {
      type: "xavier"
    }
    channel_expand_multiplier: 12
  }
}
layer {
  name: "B2_1_SConv_BN"
  type: "BatchNorm"
  bottom: "B2_1_SConvBlockV2_T1"
  top: "B2_1_SConvBlockV2_T1"
  param {
    lr_mult: 0
    decay_mult: 0
  }
  param {
    lr_mult: 0
    decay_mult: 0
  }
  param {
    lr_mult: 0
    decay_mult: 0
  }
  batch_norm_param {
    moving_average_fraction: 0.999
    eps: 0.001
  }
}
layer {
  name: "B2_1_SConv_Scale"
  type: "Scale"
  bottom: "B2_1_SConvBlockV2_T1"
  top: "B2_1_SConvBlockV2_Scale"
  scale_param {
    bias_term: true
  }
}
layer {
  name: "B2_1_SConv_Conv1x1"
  type: "Convolution"
  bottom: "B2_1_SConvBlockV2_Scale"
  top: "B2_1_SConvBlockV2_Conv1x1"
  convolution_param {
    num_output: 192
    bias_term: true
    pad: 0
    kernel_size: 1
    stride: 1
    weight_filler {
      type: "xavier"
    }
    bias_filler {
      type: "constant"
    }
  }
}
layer {
  name: "B2_1_SConv_ReLU"
  type: "ReLU"
  bottom: "B2_1_SConvBlockV2_Conv1x1"
  top: "B2_1_SConvBlockV2_Conv1x1"
}
layer {
  name: "B2_1_SConv_Dropout"
  type: "Dropout"
  bottom: "B2_1_SConvBlockV2_Conv1x1"
  top: "B2_1_SConvBlockV2_Dropout"
  dropout_param {
    dropout_ratio: 0.25
  }
}
layer {
  name: "B2_2_SConv_SparseConv"
  type: "SparseConvolution"
  bottom: "B2_1_SConvBlockV2_Dropout"
  top: "B2_2_SConvBlockV2_T1"
  sparse_convolution_param {
    weight_filler {
      type: "xavier"
    }
    channel_expand_multiplier: 12
  }
}
layer {
  name: "B2_2_SConv_BN"
  type: "BatchNorm"
  bottom: "B2_2_SConvBlockV2_T1"
  top: "B2_2_SConvBlockV2_T1"
  param {
    lr_mult: 0
    decay_mult: 0
  }
  param {
    lr_mult: 0
    decay_mult: 0
  }
  param {
    lr_mult: 0
    decay_mult: 0
  }
  batch_norm_param {
    moving_average_fraction: 0.999
    eps: 0.001
  }
}
layer {
  name: "B2_2_SConv_Scale"
  type: "Scale"
  bottom: "B2_2_SConvBlockV2_T1"
  top: "B2_2_SConvBlockV2_Scale"
  scale_param {
    bias_term: true
  }
}
layer {
  name: "B2_2_SConv_Conv1x1"
  type: "Convolution"
  bottom: "B2_2_SConvBlockV2_Scale"
  top: "B2_2_SConvBlockV2_Conv1x1"
  convolution_param {
    num_output: 192
    bias_term: true
    pad: 0
    kernel_size: 1
    stride: 1
    weight_filler {
      type: "xavier"
    }
    bias_filler {
      type: "constant"
    }
  }
}
layer {
  name: "B2_2_SConv_ReLU"
  type: "ReLU"
  bottom: "B2_2_SConvBlockV2_Conv1x1"
  top: "B2_2_SConvBlockV2_Conv1x1"
}
layer {
  name: "B2_2_SConv_Dropout"
  type: "Dropout"
  bottom: "B2_2_SConvBlockV2_Conv1x1"
  top: "B2_2_SConvBlockV2_Dropout"
  dropout_param {
    dropout_ratio: 0.25
  }
}
layer {
  name: "B2_Pooling"
  type: "Pooling"
  bottom: "B2_2_SConvBlockV2_Dropout"
  top: "Pooling3"
  pooling_param {
    pool: MAX
    kernel_size: 2
    stride: 2
    pad: 0
  }
}
layer {
  name: "B3_0_SConv_SparseConv"
  type: "SparseConvolution"
  bottom: "Pooling3"
  top: "B3_0_SConvBlockV2_T1"
  sparse_convolution_param {
    weight_filler {
      type: "xavier"
    }
    channel_expand_multiplier: 12
  }
}
layer {
  name: "B3_0_SConv_BN"
  type: "BatchNorm"
  bottom: "B3_0_SConvBlockV2_T1"
  top: "B3_0_SConvBlockV2_T1"
  param {
    lr_mult: 0
    decay_mult: 0
  }
  param {
    lr_mult: 0
    decay_mult: 0
  }
  param {
    lr_mult: 0
    decay_mult: 0
  }
  batch_norm_param {
    moving_average_fraction: 0.999
    eps: 0.001
  }
}
layer {
  name: "B3_0_SConv_Scale"
  type: "Scale"
  bottom: "B3_0_SConvBlockV2_T1"
  top: "B3_0_SConvBlockV2_Scale"
  scale_param {
    bias_term: true
  }
}
layer {
  name: "B3_0_SConv_Conv1x1"
  type: "Convolution"
  bottom: "B3_0_SConvBlockV2_Scale"
  top: "B3_0_SConvBlockV2_Conv1x1"
  convolution_param {
    num_output: 192
    bias_term: true
    pad: 0
    kernel_size: 1
    stride: 1
    weight_filler {
      type: "xavier"
    }
    bias_filler {
      type: "constant"
    }
  }
}
layer {
  name: "B3_0_SConv_ReLU"
  type: "ReLU"
  bottom: "B3_0_SConvBlockV2_Conv1x1"
  top: "B3_0_SConvBlockV2_Conv1x1"
}
layer {
  name: "B3_0_SConv_Dropout"
  type: "Dropout"
  bottom: "B3_0_SConvBlockV2_Conv1x1"
  top: "B3_0_SConvBlockV2_Dropout"
  dropout_param {
    dropout_ratio: 0.25
  }
}
layer {
  name: "B3_1_SConv_SparseConv"
  type: "SparseConvolution"
  bottom: "B3_0_SConvBlockV2_Dropout"
  top: "B3_1_SConvBlockV2_T1"
  sparse_convolution_param {
    weight_filler {
      type: "xavier"
    }
    channel_expand_multiplier: 12
  }
}
layer {
  name: "B3_1_SConv_BN"
  type: "BatchNorm"
  bottom: "B3_1_SConvBlockV2_T1"
  top: "B3_1_SConvBlockV2_T1"
  param {
    lr_mult: 0
    decay_mult: 0
  }
  param {
    lr_mult: 0
    decay_mult: 0
  }
  param {
    lr_mult: 0
    decay_mult: 0
  }
  batch_norm_param {
    moving_average_fraction: 0.999
    eps: 0.001
  }
}
layer {
  name: "B3_1_SConv_Scale"
  type: "Scale"
  bottom: "B3_1_SConvBlockV2_T1"
  top: "B3_1_SConvBlockV2_Scale"
  scale_param {
    bias_term: true
  }
}
layer {
  name: "B3_1_SConv_Conv1x1"
  type: "Convolution"
  bottom: "B3_1_SConvBlockV2_Scale"
  top: "B3_1_SConvBlockV2_Conv1x1"
  convolution_param {
    num_output: 192
    bias_term: true
    pad: 0
    kernel_size: 1
    stride: 1
    weight_filler {
      type: "xavier"
    }
    bias_filler {
      type: "constant"
    }
  }
}
layer {
  name: "B3_1_SConv_ReLU"
  type: "ReLU"
  bottom: "B3_1_SConvBlockV2_Conv1x1"
  top: "B3_1_SConvBlockV2_Conv1x1"
}
layer {
  name: "B3_1_SConv_Dropout"
  type: "Dropout"
  bottom: "B3_1_SConvBlockV2_Conv1x1"
  top: "B3_1_SConvBlockV2_Dropout"
  dropout_param {
    dropout_ratio: 0.25
  }
}
layer {
  name: "B3_2_SConv_SparseConv"
  type: "SparseConvolution"
  bottom: "B3_1_SConvBlockV2_Dropout"
  top: "B3_2_SConvBlockV2_T1"
  sparse_convolution_param {
    weight_filler {
      type: "xavier"
    }
    channel_expand_multiplier: 12
  }
}
layer {
  name: "B3_2_SConv_BN"
  type: "BatchNorm"
  bottom: "B3_2_SConvBlockV2_T1"
  top: "B3_2_SConvBlockV2_T1"
  param {
    lr_mult: 0
    decay_mult: 0
  }
  param {
    lr_mult: 0
    decay_mult: 0
  }
  param {
    lr_mult: 0
    decay_mult: 0
  }
  batch_norm_param {
    moving_average_fraction: 0.999
    eps: 0.001
  }
}
layer {
  name: "B3_2_SConv_Scale"
  type: "Scale"
  bottom: "B3_2_SConvBlockV2_T1"
  top: "B3_2_SConvBlockV2_Scale"
  scale_param {
    bias_term: true
  }
}
layer {
  name: "B3_2_SConv_Conv1x1"
  type: "Convolution"
  bottom: "B3_2_SConvBlockV2_Scale"
  top: "B3_2_SConvBlockV2_Conv1x1"
  convolution_param {
    num_output: 192
    bias_term: true
    pad: 0
    kernel_size: 1
    stride: 1
    weight_filler {
      type: "xavier"
    }
    bias_filler {
      type: "constant"
    }
  }
}
layer {
  name: "B3_2_SConv_ReLU"
  type: "ReLU"
  bottom: "B3_2_SConvBlockV2_Conv1x1"
  top: "B3_2_SConvBlockV2_Conv1x1"
}
layer {
  name: "B3_2_SConv_Dropout"
  type: "Dropout"
  bottom: "B3_2_SConvBlockV2_Conv1x1"
  top: "B3_2_SConvBlockV2_Dropout"
  dropout_param {
    dropout_ratio: 0.25
  }
}
layer {
  name: "B3_Pooling"
  type: "Pooling"
  bottom: "B3_2_SConvBlockV2_Dropout"
  top: "Pooling4"
  pooling_param {
    pool: AVE
    global_pooling: true
  }
}
layer {
  name: "fc1"
  type: "InnerProduct"
  bottom: "Pooling4"
  top: "fc1"
  inner_product_param {
    num_output: 384
    bias_term: true
    weight_filler {
      type: "xavier"
    }
    bias_filler {
      type: "constant"
    }
  }
}
layer {
  name: "classifier"
  type: "InnerProduct"
  bottom: "fc1"
  top: "classifier"
  inner_product_param {
    num_output: 10
    bias_term: true
    weight_filler {
      type: "xavier"
    }
    bias_filler {
      type: "constant"
    }
  }
}
layer {
  name: "softmax_loss"
  type: "SoftmaxWithLoss"
  bottom: "classifier"
  bottom: "label"
  top: "softmax_loss"
}
I0918 13:32:00.411422 57672 layer_factory.hpp:77] Creating layer InputData
I0918 13:32:00.411463 57672 net.cpp:84] Creating Layer InputData
I0918 13:32:00.411473 57672 net.cpp:380] InputData -> data
I0918 13:32:00.411504 57672 net.cpp:380] InputData -> label
I0918 13:32:00.411530 57672 image_data_layer.cpp:38] Opening file /home/jcwang/work/1.CIFAR10/train.txt
I0918 13:32:00.421248 57672 image_data_layer.cpp:53] Shuffling data
I0918 13:32:00.422106 57672 image_data_layer.cpp:63] A total of 50005 images.
I0918 13:32:00.423251 57672 image_data_layer.cpp:90] output data size: 32,3,32,32
I0918 13:32:00.423740 57672 net.cpp:122] Setting up InputData
I0918 13:32:00.423766 57672 net.cpp:129] Top shape: 32 3 32 32 (98304)
I0918 13:32:00.423774 57672 net.cpp:129] Top shape: 32 (32)
I0918 13:32:00.423779 57672 net.cpp:137] Memory required for data: 393344
I0918 13:32:00.423787 57672 layer_factory.hpp:77] Creating layer B0_0_ConvBNScaleReLU_Conv
I0918 13:32:00.423804 57672 net.cpp:84] Creating Layer B0_0_ConvBNScaleReLU_Conv
I0918 13:32:00.423822 57672 net.cpp:406] B0_0_ConvBNScaleReLU_Conv <- data
I0918 13:32:00.423835 57672 net.cpp:380] B0_0_ConvBNScaleReLU_Conv -> B0_0_ConvBNScaleReLU_Conv
I0918 13:32:00.424077 57672 net.cpp:122] Setting up B0_0_ConvBNScaleReLU_Conv
I0918 13:32:00.424086 57672 net.cpp:129] Top shape: 32 64 32 32 (2097152)
I0918 13:32:00.424093 57672 net.cpp:137] Memory required for data: 8781952
I0918 13:32:00.424105 57672 layer_factory.hpp:77] Creating layer B0_0_ConvBNScaleReLU_BN
I0918 13:32:00.424120 57672 net.cpp:84] Creating Layer B0_0_ConvBNScaleReLU_BN
I0918 13:32:00.424126 57672 net.cpp:406] B0_0_ConvBNScaleReLU_BN <- B0_0_ConvBNScaleReLU_Conv
I0918 13:32:00.424132 57672 net.cpp:367] B0_0_ConvBNScaleReLU_BN -> B0_0_ConvBNScaleReLU_Conv (in-place)
I0918 13:32:00.424232 57672 net.cpp:122] Setting up B0_0_ConvBNScaleReLU_BN
I0918 13:32:00.424238 57672 net.cpp:129] Top shape: 32 64 32 32 (2097152)
I0918 13:32:00.424244 57672 net.cpp:137] Memory required for data: 17170560
I0918 13:32:00.424253 57672 layer_factory.hpp:77] Creating layer B0_0_ConvBNScaleReLU_Scale
I0918 13:32:00.424261 57672 net.cpp:84] Creating Layer B0_0_ConvBNScaleReLU_Scale
I0918 13:32:00.424266 57672 net.cpp:406] B0_0_ConvBNScaleReLU_Scale <- B0_0_ConvBNScaleReLU_Conv
I0918 13:32:00.424273 57672 net.cpp:367] B0_0_ConvBNScaleReLU_Scale -> B0_0_ConvBNScaleReLU_Conv (in-place)
I0918 13:32:00.424311 57672 layer_factory.hpp:77] Creating layer B0_0_ConvBNScaleReLU_Scale
I0918 13:32:00.424401 57672 net.cpp:122] Setting up B0_0_ConvBNScaleReLU_Scale
I0918 13:32:00.424408 57672 net.cpp:129] Top shape: 32 64 32 32 (2097152)
I0918 13:32:00.424413 57672 net.cpp:137] Memory required for data: 25559168
I0918 13:32:00.424422 57672 layer_factory.hpp:77] Creating layer B0_0_ConvBNScaleReLU_ReLU
I0918 13:32:00.424430 57672 net.cpp:84] Creating Layer B0_0_ConvBNScaleReLU_ReLU
I0918 13:32:00.424435 57672 net.cpp:406] B0_0_ConvBNScaleReLU_ReLU <- B0_0_ConvBNScaleReLU_Conv
I0918 13:32:00.424441 57672 net.cpp:367] B0_0_ConvBNScaleReLU_ReLU -> B0_0_ConvBNScaleReLU_Conv (in-place)
I0918 13:32:00.424448 57672 net.cpp:122] Setting up B0_0_ConvBNScaleReLU_ReLU
I0918 13:32:00.424453 57672 net.cpp:129] Top shape: 32 64 32 32 (2097152)
I0918 13:32:00.424458 57672 net.cpp:137] Memory required for data: 33947776
I0918 13:32:00.424461 57672 layer_factory.hpp:77] Creating layer B0_0_ConvBNScaleReLU_Dropout
I0918 13:32:00.424471 57672 net.cpp:84] Creating Layer B0_0_ConvBNScaleReLU_Dropout
I0918 13:32:00.424476 57672 net.cpp:406] B0_0_ConvBNScaleReLU_Dropout <- B0_0_ConvBNScaleReLU_Conv
I0918 13:32:00.424482 57672 net.cpp:380] B0_0_ConvBNScaleReLU_Dropout -> ConvBNScaleReLU
I0918 13:32:00.424515 57672 net.cpp:122] Setting up B0_0_ConvBNScaleReLU_Dropout
I0918 13:32:00.424522 57672 net.cpp:129] Top shape: 32 64 32 32 (2097152)
I0918 13:32:00.424527 57672 net.cpp:137] Memory required for data: 42336384
I0918 13:32:00.424532 57672 layer_factory.hpp:77] Creating layer B0_1_SConv_SparseConv
I0918 13:32:00.424548 57672 net.cpp:84] Creating Layer B0_1_SConv_SparseConv
I0918 13:32:00.424559 57672 net.cpp:406] B0_1_SConv_SparseConv <- ConvBNScaleReLU
I0918 13:32:00.424566 57672 net.cpp:380] B0_1_SConv_SparseConv -> B0_1_SConvBlockV2_T1
I0918 13:32:00.424697 57672 net.cpp:122] Setting up B0_1_SConv_SparseConv
I0918 13:32:00.424706 57672 net.cpp:129] Top shape: 32 768 32 32 (25165824)
I0918 13:32:00.424712 57672 net.cpp:137] Memory required for data: 142999680
I0918 13:32:00.424718 57672 layer_factory.hpp:77] Creating layer B0_1_SConv_BN
I0918 13:32:00.424726 57672 net.cpp:84] Creating Layer B0_1_SConv_BN
I0918 13:32:00.424731 57672 net.cpp:406] B0_1_SConv_BN <- B0_1_SConvBlockV2_T1
I0918 13:32:00.424738 57672 net.cpp:367] B0_1_SConv_BN -> B0_1_SConvBlockV2_T1 (in-place)
I0918 13:32:00.424875 57672 net.cpp:122] Setting up B0_1_SConv_BN
I0918 13:32:00.424882 57672 net.cpp:129] Top shape: 32 768 32 32 (25165824)
I0918 13:32:00.424888 57672 net.cpp:137] Memory required for data: 243662976
I0918 13:32:00.424897 57672 layer_factory.hpp:77] Creating layer B0_1_SConv_Scale
I0918 13:32:00.424907 57672 net.cpp:84] Creating Layer B0_1_SConv_Scale
I0918 13:32:00.424912 57672 net.cpp:406] B0_1_SConv_Scale <- B0_1_SConvBlockV2_T1
I0918 13:32:00.424918 57672 net.cpp:380] B0_1_SConv_Scale -> B0_1_SConvBlockV2_Scale
I0918 13:32:00.424948 57672 layer_factory.hpp:77] Creating layer B0_1_SConv_Scale
I0918 13:32:00.425026 57672 net.cpp:122] Setting up B0_1_SConv_Scale
I0918 13:32:00.425033 57672 net.cpp:129] Top shape: 32 768 32 32 (25165824)
I0918 13:32:00.425040 57672 net.cpp:137] Memory required for data: 344326272
I0918 13:32:00.425046 57672 layer_factory.hpp:77] Creating layer B0_1_SConv_Conv1x1
I0918 13:32:00.425061 57672 net.cpp:84] Creating Layer B0_1_SConv_Conv1x1
I0918 13:32:00.425067 57672 net.cpp:406] B0_1_SConv_Conv1x1 <- B0_1_SConvBlockV2_Scale
I0918 13:32:00.425074 57672 net.cpp:380] B0_1_SConv_Conv1x1 -> B0_1_SConvBlockV2_Conv1x1
I0918 13:32:00.425469 57672 net.cpp:122] Setting up B0_1_SConv_Conv1x1
I0918 13:32:00.425479 57672 net.cpp:129] Top shape: 32 64 32 32 (2097152)
I0918 13:32:00.425487 57672 net.cpp:137] Memory required for data: 352714880
I0918 13:32:00.425493 57672 layer_factory.hpp:77] Creating layer B0_1_SConv_ReLU
I0918 13:32:00.425499 57672 net.cpp:84] Creating Layer B0_1_SConv_ReLU
I0918 13:32:00.425504 57672 net.cpp:406] B0_1_SConv_ReLU <- B0_1_SConvBlockV2_Conv1x1
I0918 13:32:00.425511 57672 net.cpp:367] B0_1_SConv_ReLU -> B0_1_SConvBlockV2_Conv1x1 (in-place)
I0918 13:32:00.425518 57672 net.cpp:122] Setting up B0_1_SConv_ReLU
I0918 13:32:00.425523 57672 net.cpp:129] Top shape: 32 64 32 32 (2097152)
I0918 13:32:00.425529 57672 net.cpp:137] Memory required for data: 361103488
I0918 13:32:00.425534 57672 layer_factory.hpp:77] Creating layer B0_1_SConv_Dropout
I0918 13:32:00.425544 57672 net.cpp:84] Creating Layer B0_1_SConv_Dropout
I0918 13:32:00.425549 57672 net.cpp:406] B0_1_SConv_Dropout <- B0_1_SConvBlockV2_Conv1x1
I0918 13:32:00.425554 57672 net.cpp:380] B0_1_SConv_Dropout -> B0_1_SConvBlockV2_Dropout
I0918 13:32:00.425575 57672 net.cpp:122] Setting up B0_1_SConv_Dropout
I0918 13:32:00.425581 57672 net.cpp:129] Top shape: 32 64 32 32 (2097152)
I0918 13:32:00.425587 57672 net.cpp:137] Memory required for data: 369492096
I0918 13:32:00.425592 57672 layer_factory.hpp:77] Creating layer B0_Pooling
I0918 13:32:00.425599 57672 net.cpp:84] Creating Layer B0_Pooling
I0918 13:32:00.425604 57672 net.cpp:406] B0_Pooling <- B0_1_SConvBlockV2_Dropout
I0918 13:32:00.425612 57672 net.cpp:380] B0_Pooling -> Pooling1
I0918 13:32:00.425642 57672 net.cpp:122] Setting up B0_Pooling
I0918 13:32:00.425648 57672 net.cpp:129] Top shape: 32 64 16 16 (524288)
I0918 13:32:00.425657 57672 net.cpp:137] Memory required for data: 371589248
I0918 13:32:00.425662 57672 layer_factory.hpp:77] Creating layer B1_0_SConv_SparseConv
I0918 13:32:00.425670 57672 net.cpp:84] Creating Layer B1_0_SConv_SparseConv
I0918 13:32:00.425675 57672 net.cpp:406] B1_0_SConv_SparseConv <- Pooling1
I0918 13:32:00.425689 57672 net.cpp:380] B1_0_SConv_SparseConv -> B1_0_SConvBlockV2_T1
I0918 13:32:00.425832 57672 net.cpp:122] Setting up B1_0_SConv_SparseConv
I0918 13:32:00.425838 57672 net.cpp:129] Top shape: 32 768 16 16 (6291456)
I0918 13:32:00.425844 57672 net.cpp:137] Memory required for data: 396755072
I0918 13:32:00.425850 57672 layer_factory.hpp:77] Creating layer B1_0_SConv_BN
I0918 13:32:00.425858 57672 net.cpp:84] Creating Layer B1_0_SConv_BN
I0918 13:32:00.425863 57672 net.cpp:406] B1_0_SConv_BN <- B1_0_SConvBlockV2_T1
I0918 13:32:00.425868 57672 net.cpp:367] B1_0_SConv_BN -> B1_0_SConvBlockV2_T1 (in-place)
I0918 13:32:00.425989 57672 net.cpp:122] Setting up B1_0_SConv_BN
I0918 13:32:00.425997 57672 net.cpp:129] Top shape: 32 768 16 16 (6291456)
I0918 13:32:00.426002 57672 net.cpp:137] Memory required for data: 421920896
I0918 13:32:00.426010 57672 layer_factory.hpp:77] Creating layer B1_0_SConv_Scale
I0918 13:32:00.426021 57672 net.cpp:84] Creating Layer B1_0_SConv_Scale
I0918 13:32:00.426026 57672 net.cpp:406] B1_0_SConv_Scale <- B1_0_SConvBlockV2_T1
I0918 13:32:00.426033 57672 net.cpp:380] B1_0_SConv_Scale -> B1_0_SConvBlockV2_Scale
I0918 13:32:00.426064 57672 layer_factory.hpp:77] Creating layer B1_0_SConv_Scale
I0918 13:32:00.426138 57672 net.cpp:122] Setting up B1_0_SConv_Scale
I0918 13:32:00.426146 57672 net.cpp:129] Top shape: 32 768 16 16 (6291456)
I0918 13:32:00.426151 57672 net.cpp:137] Memory required for data: 447086720
I0918 13:32:00.426157 57672 layer_factory.hpp:77] Creating layer B1_0_SConv_Conv1x1
I0918 13:32:00.426169 57672 net.cpp:84] Creating Layer B1_0_SConv_Conv1x1
I0918 13:32:00.426174 57672 net.cpp:406] B1_0_SConv_Conv1x1 <- B1_0_SConvBlockV2_Scale
I0918 13:32:00.426182 57672 net.cpp:380] B1_0_SConv_Conv1x1 -> B1_0_SConvBlockV2_Conv1x1
I0918 13:32:00.427865 57672 net.cpp:122] Setting up B1_0_SConv_Conv1x1
I0918 13:32:00.427878 57672 net.cpp:129] Top shape: 32 128 16 16 (1048576)
I0918 13:32:00.427886 57672 net.cpp:137] Memory required for data: 451281024
I0918 13:32:00.427892 57672 layer_factory.hpp:77] Creating layer B1_0_SConv_ReLU
I0918 13:32:00.427901 57672 net.cpp:84] Creating Layer B1_0_SConv_ReLU
I0918 13:32:00.427906 57672 net.cpp:406] B1_0_SConv_ReLU <- B1_0_SConvBlockV2_Conv1x1
I0918 13:32:00.427913 57672 net.cpp:367] B1_0_SConv_ReLU -> B1_0_SConvBlockV2_Conv1x1 (in-place)
I0918 13:32:00.427920 57672 net.cpp:122] Setting up B1_0_SConv_ReLU
I0918 13:32:00.427924 57672 net.cpp:129] Top shape: 32 128 16 16 (1048576)
I0918 13:32:00.427930 57672 net.cpp:137] Memory required for data: 455475328
I0918 13:32:00.427934 57672 layer_factory.hpp:77] Creating layer B1_0_SConv_Dropout
I0918 13:32:00.427940 57672 net.cpp:84] Creating Layer B1_0_SConv_Dropout
I0918 13:32:00.427945 57672 net.cpp:406] B1_0_SConv_Dropout <- B1_0_SConvBlockV2_Conv1x1
I0918 13:32:00.427953 57672 net.cpp:380] B1_0_SConv_Dropout -> B1_0_SConvBlockV2_Dropout
I0918 13:32:00.427975 57672 net.cpp:122] Setting up B1_0_SConv_Dropout
I0918 13:32:00.427981 57672 net.cpp:129] Top shape: 32 128 16 16 (1048576)
I0918 13:32:00.427986 57672 net.cpp:137] Memory required for data: 459669632
I0918 13:32:00.427991 57672 layer_factory.hpp:77] Creating layer B1_1_SConv_SparseConv
I0918 13:32:00.427999 57672 net.cpp:84] Creating Layer B1_1_SConv_SparseConv
I0918 13:32:00.428004 57672 net.cpp:406] B1_1_SConv_SparseConv <- B1_0_SConvBlockV2_Dropout
I0918 13:32:00.428010 57672 net.cpp:380] B1_1_SConv_SparseConv -> B1_1_SConvBlockV2_T1
I0918 13:32:00.428174 57672 net.cpp:122] Setting up B1_1_SConv_SparseConv
I0918 13:32:00.428181 57672 net.cpp:129] Top shape: 32 1536 16 16 (12582912)
I0918 13:32:00.428187 57672 net.cpp:137] Memory required for data: 510001280
I0918 13:32:00.428193 57672 layer_factory.hpp:77] Creating layer B1_1_SConv_BN
I0918 13:32:00.428202 57672 net.cpp:84] Creating Layer B1_1_SConv_BN
I0918 13:32:00.428207 57672 net.cpp:406] B1_1_SConv_BN <- B1_1_SConvBlockV2_T1
I0918 13:32:00.428212 57672 net.cpp:367] B1_1_SConv_BN -> B1_1_SConvBlockV2_T1 (in-place)
I0918 13:32:00.428297 57672 net.cpp:122] Setting up B1_1_SConv_BN
I0918 13:32:00.428308 57672 net.cpp:129] Top shape: 32 1536 16 16 (12582912)
I0918 13:32:00.428319 57672 net.cpp:137] Memory required for data: 560332928
I0918 13:32:00.428326 57672 layer_factory.hpp:77] Creating layer B1_1_SConv_Scale
I0918 13:32:00.428335 57672 net.cpp:84] Creating Layer B1_1_SConv_Scale
I0918 13:32:00.428340 57672 net.cpp:406] B1_1_SConv_Scale <- B1_1_SConvBlockV2_T1
I0918 13:32:00.428346 57672 net.cpp:380] B1_1_SConv_Scale -> B1_1_SConvBlockV2_Scale
I0918 13:32:00.428372 57672 layer_factory.hpp:77] Creating layer B1_1_SConv_Scale
I0918 13:32:00.428428 57672 net.cpp:122] Setting up B1_1_SConv_Scale
I0918 13:32:00.428436 57672 net.cpp:129] Top shape: 32 1536 16 16 (12582912)
I0918 13:32:00.428440 57672 net.cpp:137] Memory required for data: 610664576
I0918 13:32:00.428447 57672 layer_factory.hpp:77] Creating layer B1_1_SConv_Conv1x1
I0918 13:32:00.428457 57672 net.cpp:84] Creating Layer B1_1_SConv_Conv1x1
I0918 13:32:00.428462 57672 net.cpp:406] B1_1_SConv_Conv1x1 <- B1_1_SConvBlockV2_Scale
I0918 13:32:00.428470 57672 net.cpp:380] B1_1_SConv_Conv1x1 -> B1_1_SConvBlockV2_Conv1x1
I0918 13:32:00.429754 57672 net.cpp:122] Setting up B1_1_SConv_Conv1x1
I0918 13:32:00.429766 57672 net.cpp:129] Top shape: 32 128 16 16 (1048576)
I0918 13:32:00.429772 57672 net.cpp:137] Memory required for data: 614858880
I0918 13:32:00.429780 57672 layer_factory.hpp:77] Creating layer B1_1_SConv_ReLU
I0918 13:32:00.429786 57672 net.cpp:84] Creating Layer B1_1_SConv_ReLU
I0918 13:32:00.429792 57672 net.cpp:406] B1_1_SConv_ReLU <- B1_1_SConvBlockV2_Conv1x1
I0918 13:32:00.429798 57672 net.cpp:367] B1_1_SConv_ReLU -> B1_1_SConvBlockV2_Conv1x1 (in-place)
I0918 13:32:00.429805 57672 net.cpp:122] Setting up B1_1_SConv_ReLU
I0918 13:32:00.429811 57672 net.cpp:129] Top shape: 32 128 16 16 (1048576)
I0918 13:32:00.429817 57672 net.cpp:137] Memory required for data: 619053184
I0918 13:32:00.429822 57672 layer_factory.hpp:77] Creating layer B1_1_SConv_Dropout
I0918 13:32:00.429828 57672 net.cpp:84] Creating Layer B1_1_SConv_Dropout
I0918 13:32:00.429833 57672 net.cpp:406] B1_1_SConv_Dropout <- B1_1_SConvBlockV2_Conv1x1
I0918 13:32:00.429839 57672 net.cpp:380] B1_1_SConv_Dropout -> B1_1_SConvBlockV2_Dropout
I0918 13:32:00.429867 57672 net.cpp:122] Setting up B1_1_SConv_Dropout
I0918 13:32:00.429872 57672 net.cpp:129] Top shape: 32 128 16 16 (1048576)
I0918 13:32:00.429878 57672 net.cpp:137] Memory required for data: 623247488
I0918 13:32:00.429883 57672 layer_factory.hpp:77] Creating layer B1_Pooling
I0918 13:32:00.429890 57672 net.cpp:84] Creating Layer B1_Pooling
I0918 13:32:00.429895 57672 net.cpp:406] B1_Pooling <- B1_1_SConvBlockV2_Dropout
I0918 13:32:00.429901 57672 net.cpp:380] B1_Pooling -> Pooling2
I0918 13:32:00.429926 57672 net.cpp:122] Setting up B1_Pooling
I0918 13:32:00.429932 57672 net.cpp:129] Top shape: 32 128 8 8 (262144)
I0918 13:32:00.429952 57672 net.cpp:137] Memory required for data: 624296064
I0918 13:32:00.429957 57672 layer_factory.hpp:77] Creating layer B2_0_SConv_SparseConv
I0918 13:32:00.429965 57672 net.cpp:84] Creating Layer B2_0_SConv_SparseConv
I0918 13:32:00.429970 57672 net.cpp:406] B2_0_SConv_SparseConv <- Pooling2
I0918 13:32:00.429980 57672 net.cpp:380] B2_0_SConv_SparseConv -> B2_0_SConvBlockV2_T1
I0918 13:32:00.430157 57672 net.cpp:122] Setting up B2_0_SConv_SparseConv
I0918 13:32:00.430164 57672 net.cpp:129] Top shape: 32 1536 8 8 (3145728)
I0918 13:32:00.430171 57672 net.cpp:137] Memory required for data: 636878976
I0918 13:32:00.430188 57672 layer_factory.hpp:77] Creating layer B2_0_SConv_BN
I0918 13:32:00.430195 57672 net.cpp:84] Creating Layer B2_0_SConv_BN
I0918 13:32:00.430200 57672 net.cpp:406] B2_0_SConv_BN <- B2_0_SConvBlockV2_T1
I0918 13:32:00.430207 57672 net.cpp:367] B2_0_SConv_BN -> B2_0_SConvBlockV2_T1 (in-place)
I0918 13:32:00.430303 57672 net.cpp:122] Setting up B2_0_SConv_BN
I0918 13:32:00.430310 57672 net.cpp:129] Top shape: 32 1536 8 8 (3145728)
I0918 13:32:00.430317 57672 net.cpp:137] Memory required for data: 649461888
I0918 13:32:00.430328 57672 layer_factory.hpp:77] Creating layer B2_0_SConv_Scale
I0918 13:32:00.430341 57672 net.cpp:84] Creating Layer B2_0_SConv_Scale
I0918 13:32:00.430351 57672 net.cpp:406] B2_0_SConv_Scale <- B2_0_SConvBlockV2_T1
I0918 13:32:00.430361 57672 net.cpp:380] B2_0_SConv_Scale -> B2_0_SConvBlockV2_Scale
I0918 13:32:00.430390 57672 layer_factory.hpp:77] Creating layer B2_0_SConv_Scale
I0918 13:32:00.430454 57672 net.cpp:122] Setting up B2_0_SConv_Scale
I0918 13:32:00.430460 57672 net.cpp:129] Top shape: 32 1536 8 8 (3145728)
I0918 13:32:00.430469 57672 net.cpp:137] Memory required for data: 662044800
I0918 13:32:00.430475 57672 layer_factory.hpp:77] Creating layer B2_0_SConv_Conv1x1
I0918 13:32:00.430491 57672 net.cpp:84] Creating Layer B2_0_SConv_Conv1x1
I0918 13:32:00.430497 57672 net.cpp:406] B2_0_SConv_Conv1x1 <- B2_0_SConvBlockV2_Scale
I0918 13:32:00.430505 57672 net.cpp:380] B2_0_SConv_Conv1x1 -> B2_0_SConvBlockV2_Conv1x1
I0918 13:32:00.433112 57672 net.cpp:122] Setting up B2_0_SConv_Conv1x1
I0918 13:32:00.433125 57672 net.cpp:129] Top shape: 32 192 8 8 (393216)
I0918 13:32:00.433132 57672 net.cpp:137] Memory required for data: 663617664
I0918 13:32:00.433140 57672 layer_factory.hpp:77] Creating layer B2_0_SConv_ReLU
I0918 13:32:00.433146 57672 net.cpp:84] Creating Layer B2_0_SConv_ReLU
I0918 13:32:00.433151 57672 net.cpp:406] B2_0_SConv_ReLU <- B2_0_SConvBlockV2_Conv1x1
I0918 13:32:00.433161 57672 net.cpp:367] B2_0_SConv_ReLU -> B2_0_SConvBlockV2_Conv1x1 (in-place)
I0918 13:32:00.433168 57672 net.cpp:122] Setting up B2_0_SConv_ReLU
I0918 13:32:00.433172 57672 net.cpp:129] Top shape: 32 192 8 8 (393216)
I0918 13:32:00.433178 57672 net.cpp:137] Memory required for data: 665190528
I0918 13:32:00.433182 57672 layer_factory.hpp:77] Creating layer B2_0_SConv_Dropout
I0918 13:32:00.433188 57672 net.cpp:84] Creating Layer B2_0_SConv_Dropout
I0918 13:32:00.433193 57672 net.cpp:406] B2_0_SConv_Dropout <- B2_0_SConvBlockV2_Conv1x1
I0918 13:32:00.433198 57672 net.cpp:380] B2_0_SConv_Dropout -> B2_0_SConvBlockV2_Dropout
I0918 13:32:00.433224 57672 net.cpp:122] Setting up B2_0_SConv_Dropout
I0918 13:32:00.433230 57672 net.cpp:129] Top shape: 32 192 8 8 (393216)
I0918 13:32:00.433236 57672 net.cpp:137] Memory required for data: 666763392
I0918 13:32:00.433240 57672 layer_factory.hpp:77] Creating layer B2_1_SConv_SparseConv
I0918 13:32:00.433252 57672 net.cpp:84] Creating Layer B2_1_SConv_SparseConv
I0918 13:32:00.433259 57672 net.cpp:406] B2_1_SConv_SparseConv <- B2_0_SConvBlockV2_Dropout
I0918 13:32:00.433265 57672 net.cpp:380] B2_1_SConv_SparseConv -> B2_1_SConvBlockV2_T1
I0918 13:32:00.433504 57672 net.cpp:122] Setting up B2_1_SConv_SparseConv
I0918 13:32:00.433514 57672 net.cpp:129] Top shape: 32 2304 8 8 (4718592)
I0918 13:32:00.433521 57672 net.cpp:137] Memory required for data: 685637760
I0918 13:32:00.433526 57672 layer_factory.hpp:77] Creating layer B2_1_SConv_BN
I0918 13:32:00.433534 57672 net.cpp:84] Creating Layer B2_1_SConv_BN
I0918 13:32:00.433539 57672 net.cpp:406] B2_1_SConv_BN <- B2_1_SConvBlockV2_T1
I0918 13:32:00.433547 57672 net.cpp:367] B2_1_SConv_BN -> B2_1_SConvBlockV2_T1 (in-place)
I0918 13:32:00.433636 57672 net.cpp:122] Setting up B2_1_SConv_BN
I0918 13:32:00.433643 57672 net.cpp:129] Top shape: 32 2304 8 8 (4718592)
I0918 13:32:00.433650 57672 net.cpp:137] Memory required for data: 704512128
I0918 13:32:00.433656 57672 layer_factory.hpp:77] Creating layer B2_1_SConv_Scale
I0918 13:32:00.433667 57672 net.cpp:84] Creating Layer B2_1_SConv_Scale
I0918 13:32:00.433672 57672 net.cpp:406] B2_1_SConv_Scale <- B2_1_SConvBlockV2_T1
I0918 13:32:00.433679 57672 net.cpp:380] B2_1_SConv_Scale -> B2_1_SConvBlockV2_Scale
I0918 13:32:00.433706 57672 layer_factory.hpp:77] Creating layer B2_1_SConv_Scale
I0918 13:32:00.433792 57672 net.cpp:122] Setting up B2_1_SConv_Scale
I0918 13:32:00.433799 57672 net.cpp:129] Top shape: 32 2304 8 8 (4718592)
I0918 13:32:00.433804 57672 net.cpp:137] Memory required for data: 723386496
I0918 13:32:00.433810 57672 layer_factory.hpp:77] Creating layer B2_1_SConv_Conv1x1
I0918 13:32:00.433820 57672 net.cpp:84] Creating Layer B2_1_SConv_Conv1x1
I0918 13:32:00.433832 57672 net.cpp:406] B2_1_SConv_Conv1x1 <- B2_1_SConvBlockV2_Scale
I0918 13:32:00.433847 57672 net.cpp:380] B2_1_SConv_Conv1x1 -> B2_1_SConvBlockV2_Conv1x1
I0918 13:32:00.437237 57672 net.cpp:122] Setting up B2_1_SConv_Conv1x1
I0918 13:32:00.437249 57672 net.cpp:129] Top shape: 32 192 8 8 (393216)
I0918 13:32:00.437256 57672 net.cpp:137] Memory required for data: 724959360
I0918 13:32:00.437263 57672 layer_factory.hpp:77] Creating layer B2_1_SConv_ReLU
I0918 13:32:00.437273 57672 net.cpp:84] Creating Layer B2_1_SConv_ReLU
I0918 13:32:00.437279 57672 net.cpp:406] B2_1_SConv_ReLU <- B2_1_SConvBlockV2_Conv1x1
I0918 13:32:00.437285 57672 net.cpp:367] B2_1_SConv_ReLU -> B2_1_SConvBlockV2_Conv1x1 (in-place)
I0918 13:32:00.437292 57672 net.cpp:122] Setting up B2_1_SConv_ReLU
I0918 13:32:00.437297 57672 net.cpp:129] Top shape: 32 192 8 8 (393216)
I0918 13:32:00.437302 57672 net.cpp:137] Memory required for data: 726532224
I0918 13:32:00.437307 57672 layer_factory.hpp:77] Creating layer B2_1_SConv_Dropout
I0918 13:32:00.437314 57672 net.cpp:84] Creating Layer B2_1_SConv_Dropout
I0918 13:32:00.437319 57672 net.cpp:406] B2_1_SConv_Dropout <- B2_1_SConvBlockV2_Conv1x1
I0918 13:32:00.437325 57672 net.cpp:380] B2_1_SConv_Dropout -> B2_1_SConvBlockV2_Dropout
I0918 13:32:00.437348 57672 net.cpp:122] Setting up B2_1_SConv_Dropout
I0918 13:32:00.437355 57672 net.cpp:129] Top shape: 32 192 8 8 (393216)
I0918 13:32:00.437359 57672 net.cpp:137] Memory required for data: 728105088
I0918 13:32:00.437364 57672 layer_factory.hpp:77] Creating layer B2_2_SConv_SparseConv
I0918 13:32:00.437373 57672 net.cpp:84] Creating Layer B2_2_SConv_SparseConv
I0918 13:32:00.437378 57672 net.cpp:406] B2_2_SConv_SparseConv <- B2_1_SConvBlockV2_Dropout
I0918 13:32:00.437386 57672 net.cpp:380] B2_2_SConv_SparseConv -> B2_2_SConvBlockV2_T1
I0918 13:32:00.437633 57672 net.cpp:122] Setting up B2_2_SConv_SparseConv
I0918 13:32:00.437642 57672 net.cpp:129] Top shape: 32 2304 8 8 (4718592)
I0918 13:32:00.437649 57672 net.cpp:137] Memory required for data: 746979456
I0918 13:32:00.437654 57672 layer_factory.hpp:77] Creating layer B2_2_SConv_BN
I0918 13:32:00.437665 57672 net.cpp:84] Creating Layer B2_2_SConv_BN
I0918 13:32:00.437671 57672 net.cpp:406] B2_2_SConv_BN <- B2_2_SConvBlockV2_T1
I0918 13:32:00.437677 57672 net.cpp:367] B2_2_SConv_BN -> B2_2_SConvBlockV2_T1 (in-place)
I0918 13:32:00.437790 57672 net.cpp:122] Setting up B2_2_SConv_BN
I0918 13:32:00.437798 57672 net.cpp:129] Top shape: 32 2304 8 8 (4718592)
I0918 13:32:00.437803 57672 net.cpp:137] Memory required for data: 765853824
I0918 13:32:00.437810 57672 layer_factory.hpp:77] Creating layer B2_2_SConv_Scale
I0918 13:32:00.437820 57672 net.cpp:84] Creating Layer B2_2_SConv_Scale
I0918 13:32:00.437825 57672 net.cpp:406] B2_2_SConv_Scale <- B2_2_SConvBlockV2_T1
I0918 13:32:00.437831 57672 net.cpp:380] B2_2_SConv_Scale -> B2_2_SConvBlockV2_Scale
I0918 13:32:00.437858 57672 layer_factory.hpp:77] Creating layer B2_2_SConv_Scale
I0918 13:32:00.437920 57672 net.cpp:122] Setting up B2_2_SConv_Scale
I0918 13:32:00.437927 57672 net.cpp:129] Top shape: 32 2304 8 8 (4718592)
I0918 13:32:00.437933 57672 net.cpp:137] Memory required for data: 784728192
I0918 13:32:00.437940 57672 layer_factory.hpp:77] Creating layer B2_2_SConv_Conv1x1
I0918 13:32:00.437952 57672 net.cpp:84] Creating Layer B2_2_SConv_Conv1x1
I0918 13:32:00.437956 57672 net.cpp:406] B2_2_SConv_Conv1x1 <- B2_2_SConvBlockV2_Scale
I0918 13:32:00.437963 57672 net.cpp:380] B2_2_SConv_Conv1x1 -> B2_2_SConvBlockV2_Conv1x1
I0918 13:32:00.441376 57672 net.cpp:122] Setting up B2_2_SConv_Conv1x1
I0918 13:32:00.441390 57672 net.cpp:129] Top shape: 32 192 8 8 (393216)
I0918 13:32:00.441396 57672 net.cpp:137] Memory required for data: 786301056
I0918 13:32:00.441402 57672 layer_factory.hpp:77] Creating layer B2_2_SConv_ReLU
I0918 13:32:00.441412 57672 net.cpp:84] Creating Layer B2_2_SConv_ReLU
I0918 13:32:00.441417 57672 net.cpp:406] B2_2_SConv_ReLU <- B2_2_SConvBlockV2_Conv1x1
I0918 13:32:00.441423 57672 net.cpp:367] B2_2_SConv_ReLU -> B2_2_SConvBlockV2_Conv1x1 (in-place)
I0918 13:32:00.441455 57672 net.cpp:122] Setting up B2_2_SConv_ReLU
I0918 13:32:00.441468 57672 net.cpp:129] Top shape: 32 192 8 8 (393216)
I0918 13:32:00.441474 57672 net.cpp:137] Memory required for data: 787873920
I0918 13:32:00.441479 57672 layer_factory.hpp:77] Creating layer B2_2_SConv_Dropout
I0918 13:32:00.441485 57672 net.cpp:84] Creating Layer B2_2_SConv_Dropout
I0918 13:32:00.441490 57672 net.cpp:406] B2_2_SConv_Dropout <- B2_2_SConvBlockV2_Conv1x1
I0918 13:32:00.441500 57672 net.cpp:380] B2_2_SConv_Dropout -> B2_2_SConvBlockV2_Dropout
I0918 13:32:00.441525 57672 net.cpp:122] Setting up B2_2_SConv_Dropout
I0918 13:32:00.441532 57672 net.cpp:129] Top shape: 32 192 8 8 (393216)
I0918 13:32:00.441538 57672 net.cpp:137] Memory required for data: 789446784
I0918 13:32:00.441543 57672 layer_factory.hpp:77] Creating layer B2_Pooling
I0918 13:32:00.441550 57672 net.cpp:84] Creating Layer B2_Pooling
I0918 13:32:00.441555 57672 net.cpp:406] B2_Pooling <- B2_2_SConvBlockV2_Dropout
I0918 13:32:00.441563 57672 net.cpp:380] B2_Pooling -> Pooling3
I0918 13:32:00.441586 57672 net.cpp:122] Setting up B2_Pooling
I0918 13:32:00.441592 57672 net.cpp:129] Top shape: 32 192 4 4 (98304)
I0918 13:32:00.441598 57672 net.cpp:137] Memory required for data: 789840000
I0918 13:32:00.441603 57672 layer_factory.hpp:77] Creating layer B3_0_SConv_SparseConv
I0918 13:32:00.441612 57672 net.cpp:84] Creating Layer B3_0_SConv_SparseConv
I0918 13:32:00.441617 57672 net.cpp:406] B3_0_SConv_SparseConv <- Pooling3
I0918 13:32:00.441627 57672 net.cpp:380] B3_0_SConv_SparseConv -> B3_0_SConvBlockV2_T1
I0918 13:32:00.441877 57672 net.cpp:122] Setting up B3_0_SConv_SparseConv
I0918 13:32:00.441884 57672 net.cpp:129] Top shape: 32 2304 4 4 (1179648)
I0918 13:32:00.441890 57672 net.cpp:137] Memory required for data: 794558592
I0918 13:32:00.441896 57672 layer_factory.hpp:77] Creating layer B3_0_SConv_BN
I0918 13:32:00.441903 57672 net.cpp:84] Creating Layer B3_0_SConv_BN
I0918 13:32:00.441908 57672 net.cpp:406] B3_0_SConv_BN <- B3_0_SConvBlockV2_T1
I0918 13:32:00.441915 57672 net.cpp:367] B3_0_SConv_BN -> B3_0_SConvBlockV2_T1 (in-place)
I0918 13:32:00.442003 57672 net.cpp:122] Setting up B3_0_SConv_BN
I0918 13:32:00.442010 57672 net.cpp:129] Top shape: 32 2304 4 4 (1179648)
I0918 13:32:00.442016 57672 net.cpp:137] Memory required for data: 799277184
I0918 13:32:00.442023 57672 layer_factory.hpp:77] Creating layer B3_0_SConv_Scale
I0918 13:32:00.442031 57672 net.cpp:84] Creating Layer B3_0_SConv_Scale
I0918 13:32:00.442036 57672 net.cpp:406] B3_0_SConv_Scale <- B3_0_SConvBlockV2_T1
I0918 13:32:00.442042 57672 net.cpp:380] B3_0_SConv_Scale -> B3_0_SConvBlockV2_Scale
I0918 13:32:00.442070 57672 layer_factory.hpp:77] Creating layer B3_0_SConv_Scale
I0918 13:32:00.442127 57672 net.cpp:122] Setting up B3_0_SConv_Scale
I0918 13:32:00.442134 57672 net.cpp:129] Top shape: 32 2304 4 4 (1179648)
I0918 13:32:00.442139 57672 net.cpp:137] Memory required for data: 803995776
I0918 13:32:00.442147 57672 layer_factory.hpp:77] Creating layer B3_0_SConv_Conv1x1
I0918 13:32:00.442157 57672 net.cpp:84] Creating Layer B3_0_SConv_Conv1x1
I0918 13:32:00.442162 57672 net.cpp:406] B3_0_SConv_Conv1x1 <- B3_0_SConvBlockV2_Scale
I0918 13:32:00.442167 57672 net.cpp:380] B3_0_SConv_Conv1x1 -> B3_0_SConvBlockV2_Conv1x1
I0918 13:32:00.445565 57672 net.cpp:122] Setting up B3_0_SConv_Conv1x1
I0918 13:32:00.445580 57672 net.cpp:129] Top shape: 32 192 4 4 (98304)
I0918 13:32:00.445586 57672 net.cpp:137] Memory required for data: 804388992
I0918 13:32:00.445593 57672 layer_factory.hpp:77] Creating layer B3_0_SConv_ReLU
I0918 13:32:00.445603 57672 net.cpp:84] Creating Layer B3_0_SConv_ReLU
I0918 13:32:00.445608 57672 net.cpp:406] B3_0_SConv_ReLU <- B3_0_SConvBlockV2_Conv1x1
I0918 13:32:00.445616 57672 net.cpp:367] B3_0_SConv_ReLU -> B3_0_SConvBlockV2_Conv1x1 (in-place)
I0918 13:32:00.445622 57672 net.cpp:122] Setting up B3_0_SConv_ReLU
I0918 13:32:00.445627 57672 net.cpp:129] Top shape: 32 192 4 4 (98304)
I0918 13:32:00.445632 57672 net.cpp:137] Memory required for data: 804782208
I0918 13:32:00.445642 57672 layer_factory.hpp:77] Creating layer B3_0_SConv_Dropout
I0918 13:32:00.445655 57672 net.cpp:84] Creating Layer B3_0_SConv_Dropout
I0918 13:32:00.445660 57672 net.cpp:406] B3_0_SConv_Dropout <- B3_0_SConvBlockV2_Conv1x1
I0918 13:32:00.445668 57672 net.cpp:380] B3_0_SConv_Dropout -> B3_0_SConvBlockV2_Dropout
I0918 13:32:00.445705 57672 net.cpp:122] Setting up B3_0_SConv_Dropout
I0918 13:32:00.445713 57672 net.cpp:129] Top shape: 32 192 4 4 (98304)
I0918 13:32:00.445717 57672 net.cpp:137] Memory required for data: 805175424
I0918 13:32:00.445722 57672 layer_factory.hpp:77] Creating layer B3_1_SConv_SparseConv
I0918 13:32:00.445729 57672 net.cpp:84] Creating Layer B3_1_SConv_SparseConv
I0918 13:32:00.445734 57672 net.cpp:406] B3_1_SConv_SparseConv <- B3_0_SConvBlockV2_Dropout
I0918 13:32:00.445751 57672 net.cpp:380] B3_1_SConv_SparseConv -> B3_1_SConvBlockV2_T1
I0918 13:32:00.445962 57672 net.cpp:122] Setting up B3_1_SConv_SparseConv
I0918 13:32:00.445969 57672 net.cpp:129] Top shape: 32 2304 4 4 (1179648)
I0918 13:32:00.445974 57672 net.cpp:137] Memory required for data: 809894016
I0918 13:32:00.445981 57672 layer_factory.hpp:77] Creating layer B3_1_SConv_BN
I0918 13:32:00.445986 57672 net.cpp:84] Creating Layer B3_1_SConv_BN
I0918 13:32:00.445991 57672 net.cpp:406] B3_1_SConv_BN <- B3_1_SConvBlockV2_T1
I0918 13:32:00.445999 57672 net.cpp:367] B3_1_SConv_BN -> B3_1_SConvBlockV2_T1 (in-place)
I0918 13:32:00.446084 57672 net.cpp:122] Setting up B3_1_SConv_BN
I0918 13:32:00.446090 57672 net.cpp:129] Top shape: 32 2304 4 4 (1179648)
I0918 13:32:00.446095 57672 net.cpp:137] Memory required for data: 814612608
I0918 13:32:00.446106 57672 layer_factory.hpp:77] Creating layer B3_1_SConv_Scale
I0918 13:32:00.446112 57672 net.cpp:84] Creating Layer B3_1_SConv_Scale
I0918 13:32:00.446117 57672 net.cpp:406] B3_1_SConv_Scale <- B3_1_SConvBlockV2_T1
I0918 13:32:00.446122 57672 net.cpp:380] B3_1_SConv_Scale -> B3_1_SConvBlockV2_Scale
I0918 13:32:00.446149 57672 layer_factory.hpp:77] Creating layer B3_1_SConv_Scale
I0918 13:32:00.446213 57672 net.cpp:122] Setting up B3_1_SConv_Scale
I0918 13:32:00.446219 57672 net.cpp:129] Top shape: 32 2304 4 4 (1179648)
I0918 13:32:00.446224 57672 net.cpp:137] Memory required for data: 819331200
I0918 13:32:00.446230 57672 layer_factory.hpp:77] Creating layer B3_1_SConv_Conv1x1
I0918 13:32:00.446244 57672 net.cpp:84] Creating Layer B3_1_SConv_Conv1x1
I0918 13:32:00.446249 57672 net.cpp:406] B3_1_SConv_Conv1x1 <- B3_1_SConvBlockV2_Scale
I0918 13:32:00.446254 57672 net.cpp:380] B3_1_SConv_Conv1x1 -> B3_1_SConvBlockV2_Conv1x1
I0918 13:32:00.449486 57672 net.cpp:122] Setting up B3_1_SConv_Conv1x1
I0918 13:32:00.449501 57672 net.cpp:129] Top shape: 32 192 4 4 (98304)
I0918 13:32:00.449508 57672 net.cpp:137] Memory required for data: 819724416
I0918 13:32:00.449515 57672 layer_factory.hpp:77] Creating layer B3_1_SConv_ReLU
I0918 13:32:00.449525 57672 net.cpp:84] Creating Layer B3_1_SConv_ReLU
I0918 13:32:00.449532 57672 net.cpp:406] B3_1_SConv_ReLU <- B3_1_SConvBlockV2_Conv1x1
I0918 13:32:00.449537 57672 net.cpp:367] B3_1_SConv_ReLU -> B3_1_SConvBlockV2_Conv1x1 (in-place)
I0918 13:32:00.449545 57672 net.cpp:122] Setting up B3_1_SConv_ReLU
I0918 13:32:00.449550 57672 net.cpp:129] Top shape: 32 192 4 4 (98304)
I0918 13:32:00.449556 57672 net.cpp:137] Memory required for data: 820117632
I0918 13:32:00.449560 57672 layer_factory.hpp:77] Creating layer B3_1_SConv_Dropout
I0918 13:32:00.449569 57672 net.cpp:84] Creating Layer B3_1_SConv_Dropout
I0918 13:32:00.449574 57672 net.cpp:406] B3_1_SConv_Dropout <- B3_1_SConvBlockV2_Conv1x1
I0918 13:32:00.449580 57672 net.cpp:380] B3_1_SConv_Dropout -> B3_1_SConvBlockV2_Dropout
I0918 13:32:00.449607 57672 net.cpp:122] Setting up B3_1_SConv_Dropout
I0918 13:32:00.449613 57672 net.cpp:129] Top shape: 32 192 4 4 (98304)
I0918 13:32:00.449620 57672 net.cpp:137] Memory required for data: 820510848
I0918 13:32:00.449625 57672 layer_factory.hpp:77] Creating layer B3_2_SConv_SparseConv
I0918 13:32:00.449632 57672 net.cpp:84] Creating Layer B3_2_SConv_SparseConv
I0918 13:32:00.449642 57672 net.cpp:406] B3_2_SConv_SparseConv <- B3_1_SConvBlockV2_Dropout
I0918 13:32:00.449657 57672 net.cpp:380] B3_2_SConv_SparseConv -> B3_2_SConvBlockV2_T1
I0918 13:32:00.449980 57672 net.cpp:122] Setting up B3_2_SConv_SparseConv
I0918 13:32:00.449990 57672 net.cpp:129] Top shape: 32 2304 4 4 (1179648)
I0918 13:32:00.449996 57672 net.cpp:137] Memory required for data: 825229440
I0918 13:32:00.450002 57672 layer_factory.hpp:77] Creating layer B3_2_SConv_BN
I0918 13:32:00.450012 57672 net.cpp:84] Creating Layer B3_2_SConv_BN
I0918 13:32:00.450017 57672 net.cpp:406] B3_2_SConv_BN <- B3_2_SConvBlockV2_T1
I0918 13:32:00.450024 57672 net.cpp:367] B3_2_SConv_BN -> B3_2_SConvBlockV2_T1 (in-place)
I0918 13:32:00.450107 57672 net.cpp:122] Setting up B3_2_SConv_BN
I0918 13:32:00.450114 57672 net.cpp:129] Top shape: 32 2304 4 4 (1179648)
I0918 13:32:00.450120 57672 net.cpp:137] Memory required for data: 829948032
I0918 13:32:00.450127 57672 layer_factory.hpp:77] Creating layer B3_2_SConv_Scale
I0918 13:32:00.450134 57672 net.cpp:84] Creating Layer B3_2_SConv_Scale
I0918 13:32:00.450139 57672 net.cpp:406] B3_2_SConv_Scale <- B3_2_SConvBlockV2_T1
I0918 13:32:00.450145 57672 net.cpp:380] B3_2_SConv_Scale -> B3_2_SConvBlockV2_Scale
I0918 13:32:00.450170 57672 layer_factory.hpp:77] Creating layer B3_2_SConv_Scale
I0918 13:32:00.450227 57672 net.cpp:122] Setting up B3_2_SConv_Scale
I0918 13:32:00.450232 57672 net.cpp:129] Top shape: 32 2304 4 4 (1179648)
I0918 13:32:00.450238 57672 net.cpp:137] Memory required for data: 834666624
I0918 13:32:00.450255 57672 layer_factory.hpp:77] Creating layer B3_2_SConv_Conv1x1
I0918 13:32:00.450265 57672 net.cpp:84] Creating Layer B3_2_SConv_Conv1x1
I0918 13:32:00.450269 57672 net.cpp:406] B3_2_SConv_Conv1x1 <- B3_2_SConvBlockV2_Scale
I0918 13:32:00.450275 57672 net.cpp:380] B3_2_SConv_Conv1x1 -> B3_2_SConvBlockV2_Conv1x1
I0918 13:32:00.453460 57672 net.cpp:122] Setting up B3_2_SConv_Conv1x1
I0918 13:32:00.453474 57672 net.cpp:129] Top shape: 32 192 4 4 (98304)
I0918 13:32:00.453480 57672 net.cpp:137] Memory required for data: 835059840
I0918 13:32:00.453487 57672 layer_factory.hpp:77] Creating layer B3_2_SConv_ReLU
I0918 13:32:00.453497 57672 net.cpp:84] Creating Layer B3_2_SConv_ReLU
I0918 13:32:00.453503 57672 net.cpp:406] B3_2_SConv_ReLU <- B3_2_SConvBlockV2_Conv1x1
I0918 13:32:00.453509 57672 net.cpp:367] B3_2_SConv_ReLU -> B3_2_SConvBlockV2_Conv1x1 (in-place)
I0918 13:32:00.453517 57672 net.cpp:122] Setting up B3_2_SConv_ReLU
I0918 13:32:00.453521 57672 net.cpp:129] Top shape: 32 192 4 4 (98304)
I0918 13:32:00.453527 57672 net.cpp:137] Memory required for data: 835453056
I0918 13:32:00.453531 57672 layer_factory.hpp:77] Creating layer B3_2_SConv_Dropout
I0918 13:32:00.453541 57672 net.cpp:84] Creating Layer B3_2_SConv_Dropout
I0918 13:32:00.453544 57672 net.cpp:406] B3_2_SConv_Dropout <- B3_2_SConvBlockV2_Conv1x1
I0918 13:32:00.453552 57672 net.cpp:380] B3_2_SConv_Dropout -> B3_2_SConvBlockV2_Dropout
I0918 13:32:00.453577 57672 net.cpp:122] Setting up B3_2_SConv_Dropout
I0918 13:32:00.453583 57672 net.cpp:129] Top shape: 32 192 4 4 (98304)
I0918 13:32:00.453588 57672 net.cpp:137] Memory required for data: 835846272
I0918 13:32:00.453593 57672 layer_factory.hpp:77] Creating layer B3_Pooling
I0918 13:32:00.453600 57672 net.cpp:84] Creating Layer B3_Pooling
I0918 13:32:00.453605 57672 net.cpp:406] B3_Pooling <- B3_2_SConvBlockV2_Dropout
I0918 13:32:00.453611 57672 net.cpp:380] B3_Pooling -> Pooling4
I0918 13:32:00.453629 57672 net.cpp:122] Setting up B3_Pooling
I0918 13:32:00.453634 57672 net.cpp:129] Top shape: 32 192 1 1 (6144)
I0918 13:32:00.453640 57672 net.cpp:137] Memory required for data: 835870848
I0918 13:32:00.453644 57672 layer_factory.hpp:77] Creating layer fc1
I0918 13:32:00.453660 57672 net.cpp:84] Creating Layer fc1
I0918 13:32:00.453665 57672 net.cpp:406] fc1 <- Pooling4
I0918 13:32:00.453672 57672 net.cpp:380] fc1 -> fc1
I0918 13:32:00.454123 57672 net.cpp:122] Setting up fc1
I0918 13:32:00.454130 57672 net.cpp:129] Top shape: 32 384 (12288)
I0918 13:32:00.454140 57672 net.cpp:137] Memory required for data: 835920000
I0918 13:32:00.454152 57672 layer_factory.hpp:77] Creating layer classifier
I0918 13:32:00.454159 57672 net.cpp:84] Creating Layer classifier
I0918 13:32:00.454164 57672 net.cpp:406] classifier <- fc1
I0918 13:32:00.454170 57672 net.cpp:380] classifier -> classifier
I0918 13:32:00.454234 57672 net.cpp:122] Setting up classifier
I0918 13:32:00.454241 57672 net.cpp:129] Top shape: 32 10 (320)
I0918 13:32:00.454246 57672 net.cpp:137] Memory required for data: 835921280
I0918 13:32:00.454252 57672 layer_factory.hpp:77] Creating layer softmax_loss
I0918 13:32:00.454262 57672 net.cpp:84] Creating Layer softmax_loss
I0918 13:32:00.454267 57672 net.cpp:406] softmax_loss <- classifier
I0918 13:32:00.454272 57672 net.cpp:406] softmax_loss <- label
I0918 13:32:00.454278 57672 net.cpp:380] softmax_loss -> softmax_loss
…
I0918 13:32:00.455217 57672 solver.cpp:172] Creating test net (#0) specified by net file: train_test.pt
I0918 13:32:00.455274 57672 net.cpp:294] The NetState phase (1) differed from the phase (0) specified by a rule in layer InputData
I0918 13:32:00.455302 57672 net.cpp:51] Initializing net from parameters: 
state {
  phase: TEST
}
layer {
  name: "InputData"
  type: "ImageData"
  top: "data"
  top: "label"
  include {
    phase: TEST
  }
  transform_param {
    mirror: true
    crop_size: 32
  }
  image_data_param {
    source: "/home/jcwang/work/1.CIFAR10/test.txt"
    batch_size: 1
    shuffle: true
    is_color: true
  }
}
layer {
  name: "B0_0_ConvBNScaleReLU_Conv"
  type: "Convolution"
  bottom: "data"
  top: "B0_0_ConvBNScaleReLU_Conv"
  convolution_param {
    num_output: 64
    bias_term: false
    pad: 1
    kernel_size: 3
    stride: 1
    weight_filler {
      type: "xavier"
    }
    bias_filler {
      type: "constant"
    }
  }
}
layer {
  name: "B0_0_ConvBNScaleReLU_BN"
  type: "BatchNorm"
  bottom: "B0_0_ConvBNScaleReLU_Conv"
  top: "B0_0_ConvBNScaleReLU_Conv"
  param {
    lr_mult: 0
    decay_mult: 0
  }
  param {
    lr_mult: 0
    decay_mult: 0
  }
  param {
    lr_mult: 0
    decay_mult: 0
  }
  batch_norm_param {
    moving_average_fraction: 0.999
    eps: 0.001
  }
}
layer {
  name: "B0_0_ConvBNScaleReLU_Scale"
  type: "Scale"
  bottom: "B0_0_ConvBNScaleReLU_Conv"
  top: "B0_0_ConvBNScaleReLU_Conv"
  scale_param {
    filler {
      value: 1
    }
    bias_term: true
    bias_filler {
      value: 0
    }
    l1_lambda: 0
  }
}
layer {
  name: "B0_0_ConvBNScaleReLU_ReLU"
  type: "ReLU"
  bottom: "B0_0_ConvBNScaleReLU_Conv"
  top: "B0_0_ConvBNScaleReLU_Conv"
}
layer {
  name: "B0_0_ConvBNScaleReLU_Dropout"
  type: "Dropout"
  bottom: "B0_0_ConvBNScaleReLU_Conv"
  top: "ConvBNScaleReLU"
  dropout_param {
    dropout_ratio: 0.25
  }
}
layer {
  name: "B0_1_SConv_SparseConv"
  type: "SparseConvolution"
  bottom: "ConvBNScaleReLU"
  top: "B0_1_SConvBlockV2_T1"
  sparse_convolution_param {
    weight_filler {
      type: "xavier"
    }
    channel_expand_multiplier: 12
  }
}
layer {
  name: "B0_1_SConv_BN"
  type: "BatchNorm"
  bottom: "B0_1_SConvBlockV2_T1"
  top: "B0_1_SConvBlockV2_T1"
  param {
    lr_mult: 0
    decay_mult: 0
  }
  param {
    lr_mult: 0
    decay_mult: 0
  }
  param {
    lr_mult: 0
    decay_mult: 0
  }
  batch_norm_param {
    moving_average_fraction: 0.999
    eps: 0.001
  }
}
layer {
  name: "B0_1_SConv_Scale"
  type: "Scale"
  bottom: "B0_1_SConvBlockV2_T1"
  top: "B0_1_SConvBlockV2_Scale"
  scale_param {
    bias_term: true
  }
}
layer {
  name: "B0_1_SConv_Conv1x1"
  type: "Convolution"
  bottom: "B0_1_SConvBlockV2_Scale"
  top: "B0_1_SConvBlockV2_Conv1x1"
  convolution_param {
    num_output: 64
    bias_term: true
    pad: 0
    kernel_size: 1
    stride: 1
    weight_filler {
      type: "xavier"
    }
    bias_filler {
      type: "constant"
    }
  }
}
layer {
  name: "B0_1_SConv_ReLU"
  type: "ReLU"
  bottom: "B0_1_SConvBlockV2_Conv1x1"
  top: "B0_1_SConvBlockV2_Conv1x1"
}
layer {
  name: "B0_1_SConv_Dropout"
  type: "Dropout"
  bottom: "B0_1_SConvBlockV2_Conv1x1"
  top: "B0_1_SConvBlockV2_Dropout"
  dropout_param {
    dropout_ratio: 0.25
  }
}
layer {
  name: "B0_Pooling"
  type: "Pooling"
  bottom: "B0_1_SConvBlockV2_Dropout"
  top: "Pooling1"
  pooling_param {
    pool: MAX
    kernel_size: 2
    stride: 2
    pad: 0
  }
}
layer {
  name: "B1_0_SConv_SparseConv"
  type: "SparseConvolution"
  bottom: "Pooling1"
  top: "B1_0_SConvBlockV2_T1"
  sparse_convolution_param {
    weight_filler {
      type: "xavier"
    }
    channel_expand_multiplier: 12
  }
}
layer {
  name: "B1_0_SConv_BN"
  type: "BatchNorm"
  bottom: "B1_0_SConvBlockV2_T1"
  top: "B1_0_SConvBlockV2_T1"
  param {
    lr_mult: 0
    decay_mult: 0
  }
  param {
    lr_mult: 0
    decay_mult: 0
  }
  param {
    lr_mult: 0
    decay_mult: 0
  }
  batch_norm_param {
    moving_average_fraction: 0.999
    eps: 0.001
  }
}
layer {
  name: "B1_0_SConv_Scale"
  type: "Scale"
  bottom: "B1_0_SConvBlockV2_T1"
  top: "B1_0_SConvBlockV2_Scale"
  scale_param {
    bias_term: true
  }
}
layer {
  name: "B1_0_SConv_Conv1x1"
  type: "Convolution"
  bottom: "B1_0_SConvBlockV2_Scale"
  top: "B1_0_SConvBlockV2_Conv1x1"
  convolution_param {
    num_output: 128
    bias_term: true
    pad: 0
    kernel_size: 1
    stride: 1
    weight_filler {
      type: "xavier"
    }
    bias_filler {
      type: "constant"
    }
  }
}
layer {
  name: "B1_0_SConv_ReLU"
  type: "ReLU"
  bottom: "B1_0_SConvBlockV2_Conv1x1"
  top: "B1_0_SConvBlockV2_Conv1x1"
}
layer {
  name: "B1_0_SConv_Dropout"
  type: "Dropout"
  bottom: "B1_0_SConvBlockV2_Conv1x1"
  top: "B1_0_SConvBlockV2_Dropout"
  dropout_param {
    dropout_ratio: 0.25
  }
}
layer {
  name: "B1_1_SConv_SparseConv"
  type: "SparseConvolution"
  bottom: "B1_0_SConvBlockV2_Dropout"
  top: "B1_1_SConvBlockV2_T1"
  sparse_convolution_param {
    weight_filler {
      type: "xavier"
    }
    channel_expand_multiplier: 12
  }
}
layer {
  name: "B1_1_SConv_BN"
  type: "BatchNorm"
  bottom: "B1_1_SConvBlockV2_T1"
  top: "B1_1_SConvBlockV2_T1"
  param {
    lr_mult: 0
    decay_mult: 0
  }
  param {
    lr_mult: 0
    decay_mult: 0
  }
  param {
    lr_mult: 0
    decay_mult: 0
  }
  batch_norm_param {
    moving_average_fraction: 0.999
    eps: 0.001
  }
}
layer {
  name: "B1_1_SConv_Scale"
  type: "Scale"
  bottom: "B1_1_SConvBlockV2_T1"
  top: "B1_1_SConvBlockV2_Scale"
  scale_param {
    bias_term: true
  }
}
layer {
  name: "B1_1_SConv_Conv1x1"
  type: "Convolution"
  bottom: "B1_1_SConvBlockV2_Scale"
  top: "B1_1_SConvBlockV2_Conv1x1"
  convolution_param {
    num_output: 128
    bias_term: true
    pad: 0
    kernel_size: 1
    stride: 1
    weight_filler {
      type: "xavier"
    }
    bias_filler {
      type: "constant"
    }
  }
}
layer {
  name: "B1_1_SConv_ReLU"
  type: "ReLU"
  bottom: "B1_1_SConvBlockV2_Conv1x1"
  top: "B1_1_SConvBlockV2_Conv1x1"
}
layer {
  name: "B1_1_SConv_Dropout"
  type: "Dropout"
  bottom: "B1_1_SConvBlockV2_Conv1x1"
  top: "B1_1_SConvBlockV2_Dropout"
  dropout_param {
    dropout_ratio: 0.25
  }
}
layer {
  name: "B1_Pooling"
  type: "Pooling"
  bottom: "B1_1_SConvBlockV2_Dropout"
  top: "Pooling2"
  pooling_param {
    pool: MAX
    kernel_size: 2
    stride: 2
    pad: 0
  }
}
layer {
  name: "B2_0_SConv_SparseConv"
  type: "SparseConvolution"
  bottom: "Pooling2"
  top: "B2_0_SConvBlockV2_T1"
  sparse_convolution_param {
    weight_filler {
      type: "xavier"
    }
    channel_expand_multiplier: 12
  }
}
layer {
  name: "B2_0_SConv_BN"
  type: "BatchNorm"
  bottom: "B2_0_SConvBlockV2_T1"
  top: "B2_0_SConvBlockV2_T1"
  param {
    lr_mult: 0
    decay_mult: 0
  }
  param {
    lr_mult: 0
    decay_mult: 0
  }
  param {
    lr_mult: 0
    decay_mult: 0
  }
  batch_norm_param {
    moving_average_fraction: 0.999
    eps: 0.001
  }
}
layer {
  name: "B2_0_SConv_Scale"
  type: "Scale"
  bottom: "B2_0_SConvBlockV2_T1"
  top: "B2_0_SConvBlockV2_Scale"
  scale_param {
    bias_term: true
  }
}
layer {
  name: "B2_0_SConv_Conv1x1"
  type: "Convolution"
  bottom: "B2_0_SConvBlockV2_Scale"
  top: "B2_0_SConvBlockV2_Conv1x1"
  convolution_param {
    num_output: 192
    bias_term: true
    pad: 0
    kernel_size: 1
    stride: 1
    weight_filler {
      type: "xavier"
    }
    bias_filler {
      type: "constant"
    }
  }
}
layer {
  name: "B2_0_SConv_ReLU"
  type: "ReLU"
  bottom: "B2_0_SConvBlockV2_Conv1x1"
  top: "B2_0_SConvBlockV2_Conv1x1"
}
layer {
  name: "B2_0_SConv_Dropout"
  type: "Dropout"
  bottom: "B2_0_SConvBlockV2_Conv1x1"
  top: "B2_0_SConvBlockV2_Dropout"
  dropout_param {
    dropout_ratio: 0.25
  }
}
layer {
  name: "B2_1_SConv_SparseConv"
  type: "SparseConvolution"
  bottom: "B2_0_SConvBlockV2_Dropout"
  top: "B2_1_SConvBlockV2_T1"
  sparse_convolution_param {
    weight_filler {
      type: "xavier"
    }
    channel_expand_multiplier: 12
  }
}
layer {
  name: "B2_1_SConv_BN"
  type: "BatchNorm"
  bottom: "B2_1_SConvBlockV2_T1"
  top: "B2_1_SConvBlockV2_T1"
  param {
    lr_mult: 0
    decay_mult: 0
  }
  param {
    lr_mult: 0
    decay_mult: 0
  }
  param {
    lr_mult: 0
    decay_mult: 0
  }
  batch_norm_param {
    moving_average_fraction: 0.999
    eps: 0.001
  }
}
layer {
  name: "B2_1_SConv_Scale"
  type: "Scale"
  bottom: "B2_1_SConvBlockV2_T1"
  top: "B2_1_SConvBlockV2_Scale"
  scale_param {
    bias_term: true
  }
}
layer {
  name: "B2_1_SConv_Conv1x1"
  type: "Convolution"
  bottom: "B2_1_SConvBlockV2_Scale"
  top: "B2_1_SConvBlockV2_Conv1x1"
  convolution_param {
    num_output: 192
    bias_term: true
    pad: 0
    kernel_size: 1
    stride: 1
    weight_filler {
      type: "xavier"
    }
    bias_filler {
      type: "constant"
    }
  }
}
layer {
  name: "B2_1_SConv_ReLU"
  type: "ReLU"
  bottom: "B2_1_SConvBlockV2_Conv1x1"
  top: "B2_1_SConvBlockV2_Conv1x1"
}
layer {
  name: "B2_1_SConv_Dropout"
  type: "Dropout"
  bottom: "B2_1_SConvBlockV2_Conv1x1"
  top: "B2_1_SConvBlockV2_Dropout"
  dropout_param {
    dropout_ratio: 0.25
  }
}
layer {
  name: "B2_2_SConv_SparseConv"
  type: "SparseConvolution"
  bottom: "B2_1_SConvBlockV2_Dropout"
  top: "B2_2_SConvBlockV2_T1"
  sparse_convolution_param {
    weight_filler {
      type: "xavier"
    }
    channel_expand_multiplier: 12
  }
}
layer {
  name: "B2_2_SConv_BN"
  type: "BatchNorm"
  bottom: "B2_2_SConvBlockV2_T1"
  top: "B2_2_SConvBlockV2_T1"
  param {
    lr_mult: 0
    decay_mult: 0
  }
  param {
    lr_mult: 0
    decay_mult: 0
  }
  param {
    lr_mult: 0
    decay_mult: 0
  }
  batch_norm_param {
    moving_average_fraction: 0.999
    eps: 0.001
  }
}
layer {
  name: "B2_2_SConv_Scale"
  type: "Scale"
  bottom: "B2_2_SConvBlockV2_T1"
  top: "B2_2_SConvBlockV2_Scale"
  scale_param {
    bias_term: true
  }
}
layer {
  name: "B2_2_SConv_Conv1x1"
  type: "Convolution"
  bottom: "B2_2_SConvBlockV2_Scale"
  top: "B2_2_SConvBlockV2_Conv1x1"
  convolution_param {
    num_output: 192
    bias_term: true
    pad: 0
    kernel_size: 1
    stride: 1
    weight_filler {
      type: "xavier"
    }
    bias_filler {
      type: "constant"
    }
  }
}
layer {
  name: "B2_2_SConv_ReLU"
  type: "ReLU"
  bottom: "B2_2_SConvBlockV2_Conv1x1"
  top: "B2_2_SConvBlockV2_Conv1x1"
}
layer {
  name: "B2_2_SConv_Dropout"
  type: "Dropout"
  bottom: "B2_2_SConvBlockV2_Conv1x1"
  top: "B2_2_SConvBlockV2_Dropout"
  dropout_param {
    dropout_ratio: 0.25
  }
}
layer {
  name: "B2_Pooling"
  type: "Pooling"
  bottom: "B2_2_SConvBlockV2_Dropout"
  top: "Pooling3"
  pooling_param {
    pool: MAX
    kernel_size: 2
    stride: 2
    pad: 0
  }
}
layer {
  name: "B3_0_SConv_SparseConv"
  type: "SparseConvolution"
  bottom: "Pooling3"
  top: "B3_0_SConvBlockV2_T1"
  sparse_convolution_param {
    weight_filler {
      type: "xavier"
    }
    channel_expand_multiplier: 12
  }
}
layer {
  name: "B3_0_SConv_BN"
  type: "BatchNorm"
  bottom: "B3_0_SConvBlockV2_T1"
  top: "B3_0_SConvBlockV2_T1"
  param {
    lr_mult: 0
    decay_mult: 0
  }
  param {
    lr_mult: 0
    decay_mult: 0
  }
  param {
    lr_mult: 0
    decay_mult: 0
  }
  batch_norm_param {
    moving_average_fraction: 0.999
    eps: 0.001
  }
}
layer {
  name: "B3_0_SConv_Scale"
  type: "Scale"
  bottom: "B3_0_SConvBlockV2_T1"
  top: "B3_0_SConvBlockV2_Scale"
  scale_param {
    bias_term: true
  }
}
layer {
  name: "B3_0_SConv_Conv1x1"
  type: "Convolution"
  bottom: "B3_0_SConvBlockV2_Scale"
  top: "B3_0_SConvBlockV2_Conv1x1"
  convolution_param {
    num_output: 192
    bias_term: true
    pad: 0
    kernel_size: 1
    stride: 1
    weight_filler {
      type: "xavier"
    }
    bias_filler {
      type: "constant"
    }
  }
}
layer {
  name: "B3_0_SConv_ReLU"
  type: "ReLU"
  bottom: "B3_0_SConvBlockV2_Conv1x1"
  top: "B3_0_SConvBlockV2_Conv1x1"
}
layer {
  name: "B3_0_SConv_Dropout"
  type: "Dropout"
  bottom: "B3_0_SConvBlockV2_Conv1x1"
  top: "B3_0_SConvBlockV2_Dropout"
  dropout_param {
    dropout_ratio: 0.25
  }
}
layer {
  name: "B3_1_SConv_SparseConv"
  type: "SparseConvolution"
  bottom: "B3_0_SConvBlockV2_Dropout"
  top: "B3_1_SConvBlockV2_T1"
  sparse_convolution_param {
    weight_filler {
      type: "xavier"
    }
    channel_expand_multiplier: 12
  }
}
layer {
  name: "B3_1_SConv_BN"
  type: "BatchNorm"
  bottom: "B3_1_SConvBlockV2_T1"
  top: "B3_1_SConvBlockV2_T1"
  param {
    lr_mult: 0
    decay_mult: 0
  }
  param {
    lr_mult: 0
    decay_mult: 0
  }
  param {
    lr_mult: 0
    decay_mult: 0
  }
  batch_norm_param {
    moving_average_fraction: 0.999
    eps: 0.001
  }
}
layer {
  name: "B3_1_SConv_Scale"
  type: "Scale"
  bottom: "B3_1_SConvBlockV2_T1"
  top: "B3_1_SConvBlockV2_Scale"
  scale_param {
    bias_term: true
  }
}
layer {
  name: "B3_1_SConv_Conv1x1"
  type: "Convolution"
  bottom: "B3_1_SConvBlockV2_Scale"
  top: "B3_1_SConvBlockV2_Conv1x1"
  convolution_param {
    num_output: 192
    bias_term: true
    pad: 0
    kernel_size: 1
    stride: 1
    weight_filler {
      type: "xavier"
    }
    bias_filler {
      type: "constant"
    }
  }
}
layer {
  name: "B3_1_SConv_ReLU"
  type: "ReLU"
  bottom: "B3_1_SConvBlockV2_Conv1x1"
  top: "B3_1_SConvBlockV2_Conv1x1"
}
layer {
  name: "B3_1_SConv_Dropout"
  type: "Dropout"
  bottom: "B3_1_SConvBlockV2_Conv1x1"
  top: "B3_1_SConvBlockV2_Dropout"
  dropout_param {
    dropout_ratio: 0.25
  }
}
layer {
  name: "B3_2_SConv_SparseConv"
  type: "SparseConvolution"
  bottom: "B3_1_SConvBlockV2_Dropout"
  top: "B3_2_SConvBlockV2_T1"
  sparse_convolution_param {
    weight_filler {
      type: "xavier"
    }
    channel_expand_multiplier: 12
  }
}
layer {
  name: "B3_2_SConv_BN"
  type: "BatchNorm"
  bottom: "B3_2_SConvBlockV2_T1"
  top: "B3_2_SConvBlockV2_T1"
  param {
    lr_mult: 0
    decay_mult: 0
  }
  param {
    lr_mult: 0
    decay_mult: 0
  }
  param {
    lr_mult: 0
    decay_mult: 0
  }
  batch_norm_param {
    moving_average_fraction: 0.999
    eps: 0.001
  }
}
layer {
  name: "B3_2_SConv_Scale"
  type: "Scale"
  bottom: "B3_2_SConvBlockV2_T1"
  top: "B3_2_SConvBlockV2_Scale"
  scale_param {
    bias_term: true
  }
}
layer {
  name: "B3_2_SConv_Conv1x1"
  type: "Convolution"
  bottom: "B3_2_SConvBlockV2_Scale"
  top: "B3_2_SConvBlockV2_Conv1x1"
  convolution_param {
    num_output: 192
    bias_term: true
    pad: 0
    kernel_size: 1
    stride: 1
    weight_filler {
      type: "xavier"
    }
    bias_filler {
      type: "constant"
    }
  }
}
layer {
  name: "B3_2_SConv_ReLU"
  type: "ReLU"
  bottom: "B3_2_SConvBlockV2_Conv1x1"
  top: "B3_2_SConvBlockV2_Conv1x1"
}
layer {
  name: "B3_2_SConv_Dropout"
  type: "Dropout"
  bottom: "B3_2_SConvBlockV2_Conv1x1"
  top: "B3_2_SConvBlockV2_Dropout"
  dropout_param {
    dropout_ratio: 0.25
  }
}
layer {
  name: "B3_Pooling"
  type: "Pooling"
  bottom: "B3_2_SConvBlockV2_Dropout"
  top: "Pooling4"
  pooling_param {
    pool: AVE
    global_pooling: true
  }
}
layer {
  name: "fc1"
  type: "InnerProduct"
  bottom: "Pooling4"
  top: "fc1"
  inner_product_param {
    num_output: 384
    bias_term: true
    weight_filler {
      type: "xavier"
    }
    bias_filler {
      type: "constant"
    }
  }
}
layer {
  name: "classifier"
  type: "InnerProduct"
  bottom: "fc1"
  top: "classifier"
  inner_product_param {
    num_output: 10
    bias_term: true
    weight_filler {
      type: "xavier"
    }
    bias_filler {
      type: "constant"
    }
  }
}
layer {
  name: "softmax_loss"
  type: "SoftmaxWithLoss"
  bottom: "classifier"
  bottom: "label"
  top: "softmax_loss"
}
layer {
  name: "accuracy"
  type: "Accuracy"
  bottom: "classifier"
  bottom: "label"
  top: "accuracy"
  include {
    phase: TEST
  }
}
I0918 13:32:00.455731 57672 layer_factory.hpp:77] Creating layer InputData
I0918 13:32:00.455745 57672 net.cpp:84] Creating Layer InputData
I0918 13:32:00.455752 57672 net.cpp:380] InputData -> data
I0918 13:32:00.455761 57672 net.cpp:380] InputData -> label
I0918 13:32:00.455773 57672 image_data_layer.cpp:38] Opening file /home/jcwang/work/1.CIFAR10/test.txt
I0918 13:32:00.457803 57672 image_data_layer.cpp:53] Shuffling data
I0918 13:32:00.457978 57672 image_data_layer.cpp:63] A total of 10001 images.
I0918 13:32:00.458063 57672 image_data_layer.cpp:90] output data size: 1,3,32,32
I0918 13:32:00.458314 57672 net.cpp:122] Setting up InputData
I0918 13:32:00.458338 57672 net.cpp:129] Top shape: 1 3 32 32 (3072)
I0918 13:32:00.458346 57672 net.cpp:129] Top shape: 1 (1)
I0918 13:32:00.458351 57672 net.cpp:137] Memory required for data: 12292
I0918 13:32:00.458357 57672 layer_factory.hpp:77] Creating layer label_InputData_1_split
I0918 13:32:00.458366 57672 net.cpp:84] Creating Layer label_InputData_1_split
I0918 13:32:00.458371 57672 net.cpp:406] label_InputData_1_split <- label
I0918 13:32:00.458379 57672 net.cpp:380] label_InputData_1_split -> label_InputData_1_split_0
I0918 13:32:00.458389 57672 net.cpp:380] label_InputData_1_split -> label_InputData_1_split_1
I0918 13:32:00.458416 57672 net.cpp:122] Setting up label_InputData_1_split
I0918 13:32:00.458423 57672 net.cpp:129] Top shape: 1 (1)
I0918 13:32:00.458436 57672 net.cpp:129] Top shape: 1 (1)
I0918 13:32:00.458441 57672 net.cpp:137] Memory required for data: 12300
I0918 13:32:00.458453 57672 layer_factory.hpp:77] Creating layer B0_0_ConvBNScaleReLU_Conv
I0918 13:32:00.458463 57672 net.cpp:84] Creating Layer B0_0_ConvBNScaleReLU_Conv
I0918 13:32:00.458468 57672 net.cpp:406] B0_0_ConvBNScaleReLU_Conv <- data
I0918 13:32:00.458477 57672 net.cpp:380] B0_0_ConvBNScaleReLU_Conv -> B0_0_ConvBNScaleReLU_Conv
I0918 13:32:00.458614 57672 net.cpp:122] Setting up B0_0_ConvBNScaleReLU_Conv
I0918 13:32:00.458624 57672 net.cpp:129] Top shape: 1 64 32 32 (65536)
I0918 13:32:00.458631 57672 net.cpp:137] Memory required for data: 274444
I0918 13:32:00.458639 57672 layer_factory.hpp:77] Creating layer B0_0_ConvBNScaleReLU_BN
I0918 13:32:00.458647 57672 net.cpp:84] Creating Layer B0_0_ConvBNScaleReLU_BN
I0918 13:32:00.458652 57672 net.cpp:406] B0_0_ConvBNScaleReLU_BN <- B0_0_ConvBNScaleReLU_Conv
I0918 13:32:00.458659 57672 net.cpp:367] B0_0_ConvBNScaleReLU_BN -> B0_0_ConvBNScaleReLU_Conv (in-place)
I0918 13:32:00.458786 57672 net.cpp:122] Setting up B0_0_ConvBNScaleReLU_BN
I0918 13:32:00.458793 57672 net.cpp:129] Top shape: 1 64 32 32 (65536)
I0918 13:32:00.458799 57672 net.cpp:137] Memory required for data: 536588
I0918 13:32:00.458809 57672 layer_factory.hpp:77] Creating layer B0_0_ConvBNScaleReLU_Scale
I0918 13:32:00.458818 57672 net.cpp:84] Creating Layer B0_0_ConvBNScaleReLU_Scale
I0918 13:32:00.458823 57672 net.cpp:406] B0_0_ConvBNScaleReLU_Scale <- B0_0_ConvBNScaleReLU_Conv
I0918 13:32:00.458829 57672 net.cpp:367] B0_0_ConvBNScaleReLU_Scale -> B0_0_ConvBNScaleReLU_Conv (in-place)
I0918 13:32:00.458865 57672 layer_factory.hpp:77] Creating layer B0_0_ConvBNScaleReLU_Scale
I0918 13:32:00.458947 57672 net.cpp:122] Setting up B0_0_ConvBNScaleReLU_Scale
I0918 13:32:00.458954 57672 net.cpp:129] Top shape: 1 64 32 32 (65536)
I0918 13:32:00.458961 57672 net.cpp:137] Memory required for data: 798732
I0918 13:32:00.458969 57672 layer_factory.hpp:77] Creating layer B0_0_ConvBNScaleReLU_ReLU
I0918 13:32:00.458976 57672 net.cpp:84] Creating Layer B0_0_ConvBNScaleReLU_ReLU
I0918 13:32:00.458981 57672 net.cpp:406] B0_0_ConvBNScaleReLU_ReLU <- B0_0_ConvBNScaleReLU_Conv
I0918 13:32:00.458988 57672 net.cpp:367] B0_0_ConvBNScaleReLU_ReLU -> B0_0_ConvBNScaleReLU_Conv (in-place)
I0918 13:32:00.458995 57672 net.cpp:122] Setting up B0_0_ConvBNScaleReLU_ReLU
I0918 13:32:00.459000 57672 net.cpp:129] Top shape: 1 64 32 32 (65536)
I0918 13:32:00.459007 57672 net.cpp:137] Memory required for data: 1060876
I0918 13:32:00.459012 57672 layer_factory.hpp:77] Creating layer B0_0_ConvBNScaleReLU_Dropout
I0918 13:32:00.459017 57672 net.cpp:84] Creating Layer B0_0_ConvBNScaleReLU_Dropout
I0918 13:32:00.459022 57672 net.cpp:406] B0_0_ConvBNScaleReLU_Dropout <- B0_0_ConvBNScaleReLU_Conv
I0918 13:32:00.459028 57672 net.cpp:380] B0_0_ConvBNScaleReLU_Dropout -> ConvBNScaleReLU
I0918 13:32:00.459049 57672 net.cpp:122] Setting up B0_0_ConvBNScaleReLU_Dropout
I0918 13:32:00.459055 57672 net.cpp:129] Top shape: 1 64 32 32 (65536)
I0918 13:32:00.459061 57672 net.cpp:137] Memory required for data: 1323020
I0918 13:32:00.459066 57672 layer_factory.hpp:77] Creating layer B0_1_SConv_SparseConv
I0918 13:32:00.459074 57672 net.cpp:84] Creating Layer B0_1_SConv_SparseConv
I0918 13:32:00.459079 57672 net.cpp:406] B0_1_SConv_SparseConv <- ConvBNScaleReLU
I0918 13:32:00.459086 57672 net.cpp:380] B0_1_SConv_SparseConv -> B0_1_SConvBlockV2_T1
I0918 13:32:00.459242 57672 net.cpp:122] Setting up B0_1_SConv_SparseConv
I0918 13:32:00.459250 57672 net.cpp:129] Top shape: 1 768 32 32 (786432)
I0918 13:32:00.459256 57672 net.cpp:137] Memory required for data: 4468748
I0918 13:32:00.459264 57672 layer_factory.hpp:77] Creating layer B0_1_SConv_BN
I0918 13:32:00.459273 57672 net.cpp:84] Creating Layer B0_1_SConv_BN
I0918 13:32:00.459280 57672 net.cpp:406] B0_1_SConv_BN <- B0_1_SConvBlockV2_T1
I0918 13:32:00.459285 57672 net.cpp:367] B0_1_SConv_BN -> B0_1_SConvBlockV2_T1 (in-place)
I0918 13:32:00.459421 57672 net.cpp:122] Setting up B0_1_SConv_BN
I0918 13:32:00.459439 57672 net.cpp:129] Top shape: 1 768 32 32 (786432)
I0918 13:32:00.459452 57672 net.cpp:137] Memory required for data: 7614476
I0918 13:32:00.459465 57672 layer_factory.hpp:77] Creating layer B0_1_SConv_Scale
I0918 13:32:00.459473 57672 net.cpp:84] Creating Layer B0_1_SConv_Scale
I0918 13:32:00.459479 57672 net.cpp:406] B0_1_SConv_Scale <- B0_1_SConvBlockV2_T1
I0918 13:32:00.459486 57672 net.cpp:380] B0_1_SConv_Scale -> B0_1_SConvBlockV2_Scale
I0918 13:32:00.459519 57672 layer_factory.hpp:77] Creating layer B0_1_SConv_Scale
I0918 13:32:00.459601 57672 net.cpp:122] Setting up B0_1_SConv_Scale
I0918 13:32:00.459609 57672 net.cpp:129] Top shape: 1 768 32 32 (786432)
I0918 13:32:00.459615 57672 net.cpp:137] Memory required for data: 10760204
I0918 13:32:00.459622 57672 layer_factory.hpp:77] Creating layer B0_1_SConv_Conv1x1
I0918 13:32:00.459635 57672 net.cpp:84] Creating Layer B0_1_SConv_Conv1x1
I0918 13:32:00.459640 57672 net.cpp:406] B0_1_SConv_Conv1x1 <- B0_1_SConvBlockV2_Scale
I0918 13:32:00.459646 57672 net.cpp:380] B0_1_SConv_Conv1x1 -> B0_1_SConvBlockV2_Conv1x1
I0918 13:32:00.460078 57672 net.cpp:122] Setting up B0_1_SConv_Conv1x1
I0918 13:32:00.460088 57672 net.cpp:129] Top shape: 1 64 32 32 (65536)
I0918 13:32:00.460094 57672 net.cpp:137] Memory required for data: 11022348
I0918 13:32:00.460100 57672 layer_factory.hpp:77] Creating layer B0_1_SConv_ReLU
I0918 13:32:00.460114 57672 net.cpp:84] Creating Layer B0_1_SConv_ReLU
I0918 13:32:00.460119 57672 net.cpp:406] B0_1_SConv_ReLU <- B0_1_SConvBlockV2_Conv1x1
I0918 13:32:00.460126 57672 net.cpp:367] B0_1_SConv_ReLU -> B0_1_SConvBlockV2_Conv1x1 (in-place)
I0918 13:32:00.460134 57672 net.cpp:122] Setting up B0_1_SConv_ReLU
I0918 13:32:00.460137 57672 net.cpp:129] Top shape: 1 64 32 32 (65536)
I0918 13:32:00.460144 57672 net.cpp:137] Memory required for data: 11284492
I0918 13:32:00.460148 57672 layer_factory.hpp:77] Creating layer B0_1_SConv_Dropout
I0918 13:32:00.460155 57672 net.cpp:84] Creating Layer B0_1_SConv_Dropout
I0918 13:32:00.460158 57672 net.cpp:406] B0_1_SConv_Dropout <- B0_1_SConvBlockV2_Conv1x1
I0918 13:32:00.460165 57672 net.cpp:380] B0_1_SConv_Dropout -> B0_1_SConvBlockV2_Dropout
I0918 13:32:00.460184 57672 net.cpp:122] Setting up B0_1_SConv_Dropout
I0918 13:32:00.460189 57672 net.cpp:129] Top shape: 1 64 32 32 (65536)
I0918 13:32:00.460196 57672 net.cpp:137] Memory required for data: 11546636
I0918 13:32:00.460199 57672 layer_factory.hpp:77] Creating layer B0_Pooling
I0918 13:32:00.460206 57672 net.cpp:84] Creating Layer B0_Pooling
I0918 13:32:00.460211 57672 net.cpp:406] B0_Pooling <- B0_1_SConvBlockV2_Dropout
I0918 13:32:00.460217 57672 net.cpp:380] B0_Pooling -> Pooling1
I0918 13:32:00.460237 57672 net.cpp:122] Setting up B0_Pooling
I0918 13:32:00.460242 57672 net.cpp:129] Top shape: 1 64 16 16 (16384)
I0918 13:32:00.460248 57672 net.cpp:137] Memory required for data: 11612172
I0918 13:32:00.460253 57672 layer_factory.hpp:77] Creating layer B1_0_SConv_SparseConv
I0918 13:32:00.460259 57672 net.cpp:84] Creating Layer B1_0_SConv_SparseConv
I0918 13:32:00.460264 57672 net.cpp:406] B1_0_SConv_SparseConv <- Pooling1
I0918 13:32:00.460274 57672 net.cpp:380] B1_0_SConv_SparseConv -> B1_0_SConvBlockV2_T1
I0918 13:32:00.460414 57672 net.cpp:122] Setting up B1_0_SConv_SparseConv
I0918 13:32:00.460422 57672 net.cpp:129] Top shape: 1 768 16 16 (196608)
I0918 13:32:00.460428 57672 net.cpp:137] Memory required for data: 12398604
I0918 13:32:00.460434 57672 layer_factory.hpp:77] Creating layer B1_0_SConv_BN
I0918 13:32:00.460441 57672 net.cpp:84] Creating Layer B1_0_SConv_BN
I0918 13:32:00.460446 57672 net.cpp:406] B1_0_SConv_BN <- B1_0_SConvBlockV2_T1
I0918 13:32:00.460453 57672 net.cpp:367] B1_0_SConv_BN -> B1_0_SConvBlockV2_T1 (in-place)
I0918 13:32:00.460583 57672 net.cpp:122] Setting up B1_0_SConv_BN
I0918 13:32:00.460590 57672 net.cpp:129] Top shape: 1 768 16 16 (196608)
I0918 13:32:00.460597 57672 net.cpp:137] Memory required for data: 13185036
I0918 13:32:00.460605 57672 layer_factory.hpp:77] Creating layer B1_0_SConv_Scale
I0918 13:32:00.460619 57672 net.cpp:84] Creating Layer B1_0_SConv_Scale
I0918 13:32:00.460630 57672 net.cpp:406] B1_0_SConv_Scale <- B1_0_SConvBlockV2_T1
I0918 13:32:00.460636 57672 net.cpp:380] B1_0_SConv_Scale -> B1_0_SConvBlockV2_Scale
I0918 13:32:00.460670 57672 layer_factory.hpp:77] Creating layer B1_0_SConv_Scale
I0918 13:32:00.460742 57672 net.cpp:122] Setting up B1_0_SConv_Scale
I0918 13:32:00.460749 57672 net.cpp:129] Top shape: 1 768 16 16 (196608)
I0918 13:32:00.460755 57672 net.cpp:137] Memory required for data: 13971468
I0918 13:32:00.460772 57672 layer_factory.hpp:77] Creating layer B1_0_SConv_Conv1x1
I0918 13:32:00.460783 57672 net.cpp:84] Creating Layer B1_0_SConv_Conv1x1
I0918 13:32:00.460788 57672 net.cpp:406] B1_0_SConv_Conv1x1 <- B1_0_SConvBlockV2_Scale
I0918 13:32:00.460794 57672 net.cpp:380] B1_0_SConv_Conv1x1 -> B1_0_SConvBlockV2_Conv1x1
I0918 13:32:00.461486 57672 net.cpp:122] Setting up B1_0_SConv_Conv1x1
I0918 13:32:00.461496 57672 net.cpp:129] Top shape: 1 128 16 16 (32768)
I0918 13:32:00.461503 57672 net.cpp:137] Memory required for data: 14102540
I0918 13:32:00.461509 57672 layer_factory.hpp:77] Creating layer B1_0_SConv_ReLU
I0918 13:32:00.461517 57672 net.cpp:84] Creating Layer B1_0_SConv_ReLU
I0918 13:32:00.461522 57672 net.cpp:406] B1_0_SConv_ReLU <- B1_0_SConvBlockV2_Conv1x1
I0918 13:32:00.461532 57672 net.cpp:367] B1_0_SConv_ReLU -> B1_0_SConvBlockV2_Conv1x1 (in-place)
I0918 13:32:00.461539 57672 net.cpp:122] Setting up B1_0_SConv_ReLU
I0918 13:32:00.461544 57672 net.cpp:129] Top shape: 1 128 16 16 (32768)
I0918 13:32:00.461550 57672 net.cpp:137] Memory required for data: 14233612
I0918 13:32:00.461555 57672 layer_factory.hpp:77] Creating layer B1_0_SConv_Dropout
I0918 13:32:00.461561 57672 net.cpp:84] Creating Layer B1_0_SConv_Dropout
I0918 13:32:00.461566 57672 net.cpp:406] B1_0_SConv_Dropout <- B1_0_SConvBlockV2_Conv1x1
I0918 13:32:00.461572 57672 net.cpp:380] B1_0_SConv_Dropout -> B1_0_SConvBlockV2_Dropout
I0918 13:32:00.461601 57672 net.cpp:122] Setting up B1_0_SConv_Dropout
I0918 13:32:00.461606 57672 net.cpp:129] Top shape: 1 128 16 16 (32768)
I0918 13:32:00.461612 57672 net.cpp:137] Memory required for data: 14364684
I0918 13:32:00.461617 57672 layer_factory.hpp:77] Creating layer B1_1_SConv_SparseConv
I0918 13:32:00.461627 57672 net.cpp:84] Creating Layer B1_1_SConv_SparseConv
I0918 13:32:00.461632 57672 net.cpp:406] B1_1_SConv_SparseConv <- B1_0_SConvBlockV2_Dropout
I0918 13:32:00.461638 57672 net.cpp:380] B1_1_SConv_SparseConv -> B1_1_SConvBlockV2_T1
I0918 13:32:00.461830 57672 net.cpp:122] Setting up B1_1_SConv_SparseConv
I0918 13:32:00.461838 57672 net.cpp:129] Top shape: 1 1536 16 16 (393216)
I0918 13:32:00.461844 57672 net.cpp:137] Memory required for data: 15937548
I0918 13:32:00.461850 57672 layer_factory.hpp:77] Creating layer B1_1_SConv_BN
I0918 13:32:00.461860 57672 net.cpp:84] Creating Layer B1_1_SConv_BN
I0918 13:32:00.461865 57672 net.cpp:406] B1_1_SConv_BN <- B1_1_SConvBlockV2_T1
I0918 13:32:00.461872 57672 net.cpp:367] B1_1_SConv_BN -> B1_1_SConvBlockV2_T1 (in-place)
I0918 13:32:00.461961 57672 net.cpp:122] Setting up B1_1_SConv_BN
I0918 13:32:00.461968 57672 net.cpp:129] Top shape: 1 1536 16 16 (393216)
I0918 13:32:00.461974 57672 net.cpp:137] Memory required for data: 17510412
I0918 13:32:00.461982 57672 layer_factory.hpp:77] Creating layer B1_1_SConv_Scale
I0918 13:32:00.461992 57672 net.cpp:84] Creating Layer B1_1_SConv_Scale
I0918 13:32:00.461997 57672 net.cpp:406] B1_1_SConv_Scale <- B1_1_SConvBlockV2_T1
I0918 13:32:00.462002 57672 net.cpp:380] B1_1_SConv_Scale -> B1_1_SConvBlockV2_Scale
I0918 13:32:00.462033 57672 layer_factory.hpp:77] Creating layer B1_1_SConv_Scale
I0918 13:32:00.462097 57672 net.cpp:122] Setting up B1_1_SConv_Scale
I0918 13:32:00.462105 57672 net.cpp:129] Top shape: 1 1536 16 16 (393216)
I0918 13:32:00.462111 57672 net.cpp:137] Memory required for data: 19083276
I0918 13:32:00.462118 57672 layer_factory.hpp:77] Creating layer B1_1_SConv_Conv1x1
I0918 13:32:00.462129 57672 net.cpp:84] Creating Layer B1_1_SConv_Conv1x1
I0918 13:32:00.462139 57672 net.cpp:406] B1_1_SConv_Conv1x1 <- B1_1_SConvBlockV2_Scale
I0918 13:32:00.462155 57672 net.cpp:380] B1_1_SConv_Conv1x1 -> B1_1_SConvBlockV2_Conv1x1
I0918 13:32:00.463395 57672 net.cpp:122] Setting up B1_1_SConv_Conv1x1
I0918 13:32:00.463404 57672 net.cpp:129] Top shape: 1 128 16 16 (32768)
I0918 13:32:00.463410 57672 net.cpp:137] Memory required for data: 19214348
I0918 13:32:00.463418 57672 layer_factory.hpp:77] Creating layer B1_1_SConv_ReLU
I0918 13:32:00.463424 57672 net.cpp:84] Creating Layer B1_1_SConv_ReLU
I0918 13:32:00.463429 57672 net.cpp:406] B1_1_SConv_ReLU <- B1_1_SConvBlockV2_Conv1x1
I0918 13:32:00.463435 57672 net.cpp:367] B1_1_SConv_ReLU -> B1_1_SConvBlockV2_Conv1x1 (in-place)
I0918 13:32:00.463443 57672 net.cpp:122] Setting up B1_1_SConv_ReLU
I0918 13:32:00.463447 57672 net.cpp:129] Top shape: 1 128 16 16 (32768)
I0918 13:32:00.463452 57672 net.cpp:137] Memory required for data: 19345420
I0918 13:32:00.463457 57672 layer_factory.hpp:77] Creating layer B1_1_SConv_Dropout
I0918 13:32:00.463465 57672 net.cpp:84] Creating Layer B1_1_SConv_Dropout
I0918 13:32:00.463470 57672 net.cpp:406] B1_1_SConv_Dropout <- B1_1_SConvBlockV2_Conv1x1
I0918 13:32:00.463476 57672 net.cpp:380] B1_1_SConv_Dropout -> B1_1_SConvBlockV2_Dropout
I0918 13:32:00.463500 57672 net.cpp:122] Setting up B1_1_SConv_Dropout
I0918 13:32:00.463506 57672 net.cpp:129] Top shape: 1 128 16 16 (32768)
I0918 13:32:00.463512 57672 net.cpp:137] Memory required for data: 19476492
I0918 13:32:00.463516 57672 layer_factory.hpp:77] Creating layer B1_Pooling
I0918 13:32:00.463524 57672 net.cpp:84] Creating Layer B1_Pooling
I0918 13:32:00.463528 57672 net.cpp:406] B1_Pooling <- B1_1_SConvBlockV2_Dropout
I0918 13:32:00.463536 57672 net.cpp:380] B1_Pooling -> Pooling2
I0918 13:32:00.463562 57672 net.cpp:122] Setting up B1_Pooling
I0918 13:32:00.463568 57672 net.cpp:129] Top shape: 1 128 8 8 (8192)
I0918 13:32:00.463574 57672 net.cpp:137] Memory required for data: 19509260
I0918 13:32:00.463578 57672 layer_factory.hpp:77] Creating layer B2_0_SConv_SparseConv
I0918 13:32:00.463585 57672 net.cpp:84] Creating Layer B2_0_SConv_SparseConv
I0918 13:32:00.463590 57672 net.cpp:406] B2_0_SConv_SparseConv <- Pooling2
I0918 13:32:00.463599 57672 net.cpp:380] B2_0_SConv_SparseConv -> B2_0_SConvBlockV2_T1
I0918 13:32:00.463788 57672 net.cpp:122] Setting up B2_0_SConv_SparseConv
I0918 13:32:00.463795 57672 net.cpp:129] Top shape: 1 1536 8 8 (98304)
I0918 13:32:00.463801 57672 net.cpp:137] Memory required for data: 19902476
I0918 13:32:00.463806 57672 layer_factory.hpp:77] Creating layer B2_0_SConv_BN
I0918 13:32:00.463814 57672 net.cpp:84] Creating Layer B2_0_SConv_BN
I0918 13:32:00.463819 57672 net.cpp:406] B2_0_SConv_BN <- B2_0_SConvBlockV2_T1
I0918 13:32:00.463824 57672 net.cpp:367] B2_0_SConv_BN -> B2_0_SConvBlockV2_T1 (in-place)
I0918 13:32:00.463908 57672 net.cpp:122] Setting up B2_0_SConv_BN
I0918 13:32:00.463914 57672 net.cpp:129] Top shape: 1 1536 8 8 (98304)
I0918 13:32:00.463920 57672 net.cpp:137] Memory required for data: 20295692
I0918 13:32:00.463930 57672 layer_factory.hpp:77] Creating layer B2_0_SConv_Scale
I0918 13:32:00.463937 57672 net.cpp:84] Creating Layer B2_0_SConv_Scale
I0918 13:32:00.463943 57672 net.cpp:406] B2_0_SConv_Scale <- B2_0_SConvBlockV2_T1
I0918 13:32:00.463948 57672 net.cpp:380] B2_0_SConv_Scale -> B2_0_SConvBlockV2_Scale
I0918 13:32:00.463973 57672 layer_factory.hpp:77] Creating layer B2_0_SConv_Scale
I0918 13:32:00.464033 57672 net.cpp:122] Setting up B2_0_SConv_Scale
I0918 13:32:00.464040 57672 net.cpp:129] Top shape: 1 1536 8 8 (98304)
I0918 13:32:00.464046 57672 net.cpp:137] Memory required for data: 20688908
I0918 13:32:00.464051 57672 layer_factory.hpp:77] Creating layer B2_0_SConv_Conv1x1
I0918 13:32:00.464066 57672 net.cpp:84] Creating Layer B2_0_SConv_Conv1x1
I0918 13:32:00.464071 57672 net.cpp:406] B2_0_SConv_Conv1x1 <- B2_0_SConvBlockV2_Scale
I0918 13:32:00.464078 57672 net.cpp:380] B2_0_SConv_Conv1x1 -> B2_0_SConvBlockV2_Conv1x1
I0918 13:32:00.466709 57672 net.cpp:122] Setting up B2_0_SConv_Conv1x1
I0918 13:32:00.466728 57672 net.cpp:129] Top shape: 1 192 8 8 (12288)
I0918 13:32:00.466735 57672 net.cpp:137] Memory required for data: 20738060
I0918 13:32:00.466748 57672 layer_factory.hpp:77] Creating layer B2_0_SConv_ReLU
I0918 13:32:00.466758 57672 net.cpp:84] Creating Layer B2_0_SConv_ReLU
I0918 13:32:00.466763 57672 net.cpp:406] B2_0_SConv_ReLU <- B2_0_SConvBlockV2_Conv1x1
I0918 13:32:00.466769 57672 net.cpp:367] B2_0_SConv_ReLU -> B2_0_SConvBlockV2_Conv1x1 (in-place)
I0918 13:32:00.466778 57672 net.cpp:122] Setting up B2_0_SConv_ReLU
I0918 13:32:00.466781 57672 net.cpp:129] Top shape: 1 192 8 8 (12288)
I0918 13:32:00.466787 57672 net.cpp:137] Memory required for data: 20787212
I0918 13:32:00.466791 57672 layer_factory.hpp:77] Creating layer B2_0_SConv_Dropout
I0918 13:32:00.466801 57672 net.cpp:84] Creating Layer B2_0_SConv_Dropout
I0918 13:32:00.466806 57672 net.cpp:406] B2_0_SConv_Dropout <- B2_0_SConvBlockV2_Conv1x1
I0918 13:32:00.466812 57672 net.cpp:380] B2_0_SConv_Dropout -> B2_0_SConvBlockV2_Dropout
I0918 13:32:00.466840 57672 net.cpp:122] Setting up B2_0_SConv_Dropout
I0918 13:32:00.466847 57672 net.cpp:129] Top shape: 1 192 8 8 (12288)
I0918 13:32:00.466852 57672 net.cpp:137] Memory required for data: 20836364
I0918 13:32:00.466857 57672 layer_factory.hpp:77] Creating layer B2_1_SConv_SparseConv
I0918 13:32:00.466866 57672 net.cpp:84] Creating Layer B2_1_SConv_SparseConv
I0918 13:32:00.466871 57672 net.cpp:406] B2_1_SConv_SparseConv <- B2_0_SConvBlockV2_Dropout
I0918 13:32:00.466877 57672 net.cpp:380] B2_1_SConv_SparseConv -> B2_1_SConvBlockV2_T1
I0918 13:32:00.467104 57672 net.cpp:122] Setting up B2_1_SConv_SparseConv
I0918 13:32:00.467113 57672 net.cpp:129] Top shape: 1 2304 8 8 (147456)
I0918 13:32:00.467118 57672 net.cpp:137] Memory required for data: 21426188
I0918 13:32:00.467123 57672 layer_factory.hpp:77] Creating layer B2_1_SConv_BN
I0918 13:32:00.467133 57672 net.cpp:84] Creating Layer B2_1_SConv_BN
I0918 13:32:00.467139 57672 net.cpp:406] B2_1_SConv_BN <- B2_1_SConvBlockV2_T1
I0918 13:32:00.467144 57672 net.cpp:367] B2_1_SConv_BN -> B2_1_SConvBlockV2_T1 (in-place)
I0918 13:32:00.467234 57672 net.cpp:122] Setting up B2_1_SConv_BN
I0918 13:32:00.467242 57672 net.cpp:129] Top shape: 1 2304 8 8 (147456)
I0918 13:32:00.467247 57672 net.cpp:137] Memory required for data: 22016012
I0918 13:32:00.467254 57672 layer_factory.hpp:77] Creating layer B2_1_SConv_Scale
I0918 13:32:00.467263 57672 net.cpp:84] Creating Layer B2_1_SConv_Scale
I0918 13:32:00.467268 57672 net.cpp:406] B2_1_SConv_Scale <- B2_1_SConvBlockV2_T1
I0918 13:32:00.467274 57672 net.cpp:380] B2_1_SConv_Scale -> B2_1_SConvBlockV2_Scale
I0918 13:32:00.467299 57672 layer_factory.hpp:77] Creating layer B2_1_SConv_Scale
I0918 13:32:00.467360 57672 net.cpp:122] Setting up B2_1_SConv_Scale
I0918 13:32:00.467366 57672 net.cpp:129] Top shape: 1 2304 8 8 (147456)
I0918 13:32:00.467372 57672 net.cpp:137] Memory required for data: 22605836
I0918 13:32:00.467378 57672 layer_factory.hpp:77] Creating layer B2_1_SConv_Conv1x1
I0918 13:32:00.467391 57672 net.cpp:84] Creating Layer B2_1_SConv_Conv1x1
I0918 13:32:00.467396 57672 net.cpp:406] B2_1_SConv_Conv1x1 <- B2_1_SConvBlockV2_Scale
I0918 13:32:00.467402 57672 net.cpp:380] B2_1_SConv_Conv1x1 -> B2_1_SConvBlockV2_Conv1x1
I0918 13:32:00.470928 57672 net.cpp:122] Setting up B2_1_SConv_Conv1x1
I0918 13:32:00.470942 57672 net.cpp:129] Top shape: 1 192 8 8 (12288)
I0918 13:32:00.470949 57672 net.cpp:137] Memory required for data: 22654988
I0918 13:32:00.470957 57672 layer_factory.hpp:77] Creating layer B2_1_SConv_ReLU
I0918 13:32:00.470964 57672 net.cpp:84] Creating Layer B2_1_SConv_ReLU
I0918 13:32:00.470970 57672 net.cpp:406] B2_1_SConv_ReLU <- B2_1_SConvBlockV2_Conv1x1
I0918 13:32:00.470976 57672 net.cpp:367] B2_1_SConv_ReLU -> B2_1_SConvBlockV2_Conv1x1 (in-place)
I0918 13:32:00.470984 57672 net.cpp:122] Setting up B2_1_SConv_ReLU
I0918 13:32:00.470989 57672 net.cpp:129] Top shape: 1 192 8 8 (12288)
I0918 13:32:00.470995 57672 net.cpp:137] Memory required for data: 22704140
I0918 13:32:00.470999 57672 layer_factory.hpp:77] Creating layer B2_1_SConv_Dropout
I0918 13:32:00.471014 57672 net.cpp:84] Creating Layer B2_1_SConv_Dropout
I0918 13:32:00.471025 57672 net.cpp:406] B2_1_SConv_Dropout <- B2_1_SConvBlockV2_Conv1x1
I0918 13:32:00.471031 57672 net.cpp:380] B2_1_SConv_Dropout -> B2_1_SConvBlockV2_Dropout
I0918 13:32:00.471071 57672 net.cpp:122] Setting up B2_1_SConv_Dropout
I0918 13:32:00.471077 57672 net.cpp:129] Top shape: 1 192 8 8 (12288)
I0918 13:32:00.471083 57672 net.cpp:137] Memory required for data: 22753292
I0918 13:32:00.471087 57672 layer_factory.hpp:77] Creating layer B2_2_SConv_SparseConv
I0918 13:32:00.471096 57672 net.cpp:84] Creating Layer B2_2_SConv_SparseConv
I0918 13:32:00.471101 57672 net.cpp:406] B2_2_SConv_SparseConv <- B2_1_SConvBlockV2_Dropout
I0918 13:32:00.471107 57672 net.cpp:380] B2_2_SConv_SparseConv -> B2_2_SConvBlockV2_T1
I0918 13:32:00.471349 57672 net.cpp:122] Setting up B2_2_SConv_SparseConv
I0918 13:32:00.471357 57672 net.cpp:129] Top shape: 1 2304 8 8 (147456)
I0918 13:32:00.471364 57672 net.cpp:137] Memory required for data: 23343116
I0918 13:32:00.471369 57672 layer_factory.hpp:77] Creating layer B2_2_SConv_BN
I0918 13:32:00.471379 57672 net.cpp:84] Creating Layer B2_2_SConv_BN
I0918 13:32:00.471383 57672 net.cpp:406] B2_2_SConv_BN <- B2_2_SConvBlockV2_T1
I0918 13:32:00.471390 57672 net.cpp:367] B2_2_SConv_BN -> B2_2_SConvBlockV2_T1 (in-place)
I0918 13:32:00.471480 57672 net.cpp:122] Setting up B2_2_SConv_BN
I0918 13:32:00.471487 57672 net.cpp:129] Top shape: 1 2304 8 8 (147456)
I0918 13:32:00.471493 57672 net.cpp:137] Memory required for data: 23932940
I0918 13:32:00.471500 57672 layer_factory.hpp:77] Creating layer B2_2_SConv_Scale
I0918 13:32:00.471508 57672 net.cpp:84] Creating Layer B2_2_SConv_Scale
I0918 13:32:00.471513 57672 net.cpp:406] B2_2_SConv_Scale <- B2_2_SConvBlockV2_T1
I0918 13:32:00.471519 57672 net.cpp:380] B2_2_SConv_Scale -> B2_2_SConvBlockV2_Scale
I0918 13:32:00.471545 57672 layer_factory.hpp:77] Creating layer B2_2_SConv_Scale
I0918 13:32:00.471607 57672 net.cpp:122] Setting up B2_2_SConv_Scale
I0918 13:32:00.471614 57672 net.cpp:129] Top shape: 1 2304 8 8 (147456)
I0918 13:32:00.471621 57672 net.cpp:137] Memory required for data: 24522764
I0918 13:32:00.471626 57672 layer_factory.hpp:77] Creating layer B2_2_SConv_Conv1x1
I0918 13:32:00.471637 57672 net.cpp:84] Creating Layer B2_2_SConv_Conv1x1
I0918 13:32:00.471642 57672 net.cpp:406] B2_2_SConv_Conv1x1 <- B2_2_SConvBlockV2_Scale
I0918 13:32:00.471649 57672 net.cpp:380] B2_2_SConv_Conv1x1 -> B2_2_SConvBlockV2_Conv1x1
I0918 13:32:00.475100 57672 net.cpp:122] Setting up B2_2_SConv_Conv1x1
I0918 13:32:00.475113 57672 net.cpp:129] Top shape: 1 192 8 8 (12288)
I0918 13:32:00.475121 57672 net.cpp:137] Memory required for data: 24571916
I0918 13:32:00.475127 57672 layer_factory.hpp:77] Creating layer B2_2_SConv_ReLU
I0918 13:32:00.475136 57672 net.cpp:84] Creating Layer B2_2_SConv_ReLU
I0918 13:32:00.475142 57672 net.cpp:406] B2_2_SConv_ReLU <- B2_2_SConvBlockV2_Conv1x1
I0918 13:32:00.475148 57672 net.cpp:367] B2_2_SConv_ReLU -> B2_2_SConvBlockV2_Conv1x1 (in-place)
I0918 13:32:00.475155 57672 net.cpp:122] Setting up B2_2_SConv_ReLU
I0918 13:32:00.475159 57672 net.cpp:129] Top shape: 1 192 8 8 (12288)
I0918 13:32:00.475165 57672 net.cpp:137] Memory required for data: 24621068
I0918 13:32:00.475169 57672 layer_factory.hpp:77] Creating layer B2_2_SConv_Dropout
I0918 13:32:00.475178 57672 net.cpp:84] Creating Layer B2_2_SConv_Dropout
I0918 13:32:00.475183 57672 net.cpp:406] B2_2_SConv_Dropout <- B2_2_SConvBlockV2_Conv1x1
I0918 13:32:00.475188 57672 net.cpp:380] B2_2_SConv_Dropout -> B2_2_SConvBlockV2_Dropout
I0918 13:32:00.475214 57672 net.cpp:122] Setting up B2_2_SConv_Dropout
I0918 13:32:00.475220 57672 net.cpp:129] Top shape: 1 192 8 8 (12288)
I0918 13:32:00.475225 57672 net.cpp:137] Memory required for data: 24670220
I0918 13:32:00.475230 57672 layer_factory.hpp:77] Creating layer B2_Pooling
I0918 13:32:00.475236 57672 net.cpp:84] Creating Layer B2_Pooling
I0918 13:32:00.475241 57672 net.cpp:406] B2_Pooling <- B2_2_SConvBlockV2_Dropout
I0918 13:32:00.475252 57672 net.cpp:380] B2_Pooling -> Pooling3
I0918 13:32:00.475287 57672 net.cpp:122] Setting up B2_Pooling
I0918 13:32:00.475294 57672 net.cpp:129] Top shape: 1 192 4 4 (3072)
I0918 13:32:00.475299 57672 net.cpp:137] Memory required for data: 24682508
I0918 13:32:00.475304 57672 layer_factory.hpp:77] Creating layer B3_0_SConv_SparseConv
I0918 13:32:00.475313 57672 net.cpp:84] Creating Layer B3_0_SConv_SparseConv
I0918 13:32:00.475318 57672 net.cpp:406] B3_0_SConv_SparseConv <- Pooling3
I0918 13:32:00.475324 57672 net.cpp:380] B3_0_SConv_SparseConv -> B3_0_SConvBlockV2_T1
I0918 13:32:00.475558 57672 net.cpp:122] Setting up B3_0_SConv_SparseConv
I0918 13:32:00.475564 57672 net.cpp:129] Top shape: 1 2304 4 4 (36864)
I0918 13:32:00.475570 57672 net.cpp:137] Memory required for data: 24829964
I0918 13:32:00.475576 57672 layer_factory.hpp:77] Creating layer B3_0_SConv_BN
I0918 13:32:00.475584 57672 net.cpp:84] Creating Layer B3_0_SConv_BN
I0918 13:32:00.475587 57672 net.cpp:406] B3_0_SConv_BN <- B3_0_SConvBlockV2_T1
I0918 13:32:00.475594 57672 net.cpp:367] B3_0_SConv_BN -> B3_0_SConvBlockV2_T1 (in-place)
I0918 13:32:00.475684 57672 net.cpp:122] Setting up B3_0_SConv_BN
I0918 13:32:00.475692 57672 net.cpp:129] Top shape: 1 2304 4 4 (36864)
I0918 13:32:00.475697 57672 net.cpp:137] Memory required for data: 24977420
I0918 13:32:00.475704 57672 layer_factory.hpp:77] Creating layer B3_0_SConv_Scale
I0918 13:32:00.475713 57672 net.cpp:84] Creating Layer B3_0_SConv_Scale
I0918 13:32:00.475718 57672 net.cpp:406] B3_0_SConv_Scale <- B3_0_SConvBlockV2_T1
I0918 13:32:00.475723 57672 net.cpp:380] B3_0_SConv_Scale -> B3_0_SConvBlockV2_Scale
I0918 13:32:00.475750 57672 layer_factory.hpp:77] Creating layer B3_0_SConv_Scale
I0918 13:32:00.475813 57672 net.cpp:122] Setting up B3_0_SConv_Scale
I0918 13:32:00.475821 57672 net.cpp:129] Top shape: 1 2304 4 4 (36864)
I0918 13:32:00.475826 57672 net.cpp:137] Memory required for data: 25124876
I0918 13:32:00.475832 57672 layer_factory.hpp:77] Creating layer B3_0_SConv_Conv1x1
I0918 13:32:00.475844 57672 net.cpp:84] Creating Layer B3_0_SConv_Conv1x1
I0918 13:32:00.475849 57672 net.cpp:406] B3_0_SConv_Conv1x1 <- B3_0_SConvBlockV2_Scale
I0918 13:32:00.475855 57672 net.cpp:380] B3_0_SConv_Conv1x1 -> B3_0_SConvBlockV2_Conv1x1
I0918 13:32:00.479301 57672 net.cpp:122] Setting up B3_0_SConv_Conv1x1
I0918 13:32:00.479315 57672 net.cpp:129] Top shape: 1 192 4 4 (3072)
I0918 13:32:00.479321 57672 net.cpp:137] Memory required for data: 25137164
I0918 13:32:00.479328 57672 layer_factory.hpp:77] Creating layer B3_0_SConv_ReLU
I0918 13:32:00.479336 57672 net.cpp:84] Creating Layer B3_0_SConv_ReLU
I0918 13:32:00.479341 57672 net.cpp:406] B3_0_SConv_ReLU <- B3_0_SConvBlockV2_Conv1x1
I0918 13:32:00.479348 57672 net.cpp:367] B3_0_SConv_ReLU -> B3_0_SConvBlockV2_Conv1x1 (in-place)
I0918 13:32:00.479357 57672 net.cpp:122] Setting up B3_0_SConv_ReLU
I0918 13:32:00.479360 57672 net.cpp:129] Top shape: 1 192 4 4 (3072)
I0918 13:32:00.479367 57672 net.cpp:137] Memory required for data: 25149452
I0918 13:32:00.479370 57672 layer_factory.hpp:77] Creating layer B3_0_SConv_Dropout
I0918 13:32:00.479377 57672 net.cpp:84] Creating Layer B3_0_SConv_Dropout
I0918 13:32:00.479380 57672 net.cpp:406] B3_0_SConv_Dropout <- B3_0_SConvBlockV2_Conv1x1
I0918 13:32:00.479387 57672 net.cpp:380] B3_0_SConv_Dropout -> B3_0_SConvBlockV2_Dropout
I0918 13:32:00.479413 57672 net.cpp:122] Setting up B3_0_SConv_Dropout
I0918 13:32:00.479418 57672 net.cpp:129] Top shape: 1 192 4 4 (3072)
I0918 13:32:00.479424 57672 net.cpp:137] Memory required for data: 25161740
I0918 13:32:00.479429 57672 layer_factory.hpp:77] Creating layer B3_1_SConv_SparseConv
I0918 13:32:00.479437 57672 net.cpp:84] Creating Layer B3_1_SConv_SparseConv
I0918 13:32:00.479442 57672 net.cpp:406] B3_1_SConv_SparseConv <- B3_0_SConvBlockV2_Dropout
I0918 13:32:00.479449 57672 net.cpp:380] B3_1_SConv_SparseConv -> B3_1_SConvBlockV2_T1
I0918 13:32:00.479671 57672 net.cpp:122] Setting up B3_1_SConv_SparseConv
I0918 13:32:00.479679 57672 net.cpp:129] Top shape: 1 2304 4 4 (36864)
I0918 13:32:00.479689 57672 net.cpp:137] Memory required for data: 25309196
I0918 13:32:00.479702 57672 layer_factory.hpp:77] Creating layer B3_1_SConv_BN
I0918 13:32:00.479712 57672 net.cpp:84] Creating Layer B3_1_SConv_BN
I0918 13:32:00.479717 57672 net.cpp:406] B3_1_SConv_BN <- B3_1_SConvBlockV2_T1
I0918 13:32:00.479722 57672 net.cpp:367] B3_1_SConv_BN -> B3_1_SConvBlockV2_T1 (in-place)
I0918 13:32:00.479807 57672 net.cpp:122] Setting up B3_1_SConv_BN
I0918 13:32:00.479813 57672 net.cpp:129] Top shape: 1 2304 4 4 (36864)
I0918 13:32:00.479820 57672 net.cpp:137] Memory required for data: 25456652
I0918 13:32:00.479830 57672 layer_factory.hpp:77] Creating layer B3_1_SConv_Scale
I0918 13:32:00.479837 57672 net.cpp:84] Creating Layer B3_1_SConv_Scale
I0918 13:32:00.479842 57672 net.cpp:406] B3_1_SConv_Scale <- B3_1_SConvBlockV2_T1
I0918 13:32:00.479848 57672 net.cpp:380] B3_1_SConv_Scale -> B3_1_SConvBlockV2_Scale
I0918 13:32:00.479876 57672 layer_factory.hpp:77] Creating layer B3_1_SConv_Scale
I0918 13:32:00.479934 57672 net.cpp:122] Setting up B3_1_SConv_Scale
I0918 13:32:00.479944 57672 net.cpp:129] Top shape: 1 2304 4 4 (36864)
I0918 13:32:00.479950 57672 net.cpp:137] Memory required for data: 25604108
I0918 13:32:00.479956 57672 layer_factory.hpp:77] Creating layer B3_1_SConv_Conv1x1
I0918 13:32:00.479964 57672 net.cpp:84] Creating Layer B3_1_SConv_Conv1x1
I0918 13:32:00.479969 57672 net.cpp:406] B3_1_SConv_Conv1x1 <- B3_1_SConvBlockV2_Scale
I0918 13:32:00.479982 57672 net.cpp:380] B3_1_SConv_Conv1x1 -> B3_1_SConvBlockV2_Conv1x1
I0918 13:32:00.483372 57672 net.cpp:122] Setting up B3_1_SConv_Conv1x1
I0918 13:32:00.483384 57672 net.cpp:129] Top shape: 1 192 4 4 (3072)
I0918 13:32:00.483392 57672 net.cpp:137] Memory required for data: 25616396
I0918 13:32:00.483397 57672 layer_factory.hpp:77] Creating layer B3_1_SConv_ReLU
I0918 13:32:00.483404 57672 net.cpp:84] Creating Layer B3_1_SConv_ReLU
I0918 13:32:00.483409 57672 net.cpp:406] B3_1_SConv_ReLU <- B3_1_SConvBlockV2_Conv1x1
I0918 13:32:00.483417 57672 net.cpp:367] B3_1_SConv_ReLU -> B3_1_SConvBlockV2_Conv1x1 (in-place)
I0918 13:32:00.483424 57672 net.cpp:122] Setting up B3_1_SConv_ReLU
I0918 13:32:00.483428 57672 net.cpp:129] Top shape: 1 192 4 4 (3072)
I0918 13:32:00.483433 57672 net.cpp:137] Memory required for data: 25628684
I0918 13:32:00.483438 57672 layer_factory.hpp:77] Creating layer B3_1_SConv_Dropout
I0918 13:32:00.483443 57672 net.cpp:84] Creating Layer B3_1_SConv_Dropout
I0918 13:32:00.483448 57672 net.cpp:406] B3_1_SConv_Dropout <- B3_1_SConvBlockV2_Conv1x1
I0918 13:32:00.483453 57672 net.cpp:380] B3_1_SConv_Dropout -> B3_1_SConvBlockV2_Dropout
I0918 13:32:00.483477 57672 net.cpp:122] Setting up B3_1_SConv_Dropout
I0918 13:32:00.483484 57672 net.cpp:129] Top shape: 1 192 4 4 (3072)
I0918 13:32:00.483489 57672 net.cpp:137] Memory required for data: 25640972
I0918 13:32:00.483492 57672 layer_factory.hpp:77] Creating layer B3_2_SConv_SparseConv
I0918 13:32:00.483500 57672 net.cpp:84] Creating Layer B3_2_SConv_SparseConv
I0918 13:32:00.483505 57672 net.cpp:406] B3_2_SConv_SparseConv <- B3_1_SConvBlockV2_Dropout
I0918 13:32:00.483511 57672 net.cpp:380] B3_2_SConv_SparseConv -> B3_2_SConvBlockV2_T1
I0918 13:32:00.483722 57672 net.cpp:122] Setting up B3_2_SConv_SparseConv
I0918 13:32:00.483729 57672 net.cpp:129] Top shape: 1 2304 4 4 (36864)
I0918 13:32:00.483734 57672 net.cpp:137] Memory required for data: 25788428
I0918 13:32:00.483741 57672 layer_factory.hpp:77] Creating layer B3_2_SConv_BN
I0918 13:32:00.483748 57672 net.cpp:84] Creating Layer B3_2_SConv_BN
I0918 13:32:00.483753 57672 net.cpp:406] B3_2_SConv_BN <- B3_2_SConvBlockV2_T1
I0918 13:32:00.483759 57672 net.cpp:367] B3_2_SConv_BN -> B3_2_SConvBlockV2_T1 (in-place)
I0918 13:32:00.483836 57672 net.cpp:122] Setting up B3_2_SConv_BN
I0918 13:32:00.483842 57672 net.cpp:129] Top shape: 1 2304 4 4 (36864)
I0918 13:32:00.483847 57672 net.cpp:137] Memory required for data: 25935884
I0918 13:32:00.483855 57672 layer_factory.hpp:77] Creating layer B3_2_SConv_Scale
I0918 13:32:00.483865 57672 net.cpp:84] Creating Layer B3_2_SConv_Scale
I0918 13:32:00.483870 57672 net.cpp:406] B3_2_SConv_Scale <- B3_2_SConvBlockV2_T1
I0918 13:32:00.483881 57672 net.cpp:380] B3_2_SConv_Scale -> B3_2_SConvBlockV2_Scale
I0918 13:32:00.483906 57672 layer_factory.hpp:77] Creating layer B3_2_SConv_Scale
I0918 13:32:00.483963 57672 net.cpp:122] Setting up B3_2_SConv_Scale
I0918 13:32:00.483968 57672 net.cpp:129] Top shape: 1 2304 4 4 (36864)
I0918 13:32:00.483973 57672 net.cpp:137] Memory required for data: 26083340
I0918 13:32:00.483979 57672 layer_factory.hpp:77] Creating layer B3_2_SConv_Conv1x1
I0918 13:32:00.483989 57672 net.cpp:84] Creating Layer B3_2_SConv_Conv1x1
I0918 13:32:00.483994 57672 net.cpp:406] B3_2_SConv_Conv1x1 <- B3_2_SConvBlockV2_Scale
I0918 13:32:00.484001 57672 net.cpp:380] B3_2_SConv_Conv1x1 -> B3_2_SConvBlockV2_Conv1x1
I0918 13:32:00.487342 57672 net.cpp:122] Setting up B3_2_SConv_Conv1x1
I0918 13:32:00.487355 57672 net.cpp:129] Top shape: 1 192 4 4 (3072)
I0918 13:32:00.487361 57672 net.cpp:137] Memory required for data: 26095628
I0918 13:32:00.487368 57672 layer_factory.hpp:77] Creating layer B3_2_SConv_ReLU
I0918 13:32:00.487376 57672 net.cpp:84] Creating Layer B3_2_SConv_ReLU
I0918 13:32:00.487381 57672 net.cpp:406] B3_2_SConv_ReLU <- B3_2_SConvBlockV2_Conv1x1
I0918 13:32:00.487387 57672 net.cpp:367] B3_2_SConv_ReLU -> B3_2_SConvBlockV2_Conv1x1 (in-place)
I0918 13:32:00.487394 57672 net.cpp:122] Setting up B3_2_SConv_ReLU
I0918 13:32:00.487398 57672 net.cpp:129] Top shape: 1 192 4 4 (3072)
I0918 13:32:00.487403 57672 net.cpp:137] Memory required for data: 26107916
I0918 13:32:00.487407 57672 layer_factory.hpp:77] Creating layer B3_2_SConv_Dropout
I0918 13:32:00.487416 57672 net.cpp:84] Creating Layer B3_2_SConv_Dropout
I0918 13:32:00.487419 57672 net.cpp:406] B3_2_SConv_Dropout <- B3_2_SConvBlockV2_Conv1x1
I0918 13:32:00.487426 57672 net.cpp:380] B3_2_SConv_Dropout -> B3_2_SConvBlockV2_Dropout
I0918 13:32:00.487450 57672 net.cpp:122] Setting up B3_2_SConv_Dropout
I0918 13:32:00.487457 57672 net.cpp:129] Top shape: 1 192 4 4 (3072)
I0918 13:32:00.487462 57672 net.cpp:137] Memory required for data: 26120204
I0918 13:32:00.487466 57672 layer_factory.hpp:77] Creating layer B3_Pooling
I0918 13:32:00.487476 57672 net.cpp:84] Creating Layer B3_Pooling
I0918 13:32:00.487481 57672 net.cpp:406] B3_Pooling <- B3_2_SConvBlockV2_Dropout
I0918 13:32:00.487488 57672 net.cpp:380] B3_Pooling -> Pooling4
I0918 13:32:00.487502 57672 net.cpp:122] Setting up B3_Pooling
I0918 13:32:00.487507 57672 net.cpp:129] Top shape: 1 192 1 1 (192)
I0918 13:32:00.487512 57672 net.cpp:137] Memory required for data: 26120972
I0918 13:32:00.487517 57672 layer_factory.hpp:77] Creating layer fc1
I0918 13:32:00.487525 57672 net.cpp:84] Creating Layer fc1
I0918 13:32:00.487530 57672 net.cpp:406] fc1 <- Pooling4
I0918 13:32:00.487536 57672 net.cpp:380] fc1 -> fc1
I0918 13:32:00.487968 57672 net.cpp:122] Setting up fc1
I0918 13:32:00.487977 57672 net.cpp:129] Top shape: 1 384 (384)
I0918 13:32:00.487982 57672 net.cpp:137] Memory required for data: 26122508
I0918 13:32:00.487987 57672 layer_factory.hpp:77] Creating layer classifier
I0918 13:32:00.487994 57672 net.cpp:84] Creating Layer classifier
I0918 13:32:00.487999 57672 net.cpp:406] classifier <- fc1
I0918 13:32:00.488008 57672 net.cpp:380] classifier -> classifier
I0918 13:32:00.488077 57672 net.cpp:122] Setting up classifier
I0918 13:32:00.488085 57672 net.cpp:129] Top shape: 1 10 (10)
I0918 13:32:00.488090 57672 net.cpp:137] Memory required for data: 26122548
I0918 13:32:00.488095 57672 layer_factory.hpp:77] Creating layer classifier_classifier_0_split
I0918 13:32:00.488106 57672 net.cpp:84] Creating Layer classifier_classifier_0_split
I0918 13:32:00.488111 57672 net.cpp:406] classifier_classifier_0_split <- classifier
I0918 13:32:00.488116 57672 net.cpp:380] classifier_classifier_0_split -> classifier_classifier_0_split_0
I0918 13:32:00.488123 57672 net.cpp:380] classifier_classifier_0_split -> classifier_classifier_0_split_1
I0918 13:32:00.488147 57672 net.cpp:122] Setting up classifier_classifier_0_split
I0918 13:32:00.488157 57672 net.cpp:129] Top shape: 1 10 (10)
I0918 13:32:00.488168 57672 net.cpp:129] Top shape: 1 10 (10)
I0918 13:32:00.488173 57672 net.cpp:137] Memory required for data: 26122628
I0918 13:32:00.488178 57672 layer_factory.hpp:77] Creating layer softmax_loss
I0918 13:32:00.488185 57672 net.cpp:84] Creating Layer softmax_loss
I0918 13:32:00.488190 57672 net.cpp:406] softmax_loss <- classifier_classifier_0_split_0
I0918 13:32:00.488195 57672 net.cpp:406] softmax_loss <- label_InputData_1_split_0
…
