…
I0901 21:33:42.030156 1078811 net.cpp:294] The NetState phase (0) differed from the phase (1) specified by a rule in layer accuracy
I0901 21:33:42.030167 1078811 net.cpp:51] Initializing net from parameters: 
state {
  phase: TRAIN
  level: 0
  stage: ""
}
layer {
  name: "InputData"
  type: "ImageData"
  top: "data"
  top: "label"
  include {
    phase: TRAIN
  }
  transform_param {
    mirror: true
    crop_size: 32
  }
  image_data_param {
    source: "/home/jcwang/work/1.CIFAR10/train.txt"
    batch_size: 32
    shuffle: true
    is_color: true
  }
}
layer {
  name: "B0_0_ConvBNScaleReLU_Conv"
  type: "Convolution"
  bottom: "data"
  top: "B0_0_ConvBNScaleReLU_Conv"
  convolution_param {
    num_output: 64
    bias_term: false
    pad: 1
    kernel_size: 3
    stride: 1
    weight_filler {
      type: "xavier"
    }
    bias_filler {
      type: "constant"
    }
  }
}
layer {
  name: "B0_0_ConvBNScaleReLU_BN"
  type: "BatchNorm"
  bottom: "B0_0_ConvBNScaleReLU_Conv"
  top: "B0_0_ConvBNScaleReLU_Conv"
  param {
    lr_mult: 0
    decay_mult: 0
  }
  param {
    lr_mult: 0
    decay_mult: 0
  }
  param {
    lr_mult: 0
    decay_mult: 0
  }
  batch_norm_param {
    moving_average_fraction: 0.999
    eps: 0.001
  }
}
layer {
  name: "B0_0_ConvBNScaleReLU_Scale"
  type: "Scale"
  bottom: "B0_0_ConvBNScaleReLU_Conv"
  top: "B0_0_ConvBNScaleReLU_Conv"
  scale_param {
    filler {
      value: 1
    }
    bias_term: true
    bias_filler {
      value: 0
    }
    l1_lambda: 0
  }
}
layer {
  name: "B0_0_ConvBNScaleReLU_ReLU"
  type: "ReLU"
  bottom: "B0_0_ConvBNScaleReLU_Conv"
  top: "B0_0_ConvBNScaleReLU_Conv"
}
layer {
  name: "B0_0_ConvBNScaleReLU_Dropout"
  type: "Dropout"
  bottom: "B0_0_ConvBNScaleReLU_Conv"
  top: "ConvBNScaleReLU"
  dropout_param {
    dropout_ratio: 0.25
  }
}
layer {
  name: "B0_1_SConv_SparseConv"
  type: "SparseConvolution"
  bottom: "ConvBNScaleReLU"
  top: "B0_1_SConvBlockV2_T1"
  sparse_convolution_param {
    weight_filler {
      type: "xavier"
    }
    channel_expand_multiplier: 8
  }
}
layer {
  name: "B0_1_SConv_BN"
  type: "BatchNorm"
  bottom: "B0_1_SConvBlockV2_T1"
  top: "B0_1_SConvBlockV2_T1"
  param {
    lr_mult: 0
    decay_mult: 0
  }
  param {
    lr_mult: 0
    decay_mult: 0
  }
  param {
    lr_mult: 0
    decay_mult: 0
  }
  batch_norm_param {
    moving_average_fraction: 0.999
    eps: 0.001
  }
}
layer {
  name: "B0_1_SConv_Scale"
  type: "Scale"
  bottom: "B0_1_SConvBlockV2_T1"
  top: "B0_1_SConvBlockV2_Scale"
  scale_param {
    bias_term: true
  }
}
layer {
  name: "B0_1_SConv_Conv1x1"
  type: "Convolution"
  bottom: "B0_1_SConvBlockV2_Scale"
  top: "B0_1_SConvBlockV2_Conv1x1"
  convolution_param {
    num_output: 64
    bias_term: true
    pad: 0
    kernel_size: 1
    stride: 1
    weight_filler {
      type: "xavier"
    }
    bias_filler {
      type: "constant"
    }
  }
}
layer {
  name: "B0_1_SConv_ReLU"
  type: "ReLU"
  bottom: "B0_1_SConvBlockV2_Conv1x1"
  top: "B0_1_SConvBlockV2_Conv1x1"
}
layer {
  name: "B0_1_SConv_Dropout"
  type: "Dropout"
  bottom: "B0_1_SConvBlockV2_Conv1x1"
  top: "B0_1_SConvBlockV2_Dropout"
  dropout_param {
    dropout_ratio: 0.25
  }
}
layer {
  name: "B0_Pooling"
  type: "Pooling"
  bottom: "B0_1_SConvBlockV2_Dropout"
  top: "Pooling1"
  pooling_param {
    pool: MAX
    kernel_size: 2
    stride: 2
    pad: 0
  }
}
layer {
  name: "B1_0_SConv_SparseConv"
  type: "SparseConvolution"
  bottom: "Pooling1"
  top: "B1_0_SConvBlockV2_T1"
  sparse_convolution_param {
    weight_filler {
      type: "xavier"
    }
    channel_expand_multiplier: 8
  }
}
layer {
  name: "B1_0_SConv_BN"
  type: "BatchNorm"
  bottom: "B1_0_SConvBlockV2_T1"
  top: "B1_0_SConvBlockV2_T1"
  param {
    lr_mult: 0
    decay_mult: 0
  }
  param {
    lr_mult: 0
    decay_mult: 0
  }
  param {
    lr_mult: 0
    decay_mult: 0
  }
  batch_norm_param {
    moving_average_fraction: 0.999
    eps: 0.001
  }
}
layer {
  name: "B1_0_SConv_Scale"
  type: "Scale"
  bottom: "B1_0_SConvBlockV2_T1"
  top: "B1_0_SConvBlockV2_Scale"
  scale_param {
    bias_term: true
  }
}
layer {
  name: "B1_0_SConv_Conv1x1"
  type: "Convolution"
  bottom: "B1_0_SConvBlockV2_Scale"
  top: "B1_0_SConvBlockV2_Conv1x1"
  convolution_param {
    num_output: 128
    bias_term: true
    pad: 0
    kernel_size: 1
    stride: 1
    weight_filler {
      type: "xavier"
    }
    bias_filler {
      type: "constant"
    }
  }
}
layer {
  name: "B1_0_SConv_ReLU"
  type: "ReLU"
  bottom: "B1_0_SConvBlockV2_Conv1x1"
  top: "B1_0_SConvBlockV2_Conv1x1"
}
layer {
  name: "B1_0_SConv_Dropout"
  type: "Dropout"
  bottom: "B1_0_SConvBlockV2_Conv1x1"
  top: "B1_0_SConvBlockV2_Dropout"
  dropout_param {
    dropout_ratio: 0.25
  }
}
layer {
  name: "B1_1_SConv_SparseConv"
  type: "SparseConvolution"
  bottom: "B1_0_SConvBlockV2_Dropout"
  top: "B1_1_SConvBlockV2_T1"
  sparse_convolution_param {
    weight_filler {
      type: "xavier"
    }
    channel_expand_multiplier: 8
  }
}
layer {
  name: "B1_1_SConv_BN"
  type: "BatchNorm"
  bottom: "B1_1_SConvBlockV2_T1"
  top: "B1_1_SConvBlockV2_T1"
  param {
    lr_mult: 0
    decay_mult: 0
  }
  param {
    lr_mult: 0
    decay_mult: 0
  }
  param {
    lr_mult: 0
    decay_mult: 0
  }
  batch_norm_param {
    moving_average_fraction: 0.999
    eps: 0.001
  }
}
layer {
  name: "B1_1_SConv_Scale"
  type: "Scale"
  bottom: "B1_1_SConvBlockV2_T1"
  top: "B1_1_SConvBlockV2_Scale"
  scale_param {
    bias_term: true
  }
}
layer {
  name: "B1_1_SConv_Conv1x1"
  type: "Convolution"
  bottom: "B1_1_SConvBlockV2_Scale"
  top: "B1_1_SConvBlockV2_Conv1x1"
  convolution_param {
    num_output: 128
    bias_term: true
    pad: 0
    kernel_size: 1
    stride: 1
    weight_filler {
      type: "xavier"
    }
    bias_filler {
      type: "constant"
    }
  }
}
layer {
  name: "B1_1_SConv_ReLU"
  type: "ReLU"
  bottom: "B1_1_SConvBlockV2_Conv1x1"
  top: "B1_1_SConvBlockV2_Conv1x1"
}
layer {
  name: "B1_1_SConv_Dropout"
  type: "Dropout"
  bottom: "B1_1_SConvBlockV2_Conv1x1"
  top: "B1_1_SConvBlockV2_Dropout"
  dropout_param {
    dropout_ratio: 0.25
  }
}
layer {
  name: "B1_Pooling"
  type: "Pooling"
  bottom: "B1_1_SConvBlockV2_Dropout"
  top: "Pooling2"
  pooling_param {
    pool: MAX
    kernel_size: 2
    stride: 2
    pad: 0
  }
}
layer {
  name: "B2_0_SConv_SparseConv"
  type: "SparseConvolution"
  bottom: "Pooling2"
  top: "B2_0_SConvBlockV2_T1"
  sparse_convolution_param {
    weight_filler {
      type: "xavier"
    }
    channel_expand_multiplier: 8
  }
}
layer {
  name: "B2_0_SConv_BN"
  type: "BatchNorm"
  bottom: "B2_0_SConvBlockV2_T1"
  top: "B2_0_SConvBlockV2_T1"
  param {
    lr_mult: 0
    decay_mult: 0
  }
  param {
    lr_mult: 0
    decay_mult: 0
  }
  param {
    lr_mult: 0
    decay_mult: 0
  }
  batch_norm_param {
    moving_average_fraction: 0.999
    eps: 0.001
  }
}
layer {
  name: "B2_0_SConv_Scale"
  type: "Scale"
  bottom: "B2_0_SConvBlockV2_T1"
  top: "B2_0_SConvBlockV2_Scale"
  scale_param {
    bias_term: true
  }
}
layer {
  name: "B2_0_SConv_Conv1x1"
  type: "Convolution"
  bottom: "B2_0_SConvBlockV2_Scale"
  top: "B2_0_SConvBlockV2_Conv1x1"
  convolution_param {
    num_output: 192
    bias_term: true
    pad: 0
    kernel_size: 1
    stride: 1
    weight_filler {
      type: "xavier"
    }
    bias_filler {
      type: "constant"
    }
  }
}
layer {
  name: "B2_0_SConv_ReLU"
  type: "ReLU"
  bottom: "B2_0_SConvBlockV2_Conv1x1"
  top: "B2_0_SConvBlockV2_Conv1x1"
}
layer {
  name: "B2_0_SConv_Dropout"
  type: "Dropout"
  bottom: "B2_0_SConvBlockV2_Conv1x1"
  top: "B2_0_SConvBlockV2_Dropout"
  dropout_param {
    dropout_ratio: 0.25
  }
}
layer {
  name: "B2_1_SConv_SparseConv"
  type: "SparseConvolution"
  bottom: "B2_0_SConvBlockV2_Dropout"
  top: "B2_1_SConvBlockV2_T1"
  sparse_convolution_param {
    weight_filler {
      type: "xavier"
    }
    channel_expand_multiplier: 8
  }
}
layer {
  name: "B2_1_SConv_BN"
  type: "BatchNorm"
  bottom: "B2_1_SConvBlockV2_T1"
  top: "B2_1_SConvBlockV2_T1"
  param {
    lr_mult: 0
    decay_mult: 0
  }
  param {
    lr_mult: 0
    decay_mult: 0
  }
  param {
    lr_mult: 0
    decay_mult: 0
  }
  batch_norm_param {
    moving_average_fraction: 0.999
    eps: 0.001
  }
}
layer {
  name: "B2_1_SConv_Scale"
  type: "Scale"
  bottom: "B2_1_SConvBlockV2_T1"
  top: "B2_1_SConvBlockV2_Scale"
  scale_param {
    bias_term: true
  }
}
layer {
  name: "B2_1_SConv_Conv1x1"
  type: "Convolution"
  bottom: "B2_1_SConvBlockV2_Scale"
  top: "B2_1_SConvBlockV2_Conv1x1"
  convolution_param {
    num_output: 192
    bias_term: true
    pad: 0
    kernel_size: 1
    stride: 1
    weight_filler {
      type: "xavier"
    }
    bias_filler {
      type: "constant"
    }
  }
}
layer {
  name: "B2_1_SConv_ReLU"
  type: "ReLU"
  bottom: "B2_1_SConvBlockV2_Conv1x1"
  top: "B2_1_SConvBlockV2_Conv1x1"
}
layer {
  name: "B2_1_SConv_Dropout"
  type: "Dropout"
  bottom: "B2_1_SConvBlockV2_Conv1x1"
  top: "B2_1_SConvBlockV2_Dropout"
  dropout_param {
    dropout_ratio: 0.25
  }
}
layer {
  name: "B2_2_SConv_SparseConv"
  type: "SparseConvolution"
  bottom: "B2_1_SConvBlockV2_Dropout"
  top: "B2_2_SConvBlockV2_T1"
  sparse_convolution_param {
    weight_filler {
      type: "xavier"
    }
    channel_expand_multiplier: 8
  }
}
layer {
  name: "B2_2_SConv_BN"
  type: "BatchNorm"
  bottom: "B2_2_SConvBlockV2_T1"
  top: "B2_2_SConvBlockV2_T1"
  param {
    lr_mult: 0
    decay_mult: 0
  }
  param {
    lr_mult: 0
    decay_mult: 0
  }
  param {
    lr_mult: 0
    decay_mult: 0
  }
  batch_norm_param {
    moving_average_fraction: 0.999
    eps: 0.001
  }
}
layer {
  name: "B2_2_SConv_Scale"
  type: "Scale"
  bottom: "B2_2_SConvBlockV2_T1"
  top: "B2_2_SConvBlockV2_Scale"
  scale_param {
    bias_term: true
  }
}
layer {
  name: "B2_2_SConv_Conv1x1"
  type: "Convolution"
  bottom: "B2_2_SConvBlockV2_Scale"
  top: "B2_2_SConvBlockV2_Conv1x1"
  convolution_param {
    num_output: 192
    bias_term: true
    pad: 0
    kernel_size: 1
    stride: 1
    weight_filler {
      type: "xavier"
    }
    bias_filler {
      type: "constant"
    }
  }
}
layer {
  name: "B2_2_SConv_ReLU"
  type: "ReLU"
  bottom: "B2_2_SConvBlockV2_Conv1x1"
  top: "B2_2_SConvBlockV2_Conv1x1"
}
layer {
  name: "B2_2_SConv_Dropout"
  type: "Dropout"
  bottom: "B2_2_SConvBlockV2_Conv1x1"
  top: "B2_2_SConvBlockV2_Dropout"
  dropout_param {
    dropout_ratio: 0.25
  }
}
layer {
  name: "B2_Pooling"
  type: "Pooling"
  bottom: "B2_2_SConvBlockV2_Dropout"
  top: "Pooling3"
  pooling_param {
    pool: MAX
    kernel_size: 2
    stride: 2
    pad: 0
  }
}
layer {
  name: "B3_0_SConv_SparseConv"
  type: "SparseConvolution"
  bottom: "Pooling3"
  top: "B3_0_SConvBlockV2_T1"
  sparse_convolution_param {
    weight_filler {
      type: "xavier"
    }
    channel_expand_multiplier: 8
  }
}
layer {
  name: "B3_0_SConv_BN"
  type: "BatchNorm"
  bottom: "B3_0_SConvBlockV2_T1"
  top: "B3_0_SConvBlockV2_T1"
  param {
    lr_mult: 0
    decay_mult: 0
  }
  param {
    lr_mult: 0
    decay_mult: 0
  }
  param {
    lr_mult: 0
    decay_mult: 0
  }
  batch_norm_param {
    moving_average_fraction: 0.999
    eps: 0.001
  }
}
layer {
  name: "B3_0_SConv_Scale"
  type: "Scale"
  bottom: "B3_0_SConvBlockV2_T1"
  top: "B3_0_SConvBlockV2_Scale"
  scale_param {
    bias_term: true
  }
}
layer {
  name: "B3_0_SConv_Conv1x1"
  type: "Convolution"
  bottom: "B3_0_SConvBlockV2_Scale"
  top: "B3_0_SConvBlockV2_Conv1x1"
  convolution_param {
    num_output: 192
    bias_term: true
    pad: 0
    kernel_size: 1
    stride: 1
    weight_filler {
      type: "xavier"
    }
    bias_filler {
      type: "constant"
    }
  }
}
layer {
  name: "B3_0_SConv_ReLU"
  type: "ReLU"
  bottom: "B3_0_SConvBlockV2_Conv1x1"
  top: "B3_0_SConvBlockV2_Conv1x1"
}
layer {
  name: "B3_0_SConv_Dropout"
  type: "Dropout"
  bottom: "B3_0_SConvBlockV2_Conv1x1"
  top: "B3_0_SConvBlockV2_Dropout"
  dropout_param {
    dropout_ratio: 0.25
  }
}
layer {
  name: "B3_1_SConv_SparseConv"
  type: "SparseConvolution"
  bottom: "B3_0_SConvBlockV2_Dropout"
  top: "B3_1_SConvBlockV2_T1"
  sparse_convolution_param {
    weight_filler {
      type: "xavier"
    }
    channel_expand_multiplier: 8
  }
}
layer {
  name: "B3_1_SConv_BN"
  type: "BatchNorm"
  bottom: "B3_1_SConvBlockV2_T1"
  top: "B3_1_SConvBlockV2_T1"
  param {
    lr_mult: 0
    decay_mult: 0
  }
  param {
    lr_mult: 0
    decay_mult: 0
  }
  param {
    lr_mult: 0
    decay_mult: 0
  }
  batch_norm_param {
    moving_average_fraction: 0.999
    eps: 0.001
  }
}
layer {
  name: "B3_1_SConv_Scale"
  type: "Scale"
  bottom: "B3_1_SConvBlockV2_T1"
  top: "B3_1_SConvBlockV2_Scale"
  scale_param {
    bias_term: true
  }
}
layer {
  name: "B3_1_SConv_Conv1x1"
  type: "Convolution"
  bottom: "B3_1_SConvBlockV2_Scale"
  top: "B3_1_SConvBlockV2_Conv1x1"
  convolution_param {
    num_output: 192
    bias_term: true
    pad: 0
    kernel_size: 1
    stride: 1
    weight_filler {
      type: "xavier"
    }
    bias_filler {
      type: "constant"
    }
  }
}
layer {
  name: "B3_1_SConv_ReLU"
  type: "ReLU"
  bottom: "B3_1_SConvBlockV2_Conv1x1"
  top: "B3_1_SConvBlockV2_Conv1x1"
}
layer {
  name: "B3_1_SConv_Dropout"
  type: "Dropout"
  bottom: "B3_1_SConvBlockV2_Conv1x1"
  top: "B3_1_SConvBlockV2_Dropout"
  dropout_param {
    dropout_ratio: 0.25
  }
}
layer {
  name: "B3_2_SConv_SparseConv"
  type: "SparseConvolution"
  bottom: "B3_1_SConvBlockV2_Dropout"
  top: "B3_2_SConvBlockV2_T1"
  sparse_convolution_param {
    weight_filler {
      type: "xavier"
    }
    channel_expand_multiplier: 8
  }
}
layer {
  name: "B3_2_SConv_BN"
  type: "BatchNorm"
  bottom: "B3_2_SConvBlockV2_T1"
  top: "B3_2_SConvBlockV2_T1"
  param {
    lr_mult: 0
    decay_mult: 0
  }
  param {
    lr_mult: 0
    decay_mult: 0
  }
  param {
    lr_mult: 0
    decay_mult: 0
  }
  batch_norm_param {
    moving_average_fraction: 0.999
    eps: 0.001
  }
}
layer {
  name: "B3_2_SConv_Scale"
  type: "Scale"
  bottom: "B3_2_SConvBlockV2_T1"
  top: "B3_2_SConvBlockV2_Scale"
  scale_param {
    bias_term: true
  }
}
layer {
  name: "B3_2_SConv_Conv1x1"
  type: "Convolution"
  bottom: "B3_2_SConvBlockV2_Scale"
  top: "B3_2_SConvBlockV2_Conv1x1"
  convolution_param {
    num_output: 192
    bias_term: true
    pad: 0
    kernel_size: 1
    stride: 1
    weight_filler {
      type: "xavier"
    }
    bias_filler {
      type: "constant"
    }
  }
}
layer {
  name: "B3_2_SConv_ReLU"
  type: "ReLU"
  bottom: "B3_2_SConvBlockV2_Conv1x1"
  top: "B3_2_SConvBlockV2_Conv1x1"
}
layer {
  name: "B3_2_SConv_Dropout"
  type: "Dropout"
  bottom: "B3_2_SConvBlockV2_Conv1x1"
  top: "B3_2_SConvBlockV2_Dropout"
  dropout_param {
    dropout_ratio: 0.25
  }
}
layer {
  name: "B3_Pooling"
  type: "Pooling"
  bottom: "B3_2_SConvBlockV2_Dropout"
  top: "Pooling4"
  pooling_param {
    pool: AVE
    global_pooling: true
  }
}
layer {
  name: "fc1"
  type: "InnerProduct"
  bottom: "Pooling4"
  top: "fc1"
  inner_product_param {
    num_output: 384
    bias_term: true
    weight_filler {
      type: "xavier"
    }
    bias_filler {
      type: "constant"
    }
  }
}
layer {
  name: "classifier"
  type: "InnerProduct"
  bottom: "fc1"
  top: "classifier"
  inner_product_param {
    num_output: 10
    bias_term: true
    weight_filler {
      type: "xavier"
    }
    bias_filler {
      type: "constant"
    }
  }
}
layer {
  name: "softmax_loss"
  type: "SoftmaxWithLoss"
  bottom: "classifier"
  bottom: "label"
  top: "softmax_loss"
}
I0901 21:33:42.030548 1078811 layer_factory.hpp:77] Creating layer InputData
I0901 21:33:42.030587 1078811 net.cpp:84] Creating Layer InputData
I0901 21:33:42.030597 1078811 net.cpp:380] InputData -> data
I0901 21:33:42.030632 1078811 net.cpp:380] InputData -> label
I0901 21:33:42.030653 1078811 image_data_layer.cpp:38] Opening file /home/jcwang/work/1.CIFAR10/train.txt
I0901 21:33:42.039928 1078811 image_data_layer.cpp:53] Shuffling data
I0901 21:33:42.040776 1078811 image_data_layer.cpp:63] A total of 50005 images.
I0901 21:33:42.041877 1078811 image_data_layer.cpp:90] output data size: 32,3,32,32
I0901 21:33:42.042327 1078811 net.cpp:122] Setting up InputData
I0901 21:33:42.042341 1078811 net.cpp:129] Top shape: 32 3 32 32 (98304)
I0901 21:33:42.042349 1078811 net.cpp:129] Top shape: 32 (32)
I0901 21:33:42.042354 1078811 net.cpp:137] Memory required for data: 393344
I0901 21:33:42.042361 1078811 layer_factory.hpp:77] Creating layer B0_0_ConvBNScaleReLU_Conv
I0901 21:33:42.042377 1078811 net.cpp:84] Creating Layer B0_0_ConvBNScaleReLU_Conv
I0901 21:33:42.042384 1078811 net.cpp:406] B0_0_ConvBNScaleReLU_Conv <- data
I0901 21:33:42.042395 1078811 net.cpp:380] B0_0_ConvBNScaleReLU_Conv -> B0_0_ConvBNScaleReLU_Conv
I0901 21:33:42.042635 1078811 net.cpp:122] Setting up B0_0_ConvBNScaleReLU_Conv
I0901 21:33:42.042645 1078811 net.cpp:129] Top shape: 32 64 32 32 (2097152)
I0901 21:33:42.042652 1078811 net.cpp:137] Memory required for data: 8781952
I0901 21:33:42.042663 1078811 layer_factory.hpp:77] Creating layer B0_0_ConvBNScaleReLU_BN
I0901 21:33:42.042675 1078811 net.cpp:84] Creating Layer B0_0_ConvBNScaleReLU_BN
I0901 21:33:42.042680 1078811 net.cpp:406] B0_0_ConvBNScaleReLU_BN <- B0_0_ConvBNScaleReLU_Conv
I0901 21:33:42.042687 1078811 net.cpp:367] B0_0_ConvBNScaleReLU_BN -> B0_0_ConvBNScaleReLU_Conv (in-place)
I0901 21:33:42.042804 1078811 net.cpp:122] Setting up B0_0_ConvBNScaleReLU_BN
I0901 21:33:42.042810 1078811 net.cpp:129] Top shape: 32 64 32 32 (2097152)
I0901 21:33:42.042816 1078811 net.cpp:137] Memory required for data: 17170560
I0901 21:33:42.042826 1078811 layer_factory.hpp:77] Creating layer B0_0_ConvBNScaleReLU_Scale
I0901 21:33:42.042837 1078811 net.cpp:84] Creating Layer B0_0_ConvBNScaleReLU_Scale
I0901 21:33:42.042842 1078811 net.cpp:406] B0_0_ConvBNScaleReLU_Scale <- B0_0_ConvBNScaleReLU_Conv
I0901 21:33:42.042848 1078811 net.cpp:367] B0_0_ConvBNScaleReLU_Scale -> B0_0_ConvBNScaleReLU_Conv (in-place)
I0901 21:33:42.042882 1078811 layer_factory.hpp:77] Creating layer B0_0_ConvBNScaleReLU_Scale
I0901 21:33:42.042973 1078811 net.cpp:122] Setting up B0_0_ConvBNScaleReLU_Scale
I0901 21:33:42.042980 1078811 net.cpp:129] Top shape: 32 64 32 32 (2097152)
I0901 21:33:42.042986 1078811 net.cpp:137] Memory required for data: 25559168
I0901 21:33:42.042994 1078811 layer_factory.hpp:77] Creating layer B0_0_ConvBNScaleReLU_ReLU
I0901 21:33:42.043004 1078811 net.cpp:84] Creating Layer B0_0_ConvBNScaleReLU_ReLU
I0901 21:33:42.043009 1078811 net.cpp:406] B0_0_ConvBNScaleReLU_ReLU <- B0_0_ConvBNScaleReLU_Conv
I0901 21:33:42.043015 1078811 net.cpp:367] B0_0_ConvBNScaleReLU_ReLU -> B0_0_ConvBNScaleReLU_Conv (in-place)
I0901 21:33:42.043020 1078811 net.cpp:122] Setting up B0_0_ConvBNScaleReLU_ReLU
I0901 21:33:42.043025 1078811 net.cpp:129] Top shape: 32 64 32 32 (2097152)
I0901 21:33:42.043030 1078811 net.cpp:137] Memory required for data: 33947776
I0901 21:33:42.043035 1078811 layer_factory.hpp:77] Creating layer B0_0_ConvBNScaleReLU_Dropout
I0901 21:33:42.043042 1078811 net.cpp:84] Creating Layer B0_0_ConvBNScaleReLU_Dropout
I0901 21:33:42.043046 1078811 net.cpp:406] B0_0_ConvBNScaleReLU_Dropout <- B0_0_ConvBNScaleReLU_Conv
I0901 21:33:42.043054 1078811 net.cpp:380] B0_0_ConvBNScaleReLU_Dropout -> ConvBNScaleReLU
I0901 21:33:42.043084 1078811 net.cpp:122] Setting up B0_0_ConvBNScaleReLU_Dropout
I0901 21:33:42.043092 1078811 net.cpp:129] Top shape: 32 64 32 32 (2097152)
I0901 21:33:42.043097 1078811 net.cpp:137] Memory required for data: 42336384
I0901 21:33:42.043113 1078811 layer_factory.hpp:77] Creating layer B0_1_SConv_SparseConv
I0901 21:33:42.043125 1078811 net.cpp:84] Creating Layer B0_1_SConv_SparseConv
I0901 21:33:42.043130 1078811 net.cpp:406] B0_1_SConv_SparseConv <- ConvBNScaleReLU
I0901 21:33:42.043136 1078811 net.cpp:380] B0_1_SConv_SparseConv -> B0_1_SConvBlockV2_T1
I0901 21:33:42.043262 1078811 net.cpp:122] Setting up B0_1_SConv_SparseConv
I0901 21:33:42.043268 1078811 net.cpp:129] Top shape: 32 512 32 32 (16777216)
I0901 21:33:42.043274 1078811 net.cpp:137] Memory required for data: 109445248
I0901 21:33:42.043280 1078811 layer_factory.hpp:77] Creating layer B0_1_SConv_BN
I0901 21:33:42.043287 1078811 net.cpp:84] Creating Layer B0_1_SConv_BN
I0901 21:33:42.043292 1078811 net.cpp:406] B0_1_SConv_BN <- B0_1_SConvBlockV2_T1
I0901 21:33:42.043300 1078811 net.cpp:367] B0_1_SConv_BN -> B0_1_SConvBlockV2_T1 (in-place)
I0901 21:33:42.043416 1078811 net.cpp:122] Setting up B0_1_SConv_BN
I0901 21:33:42.043423 1078811 net.cpp:129] Top shape: 32 512 32 32 (16777216)
I0901 21:33:42.043429 1078811 net.cpp:137] Memory required for data: 176554112
I0901 21:33:42.043437 1078811 layer_factory.hpp:77] Creating layer B0_1_SConv_Scale
I0901 21:33:42.043447 1078811 net.cpp:84] Creating Layer B0_1_SConv_Scale
I0901 21:33:42.043452 1078811 net.cpp:406] B0_1_SConv_Scale <- B0_1_SConvBlockV2_T1
I0901 21:33:42.043457 1078811 net.cpp:380] B0_1_SConv_Scale -> B0_1_SConvBlockV2_Scale
I0901 21:33:42.043488 1078811 layer_factory.hpp:77] Creating layer B0_1_SConv_Scale
I0901 21:33:42.043565 1078811 net.cpp:122] Setting up B0_1_SConv_Scale
I0901 21:33:42.043571 1078811 net.cpp:129] Top shape: 32 512 32 32 (16777216)
I0901 21:33:42.043577 1078811 net.cpp:137] Memory required for data: 243662976
I0901 21:33:42.043584 1078811 layer_factory.hpp:77] Creating layer B0_1_SConv_Conv1x1
I0901 21:33:42.043599 1078811 net.cpp:84] Creating Layer B0_1_SConv_Conv1x1
I0901 21:33:42.043604 1078811 net.cpp:406] B0_1_SConv_Conv1x1 <- B0_1_SConvBlockV2_Scale
I0901 21:33:42.043610 1078811 net.cpp:380] B0_1_SConv_Conv1x1 -> B0_1_SConvBlockV2_Conv1x1
I0901 21:33:42.043921 1078811 net.cpp:122] Setting up B0_1_SConv_Conv1x1
I0901 21:33:42.043931 1078811 net.cpp:129] Top shape: 32 64 32 32 (2097152)
I0901 21:33:42.043936 1078811 net.cpp:137] Memory required for data: 252051584
I0901 21:33:42.043942 1078811 layer_factory.hpp:77] Creating layer B0_1_SConv_ReLU
I0901 21:33:42.043949 1078811 net.cpp:84] Creating Layer B0_1_SConv_ReLU
I0901 21:33:42.043953 1078811 net.cpp:406] B0_1_SConv_ReLU <- B0_1_SConvBlockV2_Conv1x1
I0901 21:33:42.043959 1078811 net.cpp:367] B0_1_SConv_ReLU -> B0_1_SConvBlockV2_Conv1x1 (in-place)
I0901 21:33:42.043968 1078811 net.cpp:122] Setting up B0_1_SConv_ReLU
I0901 21:33:42.043972 1078811 net.cpp:129] Top shape: 32 64 32 32 (2097152)
I0901 21:33:42.043978 1078811 net.cpp:137] Memory required for data: 260440192
I0901 21:33:42.043982 1078811 layer_factory.hpp:77] Creating layer B0_1_SConv_Dropout
I0901 21:33:42.043989 1078811 net.cpp:84] Creating Layer B0_1_SConv_Dropout
I0901 21:33:42.043993 1078811 net.cpp:406] B0_1_SConv_Dropout <- B0_1_SConvBlockV2_Conv1x1
I0901 21:33:42.043999 1078811 net.cpp:380] B0_1_SConv_Dropout -> B0_1_SConvBlockV2_Dropout
I0901 21:33:42.044020 1078811 net.cpp:122] Setting up B0_1_SConv_Dropout
I0901 21:33:42.044026 1078811 net.cpp:129] Top shape: 32 64 32 32 (2097152)
I0901 21:33:42.044032 1078811 net.cpp:137] Memory required for data: 268828800
I0901 21:33:42.044036 1078811 layer_factory.hpp:77] Creating layer B0_Pooling
I0901 21:33:42.044044 1078811 net.cpp:84] Creating Layer B0_Pooling
I0901 21:33:42.044049 1078811 net.cpp:406] B0_Pooling <- B0_1_SConvBlockV2_Dropout
I0901 21:33:42.044056 1078811 net.cpp:380] B0_Pooling -> Pooling1
I0901 21:33:42.044085 1078811 net.cpp:122] Setting up B0_Pooling
I0901 21:33:42.044091 1078811 net.cpp:129] Top shape: 32 64 16 16 (524288)
I0901 21:33:42.044099 1078811 net.cpp:137] Memory required for data: 270925952
I0901 21:33:42.044104 1078811 layer_factory.hpp:77] Creating layer B1_0_SConv_SparseConv
I0901 21:33:42.044117 1078811 net.cpp:84] Creating Layer B1_0_SConv_SparseConv
I0901 21:33:42.044128 1078811 net.cpp:406] B1_0_SConv_SparseConv <- Pooling1
I0901 21:33:42.044137 1078811 net.cpp:380] B1_0_SConv_SparseConv -> B1_0_SConvBlockV2_T1
I0901 21:33:42.044230 1078811 net.cpp:122] Setting up B1_0_SConv_SparseConv
I0901 21:33:42.044239 1078811 net.cpp:129] Top shape: 32 512 16 16 (4194304)
I0901 21:33:42.044245 1078811 net.cpp:137] Memory required for data: 287703168
I0901 21:33:42.044250 1078811 layer_factory.hpp:77] Creating layer B1_0_SConv_BN
I0901 21:33:42.044257 1078811 net.cpp:84] Creating Layer B1_0_SConv_BN
I0901 21:33:42.044262 1078811 net.cpp:406] B1_0_SConv_BN <- B1_0_SConvBlockV2_T1
I0901 21:33:42.044268 1078811 net.cpp:367] B1_0_SConv_BN -> B1_0_SConvBlockV2_T1 (in-place)
I0901 21:33:42.044346 1078811 net.cpp:122] Setting up B1_0_SConv_BN
I0901 21:33:42.044353 1078811 net.cpp:129] Top shape: 32 512 16 16 (4194304)
I0901 21:33:42.044359 1078811 net.cpp:137] Memory required for data: 304480384
I0901 21:33:42.044368 1078811 layer_factory.hpp:77] Creating layer B1_0_SConv_Scale
I0901 21:33:42.044376 1078811 net.cpp:84] Creating Layer B1_0_SConv_Scale
I0901 21:33:42.044380 1078811 net.cpp:406] B1_0_SConv_Scale <- B1_0_SConvBlockV2_T1
I0901 21:33:42.044386 1078811 net.cpp:380] B1_0_SConv_Scale -> B1_0_SConvBlockV2_Scale
I0901 21:33:42.044418 1078811 layer_factory.hpp:77] Creating layer B1_0_SConv_Scale
I0901 21:33:42.044520 1078811 net.cpp:122] Setting up B1_0_SConv_Scale
I0901 21:33:42.044529 1078811 net.cpp:129] Top shape: 32 512 16 16 (4194304)
I0901 21:33:42.044535 1078811 net.cpp:137] Memory required for data: 321257600
I0901 21:33:42.044543 1078811 layer_factory.hpp:77] Creating layer B1_0_SConv_Conv1x1
I0901 21:33:42.044554 1078811 net.cpp:84] Creating Layer B1_0_SConv_Conv1x1
I0901 21:33:42.044560 1078811 net.cpp:406] B1_0_SConv_Conv1x1 <- B1_0_SConvBlockV2_Scale
I0901 21:33:42.044566 1078811 net.cpp:380] B1_0_SConv_Conv1x1 -> B1_0_SConvBlockV2_Conv1x1
I0901 21:33:42.046303 1078811 net.cpp:122] Setting up B1_0_SConv_Conv1x1
I0901 21:33:42.046317 1078811 net.cpp:129] Top shape: 32 128 16 16 (1048576)
I0901 21:33:42.046325 1078811 net.cpp:137] Memory required for data: 325451904
I0901 21:33:42.046332 1078811 layer_factory.hpp:77] Creating layer B1_0_SConv_ReLU
I0901 21:33:42.046342 1078811 net.cpp:84] Creating Layer B1_0_SConv_ReLU
I0901 21:33:42.046348 1078811 net.cpp:406] B1_0_SConv_ReLU <- B1_0_SConvBlockV2_Conv1x1
I0901 21:33:42.046355 1078811 net.cpp:367] B1_0_SConv_ReLU -> B1_0_SConvBlockV2_Conv1x1 (in-place)
I0901 21:33:42.046362 1078811 net.cpp:122] Setting up B1_0_SConv_ReLU
I0901 21:33:42.046367 1078811 net.cpp:129] Top shape: 32 128 16 16 (1048576)
I0901 21:33:42.046373 1078811 net.cpp:137] Memory required for data: 329646208
I0901 21:33:42.046378 1078811 layer_factory.hpp:77] Creating layer B1_0_SConv_Dropout
I0901 21:33:42.046384 1078811 net.cpp:84] Creating Layer B1_0_SConv_Dropout
I0901 21:33:42.046389 1078811 net.cpp:406] B1_0_SConv_Dropout <- B1_0_SConvBlockV2_Conv1x1
I0901 21:33:42.046397 1078811 net.cpp:380] B1_0_SConv_Dropout -> B1_0_SConvBlockV2_Dropout
I0901 21:33:42.046420 1078811 net.cpp:122] Setting up B1_0_SConv_Dropout
I0901 21:33:42.046427 1078811 net.cpp:129] Top shape: 32 128 16 16 (1048576)
I0901 21:33:42.046433 1078811 net.cpp:137] Memory required for data: 333840512
I0901 21:33:42.046438 1078811 layer_factory.hpp:77] Creating layer B1_1_SConv_SparseConv
I0901 21:33:42.046447 1078811 net.cpp:84] Creating Layer B1_1_SConv_SparseConv
I0901 21:33:42.046452 1078811 net.cpp:406] B1_1_SConv_SparseConv <- B1_0_SConvBlockV2_Dropout
I0901 21:33:42.046458 1078811 net.cpp:380] B1_1_SConv_SparseConv -> B1_1_SConvBlockV2_T1
I0901 21:33:42.046597 1078811 net.cpp:122] Setting up B1_1_SConv_SparseConv
I0901 21:33:42.046604 1078811 net.cpp:129] Top shape: 32 1024 16 16 (8388608)
I0901 21:33:42.046610 1078811 net.cpp:137] Memory required for data: 367394944
I0901 21:33:42.046617 1078811 layer_factory.hpp:77] Creating layer B1_1_SConv_BN
I0901 21:33:42.046627 1078811 net.cpp:84] Creating Layer B1_1_SConv_BN
I0901 21:33:42.046645 1078811 net.cpp:406] B1_1_SConv_BN <- B1_1_SConvBlockV2_T1
I0901 21:33:42.046651 1078811 net.cpp:367] B1_1_SConv_BN -> B1_1_SConvBlockV2_T1 (in-place)
I0901 21:33:42.046742 1078811 net.cpp:122] Setting up B1_1_SConv_BN
I0901 21:33:42.046749 1078811 net.cpp:129] Top shape: 32 1024 16 16 (8388608)
I0901 21:33:42.046756 1078811 net.cpp:137] Memory required for data: 400949376
I0901 21:33:42.046763 1078811 layer_factory.hpp:77] Creating layer B1_1_SConv_Scale
I0901 21:33:42.046772 1078811 net.cpp:84] Creating Layer B1_1_SConv_Scale
I0901 21:33:42.046778 1078811 net.cpp:406] B1_1_SConv_Scale <- B1_1_SConvBlockV2_T1
I0901 21:33:42.046784 1078811 net.cpp:380] B1_1_SConv_Scale -> B1_1_SConvBlockV2_Scale
I0901 21:33:42.046810 1078811 layer_factory.hpp:77] Creating layer B1_1_SConv_Scale
I0901 21:33:42.046869 1078811 net.cpp:122] Setting up B1_1_SConv_Scale
I0901 21:33:42.046876 1078811 net.cpp:129] Top shape: 32 1024 16 16 (8388608)
I0901 21:33:42.046882 1078811 net.cpp:137] Memory required for data: 434503808
I0901 21:33:42.046888 1078811 layer_factory.hpp:77] Creating layer B1_1_SConv_Conv1x1
I0901 21:33:42.046900 1078811 net.cpp:84] Creating Layer B1_1_SConv_Conv1x1
I0901 21:33:42.046905 1078811 net.cpp:406] B1_1_SConv_Conv1x1 <- B1_1_SConvBlockV2_Scale
I0901 21:33:42.046913 1078811 net.cpp:380] B1_1_SConv_Conv1x1 -> B1_1_SConvBlockV2_Conv1x1
I0901 21:33:42.047770 1078811 net.cpp:122] Setting up B1_1_SConv_Conv1x1
I0901 21:33:42.047780 1078811 net.cpp:129] Top shape: 32 128 16 16 (1048576)
I0901 21:33:42.047785 1078811 net.cpp:137] Memory required for data: 438698112
I0901 21:33:42.047791 1078811 layer_factory.hpp:77] Creating layer B1_1_SConv_ReLU
I0901 21:33:42.047798 1078811 net.cpp:84] Creating Layer B1_1_SConv_ReLU
I0901 21:33:42.047803 1078811 net.cpp:406] B1_1_SConv_ReLU <- B1_1_SConvBlockV2_Conv1x1
I0901 21:33:42.047808 1078811 net.cpp:367] B1_1_SConv_ReLU -> B1_1_SConvBlockV2_Conv1x1 (in-place)
I0901 21:33:42.047816 1078811 net.cpp:122] Setting up B1_1_SConv_ReLU
I0901 21:33:42.047821 1078811 net.cpp:129] Top shape: 32 128 16 16 (1048576)
I0901 21:33:42.047825 1078811 net.cpp:137] Memory required for data: 442892416
I0901 21:33:42.047830 1078811 layer_factory.hpp:77] Creating layer B1_1_SConv_Dropout
I0901 21:33:42.047835 1078811 net.cpp:84] Creating Layer B1_1_SConv_Dropout
I0901 21:33:42.047840 1078811 net.cpp:406] B1_1_SConv_Dropout <- B1_1_SConvBlockV2_Conv1x1
I0901 21:33:42.047845 1078811 net.cpp:380] B1_1_SConv_Dropout -> B1_1_SConvBlockV2_Dropout
I0901 21:33:42.047868 1078811 net.cpp:122] Setting up B1_1_SConv_Dropout
I0901 21:33:42.047878 1078811 net.cpp:129] Top shape: 32 128 16 16 (1048576)
I0901 21:33:42.047883 1078811 net.cpp:137] Memory required for data: 447086720
I0901 21:33:42.047888 1078811 layer_factory.hpp:77] Creating layer B1_Pooling
I0901 21:33:42.047894 1078811 net.cpp:84] Creating Layer B1_Pooling
I0901 21:33:42.047899 1078811 net.cpp:406] B1_Pooling <- B1_1_SConvBlockV2_Dropout
I0901 21:33:42.047904 1078811 net.cpp:380] B1_Pooling -> Pooling2
I0901 21:33:42.047927 1078811 net.cpp:122] Setting up B1_Pooling
I0901 21:33:42.047933 1078811 net.cpp:129] Top shape: 32 128 8 8 (262144)
I0901 21:33:42.047940 1078811 net.cpp:137] Memory required for data: 448135296
I0901 21:33:42.047943 1078811 layer_factory.hpp:77] Creating layer B2_0_SConv_SparseConv
I0901 21:33:42.047950 1078811 net.cpp:84] Creating Layer B2_0_SConv_SparseConv
I0901 21:33:42.047955 1078811 net.cpp:406] B2_0_SConv_SparseConv <- Pooling2
I0901 21:33:42.047963 1078811 net.cpp:380] B2_0_SConv_SparseConv -> B2_0_SConvBlockV2_T1
I0901 21:33:42.048094 1078811 net.cpp:122] Setting up B2_0_SConv_SparseConv
I0901 21:33:42.048101 1078811 net.cpp:129] Top shape: 32 1024 8 8 (2097152)
I0901 21:33:42.048107 1078811 net.cpp:137] Memory required for data: 456523904
I0901 21:33:42.048113 1078811 layer_factory.hpp:77] Creating layer B2_0_SConv_BN
I0901 21:33:42.048120 1078811 net.cpp:84] Creating Layer B2_0_SConv_BN
I0901 21:33:42.048125 1078811 net.cpp:406] B2_0_SConv_BN <- B2_0_SConvBlockV2_T1
I0901 21:33:42.048136 1078811 net.cpp:367] B2_0_SConv_BN -> B2_0_SConvBlockV2_T1 (in-place)
I0901 21:33:42.048221 1078811 net.cpp:122] Setting up B2_0_SConv_BN
I0901 21:33:42.048228 1078811 net.cpp:129] Top shape: 32 1024 8 8 (2097152)
I0901 21:33:42.048233 1078811 net.cpp:137] Memory required for data: 464912512
I0901 21:33:42.048244 1078811 layer_factory.hpp:77] Creating layer B2_0_SConv_Scale
I0901 21:33:42.048251 1078811 net.cpp:84] Creating Layer B2_0_SConv_Scale
I0901 21:33:42.048255 1078811 net.cpp:406] B2_0_SConv_Scale <- B2_0_SConvBlockV2_T1
I0901 21:33:42.048261 1078811 net.cpp:380] B2_0_SConv_Scale -> B2_0_SConvBlockV2_Scale
I0901 21:33:42.048287 1078811 layer_factory.hpp:77] Creating layer B2_0_SConv_Scale
I0901 21:33:42.048346 1078811 net.cpp:122] Setting up B2_0_SConv_Scale
I0901 21:33:42.048352 1078811 net.cpp:129] Top shape: 32 1024 8 8 (2097152)
I0901 21:33:42.048358 1078811 net.cpp:137] Memory required for data: 473301120
I0901 21:33:42.048365 1078811 layer_factory.hpp:77] Creating layer B2_0_SConv_Conv1x1
I0901 21:33:42.048379 1078811 net.cpp:84] Creating Layer B2_0_SConv_Conv1x1
I0901 21:33:42.048385 1078811 net.cpp:406] B2_0_SConv_Conv1x1 <- B2_0_SConvBlockV2_Scale
I0901 21:33:42.048391 1078811 net.cpp:380] B2_0_SConv_Conv1x1 -> B2_0_SConvBlockV2_Conv1x1
I0901 21:33:42.049571 1078811 net.cpp:122] Setting up B2_0_SConv_Conv1x1
I0901 21:33:42.049582 1078811 net.cpp:129] Top shape: 32 192 8 8 (393216)
I0901 21:33:42.049588 1078811 net.cpp:137] Memory required for data: 474873984
I0901 21:33:42.049594 1078811 layer_factory.hpp:77] Creating layer B2_0_SConv_ReLU
I0901 21:33:42.049604 1078811 net.cpp:84] Creating Layer B2_0_SConv_ReLU
I0901 21:33:42.049609 1078811 net.cpp:406] B2_0_SConv_ReLU <- B2_0_SConvBlockV2_Conv1x1
I0901 21:33:42.049615 1078811 net.cpp:367] B2_0_SConv_ReLU -> B2_0_SConvBlockV2_Conv1x1 (in-place)
I0901 21:33:42.049623 1078811 net.cpp:122] Setting up B2_0_SConv_ReLU
I0901 21:33:42.049626 1078811 net.cpp:129] Top shape: 32 192 8 8 (393216)
I0901 21:33:42.049633 1078811 net.cpp:137] Memory required for data: 476446848
I0901 21:33:42.049638 1078811 layer_factory.hpp:77] Creating layer B2_0_SConv_Dropout
I0901 21:33:42.049643 1078811 net.cpp:84] Creating Layer B2_0_SConv_Dropout
I0901 21:33:42.049647 1078811 net.cpp:406] B2_0_SConv_Dropout <- B2_0_SConvBlockV2_Conv1x1
I0901 21:33:42.049655 1078811 net.cpp:380] B2_0_SConv_Dropout -> B2_0_SConvBlockV2_Dropout
I0901 21:33:42.049677 1078811 net.cpp:122] Setting up B2_0_SConv_Dropout
I0901 21:33:42.049683 1078811 net.cpp:129] Top shape: 32 192 8 8 (393216)
I0901 21:33:42.049688 1078811 net.cpp:137] Memory required for data: 478019712
I0901 21:33:42.049693 1078811 layer_factory.hpp:77] Creating layer B2_1_SConv_SparseConv
I0901 21:33:42.049708 1078811 net.cpp:84] Creating Layer B2_1_SConv_SparseConv
I0901 21:33:42.049713 1078811 net.cpp:406] B2_1_SConv_SparseConv <- B2_0_SConvBlockV2_Dropout
I0901 21:33:42.049718 1078811 net.cpp:380] B2_1_SConv_SparseConv -> B2_1_SConvBlockV2_T1
I0901 21:33:42.049888 1078811 net.cpp:122] Setting up B2_1_SConv_SparseConv
I0901 21:33:42.049896 1078811 net.cpp:129] Top shape: 32 1536 8 8 (3145728)
I0901 21:33:42.049902 1078811 net.cpp:137] Memory required for data: 490602624
I0901 21:33:42.049907 1078811 layer_factory.hpp:77] Creating layer B2_1_SConv_BN
I0901 21:33:42.049917 1078811 net.cpp:84] Creating Layer B2_1_SConv_BN
I0901 21:33:42.049922 1078811 net.cpp:406] B2_1_SConv_BN <- B2_1_SConvBlockV2_T1
I0901 21:33:42.049928 1078811 net.cpp:367] B2_1_SConv_BN -> B2_1_SConvBlockV2_T1 (in-place)
I0901 21:33:42.050009 1078811 net.cpp:122] Setting up B2_1_SConv_BN
I0901 21:33:42.050016 1078811 net.cpp:129] Top shape: 32 1536 8 8 (3145728)
I0901 21:33:42.050022 1078811 net.cpp:137] Memory required for data: 503185536
I0901 21:33:42.050029 1078811 layer_factory.hpp:77] Creating layer B2_1_SConv_Scale
I0901 21:33:42.050035 1078811 net.cpp:84] Creating Layer B2_1_SConv_Scale
I0901 21:33:42.050040 1078811 net.cpp:406] B2_1_SConv_Scale <- B2_1_SConvBlockV2_T1
I0901 21:33:42.050046 1078811 net.cpp:380] B2_1_SConv_Scale -> B2_1_SConvBlockV2_Scale
I0901 21:33:42.050076 1078811 layer_factory.hpp:77] Creating layer B2_1_SConv_Scale
I0901 21:33:42.050139 1078811 net.cpp:122] Setting up B2_1_SConv_Scale
I0901 21:33:42.050148 1078811 net.cpp:129] Top shape: 32 1536 8 8 (3145728)
I0901 21:33:42.050153 1078811 net.cpp:137] Memory required for data: 515768448
I0901 21:33:42.050159 1078811 layer_factory.hpp:77] Creating layer B2_1_SConv_Conv1x1
I0901 21:33:42.050169 1078811 net.cpp:84] Creating Layer B2_1_SConv_Conv1x1
I0901 21:33:42.050174 1078811 net.cpp:406] B2_1_SConv_Conv1x1 <- B2_1_SConvBlockV2_Scale
I0901 21:33:42.050180 1078811 net.cpp:380] B2_1_SConv_Conv1x1 -> B2_1_SConvBlockV2_Conv1x1
I0901 21:33:42.052819 1078811 net.cpp:122] Setting up B2_1_SConv_Conv1x1
I0901 21:33:42.052834 1078811 net.cpp:129] Top shape: 32 192 8 8 (393216)
I0901 21:33:42.052840 1078811 net.cpp:137] Memory required for data: 517341312
I0901 21:33:42.052847 1078811 layer_factory.hpp:77] Creating layer B2_1_SConv_ReLU
I0901 21:33:42.052855 1078811 net.cpp:84] Creating Layer B2_1_SConv_ReLU
I0901 21:33:42.052860 1078811 net.cpp:406] B2_1_SConv_ReLU <- B2_1_SConvBlockV2_Conv1x1
I0901 21:33:42.052868 1078811 net.cpp:367] B2_1_SConv_ReLU -> B2_1_SConvBlockV2_Conv1x1 (in-place)
I0901 21:33:42.052876 1078811 net.cpp:122] Setting up B2_1_SConv_ReLU
I0901 21:33:42.052881 1078811 net.cpp:129] Top shape: 32 192 8 8 (393216)
I0901 21:33:42.052886 1078811 net.cpp:137] Memory required for data: 518914176
I0901 21:33:42.052891 1078811 layer_factory.hpp:77] Creating layer B2_1_SConv_Dropout
I0901 21:33:42.052897 1078811 net.cpp:84] Creating Layer B2_1_SConv_Dropout
I0901 21:33:42.052901 1078811 net.cpp:406] B2_1_SConv_Dropout <- B2_1_SConvBlockV2_Conv1x1
I0901 21:33:42.052909 1078811 net.cpp:380] B2_1_SConv_Dropout -> B2_1_SConvBlockV2_Dropout
I0901 21:33:42.052933 1078811 net.cpp:122] Setting up B2_1_SConv_Dropout
I0901 21:33:42.052939 1078811 net.cpp:129] Top shape: 32 192 8 8 (393216)
I0901 21:33:42.052945 1078811 net.cpp:137] Memory required for data: 520487040
I0901 21:33:42.052950 1078811 layer_factory.hpp:77] Creating layer B2_2_SConv_SparseConv
I0901 21:33:42.052959 1078811 net.cpp:84] Creating Layer B2_2_SConv_SparseConv
I0901 21:33:42.052964 1078811 net.cpp:406] B2_2_SConv_SparseConv <- B2_1_SConvBlockV2_Dropout
I0901 21:33:42.052970 1078811 net.cpp:380] B2_2_SConv_SparseConv -> B2_2_SConvBlockV2_T1
I0901 21:33:42.053144 1078811 net.cpp:122] Setting up B2_2_SConv_SparseConv
I0901 21:33:42.053153 1078811 net.cpp:129] Top shape: 32 1536 8 8 (3145728)
I0901 21:33:42.053159 1078811 net.cpp:137] Memory required for data: 533069952
I0901 21:33:42.053165 1078811 layer_factory.hpp:77] Creating layer B2_2_SConv_BN
I0901 21:33:42.053174 1078811 net.cpp:84] Creating Layer B2_2_SConv_BN
I0901 21:33:42.053179 1078811 net.cpp:406] B2_2_SConv_BN <- B2_2_SConvBlockV2_T1
I0901 21:33:42.053185 1078811 net.cpp:367] B2_2_SConv_BN -> B2_2_SConvBlockV2_T1 (in-place)
I0901 21:33:42.053272 1078811 net.cpp:122] Setting up B2_2_SConv_BN
I0901 21:33:42.053277 1078811 net.cpp:129] Top shape: 32 1536 8 8 (3145728)
I0901 21:33:42.053283 1078811 net.cpp:137] Memory required for data: 545652864
I0901 21:33:42.053290 1078811 layer_factory.hpp:77] Creating layer B2_2_SConv_Scale
I0901 21:33:42.053297 1078811 net.cpp:84] Creating Layer B2_2_SConv_Scale
I0901 21:33:42.053303 1078811 net.cpp:406] B2_2_SConv_Scale <- B2_2_SConvBlockV2_T1
I0901 21:33:42.053308 1078811 net.cpp:380] B2_2_SConv_Scale -> B2_2_SConvBlockV2_Scale
I0901 21:33:42.053333 1078811 layer_factory.hpp:77] Creating layer B2_2_SConv_Scale
I0901 21:33:42.053392 1078811 net.cpp:122] Setting up B2_2_SConv_Scale
I0901 21:33:42.053400 1078811 net.cpp:129] Top shape: 32 1536 8 8 (3145728)
I0901 21:33:42.053406 1078811 net.cpp:137] Memory required for data: 558235776
I0901 21:33:42.053411 1078811 layer_factory.hpp:77] Creating layer B2_2_SConv_Conv1x1
I0901 21:33:42.053421 1078811 net.cpp:84] Creating Layer B2_2_SConv_Conv1x1
I0901 21:33:42.053426 1078811 net.cpp:406] B2_2_SConv_Conv1x1 <- B2_2_SConvBlockV2_Scale
I0901 21:33:42.053432 1078811 net.cpp:380] B2_2_SConv_Conv1x1 -> B2_2_SConvBlockV2_Conv1x1
I0901 21:33:42.056102 1078811 net.cpp:122] Setting up B2_2_SConv_Conv1x1
I0901 21:33:42.056115 1078811 net.cpp:129] Top shape: 32 192 8 8 (393216)
I0901 21:33:42.056123 1078811 net.cpp:137] Memory required for data: 559808640
I0901 21:33:42.056129 1078811 layer_factory.hpp:77] Creating layer B2_2_SConv_ReLU
I0901 21:33:42.056136 1078811 net.cpp:84] Creating Layer B2_2_SConv_ReLU
I0901 21:33:42.056143 1078811 net.cpp:406] B2_2_SConv_ReLU <- B2_2_SConvBlockV2_Conv1x1
I0901 21:33:42.056149 1078811 net.cpp:367] B2_2_SConv_ReLU -> B2_2_SConvBlockV2_Conv1x1 (in-place)
I0901 21:33:42.056159 1078811 net.cpp:122] Setting up B2_2_SConv_ReLU
I0901 21:33:42.056164 1078811 net.cpp:129] Top shape: 32 192 8 8 (393216)
I0901 21:33:42.056169 1078811 net.cpp:137] Memory required for data: 561381504
I0901 21:33:42.056174 1078811 layer_factory.hpp:77] Creating layer B2_2_SConv_Dropout
I0901 21:33:42.056180 1078811 net.cpp:84] Creating Layer B2_2_SConv_Dropout
I0901 21:33:42.056185 1078811 net.cpp:406] B2_2_SConv_Dropout <- B2_2_SConvBlockV2_Conv1x1
I0901 21:33:42.056190 1078811 net.cpp:380] B2_2_SConv_Dropout -> B2_2_SConvBlockV2_Dropout
I0901 21:33:42.056214 1078811 net.cpp:122] Setting up B2_2_SConv_Dropout
I0901 21:33:42.056221 1078811 net.cpp:129] Top shape: 32 192 8 8 (393216)
I0901 21:33:42.056226 1078811 net.cpp:137] Memory required for data: 562954368
I0901 21:33:42.056231 1078811 layer_factory.hpp:77] Creating layer B2_Pooling
I0901 21:33:42.056238 1078811 net.cpp:84] Creating Layer B2_Pooling
I0901 21:33:42.056243 1078811 net.cpp:406] B2_Pooling <- B2_2_SConvBlockV2_Dropout
I0901 21:33:42.056252 1078811 net.cpp:380] B2_Pooling -> Pooling3
I0901 21:33:42.056273 1078811 net.cpp:122] Setting up B2_Pooling
I0901 21:33:42.056279 1078811 net.cpp:129] Top shape: 32 192 4 4 (98304)
I0901 21:33:42.056285 1078811 net.cpp:137] Memory required for data: 563347584
I0901 21:33:42.056291 1078811 layer_factory.hpp:77] Creating layer B3_0_SConv_SparseConv
I0901 21:33:42.056300 1078811 net.cpp:84] Creating Layer B3_0_SConv_SparseConv
I0901 21:33:42.056306 1078811 net.cpp:406] B3_0_SConv_SparseConv <- Pooling3
I0901 21:33:42.056313 1078811 net.cpp:380] B3_0_SConv_SparseConv -> B3_0_SConvBlockV2_T1
I0901 21:33:42.056501 1078811 net.cpp:122] Setting up B3_0_SConv_SparseConv
I0901 21:33:42.056517 1078811 net.cpp:129] Top shape: 32 1536 4 4 (786432)
I0901 21:33:42.056524 1078811 net.cpp:137] Memory required for data: 566493312
I0901 21:33:42.056529 1078811 layer_factory.hpp:77] Creating layer B3_0_SConv_BN
I0901 21:33:42.056537 1078811 net.cpp:84] Creating Layer B3_0_SConv_BN
I0901 21:33:42.056542 1078811 net.cpp:406] B3_0_SConv_BN <- B3_0_SConvBlockV2_T1
I0901 21:33:42.056551 1078811 net.cpp:367] B3_0_SConv_BN -> B3_0_SConvBlockV2_T1 (in-place)
I0901 21:33:42.056643 1078811 net.cpp:122] Setting up B3_0_SConv_BN
I0901 21:33:42.056650 1078811 net.cpp:129] Top shape: 32 1536 4 4 (786432)
I0901 21:33:42.056656 1078811 net.cpp:137] Memory required for data: 569639040
I0901 21:33:42.056663 1078811 layer_factory.hpp:77] Creating layer B3_0_SConv_Scale
I0901 21:33:42.056670 1078811 net.cpp:84] Creating Layer B3_0_SConv_Scale
I0901 21:33:42.056675 1078811 net.cpp:406] B3_0_SConv_Scale <- B3_0_SConvBlockV2_T1
I0901 21:33:42.056681 1078811 net.cpp:380] B3_0_SConv_Scale -> B3_0_SConvBlockV2_Scale
I0901 21:33:42.056710 1078811 layer_factory.hpp:77] Creating layer B3_0_SConv_Scale
I0901 21:33:42.056780 1078811 net.cpp:122] Setting up B3_0_SConv_Scale
I0901 21:33:42.056787 1078811 net.cpp:129] Top shape: 32 1536 4 4 (786432)
I0901 21:33:42.056793 1078811 net.cpp:137] Memory required for data: 572784768
I0901 21:33:42.056799 1078811 layer_factory.hpp:77] Creating layer B3_0_SConv_Conv1x1
I0901 21:33:42.056809 1078811 net.cpp:84] Creating Layer B3_0_SConv_Conv1x1
I0901 21:33:42.056815 1078811 net.cpp:406] B3_0_SConv_Conv1x1 <- B3_0_SConvBlockV2_Scale
I0901 21:33:42.056823 1078811 net.cpp:380] B3_0_SConv_Conv1x1 -> B3_0_SConvBlockV2_Conv1x1
I0901 21:33:42.059331 1078811 net.cpp:122] Setting up B3_0_SConv_Conv1x1
I0901 21:33:42.059348 1078811 net.cpp:129] Top shape: 32 192 4 4 (98304)
I0901 21:33:42.059362 1078811 net.cpp:137] Memory required for data: 573177984
I0901 21:33:42.059370 1078811 layer_factory.hpp:77] Creating layer B3_0_SConv_ReLU
I0901 21:33:42.059376 1078811 net.cpp:84] Creating Layer B3_0_SConv_ReLU
I0901 21:33:42.059381 1078811 net.cpp:406] B3_0_SConv_ReLU <- B3_0_SConvBlockV2_Conv1x1
I0901 21:33:42.059389 1078811 net.cpp:367] B3_0_SConv_ReLU -> B3_0_SConvBlockV2_Conv1x1 (in-place)
I0901 21:33:42.059396 1078811 net.cpp:122] Setting up B3_0_SConv_ReLU
I0901 21:33:42.059401 1078811 net.cpp:129] Top shape: 32 192 4 4 (98304)
I0901 21:33:42.059406 1078811 net.cpp:137] Memory required for data: 573571200
I0901 21:33:42.059410 1078811 layer_factory.hpp:77] Creating layer B3_0_SConv_Dropout
I0901 21:33:42.059417 1078811 net.cpp:84] Creating Layer B3_0_SConv_Dropout
I0901 21:33:42.059420 1078811 net.cpp:406] B3_0_SConv_Dropout <- B3_0_SConvBlockV2_Conv1x1
I0901 21:33:42.059425 1078811 net.cpp:380] B3_0_SConv_Dropout -> B3_0_SConvBlockV2_Dropout
I0901 21:33:42.059450 1078811 net.cpp:122] Setting up B3_0_SConv_Dropout
I0901 21:33:42.059456 1078811 net.cpp:129] Top shape: 32 192 4 4 (98304)
I0901 21:33:42.059463 1078811 net.cpp:137] Memory required for data: 573964416
I0901 21:33:42.059466 1078811 layer_factory.hpp:77] Creating layer B3_1_SConv_SparseConv
I0901 21:33:42.059475 1078811 net.cpp:84] Creating Layer B3_1_SConv_SparseConv
I0901 21:33:42.059479 1078811 net.cpp:406] B3_1_SConv_SparseConv <- B3_0_SConvBlockV2_Dropout
I0901 21:33:42.059485 1078811 net.cpp:380] B3_1_SConv_SparseConv -> B3_1_SConvBlockV2_T1
I0901 21:33:42.059648 1078811 net.cpp:122] Setting up B3_1_SConv_SparseConv
I0901 21:33:42.059655 1078811 net.cpp:129] Top shape: 32 1536 4 4 (786432)
I0901 21:33:42.059660 1078811 net.cpp:137] Memory required for data: 577110144
I0901 21:33:42.059666 1078811 layer_factory.hpp:77] Creating layer B3_1_SConv_BN
I0901 21:33:42.059675 1078811 net.cpp:84] Creating Layer B3_1_SConv_BN
I0901 21:33:42.059680 1078811 net.cpp:406] B3_1_SConv_BN <- B3_1_SConvBlockV2_T1
I0901 21:33:42.059685 1078811 net.cpp:367] B3_1_SConv_BN -> B3_1_SConvBlockV2_T1 (in-place)
I0901 21:33:42.059762 1078811 net.cpp:122] Setting up B3_1_SConv_BN
I0901 21:33:42.059768 1078811 net.cpp:129] Top shape: 32 1536 4 4 (786432)
I0901 21:33:42.059774 1078811 net.cpp:137] Memory required for data: 580255872
I0901 21:33:42.059784 1078811 layer_factory.hpp:77] Creating layer B3_1_SConv_Scale
I0901 21:33:42.059792 1078811 net.cpp:84] Creating Layer B3_1_SConv_Scale
I0901 21:33:42.059796 1078811 net.cpp:406] B3_1_SConv_Scale <- B3_1_SConvBlockV2_T1
I0901 21:33:42.059803 1078811 net.cpp:380] B3_1_SConv_Scale -> B3_1_SConvBlockV2_Scale
I0901 21:33:42.059828 1078811 layer_factory.hpp:77] Creating layer B3_1_SConv_Scale
I0901 21:33:42.059885 1078811 net.cpp:122] Setting up B3_1_SConv_Scale
I0901 21:33:42.059890 1078811 net.cpp:129] Top shape: 32 1536 4 4 (786432)
I0901 21:33:42.059896 1078811 net.cpp:137] Memory required for data: 583401600
I0901 21:33:42.059904 1078811 layer_factory.hpp:77] Creating layer B3_1_SConv_Conv1x1
I0901 21:33:42.059912 1078811 net.cpp:84] Creating Layer B3_1_SConv_Conv1x1
I0901 21:33:42.059917 1078811 net.cpp:406] B3_1_SConv_Conv1x1 <- B3_1_SConvBlockV2_Scale
I0901 21:33:42.059929 1078811 net.cpp:380] B3_1_SConv_Conv1x1 -> B3_1_SConvBlockV2_Conv1x1
I0901 21:33:42.062433 1078811 net.cpp:122] Setting up B3_1_SConv_Conv1x1
I0901 21:33:42.062445 1078811 net.cpp:129] Top shape: 32 192 4 4 (98304)
I0901 21:33:42.062453 1078811 net.cpp:137] Memory required for data: 583794816
I0901 21:33:42.062458 1078811 layer_factory.hpp:77] Creating layer B3_1_SConv_ReLU
I0901 21:33:42.062467 1078811 net.cpp:84] Creating Layer B3_1_SConv_ReLU
I0901 21:33:42.062474 1078811 net.cpp:406] B3_1_SConv_ReLU <- B3_1_SConvBlockV2_Conv1x1
I0901 21:33:42.062479 1078811 net.cpp:367] B3_1_SConv_ReLU -> B3_1_SConvBlockV2_Conv1x1 (in-place)
I0901 21:33:42.062485 1078811 net.cpp:122] Setting up B3_1_SConv_ReLU
I0901 21:33:42.062490 1078811 net.cpp:129] Top shape: 32 192 4 4 (98304)
I0901 21:33:42.062500 1078811 net.cpp:137] Memory required for data: 584188032
I0901 21:33:42.062510 1078811 layer_factory.hpp:77] Creating layer B3_1_SConv_Dropout
I0901 21:33:42.062518 1078811 net.cpp:84] Creating Layer B3_1_SConv_Dropout
I0901 21:33:42.062523 1078811 net.cpp:406] B3_1_SConv_Dropout <- B3_1_SConvBlockV2_Conv1x1
I0901 21:33:42.062528 1078811 net.cpp:380] B3_1_SConv_Dropout -> B3_1_SConvBlockV2_Dropout
I0901 21:33:42.062553 1078811 net.cpp:122] Setting up B3_1_SConv_Dropout
I0901 21:33:42.062559 1078811 net.cpp:129] Top shape: 32 192 4 4 (98304)
I0901 21:33:42.062566 1078811 net.cpp:137] Memory required for data: 584581248
I0901 21:33:42.062569 1078811 layer_factory.hpp:77] Creating layer B3_2_SConv_SparseConv
I0901 21:33:42.062577 1078811 net.cpp:84] Creating Layer B3_2_SConv_SparseConv
I0901 21:33:42.062582 1078811 net.cpp:406] B3_2_SConv_SparseConv <- B3_1_SConvBlockV2_Dropout
I0901 21:33:42.062588 1078811 net.cpp:380] B3_2_SConv_SparseConv -> B3_2_SConvBlockV2_T1
I0901 21:33:42.062752 1078811 net.cpp:122] Setting up B3_2_SConv_SparseConv
I0901 21:33:42.062758 1078811 net.cpp:129] Top shape: 32 1536 4 4 (786432)
I0901 21:33:42.062763 1078811 net.cpp:137] Memory required for data: 587726976
I0901 21:33:42.062769 1078811 layer_factory.hpp:77] Creating layer B3_2_SConv_BN
I0901 21:33:42.062778 1078811 net.cpp:84] Creating Layer B3_2_SConv_BN
I0901 21:33:42.062783 1078811 net.cpp:406] B3_2_SConv_BN <- B3_2_SConvBlockV2_T1
I0901 21:33:42.062788 1078811 net.cpp:367] B3_2_SConv_BN -> B3_2_SConvBlockV2_T1 (in-place)
I0901 21:33:42.062865 1078811 net.cpp:122] Setting up B3_2_SConv_BN
I0901 21:33:42.062872 1078811 net.cpp:129] Top shape: 32 1536 4 4 (786432)
I0901 21:33:42.062877 1078811 net.cpp:137] Memory required for data: 590872704
I0901 21:33:42.062884 1078811 layer_factory.hpp:77] Creating layer B3_2_SConv_Scale
I0901 21:33:42.062891 1078811 net.cpp:84] Creating Layer B3_2_SConv_Scale
I0901 21:33:42.062896 1078811 net.cpp:406] B3_2_SConv_Scale <- B3_2_SConvBlockV2_T1
I0901 21:33:42.062901 1078811 net.cpp:380] B3_2_SConv_Scale -> B3_2_SConvBlockV2_Scale
I0901 21:33:42.062923 1078811 layer_factory.hpp:77] Creating layer B3_2_SConv_Scale
I0901 21:33:42.062978 1078811 net.cpp:122] Setting up B3_2_SConv_Scale
I0901 21:33:42.062984 1078811 net.cpp:129] Top shape: 32 1536 4 4 (786432)
I0901 21:33:42.062989 1078811 net.cpp:137] Memory required for data: 594018432
I0901 21:33:42.062995 1078811 layer_factory.hpp:77] Creating layer B3_2_SConv_Conv1x1
I0901 21:33:42.063005 1078811 net.cpp:84] Creating Layer B3_2_SConv_Conv1x1
I0901 21:33:42.063010 1078811 net.cpp:406] B3_2_SConv_Conv1x1 <- B3_2_SConvBlockV2_Scale
I0901 21:33:42.063019 1078811 net.cpp:380] B3_2_SConv_Conv1x1 -> B3_2_SConvBlockV2_Conv1x1
I0901 21:33:42.065546 1078811 net.cpp:122] Setting up B3_2_SConv_Conv1x1
I0901 21:33:42.065558 1078811 net.cpp:129] Top shape: 32 192 4 4 (98304)
I0901 21:33:42.065565 1078811 net.cpp:137] Memory required for data: 594411648
I0901 21:33:42.065572 1078811 layer_factory.hpp:77] Creating layer B3_2_SConv_ReLU
I0901 21:33:42.065582 1078811 net.cpp:84] Creating Layer B3_2_SConv_ReLU
I0901 21:33:42.065587 1078811 net.cpp:406] B3_2_SConv_ReLU <- B3_2_SConvBlockV2_Conv1x1
I0901 21:33:42.065593 1078811 net.cpp:367] B3_2_SConv_ReLU -> B3_2_SConvBlockV2_Conv1x1 (in-place)
I0901 21:33:42.065599 1078811 net.cpp:122] Setting up B3_2_SConv_ReLU
I0901 21:33:42.065603 1078811 net.cpp:129] Top shape: 32 192 4 4 (98304)
I0901 21:33:42.065608 1078811 net.cpp:137] Memory required for data: 594804864
I0901 21:33:42.065613 1078811 layer_factory.hpp:77] Creating layer B3_2_SConv_Dropout
I0901 21:33:42.065618 1078811 net.cpp:84] Creating Layer B3_2_SConv_Dropout
I0901 21:33:42.065623 1078811 net.cpp:406] B3_2_SConv_Dropout <- B3_2_SConvBlockV2_Conv1x1
I0901 21:33:42.065629 1078811 net.cpp:380] B3_2_SConv_Dropout -> B3_2_SConvBlockV2_Dropout
I0901 21:33:42.065654 1078811 net.cpp:122] Setting up B3_2_SConv_Dropout
I0901 21:33:42.065659 1078811 net.cpp:129] Top shape: 32 192 4 4 (98304)
I0901 21:33:42.065665 1078811 net.cpp:137] Memory required for data: 595198080
I0901 21:33:42.065675 1078811 layer_factory.hpp:77] Creating layer B3_Pooling
I0901 21:33:42.065686 1078811 net.cpp:84] Creating Layer B3_Pooling
I0901 21:33:42.065691 1078811 net.cpp:406] B3_Pooling <- B3_2_SConvBlockV2_Dropout
I0901 21:33:42.065697 1078811 net.cpp:380] B3_Pooling -> Pooling4
I0901 21:33:42.065716 1078811 net.cpp:122] Setting up B3_Pooling
I0901 21:33:42.065722 1078811 net.cpp:129] Top shape: 32 192 1 1 (6144)
I0901 21:33:42.065727 1078811 net.cpp:137] Memory required for data: 595222656
I0901 21:33:42.065732 1078811 layer_factory.hpp:77] Creating layer fc1
I0901 21:33:42.065744 1078811 net.cpp:84] Creating Layer fc1
I0901 21:33:42.065749 1078811 net.cpp:406] fc1 <- Pooling4
I0901 21:33:42.065755 1078811 net.cpp:380] fc1 -> fc1
I0901 21:33:42.066175 1078811 net.cpp:122] Setting up fc1
I0901 21:33:42.066184 1078811 net.cpp:129] Top shape: 32 384 (12288)
I0901 21:33:42.066190 1078811 net.cpp:137] Memory required for data: 595271808
I0901 21:33:42.066195 1078811 layer_factory.hpp:77] Creating layer classifier
I0901 21:33:42.066201 1078811 net.cpp:84] Creating Layer classifier
I0901 21:33:42.066206 1078811 net.cpp:406] classifier <- fc1
I0901 21:33:42.066215 1078811 net.cpp:380] classifier -> classifier
I0901 21:33:42.066278 1078811 net.cpp:122] Setting up classifier
I0901 21:33:42.066285 1078811 net.cpp:129] Top shape: 32 10 (320)
I0901 21:33:42.066290 1078811 net.cpp:137] Memory required for data: 595273088
I0901 21:33:42.066295 1078811 layer_factory.hpp:77] Creating layer softmax_loss
I0901 21:33:42.066304 1078811 net.cpp:84] Creating Layer softmax_loss
I0901 21:33:42.066308 1078811 net.cpp:406] softmax_loss <- classifier
I0901 21:33:42.066313 1078811 net.cpp:406] softmax_loss <- label
I0901 21:33:42.066319 1078811 net.cpp:380] softmax_loss -> softmax_loss
…
I0901 21:33:42.067368 1078811 net.cpp:294] The NetState phase (1) differed from the phase (0) specified by a rule in layer InputData
I0901 21:33:42.067400 1078811 net.cpp:51] Initializing net from parameters: 
state {
  phase: TEST
}
layer {
  name: "InputData"
  type: "ImageData"
  top: "data"
  top: "label"
  include {
    phase: TEST
  }
  transform_param {
    mirror: true
    crop_size: 32
  }
  image_data_param {
    source: "/home/jcwang/work/1.CIFAR10/test.txt"
    batch_size: 1
    shuffle: true
    is_color: true
  }
}
layer {
  name: "B0_0_ConvBNScaleReLU_Conv"
  type: "Convolution"
  bottom: "data"
  top: "B0_0_ConvBNScaleReLU_Conv"
  convolution_param {
    num_output: 64
    bias_term: false
    pad: 1
    kernel_size: 3
    stride: 1
    weight_filler {
      type: "xavier"
    }
    bias_filler {
      type: "constant"
    }
  }
}
layer {
  name: "B0_0_ConvBNScaleReLU_BN"
  type: "BatchNorm"
  bottom: "B0_0_ConvBNScaleReLU_Conv"
  top: "B0_0_ConvBNScaleReLU_Conv"
  param {
    lr_mult: 0
    decay_mult: 0
  }
  param {
    lr_mult: 0
    decay_mult: 0
  }
  param {
    lr_mult: 0
    decay_mult: 0
  }
  batch_norm_param {
    moving_average_fraction: 0.999
    eps: 0.001
  }
}
layer {
  name: "B0_0_ConvBNScaleReLU_Scale"
  type: "Scale"
  bottom: "B0_0_ConvBNScaleReLU_Conv"
  top: "B0_0_ConvBNScaleReLU_Conv"
  scale_param {
    filler {
      value: 1
    }
    bias_term: true
    bias_filler {
      value: 0
    }
    l1_lambda: 0
  }
}
layer {
  name: "B0_0_ConvBNScaleReLU_ReLU"
  type: "ReLU"
  bottom: "B0_0_ConvBNScaleReLU_Conv"
  top: "B0_0_ConvBNScaleReLU_Conv"
}
layer {
  name: "B0_0_ConvBNScaleReLU_Dropout"
  type: "Dropout"
  bottom: "B0_0_ConvBNScaleReLU_Conv"
  top: "ConvBNScaleReLU"
  dropout_param {
    dropout_ratio: 0.25
  }
}
layer {
  name: "B0_1_SConv_SparseConv"
  type: "SparseConvolution"
  bottom: "ConvBNScaleReLU"
  top: "B0_1_SConvBlockV2_T1"
  sparse_convolution_param {
    weight_filler {
      type: "xavier"
    }
    channel_expand_multiplier: 8
  }
}
layer {
  name: "B0_1_SConv_BN"
  type: "BatchNorm"
  bottom: "B0_1_SConvBlockV2_T1"
  top: "B0_1_SConvBlockV2_T1"
  param {
    lr_mult: 0
    decay_mult: 0
  }
  param {
    lr_mult: 0
    decay_mult: 0
  }
  param {
    lr_mult: 0
    decay_mult: 0
  }
  batch_norm_param {
    moving_average_fraction: 0.999
    eps: 0.001
  }
}
layer {
  name: "B0_1_SConv_Scale"
  type: "Scale"
  bottom: "B0_1_SConvBlockV2_T1"
  top: "B0_1_SConvBlockV2_Scale"
  scale_param {
    bias_term: true
  }
}
layer {
  name: "B0_1_SConv_Conv1x1"
  type: "Convolution"
  bottom: "B0_1_SConvBlockV2_Scale"
  top: "B0_1_SConvBlockV2_Conv1x1"
  convolution_param {
    num_output: 64
    bias_term: true
    pad: 0
    kernel_size: 1
    stride: 1
    weight_filler {
      type: "xavier"
    }
    bias_filler {
      type: "constant"
    }
  }
}
layer {
  name: "B0_1_SConv_ReLU"
  type: "ReLU"
  bottom: "B0_1_SConvBlockV2_Conv1x1"
  top: "B0_1_SConvBlockV2_Conv1x1"
}
layer {
  name: "B0_1_SConv_Dropout"
  type: "Dropout"
  bottom: "B0_1_SConvBlockV2_Conv1x1"
  top: "B0_1_SConvBlockV2_Dropout"
  dropout_param {
    dropout_ratio: 0.25
  }
}
layer {
  name: "B0_Pooling"
  type: "Pooling"
  bottom: "B0_1_SConvBlockV2_Dropout"
  top: "Pooling1"
  pooling_param {
    pool: MAX
    kernel_size: 2
    stride: 2
    pad: 0
  }
}
layer {
  name: "B1_0_SConv_SparseConv"
  type: "SparseConvolution"
  bottom: "Pooling1"
  top: "B1_0_SConvBlockV2_T1"
  sparse_convolution_param {
    weight_filler {
      type: "xavier"
    }
    channel_expand_multiplier: 8
  }
}
layer {
  name: "B1_0_SConv_BN"
  type: "BatchNorm"
  bottom: "B1_0_SConvBlockV2_T1"
  top: "B1_0_SConvBlockV2_T1"
  param {
    lr_mult: 0
    decay_mult: 0
  }
  param {
    lr_mult: 0
    decay_mult: 0
  }
  param {
    lr_mult: 0
    decay_mult: 0
  }
  batch_norm_param {
    moving_average_fraction: 0.999
    eps: 0.001
  }
}
layer {
  name: "B1_0_SConv_Scale"
  type: "Scale"
  bottom: "B1_0_SConvBlockV2_T1"
  top: "B1_0_SConvBlockV2_Scale"
  scale_param {
    bias_term: true
  }
}
layer {
  name: "B1_0_SConv_Conv1x1"
  type: "Convolution"
  bottom: "B1_0_SConvBlockV2_Scale"
  top: "B1_0_SConvBlockV2_Conv1x1"
  convolution_param {
    num_output: 128
    bias_term: true
    pad: 0
    kernel_size: 1
    stride: 1
    weight_filler {
      type: "xavier"
    }
    bias_filler {
      type: "constant"
    }
  }
}
layer {
  name: "B1_0_SConv_ReLU"
  type: "ReLU"
  bottom: "B1_0_SConvBlockV2_Conv1x1"
  top: "B1_0_SConvBlockV2_Conv1x1"
}
layer {
  name: "B1_0_SConv_Dropout"
  type: "Dropout"
  bottom: "B1_0_SConvBlockV2_Conv1x1"
  top: "B1_0_SConvBlockV2_Dropout"
  dropout_param {
    dropout_ratio: 0.25
  }
}
layer {
  name: "B1_1_SConv_SparseConv"
  type: "SparseConvolution"
  bottom: "B1_0_SConvBlockV2_Dropout"
  top: "B1_1_SConvBlockV2_T1"
  sparse_convolution_param {
    weight_filler {
      type: "xavier"
    }
    channel_expand_multiplier: 8
  }
}
layer {
  name: "B1_1_SConv_BN"
  type: "BatchNorm"
  bottom: "B1_1_SConvBlockV2_T1"
  top: "B1_1_SConvBlockV2_T1"
  param {
    lr_mult: 0
    decay_mult: 0
  }
  param {
    lr_mult: 0
    decay_mult: 0
  }
  param {
    lr_mult: 0
    decay_mult: 0
  }
  batch_norm_param {
    moving_average_fraction: 0.999
    eps: 0.001
  }
}
layer {
  name: "B1_1_SConv_Scale"
  type: "Scale"
  bottom: "B1_1_SConvBlockV2_T1"
  top: "B1_1_SConvBlockV2_Scale"
  scale_param {
    bias_term: true
  }
}
layer {
  name: "B1_1_SConv_Conv1x1"
  type: "Convolution"
  bottom: "B1_1_SConvBlockV2_Scale"
  top: "B1_1_SConvBlockV2_Conv1x1"
  convolution_param {
    num_output: 128
    bias_term: true
    pad: 0
    kernel_size: 1
    stride: 1
    weight_filler {
      type: "xavier"
    }
    bias_filler {
      type: "constant"
    }
  }
}
layer {
  name: "B1_1_SConv_ReLU"
  type: "ReLU"
  bottom: "B1_1_SConvBlockV2_Conv1x1"
  top: "B1_1_SConvBlockV2_Conv1x1"
}
layer {
  name: "B1_1_SConv_Dropout"
  type: "Dropout"
  bottom: "B1_1_SConvBlockV2_Conv1x1"
  top: "B1_1_SConvBlockV2_Dropout"
  dropout_param {
    dropout_ratio: 0.25
  }
}
layer {
  name: "B1_Pooling"
  type: "Pooling"
  bottom: "B1_1_SConvBlockV2_Dropout"
  top: "Pooling2"
  pooling_param {
    pool: MAX
    kernel_size: 2
    stride: 2
    pad: 0
  }
}
layer {
  name: "B2_0_SConv_SparseConv"
  type: "SparseConvolution"
  bottom: "Pooling2"
  top: "B2_0_SConvBlockV2_T1"
  sparse_convolution_param {
    weight_filler {
      type: "xavier"
    }
    channel_expand_multiplier: 8
  }
}
layer {
  name: "B2_0_SConv_BN"
  type: "BatchNorm"
  bottom: "B2_0_SConvBlockV2_T1"
  top: "B2_0_SConvBlockV2_T1"
  param {
    lr_mult: 0
    decay_mult: 0
  }
  param {
    lr_mult: 0
    decay_mult: 0
  }
  param {
    lr_mult: 0
    decay_mult: 0
  }
  batch_norm_param {
    moving_average_fraction: 0.999
    eps: 0.001
  }
}
layer {
  name: "B2_0_SConv_Scale"
  type: "Scale"
  bottom: "B2_0_SConvBlockV2_T1"
  top: "B2_0_SConvBlockV2_Scale"
  scale_param {
    bias_term: true
  }
}
layer {
  name: "B2_0_SConv_Conv1x1"
  type: "Convolution"
  bottom: "B2_0_SConvBlockV2_Scale"
  top: "B2_0_SConvBlockV2_Conv1x1"
  convolution_param {
    num_output: 192
    bias_term: true
    pad: 0
    kernel_size: 1
    stride: 1
    weight_filler {
      type: "xavier"
    }
    bias_filler {
      type: "constant"
    }
  }
}
layer {
  name: "B2_0_SConv_ReLU"
  type: "ReLU"
  bottom: "B2_0_SConvBlockV2_Conv1x1"
  top: "B2_0_SConvBlockV2_Conv1x1"
}
layer {
  name: "B2_0_SConv_Dropout"
  type: "Dropout"
  bottom: "B2_0_SConvBlockV2_Conv1x1"
  top: "B2_0_SConvBlockV2_Dropout"
  dropout_param {
    dropout_ratio: 0.25
  }
}
layer {
  name: "B2_1_SConv_SparseConv"
  type: "SparseConvolution"
  bottom: "B2_0_SConvBlockV2_Dropout"
  top: "B2_1_SConvBlockV2_T1"
  sparse_convolution_param {
    weight_filler {
      type: "xavier"
    }
    channel_expand_multiplier: 8
  }
}
layer {
  name: "B2_1_SConv_BN"
  type: "BatchNorm"
  bottom: "B2_1_SConvBlockV2_T1"
  top: "B2_1_SConvBlockV2_T1"
  param {
    lr_mult: 0
    decay_mult: 0
  }
  param {
    lr_mult: 0
    decay_mult: 0
  }
  param {
    lr_mult: 0
    decay_mult: 0
  }
  batch_norm_param {
    moving_average_fraction: 0.999
    eps: 0.001
  }
}
layer {
  name: "B2_1_SConv_Scale"
  type: "Scale"
  bottom: "B2_1_SConvBlockV2_T1"
  top: "B2_1_SConvBlockV2_Scale"
  scale_param {
    bias_term: true
  }
}
layer {
  name: "B2_1_SConv_Conv1x1"
  type: "Convolution"
  bottom: "B2_1_SConvBlockV2_Scale"
  top: "B2_1_SConvBlockV2_Conv1x1"
  convolution_param {
    num_output: 192
    bias_term: true
    pad: 0
    kernel_size: 1
    stride: 1
    weight_filler {
      type: "xavier"
    }
    bias_filler {
      type: "constant"
    }
  }
}
layer {
  name: "B2_1_SConv_ReLU"
  type: "ReLU"
  bottom: "B2_1_SConvBlockV2_Conv1x1"
  top: "B2_1_SConvBlockV2_Conv1x1"
}
layer {
  name: "B2_1_SConv_Dropout"
  type: "Dropout"
  bottom: "B2_1_SConvBlockV2_Conv1x1"
  top: "B2_1_SConvBlockV2_Dropout"
  dropout_param {
    dropout_ratio: 0.25
  }
}
layer {
  name: "B2_2_SConv_SparseConv"
  type: "SparseConvolution"
  bottom: "B2_1_SConvBlockV2_Dropout"
  top: "B2_2_SConvBlockV2_T1"
  sparse_convolution_param {
    weight_filler {
      type: "xavier"
    }
    channel_expand_multiplier: 8
  }
}
layer {
  name: "B2_2_SConv_BN"
  type: "BatchNorm"
  bottom: "B2_2_SConvBlockV2_T1"
  top: "B2_2_SConvBlockV2_T1"
  param {
    lr_mult: 0
    decay_mult: 0
  }
  param {
    lr_mult: 0
    decay_mult: 0
  }
  param {
    lr_mult: 0
    decay_mult: 0
  }
  batch_norm_param {
    moving_average_fraction: 0.999
    eps: 0.001
  }
}
layer {
  name: "B2_2_SConv_Scale"
  type: "Scale"
  bottom: "B2_2_SConvBlockV2_T1"
  top: "B2_2_SConvBlockV2_Scale"
  scale_param {
    bias_term: true
  }
}
layer {
  name: "B2_2_SConv_Conv1x1"
  type: "Convolution"
  bottom: "B2_2_SConvBlockV2_Scale"
  top: "B2_2_SConvBlockV2_Conv1x1"
  convolution_param {
    num_output: 192
    bias_term: true
    pad: 0
    kernel_size: 1
    stride: 1
    weight_filler {
      type: "xavier"
    }
    bias_filler {
      type: "constant"
    }
  }
}
layer {
  name: "B2_2_SConv_ReLU"
  type: "ReLU"
  bottom: "B2_2_SConvBlockV2_Conv1x1"
  top: "B2_2_SConvBlockV2_Conv1x1"
}
layer {
  name: "B2_2_SConv_Dropout"
  type: "Dropout"
  bottom: "B2_2_SConvBlockV2_Conv1x1"
  top: "B2_2_SConvBlockV2_Dropout"
  dropout_param {
    dropout_ratio: 0.25
  }
}
layer {
  name: "B2_Pooling"
  type: "Pooling"
  bottom: "B2_2_SConvBlockV2_Dropout"
  top: "Pooling3"
  pooling_param {
    pool: MAX
    kernel_size: 2
    stride: 2
    pad: 0
  }
}
layer {
  name: "B3_0_SConv_SparseConv"
  type: "SparseConvolution"
  bottom: "Pooling3"
  top: "B3_0_SConvBlockV2_T1"
  sparse_convolution_param {
    weight_filler {
      type: "xavier"
    }
    channel_expand_multiplier: 8
  }
}
layer {
  name: "B3_0_SConv_BN"
  type: "BatchNorm"
  bottom: "B3_0_SConvBlockV2_T1"
  top: "B3_0_SConvBlockV2_T1"
  param {
    lr_mult: 0
    decay_mult: 0
  }
  param {
    lr_mult: 0
    decay_mult: 0
  }
  param {
    lr_mult: 0
    decay_mult: 0
  }
  batch_norm_param {
    moving_average_fraction: 0.999
    eps: 0.001
  }
}
layer {
  name: "B3_0_SConv_Scale"
  type: "Scale"
  bottom: "B3_0_SConvBlockV2_T1"
  top: "B3_0_SConvBlockV2_Scale"
  scale_param {
    bias_term: true
  }
}
layer {
  name: "B3_0_SConv_Conv1x1"
  type: "Convolution"
  bottom: "B3_0_SConvBlockV2_Scale"
  top: "B3_0_SConvBlockV2_Conv1x1"
  convolution_param {
    num_output: 192
    bias_term: true
    pad: 0
    kernel_size: 1
    stride: 1
    weight_filler {
      type: "xavier"
    }
    bias_filler {
      type: "constant"
    }
  }
}
layer {
  name: "B3_0_SConv_ReLU"
  type: "ReLU"
  bottom: "B3_0_SConvBlockV2_Conv1x1"
  top: "B3_0_SConvBlockV2_Conv1x1"
}
layer {
  name: "B3_0_SConv_Dropout"
  type: "Dropout"
  bottom: "B3_0_SConvBlockV2_Conv1x1"
  top: "B3_0_SConvBlockV2_Dropout"
  dropout_param {
    dropout_ratio: 0.25
  }
}
layer {
  name: "B3_1_SConv_SparseConv"
  type: "SparseConvolution"
  bottom: "B3_0_SConvBlockV2_Dropout"
  top: "B3_1_SConvBlockV2_T1"
  sparse_convolution_param {
    weight_filler {
      type: "xavier"
    }
    channel_expand_multiplier: 8
  }
}
layer {
  name: "B3_1_SConv_BN"
  type: "BatchNorm"
  bottom: "B3_1_SConvBlockV2_T1"
  top: "B3_1_SConvBlockV2_T1"
  param {
    lr_mult: 0
    decay_mult: 0
  }
  param {
    lr_mult: 0
    decay_mult: 0
  }
  param {
    lr_mult: 0
    decay_mult: 0
  }
  batch_norm_param {
    moving_average_fraction: 0.999
    eps: 0.001
  }
}
layer {
  name: "B3_1_SConv_Scale"
  type: "Scale"
  bottom: "B3_1_SConvBlockV2_T1"
  top: "B3_1_SConvBlockV2_Scale"
  scale_param {
    bias_term: true
  }
}
layer {
  name: "B3_1_SConv_Conv1x1"
  type: "Convolution"
  bottom: "B3_1_SConvBlockV2_Scale"
  top: "B3_1_SConvBlockV2_Conv1x1"
  convolution_param {
    num_output: 192
    bias_term: true
    pad: 0
    kernel_size: 1
    stride: 1
    weight_filler {
      type: "xavier"
    }
    bias_filler {
      type: "constant"
    }
  }
}
layer {
  name: "B3_1_SConv_ReLU"
  type: "ReLU"
  bottom: "B3_1_SConvBlockV2_Conv1x1"
  top: "B3_1_SConvBlockV2_Conv1x1"
}
layer {
  name: "B3_1_SConv_Dropout"
  type: "Dropout"
  bottom: "B3_1_SConvBlockV2_Conv1x1"
  top: "B3_1_SConvBlockV2_Dropout"
  dropout_param {
    dropout_ratio: 0.25
  }
}
layer {
  name: "B3_2_SConv_SparseConv"
  type: "SparseConvolution"
  bottom: "B3_1_SConvBlockV2_Dropout"
  top: "B3_2_SConvBlockV2_T1"
  sparse_convolution_param {
    weight_filler {
      type: "xavier"
    }
    channel_expand_multiplier: 8
  }
}
layer {
  name: "B3_2_SConv_BN"
  type: "BatchNorm"
  bottom: "B3_2_SConvBlockV2_T1"
  top: "B3_2_SConvBlockV2_T1"
  param {
    lr_mult: 0
    decay_mult: 0
  }
  param {
    lr_mult: 0
    decay_mult: 0
  }
  param {
    lr_mult: 0
    decay_mult: 0
  }
  batch_norm_param {
    moving_average_fraction: 0.999
    eps: 0.001
  }
}
layer {
  name: "B3_2_SConv_Scale"
  type: "Scale"
  bottom: "B3_2_SConvBlockV2_T1"
  top: "B3_2_SConvBlockV2_Scale"
  scale_param {
    bias_term: true
  }
}
layer {
  name: "B3_2_SConv_Conv1x1"
  type: "Convolution"
  bottom: "B3_2_SConvBlockV2_Scale"
  top: "B3_2_SConvBlockV2_Conv1x1"
  convolution_param {
    num_output: 192
    bias_term: true
    pad: 0
    kernel_size: 1
    stride: 1
    weight_filler {
      type: "xavier"
    }
    bias_filler {
      type: "constant"
    }
  }
}
layer {
  name: "B3_2_SConv_ReLU"
  type: "ReLU"
  bottom: "B3_2_SConvBlockV2_Conv1x1"
  top: "B3_2_SConvBlockV2_Conv1x1"
}
layer {
  name: "B3_2_SConv_Dropout"
  type: "Dropout"
  bottom: "B3_2_SConvBlockV2_Conv1x1"
  top: "B3_2_SConvBlockV2_Dropout"
  dropout_param {
    dropout_ratio: 0.25
  }
}
layer {
  name: "B3_Pooling"
  type: "Pooling"
  bottom: "B3_2_SConvBlockV2_Dropout"
  top: "Pooling4"
  pooling_param {
    pool: AVE
    global_pooling: true
  }
}
layer {
  name: "fc1"
  type: "InnerProduct"
  bottom: "Pooling4"
  top: "fc1"
  inner_product_param {
    num_output: 384
    bias_term: true
    weight_filler {
      type: "xavier"
    }
    bias_filler {
      type: "constant"
    }
  }
}
layer {
  name: "classifier"
  type: "InnerProduct"
  bottom: "fc1"
  top: "classifier"
  inner_product_param {
    num_output: 10
    bias_term: true
    weight_filler {
      type: "xavier"
    }
    bias_filler {
      type: "constant"
    }
  }
}
layer {
  name: "softmax_loss"
  type: "SoftmaxWithLoss"
  bottom: "classifier"
  bottom: "label"
  top: "softmax_loss"
}
layer {
  name: "accuracy"
  type: "Accuracy"
  bottom: "classifier"
  bottom: "label"
  top: "accuracy"
  include {
    phase: TEST
  }
}
I0901 21:33:42.067778 1078811 layer_factory.hpp:77] Creating layer InputData
I0901 21:33:42.067793 1078811 net.cpp:84] Creating Layer InputData
I0901 21:33:42.067800 1078811 net.cpp:380] InputData -> data
I0901 21:33:42.067808 1078811 net.cpp:380] InputData -> label
I0901 21:33:42.067821 1078811 image_data_layer.cpp:38] Opening file /home/jcwang/work/1.CIFAR10/test.txt
I0901 21:33:42.069960 1078811 image_data_layer.cpp:53] Shuffling data
I0901 21:33:42.070116 1078811 image_data_layer.cpp:63] A total of 10001 images.
I0901 21:33:42.070195 1078811 image_data_layer.cpp:90] output data size: 1,3,32,32
I0901 21:33:42.070401 1078811 net.cpp:122] Setting up InputData
I0901 21:33:42.070425 1078811 net.cpp:129] Top shape: 1 3 32 32 (3072)
I0901 21:33:42.070431 1078811 net.cpp:129] Top shape: 1 (1)
I0901 21:33:42.070437 1078811 net.cpp:137] Memory required for data: 12292
I0901 21:33:42.070442 1078811 layer_factory.hpp:77] Creating layer label_InputData_1_split
I0901 21:33:42.070451 1078811 net.cpp:84] Creating Layer label_InputData_1_split
I0901 21:33:42.070456 1078811 net.cpp:406] label_InputData_1_split <- label
I0901 21:33:42.070462 1078811 net.cpp:380] label_InputData_1_split -> label_InputData_1_split_0
I0901 21:33:42.070470 1078811 net.cpp:380] label_InputData_1_split -> label_InputData_1_split_1
I0901 21:33:42.070495 1078811 net.cpp:122] Setting up label_InputData_1_split
I0901 21:33:42.070502 1078811 net.cpp:129] Top shape: 1 (1)
I0901 21:33:42.070508 1078811 net.cpp:129] Top shape: 1 (1)
I0901 21:33:42.070513 1078811 net.cpp:137] Memory required for data: 12300
I0901 21:33:42.070518 1078811 layer_factory.hpp:77] Creating layer B0_0_ConvBNScaleReLU_Conv
I0901 21:33:42.070525 1078811 net.cpp:84] Creating Layer B0_0_ConvBNScaleReLU_Conv
I0901 21:33:42.070530 1078811 net.cpp:406] B0_0_ConvBNScaleReLU_Conv <- data
I0901 21:33:42.070536 1078811 net.cpp:380] B0_0_ConvBNScaleReLU_Conv -> B0_0_ConvBNScaleReLU_Conv
I0901 21:33:42.070693 1078811 net.cpp:122] Setting up B0_0_ConvBNScaleReLU_Conv
I0901 21:33:42.070701 1078811 net.cpp:129] Top shape: 1 64 32 32 (65536)
I0901 21:33:42.070708 1078811 net.cpp:137] Memory required for data: 274444
I0901 21:33:42.070714 1078811 layer_factory.hpp:77] Creating layer B0_0_ConvBNScaleReLU_BN
I0901 21:33:42.070722 1078811 net.cpp:84] Creating Layer B0_0_ConvBNScaleReLU_BN
I0901 21:33:42.070727 1078811 net.cpp:406] B0_0_ConvBNScaleReLU_BN <- B0_0_ConvBNScaleReLU_Conv
I0901 21:33:42.070734 1078811 net.cpp:367] B0_0_ConvBNScaleReLU_BN -> B0_0_ConvBNScaleReLU_Conv (in-place)
I0901 21:33:42.070823 1078811 net.cpp:122] Setting up B0_0_ConvBNScaleReLU_BN
I0901 21:33:42.070830 1078811 net.cpp:129] Top shape: 1 64 32 32 (65536)
I0901 21:33:42.070837 1078811 net.cpp:137] Memory required for data: 536588
I0901 21:33:42.070845 1078811 layer_factory.hpp:77] Creating layer B0_0_ConvBNScaleReLU_Scale
I0901 21:33:42.070856 1078811 net.cpp:84] Creating Layer B0_0_ConvBNScaleReLU_Scale
I0901 21:33:42.070861 1078811 net.cpp:406] B0_0_ConvBNScaleReLU_Scale <- B0_0_ConvBNScaleReLU_Conv
I0901 21:33:42.070868 1078811 net.cpp:367] B0_0_ConvBNScaleReLU_Scale -> B0_0_ConvBNScaleReLU_Conv (in-place)
I0901 21:33:42.070895 1078811 layer_factory.hpp:77] Creating layer B0_0_ConvBNScaleReLU_Scale
I0901 21:33:42.070969 1078811 net.cpp:122] Setting up B0_0_ConvBNScaleReLU_Scale
I0901 21:33:42.070976 1078811 net.cpp:129] Top shape: 1 64 32 32 (65536)
I0901 21:33:42.070981 1078811 net.cpp:137] Memory required for data: 798732
I0901 21:33:42.070989 1078811 layer_factory.hpp:77] Creating layer B0_0_ConvBNScaleReLU_ReLU
I0901 21:33:42.070995 1078811 net.cpp:84] Creating Layer B0_0_ConvBNScaleReLU_ReLU
I0901 21:33:42.070999 1078811 net.cpp:406] B0_0_ConvBNScaleReLU_ReLU <- B0_0_ConvBNScaleReLU_Conv
I0901 21:33:42.071005 1078811 net.cpp:367] B0_0_ConvBNScaleReLU_ReLU -> B0_0_ConvBNScaleReLU_Conv (in-place)
I0901 21:33:42.071012 1078811 net.cpp:122] Setting up B0_0_ConvBNScaleReLU_ReLU
I0901 21:33:42.071017 1078811 net.cpp:129] Top shape: 1 64 32 32 (65536)
I0901 21:33:42.071022 1078811 net.cpp:137] Memory required for data: 1060876
I0901 21:33:42.071025 1078811 layer_factory.hpp:77] Creating layer B0_0_ConvBNScaleReLU_Dropout
I0901 21:33:42.071031 1078811 net.cpp:84] Creating Layer B0_0_ConvBNScaleReLU_Dropout
I0901 21:33:42.071036 1078811 net.cpp:406] B0_0_ConvBNScaleReLU_Dropout <- B0_0_ConvBNScaleReLU_Conv
I0901 21:33:42.071041 1078811 net.cpp:380] B0_0_ConvBNScaleReLU_Dropout -> ConvBNScaleReLU
I0901 21:33:42.071077 1078811 net.cpp:122] Setting up B0_0_ConvBNScaleReLU_Dropout
I0901 21:33:42.071084 1078811 net.cpp:129] Top shape: 1 64 32 32 (65536)
I0901 21:33:42.071090 1078811 net.cpp:137] Memory required for data: 1323020
I0901 21:33:42.071095 1078811 layer_factory.hpp:77] Creating layer B0_1_SConv_SparseConv
I0901 21:33:42.071101 1078811 net.cpp:84] Creating Layer B0_1_SConv_SparseConv
I0901 21:33:42.071106 1078811 net.cpp:406] B0_1_SConv_SparseConv <- ConvBNScaleReLU
I0901 21:33:42.071112 1078811 net.cpp:380] B0_1_SConv_SparseConv -> B0_1_SConvBlockV2_T1
I0901 21:33:42.071236 1078811 net.cpp:122] Setting up B0_1_SConv_SparseConv
I0901 21:33:42.071244 1078811 net.cpp:129] Top shape: 1 512 32 32 (524288)
I0901 21:33:42.071249 1078811 net.cpp:137] Memory required for data: 3420172
I0901 21:33:42.071255 1078811 layer_factory.hpp:77] Creating layer B0_1_SConv_BN
I0901 21:33:42.071265 1078811 net.cpp:84] Creating Layer B0_1_SConv_BN
I0901 21:33:42.071270 1078811 net.cpp:406] B0_1_SConv_BN <- B0_1_SConvBlockV2_T1
I0901 21:33:42.071278 1078811 net.cpp:367] B0_1_SConv_BN -> B0_1_SConvBlockV2_T1 (in-place)
I0901 21:33:42.071408 1078811 net.cpp:122] Setting up B0_1_SConv_BN
I0901 21:33:42.071414 1078811 net.cpp:129] Top shape: 1 512 32 32 (524288)
I0901 21:33:42.071420 1078811 net.cpp:137] Memory required for data: 5517324
I0901 21:33:42.071430 1078811 layer_factory.hpp:77] Creating layer B0_1_SConv_Scale
I0901 21:33:42.071437 1078811 net.cpp:84] Creating Layer B0_1_SConv_Scale
I0901 21:33:42.071442 1078811 net.cpp:406] B0_1_SConv_Scale <- B0_1_SConvBlockV2_T1
I0901 21:33:42.071449 1078811 net.cpp:380] B0_1_SConv_Scale -> B0_1_SConvBlockV2_Scale
I0901 21:33:42.071476 1078811 layer_factory.hpp:77] Creating layer B0_1_SConv_Scale
I0901 21:33:42.071552 1078811 net.cpp:122] Setting up B0_1_SConv_Scale
I0901 21:33:42.071558 1078811 net.cpp:129] Top shape: 1 512 32 32 (524288)
I0901 21:33:42.071564 1078811 net.cpp:137] Memory required for data: 7614476
I0901 21:33:42.071570 1078811 layer_factory.hpp:77] Creating layer B0_1_SConv_Conv1x1
I0901 21:33:42.071581 1078811 net.cpp:84] Creating Layer B0_1_SConv_Conv1x1
I0901 21:33:42.071586 1078811 net.cpp:406] B0_1_SConv_Conv1x1 <- B0_1_SConvBlockV2_Scale
I0901 21:33:42.071592 1078811 net.cpp:380] B0_1_SConv_Conv1x1 -> B0_1_SConvBlockV2_Conv1x1
I0901 21:33:42.071921 1078811 net.cpp:122] Setting up B0_1_SConv_Conv1x1
I0901 21:33:42.071930 1078811 net.cpp:129] Top shape: 1 64 32 32 (65536)
I0901 21:33:42.071936 1078811 net.cpp:137] Memory required for data: 7876620
I0901 21:33:42.071943 1078811 layer_factory.hpp:77] Creating layer B0_1_SConv_ReLU
I0901 21:33:42.071956 1078811 net.cpp:84] Creating Layer B0_1_SConv_ReLU
I0901 21:33:42.071961 1078811 net.cpp:406] B0_1_SConv_ReLU <- B0_1_SConvBlockV2_Conv1x1
I0901 21:33:42.071967 1078811 net.cpp:367] B0_1_SConv_ReLU -> B0_1_SConvBlockV2_Conv1x1 (in-place)
I0901 21:33:42.071974 1078811 net.cpp:122] Setting up B0_1_SConv_ReLU
I0901 21:33:42.071978 1078811 net.cpp:129] Top shape: 1 64 32 32 (65536)
I0901 21:33:42.071985 1078811 net.cpp:137] Memory required for data: 8138764
I0901 21:33:42.071988 1078811 layer_factory.hpp:77] Creating layer B0_1_SConv_Dropout
I0901 21:33:42.071995 1078811 net.cpp:84] Creating Layer B0_1_SConv_Dropout
I0901 21:33:42.072000 1078811 net.cpp:406] B0_1_SConv_Dropout <- B0_1_SConvBlockV2_Conv1x1
I0901 21:33:42.072005 1078811 net.cpp:380] B0_1_SConv_Dropout -> B0_1_SConvBlockV2_Dropout
I0901 21:33:42.072023 1078811 net.cpp:122] Setting up B0_1_SConv_Dropout
I0901 21:33:42.072029 1078811 net.cpp:129] Top shape: 1 64 32 32 (65536)
I0901 21:33:42.072034 1078811 net.cpp:137] Memory required for data: 8400908
I0901 21:33:42.072039 1078811 layer_factory.hpp:77] Creating layer B0_Pooling
I0901 21:33:42.072046 1078811 net.cpp:84] Creating Layer B0_Pooling
I0901 21:33:42.072050 1078811 net.cpp:406] B0_Pooling <- B0_1_SConvBlockV2_Dropout
I0901 21:33:42.072057 1078811 net.cpp:380] B0_Pooling -> Pooling1
I0901 21:33:42.072077 1078811 net.cpp:122] Setting up B0_Pooling
I0901 21:33:42.072088 1078811 net.cpp:129] Top shape: 1 64 16 16 (16384)
I0901 21:33:42.072099 1078811 net.cpp:137] Memory required for data: 8466444
I0901 21:33:42.072104 1078811 layer_factory.hpp:77] Creating layer B1_0_SConv_SparseConv
I0901 21:33:42.072111 1078811 net.cpp:84] Creating Layer B1_0_SConv_SparseConv
I0901 21:33:42.072115 1078811 net.cpp:406] B1_0_SConv_SparseConv <- Pooling1
I0901 21:33:42.072124 1078811 net.cpp:380] B1_0_SConv_SparseConv -> B1_0_SConvBlockV2_T1
I0901 21:33:42.072221 1078811 net.cpp:122] Setting up B1_0_SConv_SparseConv
I0901 21:33:42.072228 1078811 net.cpp:129] Top shape: 1 512 16 16 (131072)
I0901 21:33:42.072234 1078811 net.cpp:137] Memory required for data: 8990732
I0901 21:33:42.072240 1078811 layer_factory.hpp:77] Creating layer B1_0_SConv_BN
I0901 21:33:42.072247 1078811 net.cpp:84] Creating Layer B1_0_SConv_BN
I0901 21:33:42.072252 1078811 net.cpp:406] B1_0_SConv_BN <- B1_0_SConvBlockV2_T1
I0901 21:33:42.072258 1078811 net.cpp:367] B1_0_SConv_BN -> B1_0_SConvBlockV2_T1 (in-place)
I0901 21:33:42.072348 1078811 net.cpp:122] Setting up B1_0_SConv_BN
I0901 21:33:42.072355 1078811 net.cpp:129] Top shape: 1 512 16 16 (131072)
I0901 21:33:42.072360 1078811 net.cpp:137] Memory required for data: 9515020
I0901 21:33:42.072368 1078811 layer_factory.hpp:77] Creating layer B1_0_SConv_Scale
I0901 21:33:42.072377 1078811 net.cpp:84] Creating Layer B1_0_SConv_Scale
I0901 21:33:42.072382 1078811 net.cpp:406] B1_0_SConv_Scale <- B1_0_SConvBlockV2_T1
I0901 21:33:42.072388 1078811 net.cpp:380] B1_0_SConv_Scale -> B1_0_SConvBlockV2_Scale
I0901 21:33:42.072417 1078811 layer_factory.hpp:77] Creating layer B1_0_SConv_Scale
I0901 21:33:42.072520 1078811 net.cpp:122] Setting up B1_0_SConv_Scale
I0901 21:33:42.072530 1078811 net.cpp:129] Top shape: 1 512 16 16 (131072)
I0901 21:33:42.072536 1078811 net.cpp:137] Memory required for data: 10039308
I0901 21:33:42.072543 1078811 layer_factory.hpp:77] Creating layer B1_0_SConv_Conv1x1
I0901 21:33:42.072553 1078811 net.cpp:84] Creating Layer B1_0_SConv_Conv1x1
I0901 21:33:42.072559 1078811 net.cpp:406] B1_0_SConv_Conv1x1 <- B1_0_SConvBlockV2_Scale
I0901 21:33:42.072566 1078811 net.cpp:380] B1_0_SConv_Conv1x1 -> B1_0_SConvBlockV2_Conv1x1
I0901 21:33:42.073283 1078811 net.cpp:122] Setting up B1_0_SConv_Conv1x1
I0901 21:33:42.073292 1078811 net.cpp:129] Top shape: 1 128 16 16 (32768)
I0901 21:33:42.073298 1078811 net.cpp:137] Memory required for data: 10170380
I0901 21:33:42.073304 1078811 layer_factory.hpp:77] Creating layer B1_0_SConv_ReLU
I0901 21:33:42.073312 1078811 net.cpp:84] Creating Layer B1_0_SConv_ReLU
I0901 21:33:42.073316 1078811 net.cpp:406] B1_0_SConv_ReLU <- B1_0_SConvBlockV2_Conv1x1
I0901 21:33:42.073323 1078811 net.cpp:367] B1_0_SConv_ReLU -> B1_0_SConvBlockV2_Conv1x1 (in-place)
I0901 21:33:42.073328 1078811 net.cpp:122] Setting up B1_0_SConv_ReLU
I0901 21:33:42.073333 1078811 net.cpp:129] Top shape: 1 128 16 16 (32768)
I0901 21:33:42.073338 1078811 net.cpp:137] Memory required for data: 10301452
I0901 21:33:42.073343 1078811 layer_factory.hpp:77] Creating layer B1_0_SConv_Dropout
I0901 21:33:42.073352 1078811 net.cpp:84] Creating Layer B1_0_SConv_Dropout
I0901 21:33:42.073357 1078811 net.cpp:406] B1_0_SConv_Dropout <- B1_0_SConvBlockV2_Conv1x1
I0901 21:33:42.073364 1078811 net.cpp:380] B1_0_SConv_Dropout -> B1_0_SConvBlockV2_Dropout
I0901 21:33:42.073385 1078811 net.cpp:122] Setting up B1_0_SConv_Dropout
I0901 21:33:42.073391 1078811 net.cpp:129] Top shape: 1 128 16 16 (32768)
I0901 21:33:42.073397 1078811 net.cpp:137] Memory required for data: 10432524
I0901 21:33:42.073402 1078811 layer_factory.hpp:77] Creating layer B1_1_SConv_SparseConv
I0901 21:33:42.073408 1078811 net.cpp:84] Creating Layer B1_1_SConv_SparseConv
I0901 21:33:42.073413 1078811 net.cpp:406] B1_1_SConv_SparseConv <- B1_0_SConvBlockV2_Dropout
I0901 21:33:42.073421 1078811 net.cpp:380] B1_1_SConv_SparseConv -> B1_1_SConvBlockV2_T1
I0901 21:33:42.073555 1078811 net.cpp:122] Setting up B1_1_SConv_SparseConv
I0901 21:33:42.073563 1078811 net.cpp:129] Top shape: 1 1024 16 16 (262144)
I0901 21:33:42.073573 1078811 net.cpp:137] Memory required for data: 11481100
I0901 21:33:42.073585 1078811 layer_factory.hpp:77] Creating layer B1_1_SConv_BN
I0901 21:33:42.073594 1078811 net.cpp:84] Creating Layer B1_1_SConv_BN
I0901 21:33:42.073599 1078811 net.cpp:406] B1_1_SConv_BN <- B1_1_SConvBlockV2_T1
I0901 21:33:42.073606 1078811 net.cpp:367] B1_1_SConv_BN -> B1_1_SConvBlockV2_T1 (in-place)
I0901 21:33:42.073693 1078811 net.cpp:122] Setting up B1_1_SConv_BN
I0901 21:33:42.073700 1078811 net.cpp:129] Top shape: 1 1024 16 16 (262144)
I0901 21:33:42.073705 1078811 net.cpp:137] Memory required for data: 12529676
I0901 21:33:42.073712 1078811 layer_factory.hpp:77] Creating layer B1_1_SConv_Scale
I0901 21:33:42.073721 1078811 net.cpp:84] Creating Layer B1_1_SConv_Scale
I0901 21:33:42.073726 1078811 net.cpp:406] B1_1_SConv_Scale <- B1_1_SConvBlockV2_T1
I0901 21:33:42.073731 1078811 net.cpp:380] B1_1_SConv_Scale -> B1_1_SConvBlockV2_Scale
I0901 21:33:42.073761 1078811 layer_factory.hpp:77] Creating layer B1_1_SConv_Scale
I0901 21:33:42.073822 1078811 net.cpp:122] Setting up B1_1_SConv_Scale
I0901 21:33:42.073829 1078811 net.cpp:129] Top shape: 1 1024 16 16 (262144)
I0901 21:33:42.073835 1078811 net.cpp:137] Memory required for data: 13578252
I0901 21:33:42.073843 1078811 layer_factory.hpp:77] Creating layer B1_1_SConv_Conv1x1
I0901 21:33:42.073851 1078811 net.cpp:84] Creating Layer B1_1_SConv_Conv1x1
I0901 21:33:42.073856 1078811 net.cpp:406] B1_1_SConv_Conv1x1 <- B1_1_SConvBlockV2_Scale
I0901 21:33:42.073863 1078811 net.cpp:380] B1_1_SConv_Conv1x1 -> B1_1_SConvBlockV2_Conv1x1
I0901 21:33:42.074687 1078811 net.cpp:122] Setting up B1_1_SConv_Conv1x1
I0901 21:33:42.074695 1078811 net.cpp:129] Top shape: 1 128 16 16 (32768)
I0901 21:33:42.074702 1078811 net.cpp:137] Memory required for data: 13709324
I0901 21:33:42.074707 1078811 layer_factory.hpp:77] Creating layer B1_1_SConv_ReLU
I0901 21:33:42.074714 1078811 net.cpp:84] Creating Layer B1_1_SConv_ReLU
I0901 21:33:42.074719 1078811 net.cpp:406] B1_1_SConv_ReLU <- B1_1_SConvBlockV2_Conv1x1
I0901 21:33:42.074724 1078811 net.cpp:367] B1_1_SConv_ReLU -> B1_1_SConvBlockV2_Conv1x1 (in-place)
I0901 21:33:42.074731 1078811 net.cpp:122] Setting up B1_1_SConv_ReLU
I0901 21:33:42.074738 1078811 net.cpp:129] Top shape: 1 128 16 16 (32768)
I0901 21:33:42.074743 1078811 net.cpp:137] Memory required for data: 13840396
I0901 21:33:42.074748 1078811 layer_factory.hpp:77] Creating layer B1_1_SConv_Dropout
I0901 21:33:42.074752 1078811 net.cpp:84] Creating Layer B1_1_SConv_Dropout
I0901 21:33:42.074757 1078811 net.cpp:406] B1_1_SConv_Dropout <- B1_1_SConvBlockV2_Conv1x1
I0901 21:33:42.074765 1078811 net.cpp:380] B1_1_SConv_Dropout -> B1_1_SConvBlockV2_Dropout
I0901 21:33:42.074786 1078811 net.cpp:122] Setting up B1_1_SConv_Dropout
I0901 21:33:42.074792 1078811 net.cpp:129] Top shape: 1 128 16 16 (32768)
I0901 21:33:42.074798 1078811 net.cpp:137] Memory required for data: 13971468
I0901 21:33:42.074802 1078811 layer_factory.hpp:77] Creating layer B1_Pooling
I0901 21:33:42.074810 1078811 net.cpp:84] Creating Layer B1_Pooling
I0901 21:33:42.074815 1078811 net.cpp:406] B1_Pooling <- B1_1_SConvBlockV2_Dropout
I0901 21:33:42.074820 1078811 net.cpp:380] B1_Pooling -> Pooling2
I0901 21:33:42.074844 1078811 net.cpp:122] Setting up B1_Pooling
I0901 21:33:42.074851 1078811 net.cpp:129] Top shape: 1 128 8 8 (8192)
I0901 21:33:42.074856 1078811 net.cpp:137] Memory required for data: 14004236
I0901 21:33:42.074862 1078811 layer_factory.hpp:77] Creating layer B2_0_SConv_SparseConv
I0901 21:33:42.074869 1078811 net.cpp:84] Creating Layer B2_0_SConv_SparseConv
I0901 21:33:42.074874 1078811 net.cpp:406] B2_0_SConv_SparseConv <- Pooling2
I0901 21:33:42.074880 1078811 net.cpp:380] B2_0_SConv_SparseConv -> B2_0_SConvBlockV2_T1
I0901 21:33:42.075013 1078811 net.cpp:122] Setting up B2_0_SConv_SparseConv
I0901 21:33:42.075021 1078811 net.cpp:129] Top shape: 1 1024 8 8 (65536)
I0901 21:33:42.075026 1078811 net.cpp:137] Memory required for data: 14266380
I0901 21:33:42.075032 1078811 layer_factory.hpp:77] Creating layer B2_0_SConv_BN
I0901 21:33:42.075045 1078811 net.cpp:84] Creating Layer B2_0_SConv_BN
I0901 21:33:42.075055 1078811 net.cpp:406] B2_0_SConv_BN <- B2_0_SConvBlockV2_T1
I0901 21:33:42.075062 1078811 net.cpp:367] B2_0_SConv_BN -> B2_0_SConvBlockV2_T1 (in-place)
I0901 21:33:42.075170 1078811 net.cpp:122] Setting up B2_0_SConv_BN
I0901 21:33:42.075176 1078811 net.cpp:129] Top shape: 1 1024 8 8 (65536)
I0901 21:33:42.075182 1078811 net.cpp:137] Memory required for data: 14528524
I0901 21:33:42.075192 1078811 layer_factory.hpp:77] Creating layer B2_0_SConv_Scale
I0901 21:33:42.075199 1078811 net.cpp:84] Creating Layer B2_0_SConv_Scale
I0901 21:33:42.075204 1078811 net.cpp:406] B2_0_SConv_Scale <- B2_0_SConvBlockV2_T1
I0901 21:33:42.075210 1078811 net.cpp:380] B2_0_SConv_Scale -> B2_0_SConvBlockV2_Scale
I0901 21:33:42.075237 1078811 layer_factory.hpp:77] Creating layer B2_0_SConv_Scale
I0901 21:33:42.075314 1078811 net.cpp:122] Setting up B2_0_SConv_Scale
I0901 21:33:42.075321 1078811 net.cpp:129] Top shape: 1 1024 8 8 (65536)
I0901 21:33:42.075330 1078811 net.cpp:137] Memory required for data: 14790668
I0901 21:33:42.075335 1078811 layer_factory.hpp:77] Creating layer B2_0_SConv_Conv1x1
I0901 21:33:42.075349 1078811 net.cpp:84] Creating Layer B2_0_SConv_Conv1x1
I0901 21:33:42.075356 1078811 net.cpp:406] B2_0_SConv_Conv1x1 <- B2_0_SConvBlockV2_Scale
I0901 21:33:42.075362 1078811 net.cpp:380] B2_0_SConv_Conv1x1 -> B2_0_SConvBlockV2_Conv1x1
I0901 21:33:42.076490 1078811 net.cpp:122] Setting up B2_0_SConv_Conv1x1
I0901 21:33:42.076500 1078811 net.cpp:129] Top shape: 1 192 8 8 (12288)
I0901 21:33:42.076508 1078811 net.cpp:137] Memory required for data: 14839820
I0901 21:33:42.076514 1078811 layer_factory.hpp:77] Creating layer B2_0_SConv_ReLU
I0901 21:33:42.076520 1078811 net.cpp:84] Creating Layer B2_0_SConv_ReLU
I0901 21:33:42.076525 1078811 net.cpp:406] B2_0_SConv_ReLU <- B2_0_SConvBlockV2_Conv1x1
I0901 21:33:42.076532 1078811 net.cpp:367] B2_0_SConv_ReLU -> B2_0_SConvBlockV2_Conv1x1 (in-place)
I0901 21:33:42.076539 1078811 net.cpp:122] Setting up B2_0_SConv_ReLU
I0901 21:33:42.076543 1078811 net.cpp:129] Top shape: 1 192 8 8 (12288)
I0901 21:33:42.076550 1078811 net.cpp:137] Memory required for data: 14888972
I0901 21:33:42.076555 1078811 layer_factory.hpp:77] Creating layer B2_0_SConv_Dropout
I0901 21:33:42.076565 1078811 net.cpp:84] Creating Layer B2_0_SConv_Dropout
I0901 21:33:42.076570 1078811 net.cpp:406] B2_0_SConv_Dropout <- B2_0_SConvBlockV2_Conv1x1
I0901 21:33:42.076578 1078811 net.cpp:380] B2_0_SConv_Dropout -> B2_0_SConvBlockV2_Dropout
I0901 21:33:42.076606 1078811 net.cpp:122] Setting up B2_0_SConv_Dropout
I0901 21:33:42.076612 1078811 net.cpp:129] Top shape: 1 192 8 8 (12288)
I0901 21:33:42.076618 1078811 net.cpp:137] Memory required for data: 14938124
I0901 21:33:42.076623 1078811 layer_factory.hpp:77] Creating layer B2_1_SConv_SparseConv
I0901 21:33:42.076630 1078811 net.cpp:84] Creating Layer B2_1_SConv_SparseConv
I0901 21:33:42.076635 1078811 net.cpp:406] B2_1_SConv_SparseConv <- B2_0_SConvBlockV2_Dropout
I0901 21:33:42.076642 1078811 net.cpp:380] B2_1_SConv_SparseConv -> B2_1_SConvBlockV2_T1
I0901 21:33:42.076835 1078811 net.cpp:122] Setting up B2_1_SConv_SparseConv
I0901 21:33:42.076843 1078811 net.cpp:129] Top shape: 1 1536 8 8 (98304)
I0901 21:33:42.076848 1078811 net.cpp:137] Memory required for data: 15331340
I0901 21:33:42.076853 1078811 layer_factory.hpp:77] Creating layer B2_1_SConv_BN
I0901 21:33:42.076862 1078811 net.cpp:84] Creating Layer B2_1_SConv_BN
I0901 21:33:42.076867 1078811 net.cpp:406] B2_1_SConv_BN <- B2_1_SConvBlockV2_T1
I0901 21:33:42.076872 1078811 net.cpp:367] B2_1_SConv_BN -> B2_1_SConvBlockV2_T1 (in-place)
I0901 21:33:42.076951 1078811 net.cpp:122] Setting up B2_1_SConv_BN
I0901 21:33:42.076957 1078811 net.cpp:129] Top shape: 1 1536 8 8 (98304)
I0901 21:33:42.076963 1078811 net.cpp:137] Memory required for data: 15724556
I0901 21:33:42.076969 1078811 layer_factory.hpp:77] Creating layer B2_1_SConv_Scale
I0901 21:33:42.076975 1078811 net.cpp:84] Creating Layer B2_1_SConv_Scale
I0901 21:33:42.076984 1078811 net.cpp:406] B2_1_SConv_Scale <- B2_1_SConvBlockV2_T1
I0901 21:33:42.076995 1078811 net.cpp:380] B2_1_SConv_Scale -> B2_1_SConvBlockV2_Scale
I0901 21:33:42.077019 1078811 layer_factory.hpp:77] Creating layer B2_1_SConv_Scale
I0901 21:33:42.077080 1078811 net.cpp:122] Setting up B2_1_SConv_Scale
I0901 21:33:42.077085 1078811 net.cpp:129] Top shape: 1 1536 8 8 (98304)
I0901 21:33:42.077091 1078811 net.cpp:137] Memory required for data: 16117772
I0901 21:33:42.077097 1078811 layer_factory.hpp:77] Creating layer B2_1_SConv_Conv1x1
I0901 21:33:42.077106 1078811 net.cpp:84] Creating Layer B2_1_SConv_Conv1x1
I0901 21:33:42.077111 1078811 net.cpp:406] B2_1_SConv_Conv1x1 <- B2_1_SConvBlockV2_Scale
I0901 21:33:42.077116 1078811 net.cpp:380] B2_1_SConv_Conv1x1 -> B2_1_SConvBlockV2_Conv1x1
I0901 21:33:42.079802 1078811 net.cpp:122] Setting up B2_1_SConv_Conv1x1
I0901 21:33:42.079814 1078811 net.cpp:129] Top shape: 1 192 8 8 (12288)
I0901 21:33:42.079821 1078811 net.cpp:137] Memory required for data: 16166924
I0901 21:33:42.079828 1078811 layer_factory.hpp:77] Creating layer B2_1_SConv_ReLU
I0901 21:33:42.079835 1078811 net.cpp:84] Creating Layer B2_1_SConv_ReLU
I0901 21:33:42.079840 1078811 net.cpp:406] B2_1_SConv_ReLU <- B2_1_SConvBlockV2_Conv1x1
I0901 21:33:42.079849 1078811 net.cpp:367] B2_1_SConv_ReLU -> B2_1_SConvBlockV2_Conv1x1 (in-place)
I0901 21:33:42.079856 1078811 net.cpp:122] Setting up B2_1_SConv_ReLU
I0901 21:33:42.079861 1078811 net.cpp:129] Top shape: 1 192 8 8 (12288)
I0901 21:33:42.079867 1078811 net.cpp:137] Memory required for data: 16216076
I0901 21:33:42.079871 1078811 layer_factory.hpp:77] Creating layer B2_1_SConv_Dropout
I0901 21:33:42.079877 1078811 net.cpp:84] Creating Layer B2_1_SConv_Dropout
I0901 21:33:42.079882 1078811 net.cpp:406] B2_1_SConv_Dropout <- B2_1_SConvBlockV2_Conv1x1
I0901 21:33:42.079887 1078811 net.cpp:380] B2_1_SConv_Dropout -> B2_1_SConvBlockV2_Dropout
I0901 21:33:42.079913 1078811 net.cpp:122] Setting up B2_1_SConv_Dropout
I0901 21:33:42.079919 1078811 net.cpp:129] Top shape: 1 192 8 8 (12288)
I0901 21:33:42.079926 1078811 net.cpp:137] Memory required for data: 16265228
I0901 21:33:42.079929 1078811 layer_factory.hpp:77] Creating layer B2_2_SConv_SparseConv
I0901 21:33:42.079938 1078811 net.cpp:84] Creating Layer B2_2_SConv_SparseConv
I0901 21:33:42.079943 1078811 net.cpp:406] B2_2_SConv_SparseConv <- B2_1_SConvBlockV2_Dropout
I0901 21:33:42.079949 1078811 net.cpp:380] B2_2_SConv_SparseConv -> B2_2_SConvBlockV2_T1
I0901 21:33:42.080127 1078811 net.cpp:122] Setting up B2_2_SConv_SparseConv
I0901 21:33:42.080134 1078811 net.cpp:129] Top shape: 1 1536 8 8 (98304)
I0901 21:33:42.080140 1078811 net.cpp:137] Memory required for data: 16658444
I0901 21:33:42.080147 1078811 layer_factory.hpp:77] Creating layer B2_2_SConv_BN
I0901 21:33:42.080157 1078811 net.cpp:84] Creating Layer B2_2_SConv_BN
I0901 21:33:42.080163 1078811 net.cpp:406] B2_2_SConv_BN <- B2_2_SConvBlockV2_T1
I0901 21:33:42.080168 1078811 net.cpp:367] B2_2_SConv_BN -> B2_2_SConvBlockV2_T1 (in-place)
I0901 21:33:42.080263 1078811 net.cpp:122] Setting up B2_2_SConv_BN
I0901 21:33:42.080271 1078811 net.cpp:129] Top shape: 1 1536 8 8 (98304)
I0901 21:33:42.080276 1078811 net.cpp:137] Memory required for data: 17051660
I0901 21:33:42.080283 1078811 layer_factory.hpp:77] Creating layer B2_2_SConv_Scale
I0901 21:33:42.080289 1078811 net.cpp:84] Creating Layer B2_2_SConv_Scale
I0901 21:33:42.080294 1078811 net.cpp:406] B2_2_SConv_Scale <- B2_2_SConvBlockV2_T1
I0901 21:33:42.080299 1078811 net.cpp:380] B2_2_SConv_Scale -> B2_2_SConvBlockV2_Scale
I0901 21:33:42.080324 1078811 layer_factory.hpp:77] Creating layer B2_2_SConv_Scale
I0901 21:33:42.080384 1078811 net.cpp:122] Setting up B2_2_SConv_Scale
I0901 21:33:42.080390 1078811 net.cpp:129] Top shape: 1 1536 8 8 (98304)
I0901 21:33:42.080396 1078811 net.cpp:137] Memory required for data: 17444876
I0901 21:33:42.080402 1078811 layer_factory.hpp:77] Creating layer B2_2_SConv_Conv1x1
I0901 21:33:42.080413 1078811 net.cpp:84] Creating Layer B2_2_SConv_Conv1x1
I0901 21:33:42.080420 1078811 net.cpp:406] B2_2_SConv_Conv1x1 <- B2_2_SConvBlockV2_Scale
I0901 21:33:42.080456 1078811 net.cpp:380] B2_2_SConv_Conv1x1 -> B2_2_SConvBlockV2_Conv1x1
I0901 21:33:42.083123 1078811 net.cpp:122] Setting up B2_2_SConv_Conv1x1
I0901 21:33:42.083137 1078811 net.cpp:129] Top shape: 1 192 8 8 (12288)
I0901 21:33:42.083143 1078811 net.cpp:137] Memory required for data: 17494028
I0901 21:33:42.083150 1078811 layer_factory.hpp:77] Creating layer B2_2_SConv_ReLU
I0901 21:33:42.083158 1078811 net.cpp:84] Creating Layer B2_2_SConv_ReLU
I0901 21:33:42.083163 1078811 net.cpp:406] B2_2_SConv_ReLU <- B2_2_SConvBlockV2_Conv1x1
I0901 21:33:42.083168 1078811 net.cpp:367] B2_2_SConv_ReLU -> B2_2_SConvBlockV2_Conv1x1 (in-place)
I0901 21:33:42.083176 1078811 net.cpp:122] Setting up B2_2_SConv_ReLU
I0901 21:33:42.083181 1078811 net.cpp:129] Top shape: 1 192 8 8 (12288)
I0901 21:33:42.083186 1078811 net.cpp:137] Memory required for data: 17543180
I0901 21:33:42.083191 1078811 layer_factory.hpp:77] Creating layer B2_2_SConv_Dropout
I0901 21:33:42.083199 1078811 net.cpp:84] Creating Layer B2_2_SConv_Dropout
I0901 21:33:42.083204 1078811 net.cpp:406] B2_2_SConv_Dropout <- B2_2_SConvBlockV2_Conv1x1
I0901 21:33:42.083209 1078811 net.cpp:380] B2_2_SConv_Dropout -> B2_2_SConvBlockV2_Dropout
I0901 21:33:42.083235 1078811 net.cpp:122] Setting up B2_2_SConv_Dropout
I0901 21:33:42.083242 1078811 net.cpp:129] Top shape: 1 192 8 8 (12288)
I0901 21:33:42.083247 1078811 net.cpp:137] Memory required for data: 17592332
I0901 21:33:42.083252 1078811 layer_factory.hpp:77] Creating layer B2_Pooling
I0901 21:33:42.083261 1078811 net.cpp:84] Creating Layer B2_Pooling
I0901 21:33:42.083266 1078811 net.cpp:406] B2_Pooling <- B2_2_SConvBlockV2_Dropout
I0901 21:33:42.083271 1078811 net.cpp:380] B2_Pooling -> Pooling3
I0901 21:33:42.083297 1078811 net.cpp:122] Setting up B2_Pooling
I0901 21:33:42.083302 1078811 net.cpp:129] Top shape: 1 192 4 4 (3072)
I0901 21:33:42.083308 1078811 net.cpp:137] Memory required for data: 17604620
I0901 21:33:42.083313 1078811 layer_factory.hpp:77] Creating layer B3_0_SConv_SparseConv
I0901 21:33:42.083321 1078811 net.cpp:84] Creating Layer B3_0_SConv_SparseConv
I0901 21:33:42.083326 1078811 net.cpp:406] B3_0_SConv_SparseConv <- Pooling3
I0901 21:33:42.083334 1078811 net.cpp:380] B3_0_SConv_SparseConv -> B3_0_SConvBlockV2_T1
I0901 21:33:42.083510 1078811 net.cpp:122] Setting up B3_0_SConv_SparseConv
I0901 21:33:42.083518 1078811 net.cpp:129] Top shape: 1 1536 4 4 (24576)
I0901 21:33:42.083524 1078811 net.cpp:137] Memory required for data: 17702924
I0901 21:33:42.083530 1078811 layer_factory.hpp:77] Creating layer B3_0_SConv_BN
I0901 21:33:42.083537 1078811 net.cpp:84] Creating Layer B3_0_SConv_BN
I0901 21:33:42.083542 1078811 net.cpp:406] B3_0_SConv_BN <- B3_0_SConvBlockV2_T1
I0901 21:33:42.083549 1078811 net.cpp:367] B3_0_SConv_BN -> B3_0_SConvBlockV2_T1 (in-place)
I0901 21:33:42.083639 1078811 net.cpp:122] Setting up B3_0_SConv_BN
I0901 21:33:42.083647 1078811 net.cpp:129] Top shape: 1 1536 4 4 (24576)
I0901 21:33:42.083652 1078811 net.cpp:137] Memory required for data: 17801228
I0901 21:33:42.083659 1078811 layer_factory.hpp:77] Creating layer B3_0_SConv_Scale
I0901 21:33:42.083667 1078811 net.cpp:84] Creating Layer B3_0_SConv_Scale
I0901 21:33:42.083673 1078811 net.cpp:406] B3_0_SConv_Scale <- B3_0_SConvBlockV2_T1
I0901 21:33:42.083678 1078811 net.cpp:380] B3_0_SConv_Scale -> B3_0_SConvBlockV2_Scale
I0901 21:33:42.083703 1078811 layer_factory.hpp:77] Creating layer B3_0_SConv_Scale
I0901 21:33:42.083762 1078811 net.cpp:122] Setting up B3_0_SConv_Scale
I0901 21:33:42.083770 1078811 net.cpp:129] Top shape: 1 1536 4 4 (24576)
I0901 21:33:42.083775 1078811 net.cpp:137] Memory required for data: 17899532
I0901 21:33:42.083781 1078811 layer_factory.hpp:77] Creating layer B3_0_SConv_Conv1x1
I0901 21:33:42.083791 1078811 net.cpp:84] Creating Layer B3_0_SConv_Conv1x1
I0901 21:33:42.083796 1078811 net.cpp:406] B3_0_SConv_Conv1x1 <- B3_0_SConvBlockV2_Scale
I0901 21:33:42.083803 1078811 net.cpp:380] B3_0_SConv_Conv1x1 -> B3_0_SConvBlockV2_Conv1x1
I0901 21:33:42.086419 1078811 net.cpp:122] Setting up B3_0_SConv_Conv1x1
I0901 21:33:42.086441 1078811 net.cpp:129] Top shape: 1 192 4 4 (3072)
I0901 21:33:42.086448 1078811 net.cpp:137] Memory required for data: 17911820
I0901 21:33:42.086455 1078811 layer_factory.hpp:77] Creating layer B3_0_SConv_ReLU
I0901 21:33:42.086464 1078811 net.cpp:84] Creating Layer B3_0_SConv_ReLU
I0901 21:33:42.086470 1078811 net.cpp:406] B3_0_SConv_ReLU <- B3_0_SConvBlockV2_Conv1x1
I0901 21:33:42.086477 1078811 net.cpp:367] B3_0_SConv_ReLU -> B3_0_SConvBlockV2_Conv1x1 (in-place)
I0901 21:33:42.086483 1078811 net.cpp:122] Setting up B3_0_SConv_ReLU
I0901 21:33:42.086488 1078811 net.cpp:129] Top shape: 1 192 4 4 (3072)
I0901 21:33:42.086494 1078811 net.cpp:137] Memory required for data: 17924108
I0901 21:33:42.086498 1078811 layer_factory.hpp:77] Creating layer B3_0_SConv_Dropout
I0901 21:33:42.086504 1078811 net.cpp:84] Creating Layer B3_0_SConv_Dropout
I0901 21:33:42.086509 1078811 net.cpp:406] B3_0_SConv_Dropout <- B3_0_SConvBlockV2_Conv1x1
I0901 21:33:42.086516 1078811 net.cpp:380] B3_0_SConv_Dropout -> B3_0_SConvBlockV2_Dropout
I0901 21:33:42.086542 1078811 net.cpp:122] Setting up B3_0_SConv_Dropout
I0901 21:33:42.086549 1078811 net.cpp:129] Top shape: 1 192 4 4 (3072)
I0901 21:33:42.086555 1078811 net.cpp:137] Memory required for data: 17936396
I0901 21:33:42.086560 1078811 layer_factory.hpp:77] Creating layer B3_1_SConv_SparseConv
I0901 21:33:42.086568 1078811 net.cpp:84] Creating Layer B3_1_SConv_SparseConv
I0901 21:33:42.086573 1078811 net.cpp:406] B3_1_SConv_SparseConv <- B3_0_SConvBlockV2_Dropout
I0901 21:33:42.086581 1078811 net.cpp:380] B3_1_SConv_SparseConv -> B3_1_SConvBlockV2_T1
I0901 21:33:42.086757 1078811 net.cpp:122] Setting up B3_1_SConv_SparseConv
I0901 21:33:42.086766 1078811 net.cpp:129] Top shape: 1 1536 4 4 (24576)
I0901 21:33:42.086771 1078811 net.cpp:137] Memory required for data: 18034700
I0901 21:33:42.086776 1078811 layer_factory.hpp:77] Creating layer B3_1_SConv_BN
I0901 21:33:42.086788 1078811 net.cpp:84] Creating Layer B3_1_SConv_BN
I0901 21:33:42.086793 1078811 net.cpp:406] B3_1_SConv_BN <- B3_1_SConvBlockV2_T1
I0901 21:33:42.086799 1078811 net.cpp:367] B3_1_SConv_BN -> B3_1_SConvBlockV2_T1 (in-place)
I0901 21:33:42.086884 1078811 net.cpp:122] Setting up B3_1_SConv_BN
I0901 21:33:42.086890 1078811 net.cpp:129] Top shape: 1 1536 4 4 (24576)
I0901 21:33:42.086896 1078811 net.cpp:137] Memory required for data: 18133004
I0901 21:33:42.086908 1078811 layer_factory.hpp:77] Creating layer B3_1_SConv_Scale
I0901 21:33:42.086916 1078811 net.cpp:84] Creating Layer B3_1_SConv_Scale
I0901 21:33:42.086921 1078811 net.cpp:406] B3_1_SConv_Scale <- B3_1_SConvBlockV2_T1
I0901 21:33:42.086927 1078811 net.cpp:380] B3_1_SConv_Scale -> B3_1_SConvBlockV2_Scale
I0901 21:33:42.086956 1078811 layer_factory.hpp:77] Creating layer B3_1_SConv_Scale
I0901 21:33:42.087023 1078811 net.cpp:122] Setting up B3_1_SConv_Scale
I0901 21:33:42.087029 1078811 net.cpp:129] Top shape: 1 1536 4 4 (24576)
I0901 21:33:42.087035 1078811 net.cpp:137] Memory required for data: 18231308
I0901 21:33:42.087042 1078811 layer_factory.hpp:77] Creating layer B3_1_SConv_Conv1x1
I0901 21:33:42.087055 1078811 net.cpp:84] Creating Layer B3_1_SConv_Conv1x1
I0901 21:33:42.087060 1078811 net.cpp:406] B3_1_SConv_Conv1x1 <- B3_1_SConvBlockV2_Scale
I0901 21:33:42.087066 1078811 net.cpp:380] B3_1_SConv_Conv1x1 -> B3_1_SConvBlockV2_Conv1x1
I0901 21:33:42.089680 1078811 net.cpp:122] Setting up B3_1_SConv_Conv1x1
I0901 21:33:42.089694 1078811 net.cpp:129] Top shape: 1 192 4 4 (3072)
I0901 21:33:42.089701 1078811 net.cpp:137] Memory required for data: 18243596
I0901 21:33:42.089709 1078811 layer_factory.hpp:77] Creating layer B3_1_SConv_ReLU
I0901 21:33:42.089715 1078811 net.cpp:84] Creating Layer B3_1_SConv_ReLU
I0901 21:33:42.089720 1078811 net.cpp:406] B3_1_SConv_ReLU <- B3_1_SConvBlockV2_Conv1x1
I0901 21:33:42.089730 1078811 net.cpp:367] B3_1_SConv_ReLU -> B3_1_SConvBlockV2_Conv1x1 (in-place)
I0901 21:33:42.089737 1078811 net.cpp:122] Setting up B3_1_SConv_ReLU
I0901 21:33:42.089748 1078811 net.cpp:129] Top shape: 1 192 4 4 (3072)
I0901 21:33:42.089761 1078811 net.cpp:137] Memory required for data: 18255884
I0901 21:33:42.089766 1078811 layer_factory.hpp:77] Creating layer B3_1_SConv_Dropout
I0901 21:33:42.089771 1078811 net.cpp:84] Creating Layer B3_1_SConv_Dropout
I0901 21:33:42.089776 1078811 net.cpp:406] B3_1_SConv_Dropout <- B3_1_SConvBlockV2_Conv1x1
I0901 21:33:42.089781 1078811 net.cpp:380] B3_1_SConv_Dropout -> B3_1_SConvBlockV2_Dropout
I0901 21:33:42.089808 1078811 net.cpp:122] Setting up B3_1_SConv_Dropout
I0901 21:33:42.089815 1078811 net.cpp:129] Top shape: 1 192 4 4 (3072)
I0901 21:33:42.089821 1078811 net.cpp:137] Memory required for data: 18268172
I0901 21:33:42.089825 1078811 layer_factory.hpp:77] Creating layer B3_2_SConv_SparseConv
I0901 21:33:42.089834 1078811 net.cpp:84] Creating Layer B3_2_SConv_SparseConv
I0901 21:33:42.089839 1078811 net.cpp:406] B3_2_SConv_SparseConv <- B3_1_SConvBlockV2_Dropout
I0901 21:33:42.089845 1078811 net.cpp:380] B3_2_SConv_SparseConv -> B3_2_SConvBlockV2_T1
I0901 21:33:42.090020 1078811 net.cpp:122] Setting up B3_2_SConv_SparseConv
I0901 21:33:42.090029 1078811 net.cpp:129] Top shape: 1 1536 4 4 (24576)
I0901 21:33:42.090034 1078811 net.cpp:137] Memory required for data: 18366476
I0901 21:33:42.090039 1078811 layer_factory.hpp:77] Creating layer B3_2_SConv_BN
I0901 21:33:42.090049 1078811 net.cpp:84] Creating Layer B3_2_SConv_BN
I0901 21:33:42.090054 1078811 net.cpp:406] B3_2_SConv_BN <- B3_2_SConvBlockV2_T1
I0901 21:33:42.090062 1078811 net.cpp:367] B3_2_SConv_BN -> B3_2_SConvBlockV2_T1 (in-place)
I0901 21:33:42.090144 1078811 net.cpp:122] Setting up B3_2_SConv_BN
I0901 21:33:42.090150 1078811 net.cpp:129] Top shape: 1 1536 4 4 (24576)
I0901 21:33:42.090157 1078811 net.cpp:137] Memory required for data: 18464780
I0901 21:33:42.090163 1078811 layer_factory.hpp:77] Creating layer B3_2_SConv_Scale
I0901 21:33:42.090170 1078811 net.cpp:84] Creating Layer B3_2_SConv_Scale
I0901 21:33:42.090174 1078811 net.cpp:406] B3_2_SConv_Scale <- B3_2_SConvBlockV2_T1
I0901 21:33:42.090183 1078811 net.cpp:380] B3_2_SConv_Scale -> B3_2_SConvBlockV2_Scale
I0901 21:33:42.090204 1078811 layer_factory.hpp:77] Creating layer B3_2_SConv_Scale
I0901 21:33:42.090261 1078811 net.cpp:122] Setting up B3_2_SConv_Scale
I0901 21:33:42.090270 1078811 net.cpp:129] Top shape: 1 1536 4 4 (24576)
I0901 21:33:42.090276 1078811 net.cpp:137] Memory required for data: 18563084
I0901 21:33:42.090282 1078811 layer_factory.hpp:77] Creating layer B3_2_SConv_Conv1x1
I0901 21:33:42.090291 1078811 net.cpp:84] Creating Layer B3_2_SConv_Conv1x1
I0901 21:33:42.090296 1078811 net.cpp:406] B3_2_SConv_Conv1x1 <- B3_2_SConvBlockV2_Scale
I0901 21:33:42.090304 1078811 net.cpp:380] B3_2_SConv_Conv1x1 -> B3_2_SConvBlockV2_Conv1x1
I0901 21:33:42.092940 1078811 net.cpp:122] Setting up B3_2_SConv_Conv1x1
I0901 21:33:42.092954 1078811 net.cpp:129] Top shape: 1 192 4 4 (3072)
I0901 21:33:42.092962 1078811 net.cpp:137] Memory required for data: 18575372
I0901 21:33:42.092967 1078811 layer_factory.hpp:77] Creating layer B3_2_SConv_ReLU
I0901 21:33:42.092975 1078811 net.cpp:84] Creating Layer B3_2_SConv_ReLU
I0901 21:33:42.092980 1078811 net.cpp:406] B3_2_SConv_ReLU <- B3_2_SConvBlockV2_Conv1x1
I0901 21:33:42.092988 1078811 net.cpp:367] B3_2_SConv_ReLU -> B3_2_SConvBlockV2_Conv1x1 (in-place)
I0901 21:33:42.092996 1078811 net.cpp:122] Setting up B3_2_SConv_ReLU
I0901 21:33:42.093001 1078811 net.cpp:129] Top shape: 1 192 4 4 (3072)
I0901 21:33:42.093006 1078811 net.cpp:137] Memory required for data: 18587660
I0901 21:33:42.093011 1078811 layer_factory.hpp:77] Creating layer B3_2_SConv_Dropout
I0901 21:33:42.093017 1078811 net.cpp:84] Creating Layer B3_2_SConv_Dropout
I0901 21:33:42.093021 1078811 net.cpp:406] B3_2_SConv_Dropout <- B3_2_SConvBlockV2_Conv1x1
I0901 21:33:42.093027 1078811 net.cpp:380] B3_2_SConv_Dropout -> B3_2_SConvBlockV2_Dropout
I0901 21:33:42.093055 1078811 net.cpp:122] Setting up B3_2_SConv_Dropout
I0901 21:33:42.093060 1078811 net.cpp:129] Top shape: 1 192 4 4 (3072)
I0901 21:33:42.093071 1078811 net.cpp:137] Memory required for data: 18599948
I0901 21:33:42.093082 1078811 layer_factory.hpp:77] Creating layer B3_Pooling
I0901 21:33:42.093096 1078811 net.cpp:84] Creating Layer B3_Pooling
I0901 21:33:42.093101 1078811 net.cpp:406] B3_Pooling <- B3_2_SConvBlockV2_Dropout
I0901 21:33:42.093107 1078811 net.cpp:380] B3_Pooling -> Pooling4
I0901 21:33:42.093124 1078811 net.cpp:122] Setting up B3_Pooling
I0901 21:33:42.093130 1078811 net.cpp:129] Top shape: 1 192 1 1 (192)
I0901 21:33:42.093135 1078811 net.cpp:137] Memory required for data: 18600716
I0901 21:33:42.093140 1078811 layer_factory.hpp:77] Creating layer fc1
I0901 21:33:42.093147 1078811 net.cpp:84] Creating Layer fc1
I0901 21:33:42.093151 1078811 net.cpp:406] fc1 <- Pooling4
I0901 21:33:42.093161 1078811 net.cpp:380] fc1 -> fc1
I0901 21:33:42.093611 1078811 net.cpp:122] Setting up fc1
I0901 21:33:42.093618 1078811 net.cpp:129] Top shape: 1 384 (384)
I0901 21:33:42.093623 1078811 net.cpp:137] Memory required for data: 18602252
I0901 21:33:42.093631 1078811 layer_factory.hpp:77] Creating layer classifier
I0901 21:33:42.093638 1078811 net.cpp:84] Creating Layer classifier
I0901 21:33:42.093643 1078811 net.cpp:406] classifier <- fc1
I0901 21:33:42.093649 1078811 net.cpp:380] classifier -> classifier
I0901 21:33:42.093720 1078811 net.cpp:122] Setting up classifier
I0901 21:33:42.093726 1078811 net.cpp:129] Top shape: 1 10 (10)
I0901 21:33:42.093732 1078811 net.cpp:137] Memory required for data: 18602292
I0901 21:33:42.093739 1078811 layer_factory.hpp:77] Creating layer classifier_classifier_0_split
I0901 21:33:42.093744 1078811 net.cpp:84] Creating Layer classifier_classifier_0_split
I0901 21:33:42.093750 1078811 net.cpp:406] classifier_classifier_0_split <- classifier
I0901 21:33:42.093755 1078811 net.cpp:380] classifier_classifier_0_split -> classifier_classifier_0_split_0
I0901 21:33:42.093761 1078811 net.cpp:380] classifier_classifier_0_split -> classifier_classifier_0_split_1
I0901 21:33:42.093783 1078811 net.cpp:122] Setting up classifier_classifier_0_split
I0901 21:33:42.093789 1078811 net.cpp:129] Top shape: 1 10 (10)
I0901 21:33:42.093794 1078811 net.cpp:129] Top shape: 1 10 (10)
I0901 21:33:42.093799 1078811 net.cpp:137] Memory required for data: 18602372
I0901 21:33:42.093803 1078811 layer_factory.hpp:77] Creating layer softmax_loss
I0901 21:33:42.093811 1078811 net.cpp:84] Creating Layer softmax_loss
I0901 21:33:42.093816 1078811 net.cpp:406] softmax_loss <- classifier_classifier_0_split_0
I0901 21:33:42.093820 1078811 net.cpp:406] softmax_loss <- label_InputData_1_split_0
…
