…
I0903 08:37:39.085182 1156072 net.cpp:294] The NetState phase (0) differed from the phase (1) specified by a rule in layer accuracy
I0903 08:37:39.085194 1156072 net.cpp:51] Initializing net from parameters: 
state {
  phase: TRAIN
  level: 0
  stage: ""
}
layer {
  name: "InputData"
  type: "ImageData"
  top: "data"
  top: "label"
  include {
    phase: TRAIN
  }
  transform_param {
    mirror: true
    crop_size: 32
  }
  image_data_param {
    source: "/home/jcwang/work/1.CIFAR10/train.txt"
    batch_size: 32
    shuffle: true
    is_color: true
  }
}
layer {
  name: "B0_0_ConvBNScaleReLU_Conv"
  type: "Convolution"
  bottom: "data"
  top: "B0_0_ConvBNScaleReLU_Conv"
  convolution_param {
    num_output: 64
    bias_term: false
    pad: 1
    kernel_size: 3
    stride: 1
    weight_filler {
      type: "xavier"
    }
    bias_filler {
      type: "constant"
    }
  }
}
layer {
  name: "B0_0_ConvBNScaleReLU_BN"
  type: "BatchNorm"
  bottom: "B0_0_ConvBNScaleReLU_Conv"
  top: "B0_0_ConvBNScaleReLU_Conv"
  param {
    lr_mult: 0
    decay_mult: 0
  }
  param {
    lr_mult: 0
    decay_mult: 0
  }
  param {
    lr_mult: 0
    decay_mult: 0
  }
  batch_norm_param {
    moving_average_fraction: 0.999
    eps: 0.001
  }
}
layer {
  name: "B0_0_ConvBNScaleReLU_Scale"
  type: "Scale"
  bottom: "B0_0_ConvBNScaleReLU_Conv"
  top: "B0_0_ConvBNScaleReLU_Conv"
  scale_param {
    filler {
      value: 1
    }
    bias_term: true
    bias_filler {
      value: 0
    }
    l1_lambda: 0
  }
}
layer {
  name: "B0_0_ConvBNScaleReLU_ReLU"
  type: "ReLU"
  bottom: "B0_0_ConvBNScaleReLU_Conv"
  top: "B0_0_ConvBNScaleReLU_Conv"
}
layer {
  name: "B0_0_ConvBNScaleReLU_Dropout"
  type: "Dropout"
  bottom: "B0_0_ConvBNScaleReLU_Conv"
  top: "ConvBNScaleReLU"
  dropout_param {
    dropout_ratio: 0.25
  }
}
layer {
  name: "B0_1_SConv_SparseConv"
  type: "SparseConvolution"
  bottom: "ConvBNScaleReLU"
  top: "B0_1_SConvBlockV2_T1"
  sparse_convolution_param {
    weight_filler {
      type: "xavier"
    }
    channel_expand_multiplier: 8
  }
}
layer {
  name: "B0_1_SConv_BN"
  type: "BatchNorm"
  bottom: "B0_1_SConvBlockV2_T1"
  top: "B0_1_SConvBlockV2_T1"
  param {
    lr_mult: 0
    decay_mult: 0
  }
  param {
    lr_mult: 0
    decay_mult: 0
  }
  param {
    lr_mult: 0
    decay_mult: 0
  }
  batch_norm_param {
    moving_average_fraction: 0.999
    eps: 0.001
  }
}
layer {
  name: "B0_1_SConv_Scale"
  type: "Scale"
  bottom: "B0_1_SConvBlockV2_T1"
  top: "B0_1_SConvBlockV2_Scale"
  scale_param {
    bias_term: true
  }
}
layer {
  name: "B0_1_SConv_Conv1x1"
  type: "Convolution"
  bottom: "B0_1_SConvBlockV2_Scale"
  top: "B0_1_SConvBlockV2_Conv1x1"
  convolution_param {
    num_output: 64
    bias_term: true
    pad: 0
    kernel_size: 1
    stride: 1
    weight_filler {
      type: "xavier"
    }
    bias_filler {
      type: "constant"
    }
  }
}
layer {
  name: "B0_1_SConv_ReLU"
  type: "ReLU"
  bottom: "B0_1_SConvBlockV2_Conv1x1"
  top: "B0_1_SConvBlockV2_Conv1x1"
}
layer {
  name: "B0_1_SConv_Dropout"
  type: "Dropout"
  bottom: "B0_1_SConvBlockV2_Conv1x1"
  top: "B0_1_SConvBlockV2_Dropout"
  dropout_param {
    dropout_ratio: 0.25
  }
}
layer {
  name: "B0_Pooling"
  type: "Pooling"
  bottom: "B0_1_SConvBlockV2_Dropout"
  top: "Pooling1"
  pooling_param {
    pool: MAX
    kernel_size: 2
    stride: 2
    pad: 0
  }
}
layer {
  name: "B1_0_SConv_SparseConv"
  type: "SparseConvolution"
  bottom: "Pooling1"
  top: "B1_0_SConvBlockV2_T1"
  sparse_convolution_param {
    weight_filler {
      type: "xavier"
    }
    channel_expand_multiplier: 8
  }
}
layer {
  name: "B1_0_SConv_BN"
  type: "BatchNorm"
  bottom: "B1_0_SConvBlockV2_T1"
  top: "B1_0_SConvBlockV2_T1"
  param {
    lr_mult: 0
    decay_mult: 0
  }
  param {
    lr_mult: 0
    decay_mult: 0
  }
  param {
    lr_mult: 0
    decay_mult: 0
  }
  batch_norm_param {
    moving_average_fraction: 0.999
    eps: 0.001
  }
}
layer {
  name: "B1_0_SConv_Scale"
  type: "Scale"
  bottom: "B1_0_SConvBlockV2_T1"
  top: "B1_0_SConvBlockV2_Scale"
  scale_param {
    bias_term: true
  }
}
layer {
  name: "B1_0_SConv_Conv1x1"
  type: "Convolution"
  bottom: "B1_0_SConvBlockV2_Scale"
  top: "B1_0_SConvBlockV2_Conv1x1"
  convolution_param {
    num_output: 128
    bias_term: true
    pad: 0
    kernel_size: 1
    stride: 1
    weight_filler {
      type: "xavier"
    }
    bias_filler {
      type: "constant"
    }
  }
}
layer {
  name: "B1_0_SConv_ReLU"
  type: "ReLU"
  bottom: "B1_0_SConvBlockV2_Conv1x1"
  top: "B1_0_SConvBlockV2_Conv1x1"
}
layer {
  name: "B1_0_SConv_Dropout"
  type: "Dropout"
  bottom: "B1_0_SConvBlockV2_Conv1x1"
  top: "B1_0_SConvBlockV2_Dropout"
  dropout_param {
    dropout_ratio: 0.25
  }
}
layer {
  name: "B1_1_SConv_SparseConv"
  type: "SparseConvolution"
  bottom: "B1_0_SConvBlockV2_Dropout"
  top: "B1_1_SConvBlockV2_T1"
  sparse_convolution_param {
    weight_filler {
      type: "xavier"
    }
    channel_expand_multiplier: 8
  }
}
layer {
  name: "B1_1_SConv_BN"
  type: "BatchNorm"
  bottom: "B1_1_SConvBlockV2_T1"
  top: "B1_1_SConvBlockV2_T1"
  param {
    lr_mult: 0
    decay_mult: 0
  }
  param {
    lr_mult: 0
    decay_mult: 0
  }
  param {
    lr_mult: 0
    decay_mult: 0
  }
  batch_norm_param {
    moving_average_fraction: 0.999
    eps: 0.001
  }
}
layer {
  name: "B1_1_SConv_Scale"
  type: "Scale"
  bottom: "B1_1_SConvBlockV2_T1"
  top: "B1_1_SConvBlockV2_Scale"
  scale_param {
    bias_term: true
  }
}
layer {
  name: "B1_1_SConv_Conv1x1"
  type: "Convolution"
  bottom: "B1_1_SConvBlockV2_Scale"
  top: "B1_1_SConvBlockV2_Conv1x1"
  convolution_param {
    num_output: 128
    bias_term: true
    pad: 0
    kernel_size: 1
    stride: 1
    weight_filler {
      type: "xavier"
    }
    bias_filler {
      type: "constant"
    }
  }
}
layer {
  name: "B1_1_SConv_ReLU"
  type: "ReLU"
  bottom: "B1_1_SConvBlockV2_Conv1x1"
  top: "B1_1_SConvBlockV2_Conv1x1"
}
layer {
  name: "B1_1_SConv_Dropout"
  type: "Dropout"
  bottom: "B1_1_SConvBlockV2_Conv1x1"
  top: "B1_1_SConvBlockV2_Dropout"
  dropout_param {
    dropout_ratio: 0.25
  }
}
layer {
  name: "B1_Pooling"
  type: "Pooling"
  bottom: "B1_1_SConvBlockV2_Dropout"
  top: "Pooling2"
  pooling_param {
    pool: MAX
    kernel_size: 2
    stride: 2
    pad: 0
  }
}
layer {
  name: "B2_0_SConv_SparseConv"
  type: "SparseConvolution"
  bottom: "Pooling2"
  top: "B2_0_SConvBlockV2_T1"
  sparse_convolution_param {
    weight_filler {
      type: "xavier"
    }
    channel_expand_multiplier: 8
  }
}
layer {
  name: "B2_0_SConv_BN"
  type: "BatchNorm"
  bottom: "B2_0_SConvBlockV2_T1"
  top: "B2_0_SConvBlockV2_T1"
  param {
    lr_mult: 0
    decay_mult: 0
  }
  param {
    lr_mult: 0
    decay_mult: 0
  }
  param {
    lr_mult: 0
    decay_mult: 0
  }
  batch_norm_param {
    moving_average_fraction: 0.999
    eps: 0.001
  }
}
layer {
  name: "B2_0_SConv_Scale"
  type: "Scale"
  bottom: "B2_0_SConvBlockV2_T1"
  top: "B2_0_SConvBlockV2_Scale"
  scale_param {
    bias_term: true
  }
}
layer {
  name: "B2_0_SConv_Conv1x1"
  type: "Convolution"
  bottom: "B2_0_SConvBlockV2_Scale"
  top: "B2_0_SConvBlockV2_Conv1x1"
  convolution_param {
    num_output: 192
    bias_term: true
    pad: 0
    kernel_size: 1
    stride: 1
    weight_filler {
      type: "xavier"
    }
    bias_filler {
      type: "constant"
    }
  }
}
layer {
  name: "B2_0_SConv_ReLU"
  type: "ReLU"
  bottom: "B2_0_SConvBlockV2_Conv1x1"
  top: "B2_0_SConvBlockV2_Conv1x1"
}
layer {
  name: "B2_0_SConv_Dropout"
  type: "Dropout"
  bottom: "B2_0_SConvBlockV2_Conv1x1"
  top: "B2_0_SConvBlockV2_Dropout"
  dropout_param {
    dropout_ratio: 0.25
  }
}
layer {
  name: "B2_1_SConv_SparseConv"
  type: "SparseConvolution"
  bottom: "B2_0_SConvBlockV2_Dropout"
  top: "B2_1_SConvBlockV2_T1"
  sparse_convolution_param {
    weight_filler {
      type: "xavier"
    }
    channel_expand_multiplier: 8
  }
}
layer {
  name: "B2_1_SConv_BN"
  type: "BatchNorm"
  bottom: "B2_1_SConvBlockV2_T1"
  top: "B2_1_SConvBlockV2_T1"
  param {
    lr_mult: 0
    decay_mult: 0
  }
  param {
    lr_mult: 0
    decay_mult: 0
  }
  param {
    lr_mult: 0
    decay_mult: 0
  }
  batch_norm_param {
    moving_average_fraction: 0.999
    eps: 0.001
  }
}
layer {
  name: "B2_1_SConv_Scale"
  type: "Scale"
  bottom: "B2_1_SConvBlockV2_T1"
  top: "B2_1_SConvBlockV2_Scale"
  scale_param {
    bias_term: true
  }
}
layer {
  name: "B2_1_SConv_Conv1x1"
  type: "Convolution"
  bottom: "B2_1_SConvBlockV2_Scale"
  top: "B2_1_SConvBlockV2_Conv1x1"
  convolution_param {
    num_output: 192
    bias_term: true
    pad: 0
    kernel_size: 1
    stride: 1
    weight_filler {
      type: "xavier"
    }
    bias_filler {
      type: "constant"
    }
  }
}
layer {
  name: "B2_1_SConv_ReLU"
  type: "ReLU"
  bottom: "B2_1_SConvBlockV2_Conv1x1"
  top: "B2_1_SConvBlockV2_Conv1x1"
}
layer {
  name: "B2_1_SConv_Dropout"
  type: "Dropout"
  bottom: "B2_1_SConvBlockV2_Conv1x1"
  top: "B2_1_SConvBlockV2_Dropout"
  dropout_param {
    dropout_ratio: 0.25
  }
}
layer {
  name: "B2_2_SConv_SparseConv"
  type: "SparseConvolution"
  bottom: "B2_1_SConvBlockV2_Dropout"
  top: "B2_2_SConvBlockV2_T1"
  sparse_convolution_param {
    weight_filler {
      type: "xavier"
    }
    channel_expand_multiplier: 8
  }
}
layer {
  name: "B2_2_SConv_BN"
  type: "BatchNorm"
  bottom: "B2_2_SConvBlockV2_T1"
  top: "B2_2_SConvBlockV2_T1"
  param {
    lr_mult: 0
    decay_mult: 0
  }
  param {
    lr_mult: 0
    decay_mult: 0
  }
  param {
    lr_mult: 0
    decay_mult: 0
  }
  batch_norm_param {
    moving_average_fraction: 0.999
    eps: 0.001
  }
}
layer {
  name: "B2_2_SConv_Scale"
  type: "Scale"
  bottom: "B2_2_SConvBlockV2_T1"
  top: "B2_2_SConvBlockV2_Scale"
  scale_param {
    bias_term: true
  }
}
layer {
  name: "B2_2_SConv_Conv1x1"
  type: "Convolution"
  bottom: "B2_2_SConvBlockV2_Scale"
  top: "B2_2_SConvBlockV2_Conv1x1"
  convolution_param {
    num_output: 192
    bias_term: true
    pad: 0
    kernel_size: 1
    stride: 1
    weight_filler {
      type: "xavier"
    }
    bias_filler {
      type: "constant"
    }
  }
}
layer {
  name: "B2_2_SConv_ReLU"
  type: "ReLU"
  bottom: "B2_2_SConvBlockV2_Conv1x1"
  top: "B2_2_SConvBlockV2_Conv1x1"
}
layer {
  name: "B2_2_SConv_Dropout"
  type: "Dropout"
  bottom: "B2_2_SConvBlockV2_Conv1x1"
  top: "B2_2_SConvBlockV2_Dropout"
  dropout_param {
    dropout_ratio: 0.25
  }
}
layer {
  name: "B2_Pooling"
  type: "Pooling"
  bottom: "B2_2_SConvBlockV2_Dropout"
  top: "Pooling3"
  pooling_param {
    pool: MAX
    kernel_size: 2
    stride: 2
    pad: 0
  }
}
layer {
  name: "B3_0_SConv_SparseConv"
  type: "SparseConvolution"
  bottom: "Pooling3"
  top: "B3_0_SConvBlockV2_T1"
  sparse_convolution_param {
    weight_filler {
      type: "xavier"
    }
    channel_expand_multiplier: 8
  }
}
layer {
  name: "B3_0_SConv_BN"
  type: "BatchNorm"
  bottom: "B3_0_SConvBlockV2_T1"
  top: "B3_0_SConvBlockV2_T1"
  param {
    lr_mult: 0
    decay_mult: 0
  }
  param {
    lr_mult: 0
    decay_mult: 0
  }
  param {
    lr_mult: 0
    decay_mult: 0
  }
  batch_norm_param {
    moving_average_fraction: 0.999
    eps: 0.001
  }
}
layer {
  name: "B3_0_SConv_Scale"
  type: "Scale"
  bottom: "B3_0_SConvBlockV2_T1"
  top: "B3_0_SConvBlockV2_Scale"
  scale_param {
    bias_term: true
  }
}
layer {
  name: "B3_0_SConv_Conv1x1"
  type: "Convolution"
  bottom: "B3_0_SConvBlockV2_Scale"
  top: "B3_0_SConvBlockV2_Conv1x1"
  convolution_param {
    num_output: 192
    bias_term: true
    pad: 0
    kernel_size: 1
    stride: 1
    weight_filler {
      type: "xavier"
    }
    bias_filler {
      type: "constant"
    }
  }
}
layer {
  name: "B3_0_SConv_ReLU"
  type: "ReLU"
  bottom: "B3_0_SConvBlockV2_Conv1x1"
  top: "B3_0_SConvBlockV2_Conv1x1"
}
layer {
  name: "B3_0_SConv_Dropout"
  type: "Dropout"
  bottom: "B3_0_SConvBlockV2_Conv1x1"
  top: "B3_0_SConvBlockV2_Dropout"
  dropout_param {
    dropout_ratio: 0.25
  }
}
layer {
  name: "B3_1_SConv_SparseConv"
  type: "SparseConvolution"
  bottom: "B3_0_SConvBlockV2_Dropout"
  top: "B3_1_SConvBlockV2_T1"
  sparse_convolution_param {
    weight_filler {
      type: "xavier"
    }
    channel_expand_multiplier: 8
  }
}
layer {
  name: "B3_1_SConv_BN"
  type: "BatchNorm"
  bottom: "B3_1_SConvBlockV2_T1"
  top: "B3_1_SConvBlockV2_T1"
  param {
    lr_mult: 0
    decay_mult: 0
  }
  param {
    lr_mult: 0
    decay_mult: 0
  }
  param {
    lr_mult: 0
    decay_mult: 0
  }
  batch_norm_param {
    moving_average_fraction: 0.999
    eps: 0.001
  }
}
layer {
  name: "B3_1_SConv_Scale"
  type: "Scale"
  bottom: "B3_1_SConvBlockV2_T1"
  top: "B3_1_SConvBlockV2_Scale"
  scale_param {
    bias_term: true
  }
}
layer {
  name: "B3_1_SConv_Conv1x1"
  type: "Convolution"
  bottom: "B3_1_SConvBlockV2_Scale"
  top: "B3_1_SConvBlockV2_Conv1x1"
  convolution_param {
    num_output: 192
    bias_term: true
    pad: 0
    kernel_size: 1
    stride: 1
    weight_filler {
      type: "xavier"
    }
    bias_filler {
      type: "constant"
    }
  }
}
layer {
  name: "B3_1_SConv_ReLU"
  type: "ReLU"
  bottom: "B3_1_SConvBlockV2_Conv1x1"
  top: "B3_1_SConvBlockV2_Conv1x1"
}
layer {
  name: "B3_1_SConv_Dropout"
  type: "Dropout"
  bottom: "B3_1_SConvBlockV2_Conv1x1"
  top: "B3_1_SConvBlockV2_Dropout"
  dropout_param {
    dropout_ratio: 0.25
  }
}
layer {
  name: "B3_2_SConv_SparseConv"
  type: "SparseConvolution"
  bottom: "B3_1_SConvBlockV2_Dropout"
  top: "B3_2_SConvBlockV2_T1"
  sparse_convolution_param {
    weight_filler {
      type: "xavier"
    }
    channel_expand_multiplier: 8
  }
}
layer {
  name: "B3_2_SConv_BN"
  type: "BatchNorm"
  bottom: "B3_2_SConvBlockV2_T1"
  top: "B3_2_SConvBlockV2_T1"
  param {
    lr_mult: 0
    decay_mult: 0
  }
  param {
    lr_mult: 0
    decay_mult: 0
  }
  param {
    lr_mult: 0
    decay_mult: 0
  }
  batch_norm_param {
    moving_average_fraction: 0.999
    eps: 0.001
  }
}
layer {
  name: "B3_2_SConv_Scale"
  type: "Scale"
  bottom: "B3_2_SConvBlockV2_T1"
  top: "B3_2_SConvBlockV2_Scale"
  scale_param {
    bias_term: true
  }
}
layer {
  name: "B3_2_SConv_Conv1x1"
  type: "Convolution"
  bottom: "B3_2_SConvBlockV2_Scale"
  top: "B3_2_SConvBlockV2_Conv1x1"
  convolution_param {
    num_output: 192
    bias_term: true
    pad: 0
    kernel_size: 1
    stride: 1
    weight_filler {
      type: "xavier"
    }
    bias_filler {
      type: "constant"
    }
  }
}
layer {
  name: "B3_2_SConv_ReLU"
  type: "ReLU"
  bottom: "B3_2_SConvBlockV2_Conv1x1"
  top: "B3_2_SConvBlockV2_Conv1x1"
}
layer {
  name: "B3_2_SConv_Dropout"
  type: "Dropout"
  bottom: "B3_2_SConvBlockV2_Conv1x1"
  top: "B3_2_SConvBlockV2_Dropout"
  dropout_param {
    dropout_ratio: 0.25
  }
}
layer {
  name: "B3_Pooling"
  type: "Pooling"
  bottom: "B3_2_SConvBlockV2_Dropout"
  top: "Pooling4"
  pooling_param {
    pool: AVE
    global_pooling: true
  }
}
layer {
  name: "fc1"
  type: "InnerProduct"
  bottom: "Pooling4"
  top: "fc1"
  inner_product_param {
    num_output: 384
    bias_term: true
    weight_filler {
      type: "xavier"
    }
    bias_filler {
      type: "constant"
    }
  }
}
layer {
  name: "classifier"
  type: "InnerProduct"
  bottom: "fc1"
  top: "classifier"
  inner_product_param {
    num_output: 10
    bias_term: true
    weight_filler {
      type: "xavier"
    }
    bias_filler {
      type: "constant"
    }
  }
}
layer {
  name: "softmax_loss"
  type: "SoftmaxWithLoss"
  bottom: "classifier"
  bottom: "label"
  top: "softmax_loss"
}
I0903 08:37:39.085587 1156072 layer_factory.hpp:77] Creating layer InputData
I0903 08:37:39.085630 1156072 net.cpp:84] Creating Layer InputData
I0903 08:37:39.085640 1156072 net.cpp:380] InputData -> data
I0903 08:37:39.085676 1156072 net.cpp:380] InputData -> label
I0903 08:37:39.085695 1156072 image_data_layer.cpp:38] Opening file /home/jcwang/work/1.CIFAR10/train.txt
I0903 08:37:39.094657 1156072 image_data_layer.cpp:53] Shuffling data
I0903 08:37:39.095448 1156072 image_data_layer.cpp:63] A total of 50005 images.
I0903 08:37:39.096587 1156072 image_data_layer.cpp:90] output data size: 32,3,32,32
I0903 08:37:39.097048 1156072 net.cpp:122] Setting up InputData
I0903 08:37:39.097061 1156072 net.cpp:129] Top shape: 32 3 32 32 (98304)
I0903 08:37:39.097069 1156072 net.cpp:129] Top shape: 32 (32)
I0903 08:37:39.097074 1156072 net.cpp:137] Memory required for data: 393344
I0903 08:37:39.097080 1156072 layer_factory.hpp:77] Creating layer B0_0_ConvBNScaleReLU_Conv
I0903 08:37:39.097097 1156072 net.cpp:84] Creating Layer B0_0_ConvBNScaleReLU_Conv
I0903 08:37:39.097105 1156072 net.cpp:406] B0_0_ConvBNScaleReLU_Conv <- data
I0903 08:37:39.097115 1156072 net.cpp:380] B0_0_ConvBNScaleReLU_Conv -> B0_0_ConvBNScaleReLU_Conv
I0903 08:37:39.097353 1156072 net.cpp:122] Setting up B0_0_ConvBNScaleReLU_Conv
I0903 08:37:39.097362 1156072 net.cpp:129] Top shape: 32 64 32 32 (2097152)
I0903 08:37:39.097368 1156072 net.cpp:137] Memory required for data: 8781952
I0903 08:37:39.097381 1156072 layer_factory.hpp:77] Creating layer B0_0_ConvBNScaleReLU_BN
I0903 08:37:39.097396 1156072 net.cpp:84] Creating Layer B0_0_ConvBNScaleReLU_BN
I0903 08:37:39.097401 1156072 net.cpp:406] B0_0_ConvBNScaleReLU_BN <- B0_0_ConvBNScaleReLU_Conv
I0903 08:37:39.097407 1156072 net.cpp:367] B0_0_ConvBNScaleReLU_BN -> B0_0_ConvBNScaleReLU_Conv (in-place)
I0903 08:37:39.097524 1156072 net.cpp:122] Setting up B0_0_ConvBNScaleReLU_BN
I0903 08:37:39.097532 1156072 net.cpp:129] Top shape: 32 64 32 32 (2097152)
I0903 08:37:39.097537 1156072 net.cpp:137] Memory required for data: 17170560
I0903 08:37:39.097545 1156072 layer_factory.hpp:77] Creating layer B0_0_ConvBNScaleReLU_Scale
I0903 08:37:39.097553 1156072 net.cpp:84] Creating Layer B0_0_ConvBNScaleReLU_Scale
I0903 08:37:39.097558 1156072 net.cpp:406] B0_0_ConvBNScaleReLU_Scale <- B0_0_ConvBNScaleReLU_Conv
I0903 08:37:39.097563 1156072 net.cpp:367] B0_0_ConvBNScaleReLU_Scale -> B0_0_ConvBNScaleReLU_Conv (in-place)
I0903 08:37:39.097596 1156072 layer_factory.hpp:77] Creating layer B0_0_ConvBNScaleReLU_Scale
I0903 08:37:39.097685 1156072 net.cpp:122] Setting up B0_0_ConvBNScaleReLU_Scale
I0903 08:37:39.097692 1156072 net.cpp:129] Top shape: 32 64 32 32 (2097152)
I0903 08:37:39.097697 1156072 net.cpp:137] Memory required for data: 25559168
I0903 08:37:39.097705 1156072 layer_factory.hpp:77] Creating layer B0_0_ConvBNScaleReLU_ReLU
I0903 08:37:39.097714 1156072 net.cpp:84] Creating Layer B0_0_ConvBNScaleReLU_ReLU
I0903 08:37:39.097719 1156072 net.cpp:406] B0_0_ConvBNScaleReLU_ReLU <- B0_0_ConvBNScaleReLU_Conv
I0903 08:37:39.097724 1156072 net.cpp:367] B0_0_ConvBNScaleReLU_ReLU -> B0_0_ConvBNScaleReLU_Conv (in-place)
I0903 08:37:39.097731 1156072 net.cpp:122] Setting up B0_0_ConvBNScaleReLU_ReLU
I0903 08:37:39.097735 1156072 net.cpp:129] Top shape: 32 64 32 32 (2097152)
I0903 08:37:39.097740 1156072 net.cpp:137] Memory required for data: 33947776
I0903 08:37:39.097744 1156072 layer_factory.hpp:77] Creating layer B0_0_ConvBNScaleReLU_Dropout
I0903 08:37:39.097754 1156072 net.cpp:84] Creating Layer B0_0_ConvBNScaleReLU_Dropout
I0903 08:37:39.097759 1156072 net.cpp:406] B0_0_ConvBNScaleReLU_Dropout <- B0_0_ConvBNScaleReLU_Conv
I0903 08:37:39.097765 1156072 net.cpp:380] B0_0_ConvBNScaleReLU_Dropout -> ConvBNScaleReLU
I0903 08:37:39.097796 1156072 net.cpp:122] Setting up B0_0_ConvBNScaleReLU_Dropout
I0903 08:37:39.097802 1156072 net.cpp:129] Top shape: 32 64 32 32 (2097152)
I0903 08:37:39.097808 1156072 net.cpp:137] Memory required for data: 42336384
I0903 08:37:39.097823 1156072 layer_factory.hpp:77] Creating layer B0_1_SConv_SparseConv
I0903 08:37:39.097834 1156072 net.cpp:84] Creating Layer B0_1_SConv_SparseConv
I0903 08:37:39.097839 1156072 net.cpp:406] B0_1_SConv_SparseConv <- ConvBNScaleReLU
I0903 08:37:39.097847 1156072 net.cpp:380] B0_1_SConv_SparseConv -> B0_1_SConvBlockV2_T1
I0903 08:37:39.097962 1156072 net.cpp:122] Setting up B0_1_SConv_SparseConv
I0903 08:37:39.097970 1156072 net.cpp:129] Top shape: 32 512 32 32 (16777216)
I0903 08:37:39.097976 1156072 net.cpp:137] Memory required for data: 109445248
I0903 08:37:39.097981 1156072 layer_factory.hpp:77] Creating layer B0_1_SConv_BN
I0903 08:37:39.097990 1156072 net.cpp:84] Creating Layer B0_1_SConv_BN
I0903 08:37:39.097995 1156072 net.cpp:406] B0_1_SConv_BN <- B0_1_SConvBlockV2_T1
I0903 08:37:39.098001 1156072 net.cpp:367] B0_1_SConv_BN -> B0_1_SConvBlockV2_T1 (in-place)
I0903 08:37:39.098111 1156072 net.cpp:122] Setting up B0_1_SConv_BN
I0903 08:37:39.098117 1156072 net.cpp:129] Top shape: 32 512 32 32 (16777216)
I0903 08:37:39.098124 1156072 net.cpp:137] Memory required for data: 176554112
I0903 08:37:39.098131 1156072 layer_factory.hpp:77] Creating layer B0_1_SConv_Scale
I0903 08:37:39.098137 1156072 net.cpp:84] Creating Layer B0_1_SConv_Scale
I0903 08:37:39.098142 1156072 net.cpp:406] B0_1_SConv_Scale <- B0_1_SConvBlockV2_T1
I0903 08:37:39.098147 1156072 net.cpp:380] B0_1_SConv_Scale -> B0_1_SConvBlockV2_Scale
I0903 08:37:39.098177 1156072 layer_factory.hpp:77] Creating layer B0_1_SConv_Scale
I0903 08:37:39.098248 1156072 net.cpp:122] Setting up B0_1_SConv_Scale
I0903 08:37:39.098254 1156072 net.cpp:129] Top shape: 32 512 32 32 (16777216)
I0903 08:37:39.098263 1156072 net.cpp:137] Memory required for data: 243662976
I0903 08:37:39.098270 1156072 layer_factory.hpp:77] Creating layer B0_1_SConv_Conv1x1
I0903 08:37:39.098281 1156072 net.cpp:84] Creating Layer B0_1_SConv_Conv1x1
I0903 08:37:39.098286 1156072 net.cpp:406] B0_1_SConv_Conv1x1 <- B0_1_SConvBlockV2_Scale
I0903 08:37:39.098294 1156072 net.cpp:380] B0_1_SConv_Conv1x1 -> B0_1_SConvBlockV2_Conv1x1
I0903 08:37:39.098583 1156072 net.cpp:122] Setting up B0_1_SConv_Conv1x1
I0903 08:37:39.098592 1156072 net.cpp:129] Top shape: 32 64 32 32 (2097152)
I0903 08:37:39.098598 1156072 net.cpp:137] Memory required for data: 252051584
I0903 08:37:39.098603 1156072 layer_factory.hpp:77] Creating layer B0_1_SConv_ReLU
I0903 08:37:39.098611 1156072 net.cpp:84] Creating Layer B0_1_SConv_ReLU
I0903 08:37:39.098616 1156072 net.cpp:406] B0_1_SConv_ReLU <- B0_1_SConvBlockV2_Conv1x1
I0903 08:37:39.098623 1156072 net.cpp:367] B0_1_SConv_ReLU -> B0_1_SConvBlockV2_Conv1x1 (in-place)
I0903 08:37:39.098628 1156072 net.cpp:122] Setting up B0_1_SConv_ReLU
I0903 08:37:39.098632 1156072 net.cpp:129] Top shape: 32 64 32 32 (2097152)
I0903 08:37:39.098637 1156072 net.cpp:137] Memory required for data: 260440192
I0903 08:37:39.098641 1156072 layer_factory.hpp:77] Creating layer B0_1_SConv_Dropout
I0903 08:37:39.098647 1156072 net.cpp:84] Creating Layer B0_1_SConv_Dropout
I0903 08:37:39.098651 1156072 net.cpp:406] B0_1_SConv_Dropout <- B0_1_SConvBlockV2_Conv1x1
I0903 08:37:39.098659 1156072 net.cpp:380] B0_1_SConv_Dropout -> B0_1_SConvBlockV2_Dropout
I0903 08:37:39.098685 1156072 net.cpp:122] Setting up B0_1_SConv_Dropout
I0903 08:37:39.098692 1156072 net.cpp:129] Top shape: 32 64 32 32 (2097152)
I0903 08:37:39.098697 1156072 net.cpp:137] Memory required for data: 268828800
I0903 08:37:39.098701 1156072 layer_factory.hpp:77] Creating layer B0_Pooling
I0903 08:37:39.098709 1156072 net.cpp:84] Creating Layer B0_Pooling
I0903 08:37:39.098713 1156072 net.cpp:406] B0_Pooling <- B0_1_SConvBlockV2_Dropout
I0903 08:37:39.098719 1156072 net.cpp:380] B0_Pooling -> Pooling1
I0903 08:37:39.098747 1156072 net.cpp:122] Setting up B0_Pooling
I0903 08:37:39.098752 1156072 net.cpp:129] Top shape: 32 64 16 16 (524288)
I0903 08:37:39.098758 1156072 net.cpp:137] Memory required for data: 270925952
I0903 08:37:39.098762 1156072 layer_factory.hpp:77] Creating layer B1_0_SConv_SparseConv
I0903 08:37:39.098778 1156072 net.cpp:84] Creating Layer B1_0_SConv_SparseConv
I0903 08:37:39.098788 1156072 net.cpp:406] B1_0_SConv_SparseConv <- Pooling1
I0903 08:37:39.098793 1156072 net.cpp:380] B1_0_SConv_SparseConv -> B1_0_SConvBlockV2_T1
I0903 08:37:39.098883 1156072 net.cpp:122] Setting up B1_0_SConv_SparseConv
I0903 08:37:39.098889 1156072 net.cpp:129] Top shape: 32 512 16 16 (4194304)
I0903 08:37:39.098896 1156072 net.cpp:137] Memory required for data: 287703168
I0903 08:37:39.098901 1156072 layer_factory.hpp:77] Creating layer B1_0_SConv_BN
I0903 08:37:39.098907 1156072 net.cpp:84] Creating Layer B1_0_SConv_BN
I0903 08:37:39.098912 1156072 net.cpp:406] B1_0_SConv_BN <- B1_0_SConvBlockV2_T1
I0903 08:37:39.098917 1156072 net.cpp:367] B1_0_SConv_BN -> B1_0_SConvBlockV2_T1 (in-place)
I0903 08:37:39.098994 1156072 net.cpp:122] Setting up B1_0_SConv_BN
I0903 08:37:39.098999 1156072 net.cpp:129] Top shape: 32 512 16 16 (4194304)
I0903 08:37:39.099005 1156072 net.cpp:137] Memory required for data: 304480384
I0903 08:37:39.099014 1156072 layer_factory.hpp:77] Creating layer B1_0_SConv_Scale
I0903 08:37:39.099022 1156072 net.cpp:84] Creating Layer B1_0_SConv_Scale
I0903 08:37:39.099027 1156072 net.cpp:406] B1_0_SConv_Scale <- B1_0_SConvBlockV2_T1
I0903 08:37:39.099032 1156072 net.cpp:380] B1_0_SConv_Scale -> B1_0_SConvBlockV2_Scale
I0903 08:37:39.099057 1156072 layer_factory.hpp:77] Creating layer B1_0_SConv_Scale
I0903 08:37:39.099123 1156072 net.cpp:122] Setting up B1_0_SConv_Scale
I0903 08:37:39.099129 1156072 net.cpp:129] Top shape: 32 512 16 16 (4194304)
I0903 08:37:39.099135 1156072 net.cpp:137] Memory required for data: 321257600
I0903 08:37:39.099141 1156072 layer_factory.hpp:77] Creating layer B1_0_SConv_Conv1x1
I0903 08:37:39.099150 1156072 net.cpp:84] Creating Layer B1_0_SConv_Conv1x1
I0903 08:37:39.099155 1156072 net.cpp:406] B1_0_SConv_Conv1x1 <- B1_0_SConvBlockV2_Scale
I0903 08:37:39.099164 1156072 net.cpp:380] B1_0_SConv_Conv1x1 -> B1_0_SConvBlockV2_Conv1x1
I0903 08:37:39.100558 1156072 net.cpp:122] Setting up B1_0_SConv_Conv1x1
I0903 08:37:39.100570 1156072 net.cpp:129] Top shape: 32 128 16 16 (1048576)
I0903 08:37:39.100577 1156072 net.cpp:137] Memory required for data: 325451904
I0903 08:37:39.100584 1156072 layer_factory.hpp:77] Creating layer B1_0_SConv_ReLU
I0903 08:37:39.100592 1156072 net.cpp:84] Creating Layer B1_0_SConv_ReLU
I0903 08:37:39.100597 1156072 net.cpp:406] B1_0_SConv_ReLU <- B1_0_SConvBlockV2_Conv1x1
I0903 08:37:39.100603 1156072 net.cpp:367] B1_0_SConv_ReLU -> B1_0_SConvBlockV2_Conv1x1 (in-place)
I0903 08:37:39.100610 1156072 net.cpp:122] Setting up B1_0_SConv_ReLU
I0903 08:37:39.100615 1156072 net.cpp:129] Top shape: 32 128 16 16 (1048576)
I0903 08:37:39.100620 1156072 net.cpp:137] Memory required for data: 329646208
I0903 08:37:39.100623 1156072 layer_factory.hpp:77] Creating layer B1_0_SConv_Dropout
I0903 08:37:39.100630 1156072 net.cpp:84] Creating Layer B1_0_SConv_Dropout
I0903 08:37:39.100633 1156072 net.cpp:406] B1_0_SConv_Dropout <- B1_0_SConvBlockV2_Conv1x1
I0903 08:37:39.100639 1156072 net.cpp:380] B1_0_SConv_Dropout -> B1_0_SConvBlockV2_Dropout
I0903 08:37:39.100894 1156072 net.cpp:122] Setting up B1_0_SConv_Dropout
I0903 08:37:39.100901 1156072 net.cpp:129] Top shape: 32 128 16 16 (1048576)
I0903 08:37:39.100906 1156072 net.cpp:137] Memory required for data: 333840512
I0903 08:37:39.100911 1156072 layer_factory.hpp:77] Creating layer B1_1_SConv_SparseConv
I0903 08:37:39.100917 1156072 net.cpp:84] Creating Layer B1_1_SConv_SparseConv
I0903 08:37:39.100922 1156072 net.cpp:406] B1_1_SConv_SparseConv <- B1_0_SConvBlockV2_Dropout
I0903 08:37:39.100929 1156072 net.cpp:380] B1_1_SConv_SparseConv -> B1_1_SConvBlockV2_T1
I0903 08:37:39.101053 1156072 net.cpp:122] Setting up B1_1_SConv_SparseConv
I0903 08:37:39.101060 1156072 net.cpp:129] Top shape: 32 1024 16 16 (8388608)
I0903 08:37:39.101065 1156072 net.cpp:137] Memory required for data: 367394944
I0903 08:37:39.101070 1156072 layer_factory.hpp:77] Creating layer B1_1_SConv_BN
I0903 08:37:39.101079 1156072 net.cpp:84] Creating Layer B1_1_SConv_BN
I0903 08:37:39.101099 1156072 net.cpp:406] B1_1_SConv_BN <- B1_1_SConvBlockV2_T1
I0903 08:37:39.101105 1156072 net.cpp:367] B1_1_SConv_BN -> B1_1_SConvBlockV2_T1 (in-place)
I0903 08:37:39.101184 1156072 net.cpp:122] Setting up B1_1_SConv_BN
I0903 08:37:39.101191 1156072 net.cpp:129] Top shape: 32 1024 16 16 (8388608)
I0903 08:37:39.101197 1156072 net.cpp:137] Memory required for data: 400949376
I0903 08:37:39.101203 1156072 layer_factory.hpp:77] Creating layer B1_1_SConv_Scale
I0903 08:37:39.101210 1156072 net.cpp:84] Creating Layer B1_1_SConv_Scale
I0903 08:37:39.101214 1156072 net.cpp:406] B1_1_SConv_Scale <- B1_1_SConvBlockV2_T1
I0903 08:37:39.101220 1156072 net.cpp:380] B1_1_SConv_Scale -> B1_1_SConvBlockV2_Scale
I0903 08:37:39.101243 1156072 layer_factory.hpp:77] Creating layer B1_1_SConv_Scale
I0903 08:37:39.101295 1156072 net.cpp:122] Setting up B1_1_SConv_Scale
I0903 08:37:39.101302 1156072 net.cpp:129] Top shape: 32 1024 16 16 (8388608)
I0903 08:37:39.101307 1156072 net.cpp:137] Memory required for data: 434503808
I0903 08:37:39.101313 1156072 layer_factory.hpp:77] Creating layer B1_1_SConv_Conv1x1
I0903 08:37:39.101323 1156072 net.cpp:84] Creating Layer B1_1_SConv_Conv1x1
I0903 08:37:39.101328 1156072 net.cpp:406] B1_1_SConv_Conv1x1 <- B1_1_SConvBlockV2_Scale
I0903 08:37:39.101334 1156072 net.cpp:380] B1_1_SConv_Conv1x1 -> B1_1_SConvBlockV2_Conv1x1
I0903 08:37:39.102159 1156072 net.cpp:122] Setting up B1_1_SConv_Conv1x1
I0903 08:37:39.102167 1156072 net.cpp:129] Top shape: 32 128 16 16 (1048576)
I0903 08:37:39.102174 1156072 net.cpp:137] Memory required for data: 438698112
I0903 08:37:39.102180 1156072 layer_factory.hpp:77] Creating layer B1_1_SConv_ReLU
I0903 08:37:39.102185 1156072 net.cpp:84] Creating Layer B1_1_SConv_ReLU
I0903 08:37:39.102190 1156072 net.cpp:406] B1_1_SConv_ReLU <- B1_1_SConvBlockV2_Conv1x1
I0903 08:37:39.102195 1156072 net.cpp:367] B1_1_SConv_ReLU -> B1_1_SConvBlockV2_Conv1x1 (in-place)
I0903 08:37:39.102202 1156072 net.cpp:122] Setting up B1_1_SConv_ReLU
I0903 08:37:39.102206 1156072 net.cpp:129] Top shape: 32 128 16 16 (1048576)
I0903 08:37:39.102211 1156072 net.cpp:137] Memory required for data: 442892416
I0903 08:37:39.102216 1156072 layer_factory.hpp:77] Creating layer B1_1_SConv_Dropout
I0903 08:37:39.102223 1156072 net.cpp:84] Creating Layer B1_1_SConv_Dropout
I0903 08:37:39.102227 1156072 net.cpp:406] B1_1_SConv_Dropout <- B1_1_SConvBlockV2_Conv1x1
I0903 08:37:39.102233 1156072 net.cpp:380] B1_1_SConv_Dropout -> B1_1_SConvBlockV2_Dropout
I0903 08:37:39.102254 1156072 net.cpp:122] Setting up B1_1_SConv_Dropout
I0903 08:37:39.102260 1156072 net.cpp:129] Top shape: 32 128 16 16 (1048576)
I0903 08:37:39.102265 1156072 net.cpp:137] Memory required for data: 447086720
I0903 08:37:39.102270 1156072 layer_factory.hpp:77] Creating layer B1_Pooling
I0903 08:37:39.102277 1156072 net.cpp:84] Creating Layer B1_Pooling
I0903 08:37:39.102281 1156072 net.cpp:406] B1_Pooling <- B1_1_SConvBlockV2_Dropout
I0903 08:37:39.102288 1156072 net.cpp:380] B1_Pooling -> Pooling2
I0903 08:37:39.102368 1156072 net.cpp:122] Setting up B1_Pooling
I0903 08:37:39.102375 1156072 net.cpp:129] Top shape: 32 128 8 8 (262144)
I0903 08:37:39.102381 1156072 net.cpp:137] Memory required for data: 448135296
I0903 08:37:39.102394 1156072 layer_factory.hpp:77] Creating layer B2_0_SConv_SparseConv
I0903 08:37:39.102402 1156072 net.cpp:84] Creating Layer B2_0_SConv_SparseConv
I0903 08:37:39.102407 1156072 net.cpp:406] B2_0_SConv_SparseConv <- Pooling2
I0903 08:37:39.102413 1156072 net.cpp:380] B2_0_SConv_SparseConv -> B2_0_SConvBlockV2_T1
I0903 08:37:39.102535 1156072 net.cpp:122] Setting up B2_0_SConv_SparseConv
I0903 08:37:39.102542 1156072 net.cpp:129] Top shape: 32 1024 8 8 (2097152)
I0903 08:37:39.102547 1156072 net.cpp:137] Memory required for data: 456523904
I0903 08:37:39.102553 1156072 layer_factory.hpp:77] Creating layer B2_0_SConv_BN
I0903 08:37:39.102560 1156072 net.cpp:84] Creating Layer B2_0_SConv_BN
I0903 08:37:39.102564 1156072 net.cpp:406] B2_0_SConv_BN <- B2_0_SConvBlockV2_T1
I0903 08:37:39.102576 1156072 net.cpp:367] B2_0_SConv_BN -> B2_0_SConvBlockV2_T1 (in-place)
I0903 08:37:39.102663 1156072 net.cpp:122] Setting up B2_0_SConv_BN
I0903 08:37:39.102670 1156072 net.cpp:129] Top shape: 32 1024 8 8 (2097152)
I0903 08:37:39.102676 1156072 net.cpp:137] Memory required for data: 464912512
I0903 08:37:39.102686 1156072 layer_factory.hpp:77] Creating layer B2_0_SConv_Scale
I0903 08:37:39.102692 1156072 net.cpp:84] Creating Layer B2_0_SConv_Scale
I0903 08:37:39.102697 1156072 net.cpp:406] B2_0_SConv_Scale <- B2_0_SConvBlockV2_T1
I0903 08:37:39.102702 1156072 net.cpp:380] B2_0_SConv_Scale -> B2_0_SConvBlockV2_Scale
I0903 08:37:39.102726 1156072 layer_factory.hpp:77] Creating layer B2_0_SConv_Scale
I0903 08:37:39.102778 1156072 net.cpp:122] Setting up B2_0_SConv_Scale
I0903 08:37:39.102785 1156072 net.cpp:129] Top shape: 32 1024 8 8 (2097152)
I0903 08:37:39.102790 1156072 net.cpp:137] Memory required for data: 473301120
I0903 08:37:39.102797 1156072 layer_factory.hpp:77] Creating layer B2_0_SConv_Conv1x1
I0903 08:37:39.102808 1156072 net.cpp:84] Creating Layer B2_0_SConv_Conv1x1
I0903 08:37:39.102813 1156072 net.cpp:406] B2_0_SConv_Conv1x1 <- B2_0_SConvBlockV2_Scale
I0903 08:37:39.102819 1156072 net.cpp:380] B2_0_SConv_Conv1x1 -> B2_0_SConvBlockV2_Conv1x1
I0903 08:37:39.103891 1156072 net.cpp:122] Setting up B2_0_SConv_Conv1x1
I0903 08:37:39.103899 1156072 net.cpp:129] Top shape: 32 192 8 8 (393216)
I0903 08:37:39.103904 1156072 net.cpp:137] Memory required for data: 474873984
I0903 08:37:39.103910 1156072 layer_factory.hpp:77] Creating layer B2_0_SConv_ReLU
I0903 08:37:39.103916 1156072 net.cpp:84] Creating Layer B2_0_SConv_ReLU
I0903 08:37:39.103921 1156072 net.cpp:406] B2_0_SConv_ReLU <- B2_0_SConvBlockV2_Conv1x1
I0903 08:37:39.103926 1156072 net.cpp:367] B2_0_SConv_ReLU -> B2_0_SConvBlockV2_Conv1x1 (in-place)
I0903 08:37:39.103935 1156072 net.cpp:122] Setting up B2_0_SConv_ReLU
I0903 08:37:39.103940 1156072 net.cpp:129] Top shape: 32 192 8 8 (393216)
I0903 08:37:39.103945 1156072 net.cpp:137] Memory required for data: 476446848
I0903 08:37:39.103948 1156072 layer_factory.hpp:77] Creating layer B2_0_SConv_Dropout
I0903 08:37:39.103955 1156072 net.cpp:84] Creating Layer B2_0_SConv_Dropout
I0903 08:37:39.103958 1156072 net.cpp:406] B2_0_SConv_Dropout <- B2_0_SConvBlockV2_Conv1x1
I0903 08:37:39.103965 1156072 net.cpp:380] B2_0_SConv_Dropout -> B2_0_SConvBlockV2_Dropout
I0903 08:37:39.103997 1156072 net.cpp:122] Setting up B2_0_SConv_Dropout
I0903 08:37:39.104004 1156072 net.cpp:129] Top shape: 32 192 8 8 (393216)
I0903 08:37:39.104010 1156072 net.cpp:137] Memory required for data: 478019712
I0903 08:37:39.104014 1156072 layer_factory.hpp:77] Creating layer B2_1_SConv_SparseConv
I0903 08:37:39.104024 1156072 net.cpp:84] Creating Layer B2_1_SConv_SparseConv
I0903 08:37:39.104029 1156072 net.cpp:406] B2_1_SConv_SparseConv <- B2_0_SConvBlockV2_Dropout
I0903 08:37:39.104038 1156072 net.cpp:380] B2_1_SConv_SparseConv -> B2_1_SConvBlockV2_T1
I0903 08:37:39.104198 1156072 net.cpp:122] Setting up B2_1_SConv_SparseConv
I0903 08:37:39.104205 1156072 net.cpp:129] Top shape: 32 1536 8 8 (3145728)
I0903 08:37:39.104210 1156072 net.cpp:137] Memory required for data: 490602624
I0903 08:37:39.104216 1156072 layer_factory.hpp:77] Creating layer B2_1_SConv_BN
I0903 08:37:39.104224 1156072 net.cpp:84] Creating Layer B2_1_SConv_BN
I0903 08:37:39.104229 1156072 net.cpp:406] B2_1_SConv_BN <- B2_1_SConvBlockV2_T1
I0903 08:37:39.104234 1156072 net.cpp:367] B2_1_SConv_BN -> B2_1_SConvBlockV2_T1 (in-place)
I0903 08:37:39.104310 1156072 net.cpp:122] Setting up B2_1_SConv_BN
I0903 08:37:39.104317 1156072 net.cpp:129] Top shape: 32 1536 8 8 (3145728)
I0903 08:37:39.104322 1156072 net.cpp:137] Memory required for data: 503185536
I0903 08:37:39.104329 1156072 layer_factory.hpp:77] Creating layer B2_1_SConv_Scale
I0903 08:37:39.104336 1156072 net.cpp:84] Creating Layer B2_1_SConv_Scale
I0903 08:37:39.104339 1156072 net.cpp:406] B2_1_SConv_Scale <- B2_1_SConvBlockV2_T1
I0903 08:37:39.104348 1156072 net.cpp:380] B2_1_SConv_Scale -> B2_1_SConvBlockV2_Scale
I0903 08:37:39.104377 1156072 layer_factory.hpp:77] Creating layer B2_1_SConv_Scale
I0903 08:37:39.104446 1156072 net.cpp:122] Setting up B2_1_SConv_Scale
I0903 08:37:39.104454 1156072 net.cpp:129] Top shape: 32 1536 8 8 (3145728)
I0903 08:37:39.104460 1156072 net.cpp:137] Memory required for data: 515768448
I0903 08:37:39.104466 1156072 layer_factory.hpp:77] Creating layer B2_1_SConv_Conv1x1
I0903 08:37:39.104490 1156072 net.cpp:84] Creating Layer B2_1_SConv_Conv1x1
I0903 08:37:39.104494 1156072 net.cpp:406] B2_1_SConv_Conv1x1 <- B2_1_SConvBlockV2_Scale
I0903 08:37:39.104501 1156072 net.cpp:380] B2_1_SConv_Conv1x1 -> B2_1_SConvBlockV2_Conv1x1
I0903 08:37:39.106933 1156072 net.cpp:122] Setting up B2_1_SConv_Conv1x1
I0903 08:37:39.106947 1156072 net.cpp:129] Top shape: 32 192 8 8 (393216)
I0903 08:37:39.106954 1156072 net.cpp:137] Memory required for data: 517341312
I0903 08:37:39.106961 1156072 layer_factory.hpp:77] Creating layer B2_1_SConv_ReLU
I0903 08:37:39.106967 1156072 net.cpp:84] Creating Layer B2_1_SConv_ReLU
I0903 08:37:39.106972 1156072 net.cpp:406] B2_1_SConv_ReLU <- B2_1_SConvBlockV2_Conv1x1
I0903 08:37:39.106981 1156072 net.cpp:367] B2_1_SConv_ReLU -> B2_1_SConvBlockV2_Conv1x1 (in-place)
I0903 08:37:39.107002 1156072 net.cpp:122] Setting up B2_1_SConv_ReLU
I0903 08:37:39.107007 1156072 net.cpp:129] Top shape: 32 192 8 8 (393216)
I0903 08:37:39.107012 1156072 net.cpp:137] Memory required for data: 518914176
I0903 08:37:39.107017 1156072 layer_factory.hpp:77] Creating layer B2_1_SConv_Dropout
I0903 08:37:39.107023 1156072 net.cpp:84] Creating Layer B2_1_SConv_Dropout
I0903 08:37:39.107028 1156072 net.cpp:406] B2_1_SConv_Dropout <- B2_1_SConvBlockV2_Conv1x1
I0903 08:37:39.107033 1156072 net.cpp:380] B2_1_SConv_Dropout -> B2_1_SConvBlockV2_Dropout
I0903 08:37:39.107059 1156072 net.cpp:122] Setting up B2_1_SConv_Dropout
I0903 08:37:39.107064 1156072 net.cpp:129] Top shape: 32 192 8 8 (393216)
I0903 08:37:39.107069 1156072 net.cpp:137] Memory required for data: 520487040
I0903 08:37:39.107074 1156072 layer_factory.hpp:77] Creating layer B2_2_SConv_SparseConv
I0903 08:37:39.107082 1156072 net.cpp:84] Creating Layer B2_2_SConv_SparseConv
I0903 08:37:39.107087 1156072 net.cpp:406] B2_2_SConv_SparseConv <- B2_1_SConvBlockV2_Dropout
I0903 08:37:39.107092 1156072 net.cpp:380] B2_2_SConv_SparseConv -> B2_2_SConvBlockV2_T1
I0903 08:37:39.107254 1156072 net.cpp:122] Setting up B2_2_SConv_SparseConv
I0903 08:37:39.107261 1156072 net.cpp:129] Top shape: 32 1536 8 8 (3145728)
I0903 08:37:39.107266 1156072 net.cpp:137] Memory required for data: 533069952
I0903 08:37:39.107272 1156072 layer_factory.hpp:77] Creating layer B2_2_SConv_BN
I0903 08:37:39.107281 1156072 net.cpp:84] Creating Layer B2_2_SConv_BN
I0903 08:37:39.107286 1156072 net.cpp:406] B2_2_SConv_BN <- B2_2_SConvBlockV2_T1
I0903 08:37:39.107301 1156072 net.cpp:367] B2_2_SConv_BN -> B2_2_SConvBlockV2_T1 (in-place)
I0903 08:37:39.107379 1156072 net.cpp:122] Setting up B2_2_SConv_BN
I0903 08:37:39.107385 1156072 net.cpp:129] Top shape: 32 1536 8 8 (3145728)
I0903 08:37:39.107391 1156072 net.cpp:137] Memory required for data: 545652864
I0903 08:37:39.107399 1156072 layer_factory.hpp:77] Creating layer B2_2_SConv_Scale
I0903 08:37:39.107405 1156072 net.cpp:84] Creating Layer B2_2_SConv_Scale
I0903 08:37:39.107410 1156072 net.cpp:406] B2_2_SConv_Scale <- B2_2_SConvBlockV2_T1
I0903 08:37:39.107415 1156072 net.cpp:380] B2_2_SConv_Scale -> B2_2_SConvBlockV2_Scale
I0903 08:37:39.107440 1156072 layer_factory.hpp:77] Creating layer B2_2_SConv_Scale
I0903 08:37:39.107493 1156072 net.cpp:122] Setting up B2_2_SConv_Scale
I0903 08:37:39.107499 1156072 net.cpp:129] Top shape: 32 1536 8 8 (3145728)
I0903 08:37:39.107506 1156072 net.cpp:137] Memory required for data: 558235776
I0903 08:37:39.107511 1156072 layer_factory.hpp:77] Creating layer B2_2_SConv_Conv1x1
I0903 08:37:39.107522 1156072 net.cpp:84] Creating Layer B2_2_SConv_Conv1x1
I0903 08:37:39.107527 1156072 net.cpp:406] B2_2_SConv_Conv1x1 <- B2_2_SConvBlockV2_Scale
I0903 08:37:39.107534 1156072 net.cpp:380] B2_2_SConv_Conv1x1 -> B2_2_SConvBlockV2_Conv1x1
I0903 08:37:39.109987 1156072 net.cpp:122] Setting up B2_2_SConv_Conv1x1
I0903 08:37:39.110000 1156072 net.cpp:129] Top shape: 32 192 8 8 (393216)
I0903 08:37:39.110008 1156072 net.cpp:137] Memory required for data: 559808640
I0903 08:37:39.110013 1156072 layer_factory.hpp:77] Creating layer B2_2_SConv_ReLU
I0903 08:37:39.110023 1156072 net.cpp:84] Creating Layer B2_2_SConv_ReLU
I0903 08:37:39.110028 1156072 net.cpp:406] B2_2_SConv_ReLU <- B2_2_SConvBlockV2_Conv1x1
I0903 08:37:39.110033 1156072 net.cpp:367] B2_2_SConv_ReLU -> B2_2_SConvBlockV2_Conv1x1 (in-place)
I0903 08:37:39.110040 1156072 net.cpp:122] Setting up B2_2_SConv_ReLU
I0903 08:37:39.110045 1156072 net.cpp:129] Top shape: 32 192 8 8 (393216)
I0903 08:37:39.110050 1156072 net.cpp:137] Memory required for data: 561381504
I0903 08:37:39.110054 1156072 layer_factory.hpp:77] Creating layer B2_2_SConv_Dropout
I0903 08:37:39.110062 1156072 net.cpp:84] Creating Layer B2_2_SConv_Dropout
I0903 08:37:39.110066 1156072 net.cpp:406] B2_2_SConv_Dropout <- B2_2_SConvBlockV2_Conv1x1
I0903 08:37:39.110072 1156072 net.cpp:380] B2_2_SConv_Dropout -> B2_2_SConvBlockV2_Dropout
I0903 08:37:39.110100 1156072 net.cpp:122] Setting up B2_2_SConv_Dropout
I0903 08:37:39.110107 1156072 net.cpp:129] Top shape: 32 192 8 8 (393216)
I0903 08:37:39.110112 1156072 net.cpp:137] Memory required for data: 562954368
I0903 08:37:39.110117 1156072 layer_factory.hpp:77] Creating layer B2_Pooling
I0903 08:37:39.110124 1156072 net.cpp:84] Creating Layer B2_Pooling
I0903 08:37:39.110129 1156072 net.cpp:406] B2_Pooling <- B2_2_SConvBlockV2_Dropout
I0903 08:37:39.110134 1156072 net.cpp:380] B2_Pooling -> Pooling3
I0903 08:37:39.110178 1156072 net.cpp:122] Setting up B2_Pooling
I0903 08:37:39.110186 1156072 net.cpp:129] Top shape: 32 192 4 4 (98304)
I0903 08:37:39.110191 1156072 net.cpp:137] Memory required for data: 563347584
I0903 08:37:39.110196 1156072 layer_factory.hpp:77] Creating layer B3_0_SConv_SparseConv
I0903 08:37:39.110203 1156072 net.cpp:84] Creating Layer B3_0_SConv_SparseConv
I0903 08:37:39.110208 1156072 net.cpp:406] B3_0_SConv_SparseConv <- Pooling3
I0903 08:37:39.110215 1156072 net.cpp:380] B3_0_SConv_SparseConv -> B3_0_SConvBlockV2_T1
I0903 08:37:39.110378 1156072 net.cpp:122] Setting up B3_0_SConv_SparseConv
I0903 08:37:39.110384 1156072 net.cpp:129] Top shape: 32 1536 4 4 (786432)
I0903 08:37:39.110392 1156072 net.cpp:137] Memory required for data: 566493312
I0903 08:37:39.110397 1156072 layer_factory.hpp:77] Creating layer B3_0_SConv_BN
I0903 08:37:39.110406 1156072 net.cpp:84] Creating Layer B3_0_SConv_BN
I0903 08:37:39.110411 1156072 net.cpp:406] B3_0_SConv_BN <- B3_0_SConvBlockV2_T1
I0903 08:37:39.110417 1156072 net.cpp:367] B3_0_SConv_BN -> B3_0_SConvBlockV2_T1 (in-place)
I0903 08:37:39.110493 1156072 net.cpp:122] Setting up B3_0_SConv_BN
I0903 08:37:39.110500 1156072 net.cpp:129] Top shape: 32 1536 4 4 (786432)
I0903 08:37:39.110507 1156072 net.cpp:137] Memory required for data: 569639040
I0903 08:37:39.110514 1156072 layer_factory.hpp:77] Creating layer B3_0_SConv_Scale
I0903 08:37:39.110520 1156072 net.cpp:84] Creating Layer B3_0_SConv_Scale
I0903 08:37:39.110524 1156072 net.cpp:406] B3_0_SConv_Scale <- B3_0_SConvBlockV2_T1
I0903 08:37:39.110538 1156072 net.cpp:380] B3_0_SConv_Scale -> B3_0_SConvBlockV2_Scale
I0903 08:37:39.110564 1156072 layer_factory.hpp:77] Creating layer B3_0_SConv_Scale
I0903 08:37:39.110620 1156072 net.cpp:122] Setting up B3_0_SConv_Scale
I0903 08:37:39.110627 1156072 net.cpp:129] Top shape: 32 1536 4 4 (786432)
I0903 08:37:39.110632 1156072 net.cpp:137] Memory required for data: 572784768
I0903 08:37:39.110639 1156072 layer_factory.hpp:77] Creating layer B3_0_SConv_Conv1x1
I0903 08:37:39.110648 1156072 net.cpp:84] Creating Layer B3_0_SConv_Conv1x1
I0903 08:37:39.110656 1156072 net.cpp:406] B3_0_SConv_Conv1x1 <- B3_0_SConvBlockV2_Scale
I0903 08:37:39.110661 1156072 net.cpp:380] B3_0_SConv_Conv1x1 -> B3_0_SConvBlockV2_Conv1x1
I0903 08:37:39.113090 1156072 net.cpp:122] Setting up B3_0_SConv_Conv1x1
I0903 08:37:39.113108 1156072 net.cpp:129] Top shape: 32 192 4 4 (98304)
I0903 08:37:39.113121 1156072 net.cpp:137] Memory required for data: 573177984
I0903 08:37:39.113127 1156072 layer_factory.hpp:77] Creating layer B3_0_SConv_ReLU
I0903 08:37:39.113134 1156072 net.cpp:84] Creating Layer B3_0_SConv_ReLU
I0903 08:37:39.113139 1156072 net.cpp:406] B3_0_SConv_ReLU <- B3_0_SConvBlockV2_Conv1x1
I0903 08:37:39.113145 1156072 net.cpp:367] B3_0_SConv_ReLU -> B3_0_SConvBlockV2_Conv1x1 (in-place)
I0903 08:37:39.113152 1156072 net.cpp:122] Setting up B3_0_SConv_ReLU
I0903 08:37:39.113157 1156072 net.cpp:129] Top shape: 32 192 4 4 (98304)
I0903 08:37:39.113162 1156072 net.cpp:137] Memory required for data: 573571200
I0903 08:37:39.113165 1156072 layer_factory.hpp:77] Creating layer B3_0_SConv_Dropout
I0903 08:37:39.113173 1156072 net.cpp:84] Creating Layer B3_0_SConv_Dropout
I0903 08:37:39.113178 1156072 net.cpp:406] B3_0_SConv_Dropout <- B3_0_SConvBlockV2_Conv1x1
I0903 08:37:39.113183 1156072 net.cpp:380] B3_0_SConv_Dropout -> B3_0_SConvBlockV2_Dropout
I0903 08:37:39.113209 1156072 net.cpp:122] Setting up B3_0_SConv_Dropout
I0903 08:37:39.113214 1156072 net.cpp:129] Top shape: 32 192 4 4 (98304)
I0903 08:37:39.113219 1156072 net.cpp:137] Memory required for data: 573964416
I0903 08:37:39.113224 1156072 layer_factory.hpp:77] Creating layer B3_1_SConv_SparseConv
I0903 08:37:39.113232 1156072 net.cpp:84] Creating Layer B3_1_SConv_SparseConv
I0903 08:37:39.113236 1156072 net.cpp:406] B3_1_SConv_SparseConv <- B3_0_SConvBlockV2_Dropout
I0903 08:37:39.113242 1156072 net.cpp:380] B3_1_SConv_SparseConv -> B3_1_SConvBlockV2_T1
I0903 08:37:39.113404 1156072 net.cpp:122] Setting up B3_1_SConv_SparseConv
I0903 08:37:39.113412 1156072 net.cpp:129] Top shape: 32 1536 4 4 (786432)
I0903 08:37:39.113418 1156072 net.cpp:137] Memory required for data: 577110144
I0903 08:37:39.113423 1156072 layer_factory.hpp:77] Creating layer B3_1_SConv_BN
I0903 08:37:39.113432 1156072 net.cpp:84] Creating Layer B3_1_SConv_BN
I0903 08:37:39.113437 1156072 net.cpp:406] B3_1_SConv_BN <- B3_1_SConvBlockV2_T1
I0903 08:37:39.113443 1156072 net.cpp:367] B3_1_SConv_BN -> B3_1_SConvBlockV2_T1 (in-place)
I0903 08:37:39.113521 1156072 net.cpp:122] Setting up B3_1_SConv_BN
I0903 08:37:39.113528 1156072 net.cpp:129] Top shape: 32 1536 4 4 (786432)
I0903 08:37:39.113533 1156072 net.cpp:137] Memory required for data: 580255872
I0903 08:37:39.113544 1156072 layer_factory.hpp:77] Creating layer B3_1_SConv_Scale
I0903 08:37:39.113552 1156072 net.cpp:84] Creating Layer B3_1_SConv_Scale
I0903 08:37:39.113557 1156072 net.cpp:406] B3_1_SConv_Scale <- B3_1_SConvBlockV2_T1
I0903 08:37:39.113564 1156072 net.cpp:380] B3_1_SConv_Scale -> B3_1_SConvBlockV2_Scale
I0903 08:37:39.113590 1156072 layer_factory.hpp:77] Creating layer B3_1_SConv_Scale
I0903 08:37:39.113646 1156072 net.cpp:122] Setting up B3_1_SConv_Scale
I0903 08:37:39.113651 1156072 net.cpp:129] Top shape: 32 1536 4 4 (786432)
I0903 08:37:39.113657 1156072 net.cpp:137] Memory required for data: 583401600
I0903 08:37:39.113663 1156072 layer_factory.hpp:77] Creating layer B3_1_SConv_Conv1x1
I0903 08:37:39.113674 1156072 net.cpp:84] Creating Layer B3_1_SConv_Conv1x1
I0903 08:37:39.113679 1156072 net.cpp:406] B3_1_SConv_Conv1x1 <- B3_1_SConvBlockV2_Scale
I0903 08:37:39.113685 1156072 net.cpp:380] B3_1_SConv_Conv1x1 -> B3_1_SConvBlockV2_Conv1x1
I0903 08:37:39.116096 1156072 net.cpp:122] Setting up B3_1_SConv_Conv1x1
I0903 08:37:39.116108 1156072 net.cpp:129] Top shape: 32 192 4 4 (98304)
I0903 08:37:39.116114 1156072 net.cpp:137] Memory required for data: 583794816
I0903 08:37:39.116120 1156072 layer_factory.hpp:77] Creating layer B3_1_SConv_ReLU
I0903 08:37:39.116132 1156072 net.cpp:84] Creating Layer B3_1_SConv_ReLU
I0903 08:37:39.116137 1156072 net.cpp:406] B3_1_SConv_ReLU <- B3_1_SConvBlockV2_Conv1x1
I0903 08:37:39.116142 1156072 net.cpp:367] B3_1_SConv_ReLU -> B3_1_SConvBlockV2_Conv1x1 (in-place)
I0903 08:37:39.116149 1156072 net.cpp:122] Setting up B3_1_SConv_ReLU
I0903 08:37:39.116153 1156072 net.cpp:129] Top shape: 32 192 4 4 (98304)
I0903 08:37:39.116163 1156072 net.cpp:137] Memory required for data: 584188032
I0903 08:37:39.116173 1156072 layer_factory.hpp:77] Creating layer B3_1_SConv_Dropout
I0903 08:37:39.116179 1156072 net.cpp:84] Creating Layer B3_1_SConv_Dropout
I0903 08:37:39.116184 1156072 net.cpp:406] B3_1_SConv_Dropout <- B3_1_SConvBlockV2_Conv1x1
I0903 08:37:39.116191 1156072 net.cpp:380] B3_1_SConv_Dropout -> B3_1_SConvBlockV2_Dropout
I0903 08:37:39.116215 1156072 net.cpp:122] Setting up B3_1_SConv_Dropout
I0903 08:37:39.116221 1156072 net.cpp:129] Top shape: 32 192 4 4 (98304)
I0903 08:37:39.116226 1156072 net.cpp:137] Memory required for data: 584581248
I0903 08:37:39.116230 1156072 layer_factory.hpp:77] Creating layer B3_2_SConv_SparseConv
I0903 08:37:39.116240 1156072 net.cpp:84] Creating Layer B3_2_SConv_SparseConv
I0903 08:37:39.116245 1156072 net.cpp:406] B3_2_SConv_SparseConv <- B3_1_SConvBlockV2_Dropout
I0903 08:37:39.116251 1156072 net.cpp:380] B3_2_SConv_SparseConv -> B3_2_SConvBlockV2_T1
I0903 08:37:39.116413 1156072 net.cpp:122] Setting up B3_2_SConv_SparseConv
I0903 08:37:39.116420 1156072 net.cpp:129] Top shape: 32 1536 4 4 (786432)
I0903 08:37:39.116432 1156072 net.cpp:137] Memory required for data: 587726976
I0903 08:37:39.116438 1156072 layer_factory.hpp:77] Creating layer B3_2_SConv_BN
I0903 08:37:39.116447 1156072 net.cpp:84] Creating Layer B3_2_SConv_BN
I0903 08:37:39.116452 1156072 net.cpp:406] B3_2_SConv_BN <- B3_2_SConvBlockV2_T1
I0903 08:37:39.116458 1156072 net.cpp:367] B3_2_SConv_BN -> B3_2_SConvBlockV2_T1 (in-place)
I0903 08:37:39.116539 1156072 net.cpp:122] Setting up B3_2_SConv_BN
I0903 08:37:39.116546 1156072 net.cpp:129] Top shape: 32 1536 4 4 (786432)
I0903 08:37:39.116551 1156072 net.cpp:137] Memory required for data: 590872704
I0903 08:37:39.116559 1156072 layer_factory.hpp:77] Creating layer B3_2_SConv_Scale
I0903 08:37:39.116567 1156072 net.cpp:84] Creating Layer B3_2_SConv_Scale
I0903 08:37:39.116572 1156072 net.cpp:406] B3_2_SConv_Scale <- B3_2_SConvBlockV2_T1
I0903 08:37:39.116578 1156072 net.cpp:380] B3_2_SConv_Scale -> B3_2_SConvBlockV2_Scale
I0903 08:37:39.116602 1156072 layer_factory.hpp:77] Creating layer B3_2_SConv_Scale
I0903 08:37:39.116657 1156072 net.cpp:122] Setting up B3_2_SConv_Scale
I0903 08:37:39.116662 1156072 net.cpp:129] Top shape: 32 1536 4 4 (786432)
I0903 08:37:39.116667 1156072 net.cpp:137] Memory required for data: 594018432
I0903 08:37:39.116673 1156072 layer_factory.hpp:77] Creating layer B3_2_SConv_Conv1x1
I0903 08:37:39.116683 1156072 net.cpp:84] Creating Layer B3_2_SConv_Conv1x1
I0903 08:37:39.116688 1156072 net.cpp:406] B3_2_SConv_Conv1x1 <- B3_2_SConvBlockV2_Scale
I0903 08:37:39.116694 1156072 net.cpp:380] B3_2_SConv_Conv1x1 -> B3_2_SConvBlockV2_Conv1x1
I0903 08:37:39.119122 1156072 net.cpp:122] Setting up B3_2_SConv_Conv1x1
I0903 08:37:39.119135 1156072 net.cpp:129] Top shape: 32 192 4 4 (98304)
I0903 08:37:39.119141 1156072 net.cpp:137] Memory required for data: 594411648
I0903 08:37:39.119148 1156072 layer_factory.hpp:77] Creating layer B3_2_SConv_ReLU
I0903 08:37:39.119158 1156072 net.cpp:84] Creating Layer B3_2_SConv_ReLU
I0903 08:37:39.119163 1156072 net.cpp:406] B3_2_SConv_ReLU <- B3_2_SConvBlockV2_Conv1x1
I0903 08:37:39.119168 1156072 net.cpp:367] B3_2_SConv_ReLU -> B3_2_SConvBlockV2_Conv1x1 (in-place)
I0903 08:37:39.119175 1156072 net.cpp:122] Setting up B3_2_SConv_ReLU
I0903 08:37:39.119179 1156072 net.cpp:129] Top shape: 32 192 4 4 (98304)
I0903 08:37:39.119184 1156072 net.cpp:137] Memory required for data: 594804864
I0903 08:37:39.119189 1156072 layer_factory.hpp:77] Creating layer B3_2_SConv_Dropout
I0903 08:37:39.119194 1156072 net.cpp:84] Creating Layer B3_2_SConv_Dropout
I0903 08:37:39.119199 1156072 net.cpp:406] B3_2_SConv_Dropout <- B3_2_SConvBlockV2_Conv1x1
I0903 08:37:39.119206 1156072 net.cpp:380] B3_2_SConv_Dropout -> B3_2_SConvBlockV2_Dropout
I0903 08:37:39.119230 1156072 net.cpp:122] Setting up B3_2_SConv_Dropout
I0903 08:37:39.119236 1156072 net.cpp:129] Top shape: 32 192 4 4 (98304)
I0903 08:37:39.119241 1156072 net.cpp:137] Memory required for data: 595198080
I0903 08:37:39.119251 1156072 layer_factory.hpp:77] Creating layer B3_Pooling
I0903 08:37:39.119263 1156072 net.cpp:84] Creating Layer B3_Pooling
I0903 08:37:39.119268 1156072 net.cpp:406] B3_Pooling <- B3_2_SConvBlockV2_Dropout
I0903 08:37:39.119274 1156072 net.cpp:380] B3_Pooling -> Pooling4
I0903 08:37:39.119290 1156072 net.cpp:122] Setting up B3_Pooling
I0903 08:37:39.119297 1156072 net.cpp:129] Top shape: 32 192 1 1 (6144)
I0903 08:37:39.119302 1156072 net.cpp:137] Memory required for data: 595222656
I0903 08:37:39.119307 1156072 layer_factory.hpp:77] Creating layer fc1
I0903 08:37:39.119318 1156072 net.cpp:84] Creating Layer fc1
I0903 08:37:39.119323 1156072 net.cpp:406] fc1 <- Pooling4
I0903 08:37:39.119329 1156072 net.cpp:380] fc1 -> fc1
I0903 08:37:39.119751 1156072 net.cpp:122] Setting up fc1
I0903 08:37:39.119760 1156072 net.cpp:129] Top shape: 32 384 (12288)
I0903 08:37:39.119765 1156072 net.cpp:137] Memory required for data: 595271808
I0903 08:37:39.119771 1156072 layer_factory.hpp:77] Creating layer classifier
I0903 08:37:39.119778 1156072 net.cpp:84] Creating Layer classifier
I0903 08:37:39.119783 1156072 net.cpp:406] classifier <- fc1
I0903 08:37:39.119788 1156072 net.cpp:380] classifier -> classifier
I0903 08:37:39.119853 1156072 net.cpp:122] Setting up classifier
I0903 08:37:39.119860 1156072 net.cpp:129] Top shape: 32 10 (320)
I0903 08:37:39.119865 1156072 net.cpp:137] Memory required for data: 595273088
I0903 08:37:39.119870 1156072 layer_factory.hpp:77] Creating layer softmax_loss
I0903 08:37:39.119881 1156072 net.cpp:84] Creating Layer softmax_loss
I0903 08:37:39.119886 1156072 net.cpp:406] softmax_loss <- classifier
I0903 08:37:39.119891 1156072 net.cpp:406] softmax_loss <- label
I0903 08:37:39.119897 1156072 net.cpp:380] softmax_loss -> softmax_loss
…
I0903 08:37:39.120985 1156072 net.cpp:294] The NetState phase (1) differed from the phase (0) specified by a rule in layer InputData
I0903 08:37:39.121012 1156072 net.cpp:51] Initializing net from parameters: 
state {
  phase: TEST
}
layer {
  name: "InputData"
  type: "ImageData"
  top: "data"
  top: "label"
  include {
    phase: TEST
  }
  transform_param {
    mirror: true
    crop_size: 32
  }
  image_data_param {
    source: "/home/jcwang/work/1.CIFAR10/test.txt"
    batch_size: 1
    shuffle: true
    is_color: true
  }
}
layer {
  name: "B0_0_ConvBNScaleReLU_Conv"
  type: "Convolution"
  bottom: "data"
  top: "B0_0_ConvBNScaleReLU_Conv"
  convolution_param {
    num_output: 64
    bias_term: false
    pad: 1
    kernel_size: 3
    stride: 1
    weight_filler {
      type: "xavier"
    }
    bias_filler {
      type: "constant"
    }
  }
}
layer {
  name: "B0_0_ConvBNScaleReLU_BN"
  type: "BatchNorm"
  bottom: "B0_0_ConvBNScaleReLU_Conv"
  top: "B0_0_ConvBNScaleReLU_Conv"
  param {
    lr_mult: 0
    decay_mult: 0
  }
  param {
    lr_mult: 0
    decay_mult: 0
  }
  param {
    lr_mult: 0
    decay_mult: 0
  }
  batch_norm_param {
    moving_average_fraction: 0.999
    eps: 0.001
  }
}
layer {
  name: "B0_0_ConvBNScaleReLU_Scale"
  type: "Scale"
  bottom: "B0_0_ConvBNScaleReLU_Conv"
  top: "B0_0_ConvBNScaleReLU_Conv"
  scale_param {
    filler {
      value: 1
    }
    bias_term: true
    bias_filler {
      value: 0
    }
    l1_lambda: 0
  }
}
layer {
  name: "B0_0_ConvBNScaleReLU_ReLU"
  type: "ReLU"
  bottom: "B0_0_ConvBNScaleReLU_Conv"
  top: "B0_0_ConvBNScaleReLU_Conv"
}
layer {
  name: "B0_0_ConvBNScaleReLU_Dropout"
  type: "Dropout"
  bottom: "B0_0_ConvBNScaleReLU_Conv"
  top: "ConvBNScaleReLU"
  dropout_param {
    dropout_ratio: 0.25
  }
}
layer {
  name: "B0_1_SConv_SparseConv"
  type: "SparseConvolution"
  bottom: "ConvBNScaleReLU"
  top: "B0_1_SConvBlockV2_T1"
  sparse_convolution_param {
    weight_filler {
      type: "xavier"
    }
    channel_expand_multiplier: 8
  }
}
layer {
  name: "B0_1_SConv_BN"
  type: "BatchNorm"
  bottom: "B0_1_SConvBlockV2_T1"
  top: "B0_1_SConvBlockV2_T1"
  param {
    lr_mult: 0
    decay_mult: 0
  }
  param {
    lr_mult: 0
    decay_mult: 0
  }
  param {
    lr_mult: 0
    decay_mult: 0
  }
  batch_norm_param {
    moving_average_fraction: 0.999
    eps: 0.001
  }
}
layer {
  name: "B0_1_SConv_Scale"
  type: "Scale"
  bottom: "B0_1_SConvBlockV2_T1"
  top: "B0_1_SConvBlockV2_Scale"
  scale_param {
    bias_term: true
  }
}
layer {
  name: "B0_1_SConv_Conv1x1"
  type: "Convolution"
  bottom: "B0_1_SConvBlockV2_Scale"
  top: "B0_1_SConvBlockV2_Conv1x1"
  convolution_param {
    num_output: 64
    bias_term: true
    pad: 0
    kernel_size: 1
    stride: 1
    weight_filler {
      type: "xavier"
    }
    bias_filler {
      type: "constant"
    }
  }
}
layer {
  name: "B0_1_SConv_ReLU"
  type: "ReLU"
  bottom: "B0_1_SConvBlockV2_Conv1x1"
  top: "B0_1_SConvBlockV2_Conv1x1"
}
layer {
  name: "B0_1_SConv_Dropout"
  type: "Dropout"
  bottom: "B0_1_SConvBlockV2_Conv1x1"
  top: "B0_1_SConvBlockV2_Dropout"
  dropout_param {
    dropout_ratio: 0.25
  }
}
layer {
  name: "B0_Pooling"
  type: "Pooling"
  bottom: "B0_1_SConvBlockV2_Dropout"
  top: "Pooling1"
  pooling_param {
    pool: MAX
    kernel_size: 2
    stride: 2
    pad: 0
  }
}
layer {
  name: "B1_0_SConv_SparseConv"
  type: "SparseConvolution"
  bottom: "Pooling1"
  top: "B1_0_SConvBlockV2_T1"
  sparse_convolution_param {
    weight_filler {
      type: "xavier"
    }
    channel_expand_multiplier: 8
  }
}
layer {
  name: "B1_0_SConv_BN"
  type: "BatchNorm"
  bottom: "B1_0_SConvBlockV2_T1"
  top: "B1_0_SConvBlockV2_T1"
  param {
    lr_mult: 0
    decay_mult: 0
  }
  param {
    lr_mult: 0
    decay_mult: 0
  }
  param {
    lr_mult: 0
    decay_mult: 0
  }
  batch_norm_param {
    moving_average_fraction: 0.999
    eps: 0.001
  }
}
layer {
  name: "B1_0_SConv_Scale"
  type: "Scale"
  bottom: "B1_0_SConvBlockV2_T1"
  top: "B1_0_SConvBlockV2_Scale"
  scale_param {
    bias_term: true
  }
}
layer {
  name: "B1_0_SConv_Conv1x1"
  type: "Convolution"
  bottom: "B1_0_SConvBlockV2_Scale"
  top: "B1_0_SConvBlockV2_Conv1x1"
  convolution_param {
    num_output: 128
    bias_term: true
    pad: 0
    kernel_size: 1
    stride: 1
    weight_filler {
      type: "xavier"
    }
    bias_filler {
      type: "constant"
    }
  }
}
layer {
  name: "B1_0_SConv_ReLU"
  type: "ReLU"
  bottom: "B1_0_SConvBlockV2_Conv1x1"
  top: "B1_0_SConvBlockV2_Conv1x1"
}
layer {
  name: "B1_0_SConv_Dropout"
  type: "Dropout"
  bottom: "B1_0_SConvBlockV2_Conv1x1"
  top: "B1_0_SConvBlockV2_Dropout"
  dropout_param {
    dropout_ratio: 0.25
  }
}
layer {
  name: "B1_1_SConv_SparseConv"
  type: "SparseConvolution"
  bottom: "B1_0_SConvBlockV2_Dropout"
  top: "B1_1_SConvBlockV2_T1"
  sparse_convolution_param {
    weight_filler {
      type: "xavier"
    }
    channel_expand_multiplier: 8
  }
}
layer {
  name: "B1_1_SConv_BN"
  type: "BatchNorm"
  bottom: "B1_1_SConvBlockV2_T1"
  top: "B1_1_SConvBlockV2_T1"
  param {
    lr_mult: 0
    decay_mult: 0
  }
  param {
    lr_mult: 0
    decay_mult: 0
  }
  param {
    lr_mult: 0
    decay_mult: 0
  }
  batch_norm_param {
    moving_average_fraction: 0.999
    eps: 0.001
  }
}
layer {
  name: "B1_1_SConv_Scale"
  type: "Scale"
  bottom: "B1_1_SConvBlockV2_T1"
  top: "B1_1_SConvBlockV2_Scale"
  scale_param {
    bias_term: true
  }
}
layer {
  name: "B1_1_SConv_Conv1x1"
  type: "Convolution"
  bottom: "B1_1_SConvBlockV2_Scale"
  top: "B1_1_SConvBlockV2_Conv1x1"
  convolution_param {
    num_output: 128
    bias_term: true
    pad: 0
    kernel_size: 1
    stride: 1
    weight_filler {
      type: "xavier"
    }
    bias_filler {
      type: "constant"
    }
  }
}
layer {
  name: "B1_1_SConv_ReLU"
  type: "ReLU"
  bottom: "B1_1_SConvBlockV2_Conv1x1"
  top: "B1_1_SConvBlockV2_Conv1x1"
}
layer {
  name: "B1_1_SConv_Dropout"
  type: "Dropout"
  bottom: "B1_1_SConvBlockV2_Conv1x1"
  top: "B1_1_SConvBlockV2_Dropout"
  dropout_param {
    dropout_ratio: 0.25
  }
}
layer {
  name: "B1_Pooling"
  type: "Pooling"
  bottom: "B1_1_SConvBlockV2_Dropout"
  top: "Pooling2"
  pooling_param {
    pool: MAX
    kernel_size: 2
    stride: 2
    pad: 0
  }
}
layer {
  name: "B2_0_SConv_SparseConv"
  type: "SparseConvolution"
  bottom: "Pooling2"
  top: "B2_0_SConvBlockV2_T1"
  sparse_convolution_param {
    weight_filler {
      type: "xavier"
    }
    channel_expand_multiplier: 8
  }
}
layer {
  name: "B2_0_SConv_BN"
  type: "BatchNorm"
  bottom: "B2_0_SConvBlockV2_T1"
  top: "B2_0_SConvBlockV2_T1"
  param {
    lr_mult: 0
    decay_mult: 0
  }
  param {
    lr_mult: 0
    decay_mult: 0
  }
  param {
    lr_mult: 0
    decay_mult: 0
  }
  batch_norm_param {
    moving_average_fraction: 0.999
    eps: 0.001
  }
}
layer {
  name: "B2_0_SConv_Scale"
  type: "Scale"
  bottom: "B2_0_SConvBlockV2_T1"
  top: "B2_0_SConvBlockV2_Scale"
  scale_param {
    bias_term: true
  }
}
layer {
  name: "B2_0_SConv_Conv1x1"
  type: "Convolution"
  bottom: "B2_0_SConvBlockV2_Scale"
  top: "B2_0_SConvBlockV2_Conv1x1"
  convolution_param {
    num_output: 192
    bias_term: true
    pad: 0
    kernel_size: 1
    stride: 1
    weight_filler {
      type: "xavier"
    }
    bias_filler {
      type: "constant"
    }
  }
}
layer {
  name: "B2_0_SConv_ReLU"
  type: "ReLU"
  bottom: "B2_0_SConvBlockV2_Conv1x1"
  top: "B2_0_SConvBlockV2_Conv1x1"
}
layer {
  name: "B2_0_SConv_Dropout"
  type: "Dropout"
  bottom: "B2_0_SConvBlockV2_Conv1x1"
  top: "B2_0_SConvBlockV2_Dropout"
  dropout_param {
    dropout_ratio: 0.25
  }
}
layer {
  name: "B2_1_SConv_SparseConv"
  type: "SparseConvolution"
  bottom: "B2_0_SConvBlockV2_Dropout"
  top: "B2_1_SConvBlockV2_T1"
  sparse_convolution_param {
    weight_filler {
      type: "xavier"
    }
    channel_expand_multiplier: 8
  }
}
layer {
  name: "B2_1_SConv_BN"
  type: "BatchNorm"
  bottom: "B2_1_SConvBlockV2_T1"
  top: "B2_1_SConvBlockV2_T1"
  param {
    lr_mult: 0
    decay_mult: 0
  }
  param {
    lr_mult: 0
    decay_mult: 0
  }
  param {
    lr_mult: 0
    decay_mult: 0
  }
  batch_norm_param {
    moving_average_fraction: 0.999
    eps: 0.001
  }
}
layer {
  name: "B2_1_SConv_Scale"
  type: "Scale"
  bottom: "B2_1_SConvBlockV2_T1"
  top: "B2_1_SConvBlockV2_Scale"
  scale_param {
    bias_term: true
  }
}
layer {
  name: "B2_1_SConv_Conv1x1"
  type: "Convolution"
  bottom: "B2_1_SConvBlockV2_Scale"
  top: "B2_1_SConvBlockV2_Conv1x1"
  convolution_param {
    num_output: 192
    bias_term: true
    pad: 0
    kernel_size: 1
    stride: 1
    weight_filler {
      type: "xavier"
    }
    bias_filler {
      type: "constant"
    }
  }
}
layer {
  name: "B2_1_SConv_ReLU"
  type: "ReLU"
  bottom: "B2_1_SConvBlockV2_Conv1x1"
  top: "B2_1_SConvBlockV2_Conv1x1"
}
layer {
  name: "B2_1_SConv_Dropout"
  type: "Dropout"
  bottom: "B2_1_SConvBlockV2_Conv1x1"
  top: "B2_1_SConvBlockV2_Dropout"
  dropout_param {
    dropout_ratio: 0.25
  }
}
layer {
  name: "B2_2_SConv_SparseConv"
  type: "SparseConvolution"
  bottom: "B2_1_SConvBlockV2_Dropout"
  top: "B2_2_SConvBlockV2_T1"
  sparse_convolution_param {
    weight_filler {
      type: "xavier"
    }
    channel_expand_multiplier: 8
  }
}
layer {
  name: "B2_2_SConv_BN"
  type: "BatchNorm"
  bottom: "B2_2_SConvBlockV2_T1"
  top: "B2_2_SConvBlockV2_T1"
  param {
    lr_mult: 0
    decay_mult: 0
  }
  param {
    lr_mult: 0
    decay_mult: 0
  }
  param {
    lr_mult: 0
    decay_mult: 0
  }
  batch_norm_param {
    moving_average_fraction: 0.999
    eps: 0.001
  }
}
layer {
  name: "B2_2_SConv_Scale"
  type: "Scale"
  bottom: "B2_2_SConvBlockV2_T1"
  top: "B2_2_SConvBlockV2_Scale"
  scale_param {
    bias_term: true
  }
}
layer {
  name: "B2_2_SConv_Conv1x1"
  type: "Convolution"
  bottom: "B2_2_SConvBlockV2_Scale"
  top: "B2_2_SConvBlockV2_Conv1x1"
  convolution_param {
    num_output: 192
    bias_term: true
    pad: 0
    kernel_size: 1
    stride: 1
    weight_filler {
      type: "xavier"
    }
    bias_filler {
      type: "constant"
    }
  }
}
layer {
  name: "B2_2_SConv_ReLU"
  type: "ReLU"
  bottom: "B2_2_SConvBlockV2_Conv1x1"
  top: "B2_2_SConvBlockV2_Conv1x1"
}
layer {
  name: "B2_2_SConv_Dropout"
  type: "Dropout"
  bottom: "B2_2_SConvBlockV2_Conv1x1"
  top: "B2_2_SConvBlockV2_Dropout"
  dropout_param {
    dropout_ratio: 0.25
  }
}
layer {
  name: "B2_Pooling"
  type: "Pooling"
  bottom: "B2_2_SConvBlockV2_Dropout"
  top: "Pooling3"
  pooling_param {
    pool: MAX
    kernel_size: 2
    stride: 2
    pad: 0
  }
}
layer {
  name: "B3_0_SConv_SparseConv"
  type: "SparseConvolution"
  bottom: "Pooling3"
  top: "B3_0_SConvBlockV2_T1"
  sparse_convolution_param {
    weight_filler {
      type: "xavier"
    }
    channel_expand_multiplier: 8
  }
}
layer {
  name: "B3_0_SConv_BN"
  type: "BatchNorm"
  bottom: "B3_0_SConvBlockV2_T1"
  top: "B3_0_SConvBlockV2_T1"
  param {
    lr_mult: 0
    decay_mult: 0
  }
  param {
    lr_mult: 0
    decay_mult: 0
  }
  param {
    lr_mult: 0
    decay_mult: 0
  }
  batch_norm_param {
    moving_average_fraction: 0.999
    eps: 0.001
  }
}
layer {
  name: "B3_0_SConv_Scale"
  type: "Scale"
  bottom: "B3_0_SConvBlockV2_T1"
  top: "B3_0_SConvBlockV2_Scale"
  scale_param {
    bias_term: true
  }
}
layer {
  name: "B3_0_SConv_Conv1x1"
  type: "Convolution"
  bottom: "B3_0_SConvBlockV2_Scale"
  top: "B3_0_SConvBlockV2_Conv1x1"
  convolution_param {
    num_output: 192
    bias_term: true
    pad: 0
    kernel_size: 1
    stride: 1
    weight_filler {
      type: "xavier"
    }
    bias_filler {
      type: "constant"
    }
  }
}
layer {
  name: "B3_0_SConv_ReLU"
  type: "ReLU"
  bottom: "B3_0_SConvBlockV2_Conv1x1"
  top: "B3_0_SConvBlockV2_Conv1x1"
}
layer {
  name: "B3_0_SConv_Dropout"
  type: "Dropout"
  bottom: "B3_0_SConvBlockV2_Conv1x1"
  top: "B3_0_SConvBlockV2_Dropout"
  dropout_param {
    dropout_ratio: 0.25
  }
}
layer {
  name: "B3_1_SConv_SparseConv"
  type: "SparseConvolution"
  bottom: "B3_0_SConvBlockV2_Dropout"
  top: "B3_1_SConvBlockV2_T1"
  sparse_convolution_param {
    weight_filler {
      type: "xavier"
    }
    channel_expand_multiplier: 8
  }
}
layer {
  name: "B3_1_SConv_BN"
  type: "BatchNorm"
  bottom: "B3_1_SConvBlockV2_T1"
  top: "B3_1_SConvBlockV2_T1"
  param {
    lr_mult: 0
    decay_mult: 0
  }
  param {
    lr_mult: 0
    decay_mult: 0
  }
  param {
    lr_mult: 0
    decay_mult: 0
  }
  batch_norm_param {
    moving_average_fraction: 0.999
    eps: 0.001
  }
}
layer {
  name: "B3_1_SConv_Scale"
  type: "Scale"
  bottom: "B3_1_SConvBlockV2_T1"
  top: "B3_1_SConvBlockV2_Scale"
  scale_param {
    bias_term: true
  }
}
layer {
  name: "B3_1_SConv_Conv1x1"
  type: "Convolution"
  bottom: "B3_1_SConvBlockV2_Scale"
  top: "B3_1_SConvBlockV2_Conv1x1"
  convolution_param {
    num_output: 192
    bias_term: true
    pad: 0
    kernel_size: 1
    stride: 1
    weight_filler {
      type: "xavier"
    }
    bias_filler {
      type: "constant"
    }
  }
}
layer {
  name: "B3_1_SConv_ReLU"
  type: "ReLU"
  bottom: "B3_1_SConvBlockV2_Conv1x1"
  top: "B3_1_SConvBlockV2_Conv1x1"
}
layer {
  name: "B3_1_SConv_Dropout"
  type: "Dropout"
  bottom: "B3_1_SConvBlockV2_Conv1x1"
  top: "B3_1_SConvBlockV2_Dropout"
  dropout_param {
    dropout_ratio: 0.25
  }
}
layer {
  name: "B3_2_SConv_SparseConv"
  type: "SparseConvolution"
  bottom: "B3_1_SConvBlockV2_Dropout"
  top: "B3_2_SConvBlockV2_T1"
  sparse_convolution_param {
    weight_filler {
      type: "xavier"
    }
    channel_expand_multiplier: 8
  }
}
layer {
  name: "B3_2_SConv_BN"
  type: "BatchNorm"
  bottom: "B3_2_SConvBlockV2_T1"
  top: "B3_2_SConvBlockV2_T1"
  param {
    lr_mult: 0
    decay_mult: 0
  }
  param {
    lr_mult: 0
    decay_mult: 0
  }
  param {
    lr_mult: 0
    decay_mult: 0
  }
  batch_norm_param {
    moving_average_fraction: 0.999
    eps: 0.001
  }
}
layer {
  name: "B3_2_SConv_Scale"
  type: "Scale"
  bottom: "B3_2_SConvBlockV2_T1"
  top: "B3_2_SConvBlockV2_Scale"
  scale_param {
    bias_term: true
  }
}
layer {
  name: "B3_2_SConv_Conv1x1"
  type: "Convolution"
  bottom: "B3_2_SConvBlockV2_Scale"
  top: "B3_2_SConvBlockV2_Conv1x1"
  convolution_param {
    num_output: 192
    bias_term: true
    pad: 0
    kernel_size: 1
    stride: 1
    weight_filler {
      type: "xavier"
    }
    bias_filler {
      type: "constant"
    }
  }
}
layer {
  name: "B3_2_SConv_ReLU"
  type: "ReLU"
  bottom: "B3_2_SConvBlockV2_Conv1x1"
  top: "B3_2_SConvBlockV2_Conv1x1"
}
layer {
  name: "B3_2_SConv_Dropout"
  type: "Dropout"
  bottom: "B3_2_SConvBlockV2_Conv1x1"
  top: "B3_2_SConvBlockV2_Dropout"
  dropout_param {
    dropout_ratio: 0.25
  }
}
layer {
  name: "B3_Pooling"
  type: "Pooling"
  bottom: "B3_2_SConvBlockV2_Dropout"
  top: "Pooling4"
  pooling_param {
    pool: AVE
    global_pooling: true
  }
}
layer {
  name: "fc1"
  type: "InnerProduct"
  bottom: "Pooling4"
  top: "fc1"
  inner_product_param {
    num_output: 384
    bias_term: true
    weight_filler {
      type: "xavier"
    }
    bias_filler {
      type: "constant"
    }
  }
}
layer {
  name: "classifier"
  type: "InnerProduct"
  bottom: "fc1"
  top: "classifier"
  inner_product_param {
    num_output: 10
    bias_term: true
    weight_filler {
      type: "xavier"
    }
    bias_filler {
      type: "constant"
    }
  }
}
layer {
  name: "softmax_loss"
  type: "SoftmaxWithLoss"
  bottom: "classifier"
  bottom: "label"
  top: "softmax_loss"
}
layer {
  name: "accuracy"
  type: "Accuracy"
  bottom: "classifier"
  bottom: "label"
  top: "accuracy"
  include {
    phase: TEST
  }
}
I0903 08:37:39.121409 1156072 layer_factory.hpp:77] Creating layer InputData
I0903 08:37:39.121425 1156072 net.cpp:84] Creating Layer InputData
I0903 08:37:39.121433 1156072 net.cpp:380] InputData -> data
I0903 08:37:39.121440 1156072 net.cpp:380] InputData -> label
I0903 08:37:39.121452 1156072 image_data_layer.cpp:38] Opening file /home/jcwang/work/1.CIFAR10/test.txt
I0903 08:37:39.123375 1156072 image_data_layer.cpp:53] Shuffling data
I0903 08:37:39.123530 1156072 image_data_layer.cpp:63] A total of 10001 images.
I0903 08:37:39.123608 1156072 image_data_layer.cpp:90] output data size: 1,3,32,32
I0903 08:37:39.123812 1156072 net.cpp:122] Setting up InputData
I0903 08:37:39.123823 1156072 net.cpp:129] Top shape: 1 3 32 32 (3072)
I0903 08:37:39.123831 1156072 net.cpp:129] Top shape: 1 (1)
I0903 08:37:39.123836 1156072 net.cpp:137] Memory required for data: 12292
I0903 08:37:39.123840 1156072 layer_factory.hpp:77] Creating layer label_InputData_1_split
I0903 08:37:39.123847 1156072 net.cpp:84] Creating Layer label_InputData_1_split
I0903 08:37:39.123852 1156072 net.cpp:406] label_InputData_1_split <- label
I0903 08:37:39.123859 1156072 net.cpp:380] label_InputData_1_split -> label_InputData_1_split_0
I0903 08:37:39.123867 1156072 net.cpp:380] label_InputData_1_split -> label_InputData_1_split_1
I0903 08:37:39.123891 1156072 net.cpp:122] Setting up label_InputData_1_split
I0903 08:37:39.123898 1156072 net.cpp:129] Top shape: 1 (1)
I0903 08:37:39.123903 1156072 net.cpp:129] Top shape: 1 (1)
I0903 08:37:39.123906 1156072 net.cpp:137] Memory required for data: 12300
I0903 08:37:39.123910 1156072 layer_factory.hpp:77] Creating layer B0_0_ConvBNScaleReLU_Conv
I0903 08:37:39.123919 1156072 net.cpp:84] Creating Layer B0_0_ConvBNScaleReLU_Conv
I0903 08:37:39.123924 1156072 net.cpp:406] B0_0_ConvBNScaleReLU_Conv <- data
I0903 08:37:39.123929 1156072 net.cpp:380] B0_0_ConvBNScaleReLU_Conv -> B0_0_ConvBNScaleReLU_Conv
I0903 08:37:39.124104 1156072 net.cpp:122] Setting up B0_0_ConvBNScaleReLU_Conv
I0903 08:37:39.124114 1156072 net.cpp:129] Top shape: 1 64 32 32 (65536)
I0903 08:37:39.124119 1156072 net.cpp:137] Memory required for data: 274444
I0903 08:37:39.124126 1156072 layer_factory.hpp:77] Creating layer B0_0_ConvBNScaleReLU_BN
I0903 08:37:39.124135 1156072 net.cpp:84] Creating Layer B0_0_ConvBNScaleReLU_BN
I0903 08:37:39.124140 1156072 net.cpp:406] B0_0_ConvBNScaleReLU_BN <- B0_0_ConvBNScaleReLU_Conv
I0903 08:37:39.124145 1156072 net.cpp:367] B0_0_ConvBNScaleReLU_BN -> B0_0_ConvBNScaleReLU_Conv (in-place)
I0903 08:37:39.124228 1156072 net.cpp:122] Setting up B0_0_ConvBNScaleReLU_BN
I0903 08:37:39.124233 1156072 net.cpp:129] Top shape: 1 64 32 32 (65536)
I0903 08:37:39.124239 1156072 net.cpp:137] Memory required for data: 536588
I0903 08:37:39.124248 1156072 layer_factory.hpp:77] Creating layer B0_0_ConvBNScaleReLU_Scale
I0903 08:37:39.124258 1156072 net.cpp:84] Creating Layer B0_0_ConvBNScaleReLU_Scale
I0903 08:37:39.124264 1156072 net.cpp:406] B0_0_ConvBNScaleReLU_Scale <- B0_0_ConvBNScaleReLU_Conv
I0903 08:37:39.124269 1156072 net.cpp:367] B0_0_ConvBNScaleReLU_Scale -> B0_0_ConvBNScaleReLU_Conv (in-place)
I0903 08:37:39.124297 1156072 layer_factory.hpp:77] Creating layer B0_0_ConvBNScaleReLU_Scale
I0903 08:37:39.124369 1156072 net.cpp:122] Setting up B0_0_ConvBNScaleReLU_Scale
I0903 08:37:39.124375 1156072 net.cpp:129] Top shape: 1 64 32 32 (65536)
I0903 08:37:39.124382 1156072 net.cpp:137] Memory required for data: 798732
I0903 08:37:39.124388 1156072 layer_factory.hpp:77] Creating layer B0_0_ConvBNScaleReLU_ReLU
I0903 08:37:39.124394 1156072 net.cpp:84] Creating Layer B0_0_ConvBNScaleReLU_ReLU
I0903 08:37:39.124398 1156072 net.cpp:406] B0_0_ConvBNScaleReLU_ReLU <- B0_0_ConvBNScaleReLU_Conv
I0903 08:37:39.124404 1156072 net.cpp:367] B0_0_ConvBNScaleReLU_ReLU -> B0_0_ConvBNScaleReLU_Conv (in-place)
I0903 08:37:39.124410 1156072 net.cpp:122] Setting up B0_0_ConvBNScaleReLU_ReLU
I0903 08:37:39.124414 1156072 net.cpp:129] Top shape: 1 64 32 32 (65536)
I0903 08:37:39.124419 1156072 net.cpp:137] Memory required for data: 1060876
I0903 08:37:39.124455 1156072 layer_factory.hpp:77] Creating layer B0_0_ConvBNScaleReLU_Dropout
I0903 08:37:39.124464 1156072 net.cpp:84] Creating Layer B0_0_ConvBNScaleReLU_Dropout
I0903 08:37:39.124467 1156072 net.cpp:406] B0_0_ConvBNScaleReLU_Dropout <- B0_0_ConvBNScaleReLU_Conv
I0903 08:37:39.124473 1156072 net.cpp:380] B0_0_ConvBNScaleReLU_Dropout -> ConvBNScaleReLU
I0903 08:37:39.124514 1156072 net.cpp:122] Setting up B0_0_ConvBNScaleReLU_Dropout
I0903 08:37:39.124521 1156072 net.cpp:129] Top shape: 1 64 32 32 (65536)
I0903 08:37:39.124527 1156072 net.cpp:137] Memory required for data: 1323020
I0903 08:37:39.124531 1156072 layer_factory.hpp:77] Creating layer B0_1_SConv_SparseConv
I0903 08:37:39.124538 1156072 net.cpp:84] Creating Layer B0_1_SConv_SparseConv
I0903 08:37:39.124543 1156072 net.cpp:406] B0_1_SConv_SparseConv <- ConvBNScaleReLU
I0903 08:37:39.124549 1156072 net.cpp:380] B0_1_SConv_SparseConv -> B0_1_SConvBlockV2_T1
I0903 08:37:39.124672 1156072 net.cpp:122] Setting up B0_1_SConv_SparseConv
I0903 08:37:39.124680 1156072 net.cpp:129] Top shape: 1 512 32 32 (524288)
I0903 08:37:39.124686 1156072 net.cpp:137] Memory required for data: 3420172
I0903 08:37:39.124692 1156072 layer_factory.hpp:77] Creating layer B0_1_SConv_BN
I0903 08:37:39.124702 1156072 net.cpp:84] Creating Layer B0_1_SConv_BN
I0903 08:37:39.124707 1156072 net.cpp:406] B0_1_SConv_BN <- B0_1_SConvBlockV2_T1
I0903 08:37:39.124713 1156072 net.cpp:367] B0_1_SConv_BN -> B0_1_SConvBlockV2_T1 (in-place)
I0903 08:37:39.124852 1156072 net.cpp:122] Setting up B0_1_SConv_BN
I0903 08:37:39.124859 1156072 net.cpp:129] Top shape: 1 512 32 32 (524288)
I0903 08:37:39.124866 1156072 net.cpp:137] Memory required for data: 5517324
I0903 08:37:39.124877 1156072 layer_factory.hpp:77] Creating layer B0_1_SConv_Scale
I0903 08:37:39.124883 1156072 net.cpp:84] Creating Layer B0_1_SConv_Scale
I0903 08:37:39.124888 1156072 net.cpp:406] B0_1_SConv_Scale <- B0_1_SConvBlockV2_T1
I0903 08:37:39.124894 1156072 net.cpp:380] B0_1_SConv_Scale -> B0_1_SConvBlockV2_Scale
I0903 08:37:39.124922 1156072 layer_factory.hpp:77] Creating layer B0_1_SConv_Scale
I0903 08:37:39.124995 1156072 net.cpp:122] Setting up B0_1_SConv_Scale
I0903 08:37:39.125003 1156072 net.cpp:129] Top shape: 1 512 32 32 (524288)
I0903 08:37:39.125008 1156072 net.cpp:137] Memory required for data: 7614476
I0903 08:37:39.125015 1156072 layer_factory.hpp:77] Creating layer B0_1_SConv_Conv1x1
I0903 08:37:39.125025 1156072 net.cpp:84] Creating Layer B0_1_SConv_Conv1x1
I0903 08:37:39.125030 1156072 net.cpp:406] B0_1_SConv_Conv1x1 <- B0_1_SConvBlockV2_Scale
I0903 08:37:39.125036 1156072 net.cpp:380] B0_1_SConv_Conv1x1 -> B0_1_SConvBlockV2_Conv1x1
I0903 08:37:39.125355 1156072 net.cpp:122] Setting up B0_1_SConv_Conv1x1
I0903 08:37:39.125363 1156072 net.cpp:129] Top shape: 1 64 32 32 (65536)
I0903 08:37:39.125370 1156072 net.cpp:137] Memory required for data: 7876620
I0903 08:37:39.125375 1156072 layer_factory.hpp:77] Creating layer B0_1_SConv_ReLU
I0903 08:37:39.125388 1156072 net.cpp:84] Creating Layer B0_1_SConv_ReLU
I0903 08:37:39.125393 1156072 net.cpp:406] B0_1_SConv_ReLU <- B0_1_SConvBlockV2_Conv1x1
I0903 08:37:39.125399 1156072 net.cpp:367] B0_1_SConv_ReLU -> B0_1_SConvBlockV2_Conv1x1 (in-place)
I0903 08:37:39.125406 1156072 net.cpp:122] Setting up B0_1_SConv_ReLU
I0903 08:37:39.125411 1156072 net.cpp:129] Top shape: 1 64 32 32 (65536)
I0903 08:37:39.125416 1156072 net.cpp:137] Memory required for data: 8138764
I0903 08:37:39.125419 1156072 layer_factory.hpp:77] Creating layer B0_1_SConv_Dropout
I0903 08:37:39.125425 1156072 net.cpp:84] Creating Layer B0_1_SConv_Dropout
I0903 08:37:39.125429 1156072 net.cpp:406] B0_1_SConv_Dropout <- B0_1_SConvBlockV2_Conv1x1
I0903 08:37:39.125434 1156072 net.cpp:380] B0_1_SConv_Dropout -> B0_1_SConvBlockV2_Dropout
I0903 08:37:39.125458 1156072 net.cpp:122] Setting up B0_1_SConv_Dropout
I0903 08:37:39.125464 1156072 net.cpp:129] Top shape: 1 64 32 32 (65536)
I0903 08:37:39.125469 1156072 net.cpp:137] Memory required for data: 8400908
I0903 08:37:39.125473 1156072 layer_factory.hpp:77] Creating layer B0_Pooling
I0903 08:37:39.125480 1156072 net.cpp:84] Creating Layer B0_Pooling
I0903 08:37:39.125484 1156072 net.cpp:406] B0_Pooling <- B0_1_SConvBlockV2_Dropout
I0903 08:37:39.125490 1156072 net.cpp:380] B0_Pooling -> Pooling1
I0903 08:37:39.125509 1156072 net.cpp:122] Setting up B0_Pooling
I0903 08:37:39.125519 1156072 net.cpp:129] Top shape: 1 64 16 16 (16384)
I0903 08:37:39.125530 1156072 net.cpp:137] Memory required for data: 8466444
I0903 08:37:39.125533 1156072 layer_factory.hpp:77] Creating layer B1_0_SConv_SparseConv
I0903 08:37:39.125540 1156072 net.cpp:84] Creating Layer B1_0_SConv_SparseConv
I0903 08:37:39.125545 1156072 net.cpp:406] B1_0_SConv_SparseConv <- Pooling1
I0903 08:37:39.125552 1156072 net.cpp:380] B1_0_SConv_SparseConv -> B1_0_SConvBlockV2_T1
I0903 08:37:39.125645 1156072 net.cpp:122] Setting up B1_0_SConv_SparseConv
I0903 08:37:39.125653 1156072 net.cpp:129] Top shape: 1 512 16 16 (131072)
I0903 08:37:39.125658 1156072 net.cpp:137] Memory required for data: 8990732
I0903 08:37:39.125663 1156072 layer_factory.hpp:77] Creating layer B1_0_SConv_BN
I0903 08:37:39.125670 1156072 net.cpp:84] Creating Layer B1_0_SConv_BN
I0903 08:37:39.125674 1156072 net.cpp:406] B1_0_SConv_BN <- B1_0_SConvBlockV2_T1
I0903 08:37:39.125680 1156072 net.cpp:367] B1_0_SConv_BN -> B1_0_SConvBlockV2_T1 (in-place)
I0903 08:37:39.125766 1156072 net.cpp:122] Setting up B1_0_SConv_BN
I0903 08:37:39.125772 1156072 net.cpp:129] Top shape: 1 512 16 16 (131072)
I0903 08:37:39.125778 1156072 net.cpp:137] Memory required for data: 9515020
I0903 08:37:39.125787 1156072 layer_factory.hpp:77] Creating layer B1_0_SConv_Scale
I0903 08:37:39.125794 1156072 net.cpp:84] Creating Layer B1_0_SConv_Scale
I0903 08:37:39.125799 1156072 net.cpp:406] B1_0_SConv_Scale <- B1_0_SConvBlockV2_T1
I0903 08:37:39.125804 1156072 net.cpp:380] B1_0_SConv_Scale -> B1_0_SConvBlockV2_Scale
I0903 08:37:39.125828 1156072 layer_factory.hpp:77] Creating layer B1_0_SConv_Scale
I0903 08:37:39.125902 1156072 net.cpp:122] Setting up B1_0_SConv_Scale
I0903 08:37:39.125910 1156072 net.cpp:129] Top shape: 1 512 16 16 (131072)
I0903 08:37:39.125916 1156072 net.cpp:137] Memory required for data: 10039308
I0903 08:37:39.125921 1156072 layer_factory.hpp:77] Creating layer B1_0_SConv_Conv1x1
I0903 08:37:39.125931 1156072 net.cpp:84] Creating Layer B1_0_SConv_Conv1x1
I0903 08:37:39.125936 1156072 net.cpp:406] B1_0_SConv_Conv1x1 <- B1_0_SConvBlockV2_Scale
I0903 08:37:39.125942 1156072 net.cpp:380] B1_0_SConv_Conv1x1 -> B1_0_SConvBlockV2_Conv1x1
I0903 08:37:39.126662 1156072 net.cpp:122] Setting up B1_0_SConv_Conv1x1
I0903 08:37:39.126670 1156072 net.cpp:129] Top shape: 1 128 16 16 (32768)
I0903 08:37:39.126677 1156072 net.cpp:137] Memory required for data: 10170380
I0903 08:37:39.126682 1156072 layer_factory.hpp:77] Creating layer B1_0_SConv_ReLU
I0903 08:37:39.126688 1156072 net.cpp:84] Creating Layer B1_0_SConv_ReLU
I0903 08:37:39.126693 1156072 net.cpp:406] B1_0_SConv_ReLU <- B1_0_SConvBlockV2_Conv1x1
I0903 08:37:39.126701 1156072 net.cpp:367] B1_0_SConv_ReLU -> B1_0_SConvBlockV2_Conv1x1 (in-place)
I0903 08:37:39.126708 1156072 net.cpp:122] Setting up B1_0_SConv_ReLU
I0903 08:37:39.126713 1156072 net.cpp:129] Top shape: 1 128 16 16 (32768)
I0903 08:37:39.126718 1156072 net.cpp:137] Memory required for data: 10301452
I0903 08:37:39.126721 1156072 layer_factory.hpp:77] Creating layer B1_0_SConv_Dropout
I0903 08:37:39.126727 1156072 net.cpp:84] Creating Layer B1_0_SConv_Dropout
I0903 08:37:39.126731 1156072 net.cpp:406] B1_0_SConv_Dropout <- B1_0_SConvBlockV2_Conv1x1
I0903 08:37:39.126736 1156072 net.cpp:380] B1_0_SConv_Dropout -> B1_0_SConvBlockV2_Dropout
I0903 08:37:39.126760 1156072 net.cpp:122] Setting up B1_0_SConv_Dropout
I0903 08:37:39.126766 1156072 net.cpp:129] Top shape: 1 128 16 16 (32768)
I0903 08:37:39.126771 1156072 net.cpp:137] Memory required for data: 10432524
I0903 08:37:39.126776 1156072 layer_factory.hpp:77] Creating layer B1_1_SConv_SparseConv
I0903 08:37:39.126785 1156072 net.cpp:84] Creating Layer B1_1_SConv_SparseConv
I0903 08:37:39.126788 1156072 net.cpp:406] B1_1_SConv_SparseConv <- B1_0_SConvBlockV2_Dropout
I0903 08:37:39.126794 1156072 net.cpp:380] B1_1_SConv_SparseConv -> B1_1_SConvBlockV2_T1
I0903 08:37:39.126922 1156072 net.cpp:122] Setting up B1_1_SConv_SparseConv
I0903 08:37:39.126929 1156072 net.cpp:129] Top shape: 1 1024 16 16 (262144)
I0903 08:37:39.126940 1156072 net.cpp:137] Memory required for data: 11481100
I0903 08:37:39.126950 1156072 layer_factory.hpp:77] Creating layer B1_1_SConv_BN
I0903 08:37:39.126960 1156072 net.cpp:84] Creating Layer B1_1_SConv_BN
I0903 08:37:39.126964 1156072 net.cpp:406] B1_1_SConv_BN <- B1_1_SConvBlockV2_T1
I0903 08:37:39.126969 1156072 net.cpp:367] B1_1_SConv_BN -> B1_1_SConvBlockV2_T1 (in-place)
I0903 08:37:39.127051 1156072 net.cpp:122] Setting up B1_1_SConv_BN
I0903 08:37:39.127058 1156072 net.cpp:129] Top shape: 1 1024 16 16 (262144)
I0903 08:37:39.127063 1156072 net.cpp:137] Memory required for data: 12529676
I0903 08:37:39.127070 1156072 layer_factory.hpp:77] Creating layer B1_1_SConv_Scale
I0903 08:37:39.127076 1156072 net.cpp:84] Creating Layer B1_1_SConv_Scale
I0903 08:37:39.127081 1156072 net.cpp:406] B1_1_SConv_Scale <- B1_1_SConvBlockV2_T1
I0903 08:37:39.127089 1156072 net.cpp:380] B1_1_SConv_Scale -> B1_1_SConvBlockV2_Scale
I0903 08:37:39.127115 1156072 layer_factory.hpp:77] Creating layer B1_1_SConv_Scale
I0903 08:37:39.127172 1156072 net.cpp:122] Setting up B1_1_SConv_Scale
I0903 08:37:39.127180 1156072 net.cpp:129] Top shape: 1 1024 16 16 (262144)
I0903 08:37:39.127187 1156072 net.cpp:137] Memory required for data: 13578252
I0903 08:37:39.127192 1156072 layer_factory.hpp:77] Creating layer B1_1_SConv_Conv1x1
I0903 08:37:39.127202 1156072 net.cpp:84] Creating Layer B1_1_SConv_Conv1x1
I0903 08:37:39.127207 1156072 net.cpp:406] B1_1_SConv_Conv1x1 <- B1_1_SConvBlockV2_Scale
I0903 08:37:39.127213 1156072 net.cpp:380] B1_1_SConv_Conv1x1 -> B1_1_SConvBlockV2_Conv1x1
I0903 08:37:39.127960 1156072 net.cpp:122] Setting up B1_1_SConv_Conv1x1
I0903 08:37:39.127969 1156072 net.cpp:129] Top shape: 1 128 16 16 (32768)
I0903 08:37:39.127974 1156072 net.cpp:137] Memory required for data: 13709324
I0903 08:37:39.127980 1156072 layer_factory.hpp:77] Creating layer B1_1_SConv_ReLU
I0903 08:37:39.127988 1156072 net.cpp:84] Creating Layer B1_1_SConv_ReLU
I0903 08:37:39.127992 1156072 net.cpp:406] B1_1_SConv_ReLU <- B1_1_SConvBlockV2_Conv1x1
I0903 08:37:39.127998 1156072 net.cpp:367] B1_1_SConv_ReLU -> B1_1_SConvBlockV2_Conv1x1 (in-place)
I0903 08:37:39.128005 1156072 net.cpp:122] Setting up B1_1_SConv_ReLU
I0903 08:37:39.128008 1156072 net.cpp:129] Top shape: 1 128 16 16 (32768)
I0903 08:37:39.128013 1156072 net.cpp:137] Memory required for data: 13840396
I0903 08:37:39.128018 1156072 layer_factory.hpp:77] Creating layer B1_1_SConv_Dropout
I0903 08:37:39.128027 1156072 net.cpp:84] Creating Layer B1_1_SConv_Dropout
I0903 08:37:39.128032 1156072 net.cpp:406] B1_1_SConv_Dropout <- B1_1_SConvBlockV2_Conv1x1
I0903 08:37:39.128037 1156072 net.cpp:380] B1_1_SConv_Dropout -> B1_1_SConvBlockV2_Dropout
I0903 08:37:39.128058 1156072 net.cpp:122] Setting up B1_1_SConv_Dropout
I0903 08:37:39.128064 1156072 net.cpp:129] Top shape: 1 128 16 16 (32768)
I0903 08:37:39.128070 1156072 net.cpp:137] Memory required for data: 13971468
I0903 08:37:39.128074 1156072 layer_factory.hpp:77] Creating layer B1_Pooling
I0903 08:37:39.128082 1156072 net.cpp:84] Creating Layer B1_Pooling
I0903 08:37:39.128085 1156072 net.cpp:406] B1_Pooling <- B1_1_SConvBlockV2_Dropout
I0903 08:37:39.128091 1156072 net.cpp:380] B1_Pooling -> Pooling2
I0903 08:37:39.128145 1156072 net.cpp:122] Setting up B1_Pooling
I0903 08:37:39.128152 1156072 net.cpp:129] Top shape: 1 128 8 8 (8192)
I0903 08:37:39.128158 1156072 net.cpp:137] Memory required for data: 14004236
I0903 08:37:39.128162 1156072 layer_factory.hpp:77] Creating layer B2_0_SConv_SparseConv
I0903 08:37:39.128170 1156072 net.cpp:84] Creating Layer B2_0_SConv_SparseConv
I0903 08:37:39.128173 1156072 net.cpp:406] B2_0_SConv_SparseConv <- Pooling2
I0903 08:37:39.128181 1156072 net.cpp:380] B2_0_SConv_SparseConv -> B2_0_SConvBlockV2_T1
I0903 08:37:39.128324 1156072 net.cpp:122] Setting up B2_0_SConv_SparseConv
I0903 08:37:39.128330 1156072 net.cpp:129] Top shape: 1 1024 8 8 (65536)
I0903 08:37:39.128335 1156072 net.cpp:137] Memory required for data: 14266380
I0903 08:37:39.128350 1156072 layer_factory.hpp:77] Creating layer B2_0_SConv_BN
I0903 08:37:39.128362 1156072 net.cpp:84] Creating Layer B2_0_SConv_BN
I0903 08:37:39.128372 1156072 net.cpp:406] B2_0_SConv_BN <- B2_0_SConvBlockV2_T1
I0903 08:37:39.128378 1156072 net.cpp:367] B2_0_SConv_BN -> B2_0_SConvBlockV2_T1 (in-place)
I0903 08:37:39.128530 1156072 net.cpp:122] Setting up B2_0_SConv_BN
I0903 08:37:39.128538 1156072 net.cpp:129] Top shape: 1 1024 8 8 (65536)
I0903 08:37:39.128552 1156072 net.cpp:137] Memory required for data: 14528524
I0903 08:37:39.128563 1156072 layer_factory.hpp:77] Creating layer B2_0_SConv_Scale
I0903 08:37:39.128571 1156072 net.cpp:84] Creating Layer B2_0_SConv_Scale
I0903 08:37:39.128576 1156072 net.cpp:406] B2_0_SConv_Scale <- B2_0_SConvBlockV2_T1
I0903 08:37:39.128582 1156072 net.cpp:380] B2_0_SConv_Scale -> B2_0_SConvBlockV2_Scale
I0903 08:37:39.128609 1156072 layer_factory.hpp:77] Creating layer B2_0_SConv_Scale
I0903 08:37:39.128693 1156072 net.cpp:122] Setting up B2_0_SConv_Scale
I0903 08:37:39.128700 1156072 net.cpp:129] Top shape: 1 1024 8 8 (65536)
I0903 08:37:39.128707 1156072 net.cpp:137] Memory required for data: 14790668
I0903 08:37:39.128713 1156072 layer_factory.hpp:77] Creating layer B2_0_SConv_Conv1x1
I0903 08:37:39.128727 1156072 net.cpp:84] Creating Layer B2_0_SConv_Conv1x1
I0903 08:37:39.128733 1156072 net.cpp:406] B2_0_SConv_Conv1x1 <- B2_0_SConvBlockV2_Scale
I0903 08:37:39.128741 1156072 net.cpp:380] B2_0_SConv_Conv1x1 -> B2_0_SConvBlockV2_Conv1x1
I0903 08:37:39.129839 1156072 net.cpp:122] Setting up B2_0_SConv_Conv1x1
I0903 08:37:39.129848 1156072 net.cpp:129] Top shape: 1 192 8 8 (12288)
I0903 08:37:39.129854 1156072 net.cpp:137] Memory required for data: 14839820
I0903 08:37:39.129860 1156072 layer_factory.hpp:77] Creating layer B2_0_SConv_ReLU
I0903 08:37:39.129866 1156072 net.cpp:84] Creating Layer B2_0_SConv_ReLU
I0903 08:37:39.129871 1156072 net.cpp:406] B2_0_SConv_ReLU <- B2_0_SConvBlockV2_Conv1x1
I0903 08:37:39.129879 1156072 net.cpp:367] B2_0_SConv_ReLU -> B2_0_SConvBlockV2_Conv1x1 (in-place)
I0903 08:37:39.129885 1156072 net.cpp:122] Setting up B2_0_SConv_ReLU
I0903 08:37:39.129890 1156072 net.cpp:129] Top shape: 1 192 8 8 (12288)
I0903 08:37:39.129895 1156072 net.cpp:137] Memory required for data: 14888972
I0903 08:37:39.129899 1156072 layer_factory.hpp:77] Creating layer B2_0_SConv_Dropout
I0903 08:37:39.129909 1156072 net.cpp:84] Creating Layer B2_0_SConv_Dropout
I0903 08:37:39.129914 1156072 net.cpp:406] B2_0_SConv_Dropout <- B2_0_SConvBlockV2_Conv1x1
I0903 08:37:39.129920 1156072 net.cpp:380] B2_0_SConv_Dropout -> B2_0_SConvBlockV2_Dropout
I0903 08:37:39.129942 1156072 net.cpp:122] Setting up B2_0_SConv_Dropout
I0903 08:37:39.129948 1156072 net.cpp:129] Top shape: 1 192 8 8 (12288)
I0903 08:37:39.129953 1156072 net.cpp:137] Memory required for data: 14938124
I0903 08:37:39.129957 1156072 layer_factory.hpp:77] Creating layer B2_1_SConv_SparseConv
I0903 08:37:39.129964 1156072 net.cpp:84] Creating Layer B2_1_SConv_SparseConv
I0903 08:37:39.129968 1156072 net.cpp:406] B2_1_SConv_SparseConv <- B2_0_SConvBlockV2_Dropout
I0903 08:37:39.129977 1156072 net.cpp:380] B2_1_SConv_SparseConv -> B2_1_SConvBlockV2_T1
I0903 08:37:39.130138 1156072 net.cpp:122] Setting up B2_1_SConv_SparseConv
I0903 08:37:39.130146 1156072 net.cpp:129] Top shape: 1 1536 8 8 (98304)
I0903 08:37:39.130151 1156072 net.cpp:137] Memory required for data: 15331340
I0903 08:37:39.130156 1156072 layer_factory.hpp:77] Creating layer B2_1_SConv_BN
I0903 08:37:39.130164 1156072 net.cpp:84] Creating Layer B2_1_SConv_BN
I0903 08:37:39.130169 1156072 net.cpp:406] B2_1_SConv_BN <- B2_1_SConvBlockV2_T1
I0903 08:37:39.130175 1156072 net.cpp:367] B2_1_SConv_BN -> B2_1_SConvBlockV2_T1 (in-place)
I0903 08:37:39.130252 1156072 net.cpp:122] Setting up B2_1_SConv_BN
I0903 08:37:39.130259 1156072 net.cpp:129] Top shape: 1 1536 8 8 (98304)
I0903 08:37:39.130264 1156072 net.cpp:137] Memory required for data: 15724556
I0903 08:37:39.130270 1156072 layer_factory.hpp:77] Creating layer B2_1_SConv_Scale
I0903 08:37:39.130276 1156072 net.cpp:84] Creating Layer B2_1_SConv_Scale
I0903 08:37:39.130285 1156072 net.cpp:406] B2_1_SConv_Scale <- B2_1_SConvBlockV2_T1
I0903 08:37:39.130297 1156072 net.cpp:380] B2_1_SConv_Scale -> B2_1_SConvBlockV2_Scale
I0903 08:37:39.130321 1156072 layer_factory.hpp:77] Creating layer B2_1_SConv_Scale
I0903 08:37:39.130378 1156072 net.cpp:122] Setting up B2_1_SConv_Scale
I0903 08:37:39.130383 1156072 net.cpp:129] Top shape: 1 1536 8 8 (98304)
I0903 08:37:39.130389 1156072 net.cpp:137] Memory required for data: 16117772
I0903 08:37:39.130395 1156072 layer_factory.hpp:77] Creating layer B2_1_SConv_Conv1x1
I0903 08:37:39.130404 1156072 net.cpp:84] Creating Layer B2_1_SConv_Conv1x1
I0903 08:37:39.130409 1156072 net.cpp:406] B2_1_SConv_Conv1x1 <- B2_1_SConvBlockV2_Scale
I0903 08:37:39.130415 1156072 net.cpp:380] B2_1_SConv_Conv1x1 -> B2_1_SConvBlockV2_Conv1x1
I0903 08:37:39.132894 1156072 net.cpp:122] Setting up B2_1_SConv_Conv1x1
I0903 08:37:39.132907 1156072 net.cpp:129] Top shape: 1 192 8 8 (12288)
I0903 08:37:39.132913 1156072 net.cpp:137] Memory required for data: 16166924
I0903 08:37:39.132920 1156072 layer_factory.hpp:77] Creating layer B2_1_SConv_ReLU
I0903 08:37:39.132928 1156072 net.cpp:84] Creating Layer B2_1_SConv_ReLU
I0903 08:37:39.132934 1156072 net.cpp:406] B2_1_SConv_ReLU <- B2_1_SConvBlockV2_Conv1x1
I0903 08:37:39.132939 1156072 net.cpp:367] B2_1_SConv_ReLU -> B2_1_SConvBlockV2_Conv1x1 (in-place)
I0903 08:37:39.132946 1156072 net.cpp:122] Setting up B2_1_SConv_ReLU
I0903 08:37:39.132951 1156072 net.cpp:129] Top shape: 1 192 8 8 (12288)
I0903 08:37:39.132956 1156072 net.cpp:137] Memory required for data: 16216076
I0903 08:37:39.132961 1156072 layer_factory.hpp:77] Creating layer B2_1_SConv_Dropout
I0903 08:37:39.132966 1156072 net.cpp:84] Creating Layer B2_1_SConv_Dropout
I0903 08:37:39.132970 1156072 net.cpp:406] B2_1_SConv_Dropout <- B2_1_SConvBlockV2_Conv1x1
I0903 08:37:39.132977 1156072 net.cpp:380] B2_1_SConv_Dropout -> B2_1_SConvBlockV2_Dropout
I0903 08:37:39.133000 1156072 net.cpp:122] Setting up B2_1_SConv_Dropout
I0903 08:37:39.133008 1156072 net.cpp:129] Top shape: 1 192 8 8 (12288)
I0903 08:37:39.133014 1156072 net.cpp:137] Memory required for data: 16265228
I0903 08:37:39.133018 1156072 layer_factory.hpp:77] Creating layer B2_2_SConv_SparseConv
I0903 08:37:39.133024 1156072 net.cpp:84] Creating Layer B2_2_SConv_SparseConv
I0903 08:37:39.133029 1156072 net.cpp:406] B2_2_SConv_SparseConv <- B2_1_SConvBlockV2_Dropout
I0903 08:37:39.133034 1156072 net.cpp:380] B2_2_SConv_SparseConv -> B2_2_SConvBlockV2_T1
I0903 08:37:39.133205 1156072 net.cpp:122] Setting up B2_2_SConv_SparseConv
I0903 08:37:39.133213 1156072 net.cpp:129] Top shape: 1 1536 8 8 (98304)
I0903 08:37:39.133219 1156072 net.cpp:137] Memory required for data: 16658444
I0903 08:37:39.133224 1156072 layer_factory.hpp:77] Creating layer B2_2_SConv_BN
I0903 08:37:39.133234 1156072 net.cpp:84] Creating Layer B2_2_SConv_BN
I0903 08:37:39.133239 1156072 net.cpp:406] B2_2_SConv_BN <- B2_2_SConvBlockV2_T1
I0903 08:37:39.133244 1156072 net.cpp:367] B2_2_SConv_BN -> B2_2_SConvBlockV2_T1 (in-place)
I0903 08:37:39.133332 1156072 net.cpp:122] Setting up B2_2_SConv_BN
I0903 08:37:39.133337 1156072 net.cpp:129] Top shape: 1 1536 8 8 (98304)
I0903 08:37:39.133343 1156072 net.cpp:137] Memory required for data: 17051660
I0903 08:37:39.133350 1156072 layer_factory.hpp:77] Creating layer B2_2_SConv_Scale
I0903 08:37:39.133356 1156072 net.cpp:84] Creating Layer B2_2_SConv_Scale
I0903 08:37:39.133360 1156072 net.cpp:406] B2_2_SConv_Scale <- B2_2_SConvBlockV2_T1
I0903 08:37:39.133366 1156072 net.cpp:380] B2_2_SConv_Scale -> B2_2_SConvBlockV2_Scale
I0903 08:37:39.133390 1156072 layer_factory.hpp:77] Creating layer B2_2_SConv_Scale
I0903 08:37:39.133448 1156072 net.cpp:122] Setting up B2_2_SConv_Scale
I0903 08:37:39.133455 1156072 net.cpp:129] Top shape: 1 1536 8 8 (98304)
I0903 08:37:39.133460 1156072 net.cpp:137] Memory required for data: 17444876
I0903 08:37:39.133466 1156072 layer_factory.hpp:77] Creating layer B2_2_SConv_Conv1x1
I0903 08:37:39.133476 1156072 net.cpp:84] Creating Layer B2_2_SConv_Conv1x1
I0903 08:37:39.133481 1156072 net.cpp:406] B2_2_SConv_Conv1x1 <- B2_2_SConvBlockV2_Scale
I0903 08:37:39.133496 1156072 net.cpp:380] B2_2_SConv_Conv1x1 -> B2_2_SConvBlockV2_Conv1x1
I0903 08:37:39.135936 1156072 net.cpp:122] Setting up B2_2_SConv_Conv1x1
I0903 08:37:39.135948 1156072 net.cpp:129] Top shape: 1 192 8 8 (12288)
I0903 08:37:39.135954 1156072 net.cpp:137] Memory required for data: 17494028
I0903 08:37:39.135962 1156072 layer_factory.hpp:77] Creating layer B2_2_SConv_ReLU
I0903 08:37:39.135967 1156072 net.cpp:84] Creating Layer B2_2_SConv_ReLU
I0903 08:37:39.135972 1156072 net.cpp:406] B2_2_SConv_ReLU <- B2_2_SConvBlockV2_Conv1x1
I0903 08:37:39.135980 1156072 net.cpp:367] B2_2_SConv_ReLU -> B2_2_SConvBlockV2_Conv1x1 (in-place)
I0903 08:37:39.135987 1156072 net.cpp:122] Setting up B2_2_SConv_ReLU
I0903 08:37:39.135993 1156072 net.cpp:129] Top shape: 1 192 8 8 (12288)
I0903 08:37:39.135998 1156072 net.cpp:137] Memory required for data: 17543180
I0903 08:37:39.136001 1156072 layer_factory.hpp:77] Creating layer B2_2_SConv_Dropout
I0903 08:37:39.136008 1156072 net.cpp:84] Creating Layer B2_2_SConv_Dropout
I0903 08:37:39.136011 1156072 net.cpp:406] B2_2_SConv_Dropout <- B2_2_SConvBlockV2_Conv1x1
I0903 08:37:39.136018 1156072 net.cpp:380] B2_2_SConv_Dropout -> B2_2_SConvBlockV2_Dropout
I0903 08:37:39.136041 1156072 net.cpp:122] Setting up B2_2_SConv_Dropout
I0903 08:37:39.136049 1156072 net.cpp:129] Top shape: 1 192 8 8 (12288)
I0903 08:37:39.136054 1156072 net.cpp:137] Memory required for data: 17592332
I0903 08:37:39.136057 1156072 layer_factory.hpp:77] Creating layer B2_Pooling
I0903 08:37:39.136065 1156072 net.cpp:84] Creating Layer B2_Pooling
I0903 08:37:39.136070 1156072 net.cpp:406] B2_Pooling <- B2_2_SConvBlockV2_Dropout
I0903 08:37:39.136075 1156072 net.cpp:380] B2_Pooling -> Pooling3
I0903 08:37:39.136101 1156072 net.cpp:122] Setting up B2_Pooling
I0903 08:37:39.136107 1156072 net.cpp:129] Top shape: 1 192 4 4 (3072)
I0903 08:37:39.136112 1156072 net.cpp:137] Memory required for data: 17604620
I0903 08:37:39.136117 1156072 layer_factory.hpp:77] Creating layer B3_0_SConv_SparseConv
I0903 08:37:39.136126 1156072 net.cpp:84] Creating Layer B3_0_SConv_SparseConv
I0903 08:37:39.136129 1156072 net.cpp:406] B3_0_SConv_SparseConv <- Pooling3
I0903 08:37:39.136135 1156072 net.cpp:380] B3_0_SConv_SparseConv -> B3_0_SConvBlockV2_T1
I0903 08:37:39.136298 1156072 net.cpp:122] Setting up B3_0_SConv_SparseConv
I0903 08:37:39.136305 1156072 net.cpp:129] Top shape: 1 1536 4 4 (24576)
I0903 08:37:39.136310 1156072 net.cpp:137] Memory required for data: 17702924
I0903 08:37:39.136317 1156072 layer_factory.hpp:77] Creating layer B3_0_SConv_BN
I0903 08:37:39.136323 1156072 net.cpp:84] Creating Layer B3_0_SConv_BN
I0903 08:37:39.136327 1156072 net.cpp:406] B3_0_SConv_BN <- B3_0_SConvBlockV2_T1
I0903 08:37:39.136335 1156072 net.cpp:367] B3_0_SConv_BN -> B3_0_SConvBlockV2_T1 (in-place)
I0903 08:37:39.136421 1156072 net.cpp:122] Setting up B3_0_SConv_BN
I0903 08:37:39.136446 1156072 net.cpp:129] Top shape: 1 1536 4 4 (24576)
I0903 08:37:39.136453 1156072 net.cpp:137] Memory required for data: 17801228
I0903 08:37:39.136461 1156072 layer_factory.hpp:77] Creating layer B3_0_SConv_Scale
I0903 08:37:39.136469 1156072 net.cpp:84] Creating Layer B3_0_SConv_Scale
I0903 08:37:39.136474 1156072 net.cpp:406] B3_0_SConv_Scale <- B3_0_SConvBlockV2_T1
I0903 08:37:39.136480 1156072 net.cpp:380] B3_0_SConv_Scale -> B3_0_SConvBlockV2_Scale
I0903 08:37:39.136507 1156072 layer_factory.hpp:77] Creating layer B3_0_SConv_Scale
I0903 08:37:39.136566 1156072 net.cpp:122] Setting up B3_0_SConv_Scale
I0903 08:37:39.136574 1156072 net.cpp:129] Top shape: 1 1536 4 4 (24576)
I0903 08:37:39.136579 1156072 net.cpp:137] Memory required for data: 17899532
I0903 08:37:39.136585 1156072 layer_factory.hpp:77] Creating layer B3_0_SConv_Conv1x1
I0903 08:37:39.136595 1156072 net.cpp:84] Creating Layer B3_0_SConv_Conv1x1
I0903 08:37:39.136600 1156072 net.cpp:406] B3_0_SConv_Conv1x1 <- B3_0_SConvBlockV2_Scale
I0903 08:37:39.136608 1156072 net.cpp:380] B3_0_SConv_Conv1x1 -> B3_0_SConvBlockV2_Conv1x1
I0903 08:37:39.139056 1156072 net.cpp:122] Setting up B3_0_SConv_Conv1x1
I0903 08:37:39.139076 1156072 net.cpp:129] Top shape: 1 192 4 4 (3072)
I0903 08:37:39.139083 1156072 net.cpp:137] Memory required for data: 17911820
I0903 08:37:39.139091 1156072 layer_factory.hpp:77] Creating layer B3_0_SConv_ReLU
I0903 08:37:39.139096 1156072 net.cpp:84] Creating Layer B3_0_SConv_ReLU
I0903 08:37:39.139101 1156072 net.cpp:406] B3_0_SConv_ReLU <- B3_0_SConvBlockV2_Conv1x1
I0903 08:37:39.139107 1156072 net.cpp:367] B3_0_SConv_ReLU -> B3_0_SConvBlockV2_Conv1x1 (in-place)
I0903 08:37:39.139114 1156072 net.cpp:122] Setting up B3_0_SConv_ReLU
I0903 08:37:39.139118 1156072 net.cpp:129] Top shape: 1 192 4 4 (3072)
I0903 08:37:39.139123 1156072 net.cpp:137] Memory required for data: 17924108
I0903 08:37:39.139127 1156072 layer_factory.hpp:77] Creating layer B3_0_SConv_Dropout
I0903 08:37:39.139135 1156072 net.cpp:84] Creating Layer B3_0_SConv_Dropout
I0903 08:37:39.139140 1156072 net.cpp:406] B3_0_SConv_Dropout <- B3_0_SConvBlockV2_Conv1x1
I0903 08:37:39.139145 1156072 net.cpp:380] B3_0_SConv_Dropout -> B3_0_SConvBlockV2_Dropout
I0903 08:37:39.139170 1156072 net.cpp:122] Setting up B3_0_SConv_Dropout
I0903 08:37:39.139178 1156072 net.cpp:129] Top shape: 1 192 4 4 (3072)
I0903 08:37:39.139183 1156072 net.cpp:137] Memory required for data: 17936396
I0903 08:37:39.139186 1156072 layer_factory.hpp:77] Creating layer B3_1_SConv_SparseConv
I0903 08:37:39.139194 1156072 net.cpp:84] Creating Layer B3_1_SConv_SparseConv
I0903 08:37:39.139199 1156072 net.cpp:406] B3_1_SConv_SparseConv <- B3_0_SConvBlockV2_Dropout
I0903 08:37:39.139205 1156072 net.cpp:380] B3_1_SConv_SparseConv -> B3_1_SConvBlockV2_T1
I0903 08:37:39.139372 1156072 net.cpp:122] Setting up B3_1_SConv_SparseConv
I0903 08:37:39.139379 1156072 net.cpp:129] Top shape: 1 1536 4 4 (24576)
I0903 08:37:39.139385 1156072 net.cpp:137] Memory required for data: 18034700
I0903 08:37:39.139391 1156072 layer_factory.hpp:77] Creating layer B3_1_SConv_BN
I0903 08:37:39.139401 1156072 net.cpp:84] Creating Layer B3_1_SConv_BN
I0903 08:37:39.139406 1156072 net.cpp:406] B3_1_SConv_BN <- B3_1_SConvBlockV2_T1
I0903 08:37:39.139413 1156072 net.cpp:367] B3_1_SConv_BN -> B3_1_SConvBlockV2_T1 (in-place)
I0903 08:37:39.139497 1156072 net.cpp:122] Setting up B3_1_SConv_BN
I0903 08:37:39.139503 1156072 net.cpp:129] Top shape: 1 1536 4 4 (24576)
I0903 08:37:39.139508 1156072 net.cpp:137] Memory required for data: 18133004
I0903 08:37:39.139519 1156072 layer_factory.hpp:77] Creating layer B3_1_SConv_Scale
I0903 08:37:39.139528 1156072 net.cpp:84] Creating Layer B3_1_SConv_Scale
I0903 08:37:39.139533 1156072 net.cpp:406] B3_1_SConv_Scale <- B3_1_SConvBlockV2_T1
I0903 08:37:39.139537 1156072 net.cpp:380] B3_1_SConv_Scale -> B3_1_SConvBlockV2_Scale
I0903 08:37:39.139564 1156072 layer_factory.hpp:77] Creating layer B3_1_SConv_Scale
I0903 08:37:39.139628 1156072 net.cpp:122] Setting up B3_1_SConv_Scale
I0903 08:37:39.139636 1156072 net.cpp:129] Top shape: 1 1536 4 4 (24576)
I0903 08:37:39.139640 1156072 net.cpp:137] Memory required for data: 18231308
I0903 08:37:39.139647 1156072 layer_factory.hpp:77] Creating layer B3_1_SConv_Conv1x1
I0903 08:37:39.139659 1156072 net.cpp:84] Creating Layer B3_1_SConv_Conv1x1
I0903 08:37:39.139664 1156072 net.cpp:406] B3_1_SConv_Conv1x1 <- B3_1_SConvBlockV2_Scale
I0903 08:37:39.139672 1156072 net.cpp:380] B3_1_SConv_Conv1x1 -> B3_1_SConvBlockV2_Conv1x1
I0903 08:37:39.142141 1156072 net.cpp:122] Setting up B3_1_SConv_Conv1x1
I0903 08:37:39.142155 1156072 net.cpp:129] Top shape: 1 192 4 4 (3072)
I0903 08:37:39.142161 1156072 net.cpp:137] Memory required for data: 18243596
I0903 08:37:39.142168 1156072 layer_factory.hpp:77] Creating layer B3_1_SConv_ReLU
I0903 08:37:39.142177 1156072 net.cpp:84] Creating Layer B3_1_SConv_ReLU
I0903 08:37:39.142182 1156072 net.cpp:406] B3_1_SConv_ReLU <- B3_1_SConvBlockV2_Conv1x1
I0903 08:37:39.142189 1156072 net.cpp:367] B3_1_SConv_ReLU -> B3_1_SConvBlockV2_Conv1x1 (in-place)
I0903 08:37:39.142195 1156072 net.cpp:122] Setting up B3_1_SConv_ReLU
I0903 08:37:39.142204 1156072 net.cpp:129] Top shape: 1 192 4 4 (3072)
I0903 08:37:39.142215 1156072 net.cpp:137] Memory required for data: 18255884
I0903 08:37:39.142220 1156072 layer_factory.hpp:77] Creating layer B3_1_SConv_Dropout
I0903 08:37:39.142225 1156072 net.cpp:84] Creating Layer B3_1_SConv_Dropout
I0903 08:37:39.142230 1156072 net.cpp:406] B3_1_SConv_Dropout <- B3_1_SConvBlockV2_Conv1x1
I0903 08:37:39.142238 1156072 net.cpp:380] B3_1_SConv_Dropout -> B3_1_SConvBlockV2_Dropout
I0903 08:37:39.142264 1156072 net.cpp:122] Setting up B3_1_SConv_Dropout
I0903 08:37:39.142271 1156072 net.cpp:129] Top shape: 1 192 4 4 (3072)
I0903 08:37:39.142275 1156072 net.cpp:137] Memory required for data: 18268172
I0903 08:37:39.142279 1156072 layer_factory.hpp:77] Creating layer B3_2_SConv_SparseConv
I0903 08:37:39.142287 1156072 net.cpp:84] Creating Layer B3_2_SConv_SparseConv
I0903 08:37:39.142290 1156072 net.cpp:406] B3_2_SConv_SparseConv <- B3_1_SConvBlockV2_Dropout
I0903 08:37:39.142298 1156072 net.cpp:380] B3_2_SConv_SparseConv -> B3_2_SConvBlockV2_T1
I0903 08:37:39.142463 1156072 net.cpp:122] Setting up B3_2_SConv_SparseConv
I0903 08:37:39.142470 1156072 net.cpp:129] Top shape: 1 1536 4 4 (24576)
I0903 08:37:39.142477 1156072 net.cpp:137] Memory required for data: 18366476
I0903 08:37:39.142482 1156072 layer_factory.hpp:77] Creating layer B3_2_SConv_BN
I0903 08:37:39.142490 1156072 net.cpp:84] Creating Layer B3_2_SConv_BN
I0903 08:37:39.142495 1156072 net.cpp:406] B3_2_SConv_BN <- B3_2_SConvBlockV2_T1
I0903 08:37:39.142501 1156072 net.cpp:367] B3_2_SConv_BN -> B3_2_SConvBlockV2_T1 (in-place)
I0903 08:37:39.142582 1156072 net.cpp:122] Setting up B3_2_SConv_BN
I0903 08:37:39.142588 1156072 net.cpp:129] Top shape: 1 1536 4 4 (24576)
I0903 08:37:39.142594 1156072 net.cpp:137] Memory required for data: 18464780
I0903 08:37:39.142601 1156072 layer_factory.hpp:77] Creating layer B3_2_SConv_Scale
I0903 08:37:39.142611 1156072 net.cpp:84] Creating Layer B3_2_SConv_Scale
I0903 08:37:39.142616 1156072 net.cpp:406] B3_2_SConv_Scale <- B3_2_SConvBlockV2_T1
I0903 08:37:39.142621 1156072 net.cpp:380] B3_2_SConv_Scale -> B3_2_SConvBlockV2_Scale
I0903 08:37:39.142644 1156072 layer_factory.hpp:77] Creating layer B3_2_SConv_Scale
I0903 08:37:39.142700 1156072 net.cpp:122] Setting up B3_2_SConv_Scale
I0903 08:37:39.142706 1156072 net.cpp:129] Top shape: 1 1536 4 4 (24576)
I0903 08:37:39.142712 1156072 net.cpp:137] Memory required for data: 18563084
I0903 08:37:39.142719 1156072 layer_factory.hpp:77] Creating layer B3_2_SConv_Conv1x1
I0903 08:37:39.142727 1156072 net.cpp:84] Creating Layer B3_2_SConv_Conv1x1
I0903 08:37:39.142732 1156072 net.cpp:406] B3_2_SConv_Conv1x1 <- B3_2_SConvBlockV2_Scale
I0903 08:37:39.142738 1156072 net.cpp:380] B3_2_SConv_Conv1x1 -> B3_2_SConvBlockV2_Conv1x1
I0903 08:37:39.145212 1156072 net.cpp:122] Setting up B3_2_SConv_Conv1x1
I0903 08:37:39.145226 1156072 net.cpp:129] Top shape: 1 192 4 4 (3072)
I0903 08:37:39.145232 1156072 net.cpp:137] Memory required for data: 18575372
I0903 08:37:39.145238 1156072 layer_factory.hpp:77] Creating layer B3_2_SConv_ReLU
I0903 08:37:39.145247 1156072 net.cpp:84] Creating Layer B3_2_SConv_ReLU
I0903 08:37:39.145252 1156072 net.cpp:406] B3_2_SConv_ReLU <- B3_2_SConvBlockV2_Conv1x1
I0903 08:37:39.145258 1156072 net.cpp:367] B3_2_SConv_ReLU -> B3_2_SConvBlockV2_Conv1x1 (in-place)
I0903 08:37:39.145265 1156072 net.cpp:122] Setting up B3_2_SConv_ReLU
I0903 08:37:39.145269 1156072 net.cpp:129] Top shape: 1 192 4 4 (3072)
I0903 08:37:39.145274 1156072 net.cpp:137] Memory required for data: 18587660
I0903 08:37:39.145278 1156072 layer_factory.hpp:77] Creating layer B3_2_SConv_Dropout
I0903 08:37:39.145284 1156072 net.cpp:84] Creating Layer B3_2_SConv_Dropout
I0903 08:37:39.145288 1156072 net.cpp:406] B3_2_SConv_Dropout <- B3_2_SConvBlockV2_Conv1x1
I0903 08:37:39.145295 1156072 net.cpp:380] B3_2_SConv_Dropout -> B3_2_SConvBlockV2_Dropout
I0903 08:37:39.145319 1156072 net.cpp:122] Setting up B3_2_SConv_Dropout
I0903 08:37:39.145325 1156072 net.cpp:129] Top shape: 1 192 4 4 (3072)
I0903 08:37:39.145335 1156072 net.cpp:137] Memory required for data: 18599948
I0903 08:37:39.145345 1156072 layer_factory.hpp:77] Creating layer B3_Pooling
I0903 08:37:39.145359 1156072 net.cpp:84] Creating Layer B3_Pooling
I0903 08:37:39.145364 1156072 net.cpp:406] B3_Pooling <- B3_2_SConvBlockV2_Dropout
I0903 08:37:39.145370 1156072 net.cpp:380] B3_Pooling -> Pooling4
I0903 08:37:39.145385 1156072 net.cpp:122] Setting up B3_Pooling
I0903 08:37:39.145391 1156072 net.cpp:129] Top shape: 1 192 1 1 (192)
I0903 08:37:39.145396 1156072 net.cpp:137] Memory required for data: 18600716
I0903 08:37:39.145401 1156072 layer_factory.hpp:77] Creating layer fc1
I0903 08:37:39.145409 1156072 net.cpp:84] Creating Layer fc1
I0903 08:37:39.145413 1156072 net.cpp:406] fc1 <- Pooling4
I0903 08:37:39.145419 1156072 net.cpp:380] fc1 -> fc1
I0903 08:37:39.145849 1156072 net.cpp:122] Setting up fc1
I0903 08:37:39.145857 1156072 net.cpp:129] Top shape: 1 384 (384)
I0903 08:37:39.145862 1156072 net.cpp:137] Memory required for data: 18602252
I0903 08:37:39.145869 1156072 layer_factory.hpp:77] Creating layer classifier
I0903 08:37:39.145876 1156072 net.cpp:84] Creating Layer classifier
I0903 08:37:39.145880 1156072 net.cpp:406] classifier <- fc1
I0903 08:37:39.145886 1156072 net.cpp:380] classifier -> classifier
I0903 08:37:39.145952 1156072 net.cpp:122] Setting up classifier
I0903 08:37:39.145958 1156072 net.cpp:129] Top shape: 1 10 (10)
I0903 08:37:39.145963 1156072 net.cpp:137] Memory required for data: 18602292
I0903 08:37:39.145969 1156072 layer_factory.hpp:77] Creating layer classifier_classifier_0_split
I0903 08:37:39.145974 1156072 net.cpp:84] Creating Layer classifier_classifier_0_split
I0903 08:37:39.145979 1156072 net.cpp:406] classifier_classifier_0_split <- classifier
I0903 08:37:39.145985 1156072 net.cpp:380] classifier_classifier_0_split -> classifier_classifier_0_split_0
I0903 08:37:39.145992 1156072 net.cpp:380] classifier_classifier_0_split -> classifier_classifier_0_split_1
I0903 08:37:39.146013 1156072 net.cpp:122] Setting up classifier_classifier_0_split
I0903 08:37:39.146018 1156072 net.cpp:129] Top shape: 1 10 (10)
I0903 08:37:39.146023 1156072 net.cpp:129] Top shape: 1 10 (10)
I0903 08:37:39.146028 1156072 net.cpp:137] Memory required for data: 18602372
I0903 08:37:39.146031 1156072 layer_factory.hpp:77] Creating layer softmax_loss
I0903 08:37:39.146039 1156072 net.cpp:84] Creating Layer softmax_loss
I0903 08:37:39.146042 1156072 net.cpp:406] softmax_loss <- classifier_classifier_0_split_0
I0903 08:37:39.146047 1156072 net.cpp:406] softmax_loss <- label_InputData_1_split_0
…
