…
I0829 09:22:54.232352 916722 net.cpp:294] The NetState phase (0) differed from the phase (1) specified by a rule in layer accuracy
I0829 09:22:54.232363 916722 net.cpp:51] Initializing net from parameters: 
state {
  phase: TRAIN
  level: 0
  stage: ""
}
layer {
  name: "InputData"
  type: "ImageData"
  top: "data"
  top: "label"
  include {
    phase: TRAIN
  }
  transform_param {
    mirror: true
    crop_size: 32
  }
  image_data_param {
    source: "/home/jcwang/work/1.CIFAR10/train.txt"
    batch_size: 32
    shuffle: true
    is_color: true
  }
}
layer {
  name: "B0_0_ConvBNScaleReLU_Conv"
  type: "Convolution"
  bottom: "data"
  top: "B0_0_ConvBNScaleReLU_Conv"
  convolution_param {
    num_output: 64
    bias_term: false
    pad: 1
    kernel_size: 3
    stride: 1
    weight_filler {
      type: "xavier"
    }
    bias_filler {
      type: "constant"
    }
  }
}
layer {
  name: "B0_0_ConvBNScaleReLU_BN"
  type: "BatchNorm"
  bottom: "B0_0_ConvBNScaleReLU_Conv"
  top: "B0_0_ConvBNScaleReLU_Conv"
  param {
    lr_mult: 0
    decay_mult: 0
  }
  param {
    lr_mult: 0
    decay_mult: 0
  }
  param {
    lr_mult: 0
    decay_mult: 0
  }
  batch_norm_param {
    moving_average_fraction: 0.999
    eps: 0.001
  }
}
layer {
  name: "B0_0_ConvBNScaleReLU_Scale"
  type: "Scale"
  bottom: "B0_0_ConvBNScaleReLU_Conv"
  top: "B0_0_ConvBNScaleReLU_Conv"
  scale_param {
    filler {
      value: 1
    }
    bias_term: true
    bias_filler {
      value: 0
    }
    l1_lambda: 0
  }
}
layer {
  name: "B0_0_ConvBNScaleReLU_ReLU"
  type: "ReLU"
  bottom: "B0_0_ConvBNScaleReLU_Conv"
  top: "B0_0_ConvBNScaleReLU_Conv"
}
layer {
  name: "B0_0_ConvBNScaleReLU_Dropout"
  type: "Dropout"
  bottom: "B0_0_ConvBNScaleReLU_Conv"
  top: "ConvBNScaleReLU"
  dropout_param {
    dropout_ratio: 0.25
  }
}
layer {
  name: "B0_1_SConv_SparseConv"
  type: "SparseConvolution"
  bottom: "ConvBNScaleReLU"
  top: "B0_1_SConvBlockV2_T1"
  sparse_convolution_param {
    weight_filler {
      type: "xavier"
    }
    channel_expand_multiplier: 8
  }
}
layer {
  name: "B0_1_SConv_BN"
  type: "BatchNorm"
  bottom: "B0_1_SConvBlockV2_T1"
  top: "B0_1_SConvBlockV2_T1"
  param {
    lr_mult: 0
    decay_mult: 0
  }
  param {
    lr_mult: 0
    decay_mult: 0
  }
  param {
    lr_mult: 0
    decay_mult: 0
  }
  batch_norm_param {
    moving_average_fraction: 0.999
    eps: 0.001
  }
}
layer {
  name: "B0_1_SConv_Scale"
  type: "Scale"
  bottom: "B0_1_SConvBlockV2_T1"
  top: "B0_1_SConvBlockV2_Scale"
  scale_param {
    bias_term: true
  }
}
layer {
  name: "B0_1_SConv_Conv1x1"
  type: "Convolution"
  bottom: "B0_1_SConvBlockV2_Scale"
  top: "B0_1_SConvBlockV2_Conv1x1"
  convolution_param {
    num_output: 64
    bias_term: true
    pad: 0
    kernel_size: 1
    stride: 1
    weight_filler {
      type: "xavier"
    }
    bias_filler {
      type: "constant"
    }
  }
}
layer {
  name: "B0_1_SConv_ReLU"
  type: "ReLU"
  bottom: "B0_1_SConvBlockV2_Conv1x1"
  top: "B0_1_SConvBlockV2_Conv1x1"
}
layer {
  name: "B0_1_SConv_Dropout"
  type: "Dropout"
  bottom: "B0_1_SConvBlockV2_Conv1x1"
  top: "B0_1_SConvBlockV2_Dropout"
  dropout_param {
    dropout_ratio: 0.25
  }
}
layer {
  name: "B0_Pooling"
  type: "Pooling"
  bottom: "B0_1_SConvBlockV2_Dropout"
  top: "Pooling1"
  pooling_param {
    pool: MAX
    kernel_size: 2
    stride: 2
    pad: 0
  }
}
layer {
  name: "B1_0_SConv_SparseConv"
  type: "SparseConvolution"
  bottom: "Pooling1"
  top: "B1_0_SConvBlockV2_T1"
  sparse_convolution_param {
    weight_filler {
      type: "xavier"
    }
    channel_expand_multiplier: 8
  }
}
layer {
  name: "B1_0_SConv_BN"
  type: "BatchNorm"
  bottom: "B1_0_SConvBlockV2_T1"
  top: "B1_0_SConvBlockV2_T1"
  param {
    lr_mult: 0
    decay_mult: 0
  }
  param {
    lr_mult: 0
    decay_mult: 0
  }
  param {
    lr_mult: 0
    decay_mult: 0
  }
  batch_norm_param {
    moving_average_fraction: 0.999
    eps: 0.001
  }
}
layer {
  name: "B1_0_SConv_Scale"
  type: "Scale"
  bottom: "B1_0_SConvBlockV2_T1"
  top: "B1_0_SConvBlockV2_Scale"
  scale_param {
    bias_term: true
  }
}
layer {
  name: "B1_0_SConv_Conv1x1"
  type: "Convolution"
  bottom: "B1_0_SConvBlockV2_Scale"
  top: "B1_0_SConvBlockV2_Conv1x1"
  convolution_param {
    num_output: 128
    bias_term: true
    pad: 0
    kernel_size: 1
    stride: 1
    weight_filler {
      type: "xavier"
    }
    bias_filler {
      type: "constant"
    }
  }
}
layer {
  name: "B1_0_SConv_ReLU"
  type: "ReLU"
  bottom: "B1_0_SConvBlockV2_Conv1x1"
  top: "B1_0_SConvBlockV2_Conv1x1"
}
layer {
  name: "B1_0_SConv_Dropout"
  type: "Dropout"
  bottom: "B1_0_SConvBlockV2_Conv1x1"
  top: "B1_0_SConvBlockV2_Dropout"
  dropout_param {
    dropout_ratio: 0.25
  }
}
layer {
  name: "B1_1_SConv_SparseConv"
  type: "SparseConvolution"
  bottom: "B1_0_SConvBlockV2_Dropout"
  top: "B1_1_SConvBlockV2_T1"
  sparse_convolution_param {
    weight_filler {
      type: "xavier"
    }
    channel_expand_multiplier: 8
  }
}
layer {
  name: "B1_1_SConv_BN"
  type: "BatchNorm"
  bottom: "B1_1_SConvBlockV2_T1"
  top: "B1_1_SConvBlockV2_T1"
  param {
    lr_mult: 0
    decay_mult: 0
  }
  param {
    lr_mult: 0
    decay_mult: 0
  }
  param {
    lr_mult: 0
    decay_mult: 0
  }
  batch_norm_param {
    moving_average_fraction: 0.999
    eps: 0.001
  }
}
layer {
  name: "B1_1_SConv_Scale"
  type: "Scale"
  bottom: "B1_1_SConvBlockV2_T1"
  top: "B1_1_SConvBlockV2_Scale"
  scale_param {
    bias_term: true
  }
}
layer {
  name: "B1_1_SConv_Conv1x1"
  type: "Convolution"
  bottom: "B1_1_SConvBlockV2_Scale"
  top: "B1_1_SConvBlockV2_Conv1x1"
  convolution_param {
    num_output: 128
    bias_term: true
    pad: 0
    kernel_size: 1
    stride: 1
    weight_filler {
      type: "xavier"
    }
    bias_filler {
      type: "constant"
    }
  }
}
layer {
  name: "B1_1_SConv_ReLU"
  type: "ReLU"
  bottom: "B1_1_SConvBlockV2_Conv1x1"
  top: "B1_1_SConvBlockV2_Conv1x1"
}
layer {
  name: "B1_1_SConv_Dropout"
  type: "Dropout"
  bottom: "B1_1_SConvBlockV2_Conv1x1"
  top: "B1_1_SConvBlockV2_Dropout"
  dropout_param {
    dropout_ratio: 0.25
  }
}
layer {
  name: "B1_Pooling"
  type: "Pooling"
  bottom: "B1_1_SConvBlockV2_Dropout"
  top: "Pooling2"
  pooling_param {
    pool: MAX
    kernel_size: 2
    stride: 2
    pad: 0
  }
}
layer {
  name: "B2_0_SConv_SparseConv"
  type: "SparseConvolution"
  bottom: "Pooling2"
  top: "B2_0_SConvBlockV2_T1"
  sparse_convolution_param {
    weight_filler {
      type: "xavier"
    }
    channel_expand_multiplier: 8
  }
}
layer {
  name: "B2_0_SConv_BN"
  type: "BatchNorm"
  bottom: "B2_0_SConvBlockV2_T1"
  top: "B2_0_SConvBlockV2_T1"
  param {
    lr_mult: 0
    decay_mult: 0
  }
  param {
    lr_mult: 0
    decay_mult: 0
  }
  param {
    lr_mult: 0
    decay_mult: 0
  }
  batch_norm_param {
    moving_average_fraction: 0.999
    eps: 0.001
  }
}
layer {
  name: "B2_0_SConv_Scale"
  type: "Scale"
  bottom: "B2_0_SConvBlockV2_T1"
  top: "B2_0_SConvBlockV2_Scale"
  scale_param {
    bias_term: true
  }
}
layer {
  name: "B2_0_SConv_Conv1x1"
  type: "Convolution"
  bottom: "B2_0_SConvBlockV2_Scale"
  top: "B2_0_SConvBlockV2_Conv1x1"
  convolution_param {
    num_output: 192
    bias_term: true
    pad: 0
    kernel_size: 1
    stride: 1
    weight_filler {
      type: "xavier"
    }
    bias_filler {
      type: "constant"
    }
  }
}
layer {
  name: "B2_0_SConv_ReLU"
  type: "ReLU"
  bottom: "B2_0_SConvBlockV2_Conv1x1"
  top: "B2_0_SConvBlockV2_Conv1x1"
}
layer {
  name: "B2_0_SConv_Dropout"
  type: "Dropout"
  bottom: "B2_0_SConvBlockV2_Conv1x1"
  top: "B2_0_SConvBlockV2_Dropout"
  dropout_param {
    dropout_ratio: 0.25
  }
}
layer {
  name: "B2_1_SConv_SparseConv"
  type: "SparseConvolution"
  bottom: "B2_0_SConvBlockV2_Dropout"
  top: "B2_1_SConvBlockV2_T1"
  sparse_convolution_param {
    weight_filler {
      type: "xavier"
    }
    channel_expand_multiplier: 8
  }
}
layer {
  name: "B2_1_SConv_BN"
  type: "BatchNorm"
  bottom: "B2_1_SConvBlockV2_T1"
  top: "B2_1_SConvBlockV2_T1"
  param {
    lr_mult: 0
    decay_mult: 0
  }
  param {
    lr_mult: 0
    decay_mult: 0
  }
  param {
    lr_mult: 0
    decay_mult: 0
  }
  batch_norm_param {
    moving_average_fraction: 0.999
    eps: 0.001
  }
}
layer {
  name: "B2_1_SConv_Scale"
  type: "Scale"
  bottom: "B2_1_SConvBlockV2_T1"
  top: "B2_1_SConvBlockV2_Scale"
  scale_param {
    bias_term: true
  }
}
layer {
  name: "B2_1_SConv_Conv1x1"
  type: "Convolution"
  bottom: "B2_1_SConvBlockV2_Scale"
  top: "B2_1_SConvBlockV2_Conv1x1"
  convolution_param {
    num_output: 192
    bias_term: true
    pad: 0
    kernel_size: 1
    stride: 1
    weight_filler {
      type: "xavier"
    }
    bias_filler {
      type: "constant"
    }
  }
}
layer {
  name: "B2_1_SConv_ReLU"
  type: "ReLU"
  bottom: "B2_1_SConvBlockV2_Conv1x1"
  top: "B2_1_SConvBlockV2_Conv1x1"
}
layer {
  name: "B2_1_SConv_Dropout"
  type: "Dropout"
  bottom: "B2_1_SConvBlockV2_Conv1x1"
  top: "B2_1_SConvBlockV2_Dropout"
  dropout_param {
    dropout_ratio: 0.25
  }
}
layer {
  name: "B2_2_SConv_SparseConv"
  type: "SparseConvolution"
  bottom: "B2_1_SConvBlockV2_Dropout"
  top: "B2_2_SConvBlockV2_T1"
  sparse_convolution_param {
    weight_filler {
      type: "xavier"
    }
    channel_expand_multiplier: 8
  }
}
layer {
  name: "B2_2_SConv_BN"
  type: "BatchNorm"
  bottom: "B2_2_SConvBlockV2_T1"
  top: "B2_2_SConvBlockV2_T1"
  param {
    lr_mult: 0
    decay_mult: 0
  }
  param {
    lr_mult: 0
    decay_mult: 0
  }
  param {
    lr_mult: 0
    decay_mult: 0
  }
  batch_norm_param {
    moving_average_fraction: 0.999
    eps: 0.001
  }
}
layer {
  name: "B2_2_SConv_Scale"
  type: "Scale"
  bottom: "B2_2_SConvBlockV2_T1"
  top: "B2_2_SConvBlockV2_Scale"
  scale_param {
    bias_term: true
  }
}
layer {
  name: "B2_2_SConv_Conv1x1"
  type: "Convolution"
  bottom: "B2_2_SConvBlockV2_Scale"
  top: "B2_2_SConvBlockV2_Conv1x1"
  convolution_param {
    num_output: 192
    bias_term: true
    pad: 0
    kernel_size: 1
    stride: 1
    weight_filler {
      type: "xavier"
    }
    bias_filler {
      type: "constant"
    }
  }
}
layer {
  name: "B2_2_SConv_ReLU"
  type: "ReLU"
  bottom: "B2_2_SConvBlockV2_Conv1x1"
  top: "B2_2_SConvBlockV2_Conv1x1"
}
layer {
  name: "B2_2_SConv_Dropout"
  type: "Dropout"
  bottom: "B2_2_SConvBlockV2_Conv1x1"
  top: "B2_2_SConvBlockV2_Dropout"
  dropout_param {
    dropout_ratio: 0.25
  }
}
layer {
  name: "B2_Pooling"
  type: "Pooling"
  bottom: "B2_2_SConvBlockV2_Dropout"
  top: "Pooling3"
  pooling_param {
    pool: MAX
    kernel_size: 2
    stride: 2
    pad: 0
  }
}
layer {
  name: "B3_0_SConv_SparseConv"
  type: "SparseConvolution"
  bottom: "Pooling3"
  top: "B3_0_SConvBlockV2_T1"
  sparse_convolution_param {
    weight_filler {
      type: "xavier"
    }
    channel_expand_multiplier: 8
  }
}
layer {
  name: "B3_0_SConv_BN"
  type: "BatchNorm"
  bottom: "B3_0_SConvBlockV2_T1"
  top: "B3_0_SConvBlockV2_T1"
  param {
    lr_mult: 0
    decay_mult: 0
  }
  param {
    lr_mult: 0
    decay_mult: 0
  }
  param {
    lr_mult: 0
    decay_mult: 0
  }
  batch_norm_param {
    moving_average_fraction: 0.999
    eps: 0.001
  }
}
layer {
  name: "B3_0_SConv_Scale"
  type: "Scale"
  bottom: "B3_0_SConvBlockV2_T1"
  top: "B3_0_SConvBlockV2_Scale"
  scale_param {
    bias_term: true
  }
}
layer {
  name: "B3_0_SConv_Conv1x1"
  type: "Convolution"
  bottom: "B3_0_SConvBlockV2_Scale"
  top: "B3_0_SConvBlockV2_Conv1x1"
  convolution_param {
    num_output: 192
    bias_term: true
    pad: 0
    kernel_size: 1
    stride: 1
    weight_filler {
      type: "xavier"
    }
    bias_filler {
      type: "constant"
    }
  }
}
layer {
  name: "B3_0_SConv_ReLU"
  type: "ReLU"
  bottom: "B3_0_SConvBlockV2_Conv1x1"
  top: "B3_0_SConvBlockV2_Conv1x1"
}
layer {
  name: "B3_0_SConv_Dropout"
  type: "Dropout"
  bottom: "B3_0_SConvBlockV2_Conv1x1"
  top: "B3_0_SConvBlockV2_Dropout"
  dropout_param {
    dropout_ratio: 0.25
  }
}
layer {
  name: "B3_1_SConv_SparseConv"
  type: "SparseConvolution"
  bottom: "B3_0_SConvBlockV2_Dropout"
  top: "B3_1_SConvBlockV2_T1"
  sparse_convolution_param {
    weight_filler {
      type: "xavier"
    }
    channel_expand_multiplier: 8
  }
}
layer {
  name: "B3_1_SConv_BN"
  type: "BatchNorm"
  bottom: "B3_1_SConvBlockV2_T1"
  top: "B3_1_SConvBlockV2_T1"
  param {
    lr_mult: 0
    decay_mult: 0
  }
  param {
    lr_mult: 0
    decay_mult: 0
  }
  param {
    lr_mult: 0
    decay_mult: 0
  }
  batch_norm_param {
    moving_average_fraction: 0.999
    eps: 0.001
  }
}
layer {
  name: "B3_1_SConv_Scale"
  type: "Scale"
  bottom: "B3_1_SConvBlockV2_T1"
  top: "B3_1_SConvBlockV2_Scale"
  scale_param {
    bias_term: true
  }
}
layer {
  name: "B3_1_SConv_Conv1x1"
  type: "Convolution"
  bottom: "B3_1_SConvBlockV2_Scale"
  top: "B3_1_SConvBlockV2_Conv1x1"
  convolution_param {
    num_output: 192
    bias_term: true
    pad: 0
    kernel_size: 1
    stride: 1
    weight_filler {
      type: "xavier"
    }
    bias_filler {
      type: "constant"
    }
  }
}
layer {
  name: "B3_1_SConv_ReLU"
  type: "ReLU"
  bottom: "B3_1_SConvBlockV2_Conv1x1"
  top: "B3_1_SConvBlockV2_Conv1x1"
}
layer {
  name: "B3_1_SConv_Dropout"
  type: "Dropout"
  bottom: "B3_1_SConvBlockV2_Conv1x1"
  top: "B3_1_SConvBlockV2_Dropout"
  dropout_param {
    dropout_ratio: 0.25
  }
}
layer {
  name: "B3_2_SConv_SparseConv"
  type: "SparseConvolution"
  bottom: "B3_1_SConvBlockV2_Dropout"
  top: "B3_2_SConvBlockV2_T1"
  sparse_convolution_param {
    weight_filler {
      type: "xavier"
    }
    channel_expand_multiplier: 8
  }
}
layer {
  name: "B3_2_SConv_BN"
  type: "BatchNorm"
  bottom: "B3_2_SConvBlockV2_T1"
  top: "B3_2_SConvBlockV2_T1"
  param {
    lr_mult: 0
    decay_mult: 0
  }
  param {
    lr_mult: 0
    decay_mult: 0
  }
  param {
    lr_mult: 0
    decay_mult: 0
  }
  batch_norm_param {
    moving_average_fraction: 0.999
    eps: 0.001
  }
}
layer {
  name: "B3_2_SConv_Scale"
  type: "Scale"
  bottom: "B3_2_SConvBlockV2_T1"
  top: "B3_2_SConvBlockV2_Scale"
  scale_param {
    bias_term: true
  }
}
layer {
  name: "B3_2_SConv_Conv1x1"
  type: "Convolution"
  bottom: "B3_2_SConvBlockV2_Scale"
  top: "B3_2_SConvBlockV2_Conv1x1"
  convolution_param {
    num_output: 192
    bias_term: true
    pad: 0
    kernel_size: 1
    stride: 1
    weight_filler {
      type: "xavier"
    }
    bias_filler {
      type: "constant"
    }
  }
}
layer {
  name: "B3_2_SConv_ReLU"
  type: "ReLU"
  bottom: "B3_2_SConvBlockV2_Conv1x1"
  top: "B3_2_SConvBlockV2_Conv1x1"
}
layer {
  name: "B3_2_SConv_Dropout"
  type: "Dropout"
  bottom: "B3_2_SConvBlockV2_Conv1x1"
  top: "B3_2_SConvBlockV2_Dropout"
  dropout_param {
    dropout_ratio: 0.25
  }
}
layer {
  name: "B3_Pooling"
  type: "Pooling"
  bottom: "B3_2_SConvBlockV2_Dropout"
  top: "Pooling4"
  pooling_param {
    pool: AVE
    global_pooling: true
  }
}
layer {
  name: "fc1"
  type: "InnerProduct"
  bottom: "Pooling4"
  top: "fc1"
  inner_product_param {
    num_output: 384
    bias_term: true
    weight_filler {
      type: "xavier"
    }
    bias_filler {
      type: "constant"
    }
  }
}
layer {
  name: "classifier"
  type: "InnerProduct"
  bottom: "fc1"
  top: "classifier"
  inner_product_param {
    num_output: 10
    bias_term: true
    weight_filler {
      type: "xavier"
    }
    bias_filler {
      type: "constant"
    }
  }
}
layer {
  name: "softmax_loss"
  type: "SoftmaxWithLoss"
  bottom: "classifier"
  bottom: "label"
  top: "softmax_loss"
}
I0829 09:22:54.232755 916722 layer_factory.hpp:77] Creating layer InputData
I0829 09:22:54.232805 916722 net.cpp:84] Creating Layer InputData
I0829 09:22:54.232815 916722 net.cpp:380] InputData -> data
I0829 09:22:54.232856 916722 net.cpp:380] InputData -> label
I0829 09:22:54.232877 916722 image_data_layer.cpp:38] Opening file /home/jcwang/work/1.CIFAR10/train.txt
I0829 09:22:54.241921 916722 image_data_layer.cpp:53] Shuffling data
I0829 09:22:54.242720 916722 image_data_layer.cpp:63] A total of 50005 images.
I0829 09:22:54.243888 916722 image_data_layer.cpp:90] output data size: 32,3,32,32
I0829 09:22:54.244359 916722 net.cpp:122] Setting up InputData
I0829 09:22:54.244371 916722 net.cpp:129] Top shape: 32 3 32 32 (98304)
I0829 09:22:54.244379 916722 net.cpp:129] Top shape: 32 (32)
I0829 09:22:54.244385 916722 net.cpp:137] Memory required for data: 393344
I0829 09:22:54.244390 916722 layer_factory.hpp:77] Creating layer B0_0_ConvBNScaleReLU_Conv
I0829 09:22:54.244410 916722 net.cpp:84] Creating Layer B0_0_ConvBNScaleReLU_Conv
I0829 09:22:54.244416 916722 net.cpp:406] B0_0_ConvBNScaleReLU_Conv <- data
I0829 09:22:54.244450 916722 net.cpp:380] B0_0_ConvBNScaleReLU_Conv -> B0_0_ConvBNScaleReLU_Conv
I0829 09:22:54.244707 916722 net.cpp:122] Setting up B0_0_ConvBNScaleReLU_Conv
I0829 09:22:54.244717 916722 net.cpp:129] Top shape: 32 64 32 32 (2097152)
I0829 09:22:54.244724 916722 net.cpp:137] Memory required for data: 8781952
I0829 09:22:54.244736 916722 layer_factory.hpp:77] Creating layer B0_0_ConvBNScaleReLU_BN
I0829 09:22:54.244750 916722 net.cpp:84] Creating Layer B0_0_ConvBNScaleReLU_BN
I0829 09:22:54.244755 916722 net.cpp:406] B0_0_ConvBNScaleReLU_BN <- B0_0_ConvBNScaleReLU_Conv
I0829 09:22:54.244760 916722 net.cpp:367] B0_0_ConvBNScaleReLU_BN -> B0_0_ConvBNScaleReLU_Conv (in-place)
I0829 09:22:54.244901 916722 net.cpp:122] Setting up B0_0_ConvBNScaleReLU_BN
I0829 09:22:54.244908 916722 net.cpp:129] Top shape: 32 64 32 32 (2097152)
I0829 09:22:54.244913 916722 net.cpp:137] Memory required for data: 17170560
I0829 09:22:54.244922 916722 layer_factory.hpp:77] Creating layer B0_0_ConvBNScaleReLU_Scale
I0829 09:22:54.244930 916722 net.cpp:84] Creating Layer B0_0_ConvBNScaleReLU_Scale
I0829 09:22:54.244935 916722 net.cpp:406] B0_0_ConvBNScaleReLU_Scale <- B0_0_ConvBNScaleReLU_Conv
I0829 09:22:54.244940 916722 net.cpp:367] B0_0_ConvBNScaleReLU_Scale -> B0_0_ConvBNScaleReLU_Conv (in-place)
I0829 09:22:54.244974 916722 layer_factory.hpp:77] Creating layer B0_0_ConvBNScaleReLU_Scale
I0829 09:22:54.245069 916722 net.cpp:122] Setting up B0_0_ConvBNScaleReLU_Scale
I0829 09:22:54.245076 916722 net.cpp:129] Top shape: 32 64 32 32 (2097152)
I0829 09:22:54.245082 916722 net.cpp:137] Memory required for data: 25559168
I0829 09:22:54.245090 916722 layer_factory.hpp:77] Creating layer B0_0_ConvBNScaleReLU_ReLU
I0829 09:22:54.245098 916722 net.cpp:84] Creating Layer B0_0_ConvBNScaleReLU_ReLU
I0829 09:22:54.245102 916722 net.cpp:406] B0_0_ConvBNScaleReLU_ReLU <- B0_0_ConvBNScaleReLU_Conv
I0829 09:22:54.245107 916722 net.cpp:367] B0_0_ConvBNScaleReLU_ReLU -> B0_0_ConvBNScaleReLU_Conv (in-place)
I0829 09:22:54.245115 916722 net.cpp:122] Setting up B0_0_ConvBNScaleReLU_ReLU
I0829 09:22:54.245118 916722 net.cpp:129] Top shape: 32 64 32 32 (2097152)
I0829 09:22:54.245123 916722 net.cpp:137] Memory required for data: 33947776
I0829 09:22:54.245127 916722 layer_factory.hpp:77] Creating layer B0_0_ConvBNScaleReLU_Dropout
I0829 09:22:54.245139 916722 net.cpp:84] Creating Layer B0_0_ConvBNScaleReLU_Dropout
I0829 09:22:54.245144 916722 net.cpp:406] B0_0_ConvBNScaleReLU_Dropout <- B0_0_ConvBNScaleReLU_Conv
I0829 09:22:54.245149 916722 net.cpp:380] B0_0_ConvBNScaleReLU_Dropout -> ConvBNScaleReLU
I0829 09:22:54.245182 916722 net.cpp:122] Setting up B0_0_ConvBNScaleReLU_Dropout
I0829 09:22:54.245187 916722 net.cpp:129] Top shape: 32 64 32 32 (2097152)
I0829 09:22:54.245193 916722 net.cpp:137] Memory required for data: 42336384
I0829 09:22:54.245203 916722 layer_factory.hpp:77] Creating layer B0_1_SConv_SparseConv
I0829 09:22:54.245223 916722 net.cpp:84] Creating Layer B0_1_SConv_SparseConv
I0829 09:22:54.245229 916722 net.cpp:406] B0_1_SConv_SparseConv <- ConvBNScaleReLU
I0829 09:22:54.245236 916722 net.cpp:380] B0_1_SConv_SparseConv -> B0_1_SConvBlockV2_T1
I0829 09:22:54.245357 916722 net.cpp:122] Setting up B0_1_SConv_SparseConv
I0829 09:22:54.245363 916722 net.cpp:129] Top shape: 32 512 32 32 (16777216)
I0829 09:22:54.245369 916722 net.cpp:137] Memory required for data: 109445248
I0829 09:22:54.245374 916722 layer_factory.hpp:77] Creating layer B0_1_SConv_BN
I0829 09:22:54.245383 916722 net.cpp:84] Creating Layer B0_1_SConv_BN
I0829 09:22:54.245388 916722 net.cpp:406] B0_1_SConv_BN <- B0_1_SConvBlockV2_T1
I0829 09:22:54.245395 916722 net.cpp:367] B0_1_SConv_BN -> B0_1_SConvBlockV2_T1 (in-place)
I0829 09:22:54.245512 916722 net.cpp:122] Setting up B0_1_SConv_BN
I0829 09:22:54.245519 916722 net.cpp:129] Top shape: 32 512 32 32 (16777216)
I0829 09:22:54.245524 916722 net.cpp:137] Memory required for data: 176554112
I0829 09:22:54.245532 916722 layer_factory.hpp:77] Creating layer B0_1_SConv_Scale
I0829 09:22:54.245538 916722 net.cpp:84] Creating Layer B0_1_SConv_Scale
I0829 09:22:54.245543 916722 net.cpp:406] B0_1_SConv_Scale <- B0_1_SConvBlockV2_T1
I0829 09:22:54.245548 916722 net.cpp:380] B0_1_SConv_Scale -> B0_1_SConvBlockV2_Scale
I0829 09:22:54.245580 916722 layer_factory.hpp:77] Creating layer B0_1_SConv_Scale
I0829 09:22:54.245656 916722 net.cpp:122] Setting up B0_1_SConv_Scale
I0829 09:22:54.245663 916722 net.cpp:129] Top shape: 32 512 32 32 (16777216)
I0829 09:22:54.245674 916722 net.cpp:137] Memory required for data: 243662976
I0829 09:22:54.245680 916722 layer_factory.hpp:77] Creating layer B0_1_SConv_Conv1x1
I0829 09:22:54.245692 916722 net.cpp:84] Creating Layer B0_1_SConv_Conv1x1
I0829 09:22:54.245697 916722 net.cpp:406] B0_1_SConv_Conv1x1 <- B0_1_SConvBlockV2_Scale
I0829 09:22:54.245702 916722 net.cpp:380] B0_1_SConv_Conv1x1 -> B0_1_SConvBlockV2_Conv1x1
I0829 09:22:54.245992 916722 net.cpp:122] Setting up B0_1_SConv_Conv1x1
I0829 09:22:54.246001 916722 net.cpp:129] Top shape: 32 64 32 32 (2097152)
I0829 09:22:54.246006 916722 net.cpp:137] Memory required for data: 252051584
I0829 09:22:54.246012 916722 layer_factory.hpp:77] Creating layer B0_1_SConv_ReLU
I0829 09:22:54.246021 916722 net.cpp:84] Creating Layer B0_1_SConv_ReLU
I0829 09:22:54.246026 916722 net.cpp:406] B0_1_SConv_ReLU <- B0_1_SConvBlockV2_Conv1x1
I0829 09:22:54.246030 916722 net.cpp:367] B0_1_SConv_ReLU -> B0_1_SConvBlockV2_Conv1x1 (in-place)
I0829 09:22:54.246037 916722 net.cpp:122] Setting up B0_1_SConv_ReLU
I0829 09:22:54.246040 916722 net.cpp:129] Top shape: 32 64 32 32 (2097152)
I0829 09:22:54.246045 916722 net.cpp:137] Memory required for data: 260440192
I0829 09:22:54.246050 916722 layer_factory.hpp:77] Creating layer B0_1_SConv_Dropout
I0829 09:22:54.246057 916722 net.cpp:84] Creating Layer B0_1_SConv_Dropout
I0829 09:22:54.246060 916722 net.cpp:406] B0_1_SConv_Dropout <- B0_1_SConvBlockV2_Conv1x1
I0829 09:22:54.246069 916722 net.cpp:380] B0_1_SConv_Dropout -> B0_1_SConvBlockV2_Dropout
I0829 09:22:54.246095 916722 net.cpp:122] Setting up B0_1_SConv_Dropout
I0829 09:22:54.246101 916722 net.cpp:129] Top shape: 32 64 32 32 (2097152)
I0829 09:22:54.246106 916722 net.cpp:137] Memory required for data: 268828800
I0829 09:22:54.246110 916722 layer_factory.hpp:77] Creating layer B0_Pooling
I0829 09:22:54.246117 916722 net.cpp:84] Creating Layer B0_Pooling
I0829 09:22:54.246122 916722 net.cpp:406] B0_Pooling <- B0_1_SConvBlockV2_Dropout
I0829 09:22:54.246129 916722 net.cpp:380] B0_Pooling -> Pooling1
I0829 09:22:54.246156 916722 net.cpp:122] Setting up B0_Pooling
I0829 09:22:54.246162 916722 net.cpp:129] Top shape: 32 64 16 16 (524288)
I0829 09:22:54.246167 916722 net.cpp:137] Memory required for data: 270925952
I0829 09:22:54.246171 916722 layer_factory.hpp:77] Creating layer B1_0_SConv_SparseConv
I0829 09:22:54.246182 916722 net.cpp:84] Creating Layer B1_0_SConv_SparseConv
I0829 09:22:54.246191 916722 net.cpp:406] B1_0_SConv_SparseConv <- Pooling1
I0829 09:22:54.246203 916722 net.cpp:380] B1_0_SConv_SparseConv -> B1_0_SConvBlockV2_T1
I0829 09:22:54.246299 916722 net.cpp:122] Setting up B1_0_SConv_SparseConv
I0829 09:22:54.246304 916722 net.cpp:129] Top shape: 32 512 16 16 (4194304)
I0829 09:22:54.246310 916722 net.cpp:137] Memory required for data: 287703168
I0829 09:22:54.246315 916722 layer_factory.hpp:77] Creating layer B1_0_SConv_BN
I0829 09:22:54.246322 916722 net.cpp:84] Creating Layer B1_0_SConv_BN
I0829 09:22:54.246327 916722 net.cpp:406] B1_0_SConv_BN <- B1_0_SConvBlockV2_T1
I0829 09:22:54.246333 916722 net.cpp:367] B1_0_SConv_BN -> B1_0_SConvBlockV2_T1 (in-place)
I0829 09:22:54.246412 916722 net.cpp:122] Setting up B1_0_SConv_BN
I0829 09:22:54.246417 916722 net.cpp:129] Top shape: 32 512 16 16 (4194304)
I0829 09:22:54.246423 916722 net.cpp:137] Memory required for data: 304480384
I0829 09:22:54.246430 916722 layer_factory.hpp:77] Creating layer B1_0_SConv_Scale
I0829 09:22:54.246440 916722 net.cpp:84] Creating Layer B1_0_SConv_Scale
I0829 09:22:54.246444 916722 net.cpp:406] B1_0_SConv_Scale <- B1_0_SConvBlockV2_T1
I0829 09:22:54.246450 916722 net.cpp:380] B1_0_SConv_Scale -> B1_0_SConvBlockV2_Scale
I0829 09:22:54.246474 916722 layer_factory.hpp:77] Creating layer B1_0_SConv_Scale
I0829 09:22:54.246546 916722 net.cpp:122] Setting up B1_0_SConv_Scale
I0829 09:22:54.246552 916722 net.cpp:129] Top shape: 32 512 16 16 (4194304)
I0829 09:22:54.246557 916722 net.cpp:137] Memory required for data: 321257600
I0829 09:22:54.246563 916722 layer_factory.hpp:77] Creating layer B1_0_SConv_Conv1x1
I0829 09:22:54.246573 916722 net.cpp:84] Creating Layer B1_0_SConv_Conv1x1
I0829 09:22:54.246580 916722 net.cpp:406] B1_0_SConv_Conv1x1 <- B1_0_SConvBlockV2_Scale
I0829 09:22:54.246587 916722 net.cpp:380] B1_0_SConv_Conv1x1 -> B1_0_SConvBlockV2_Conv1x1
I0829 09:22:54.247987 916722 net.cpp:122] Setting up B1_0_SConv_Conv1x1
I0829 09:22:54.248001 916722 net.cpp:129] Top shape: 32 128 16 16 (1048576)
I0829 09:22:54.248008 916722 net.cpp:137] Memory required for data: 325451904
I0829 09:22:54.248014 916722 layer_factory.hpp:77] Creating layer B1_0_SConv_ReLU
I0829 09:22:54.248023 916722 net.cpp:84] Creating Layer B1_0_SConv_ReLU
I0829 09:22:54.248028 916722 net.cpp:406] B1_0_SConv_ReLU <- B1_0_SConvBlockV2_Conv1x1
I0829 09:22:54.248034 916722 net.cpp:367] B1_0_SConv_ReLU -> B1_0_SConvBlockV2_Conv1x1 (in-place)
I0829 09:22:54.248041 916722 net.cpp:122] Setting up B1_0_SConv_ReLU
I0829 09:22:54.248045 916722 net.cpp:129] Top shape: 32 128 16 16 (1048576)
I0829 09:22:54.248050 916722 net.cpp:137] Memory required for data: 329646208
I0829 09:22:54.248054 916722 layer_factory.hpp:77] Creating layer B1_0_SConv_Dropout
I0829 09:22:54.248061 916722 net.cpp:84] Creating Layer B1_0_SConv_Dropout
I0829 09:22:54.248065 916722 net.cpp:406] B1_0_SConv_Dropout <- B1_0_SConvBlockV2_Conv1x1
I0829 09:22:54.248070 916722 net.cpp:380] B1_0_SConv_Dropout -> B1_0_SConvBlockV2_Dropout
I0829 09:22:54.248327 916722 net.cpp:122] Setting up B1_0_SConv_Dropout
I0829 09:22:54.248334 916722 net.cpp:129] Top shape: 32 128 16 16 (1048576)
I0829 09:22:54.248339 916722 net.cpp:137] Memory required for data: 333840512
I0829 09:22:54.248343 916722 layer_factory.hpp:77] Creating layer B1_1_SConv_SparseConv
I0829 09:22:54.248353 916722 net.cpp:84] Creating Layer B1_1_SConv_SparseConv
I0829 09:22:54.248358 916722 net.cpp:406] B1_1_SConv_SparseConv <- B1_0_SConvBlockV2_Dropout
I0829 09:22:54.248363 916722 net.cpp:380] B1_1_SConv_SparseConv -> B1_1_SConvBlockV2_T1
I0829 09:22:54.248500 916722 net.cpp:122] Setting up B1_1_SConv_SparseConv
I0829 09:22:54.248509 916722 net.cpp:129] Top shape: 32 1024 16 16 (8388608)
I0829 09:22:54.248515 916722 net.cpp:137] Memory required for data: 367394944
I0829 09:22:54.248520 916722 layer_factory.hpp:77] Creating layer B1_1_SConv_BN
I0829 09:22:54.248529 916722 net.cpp:84] Creating Layer B1_1_SConv_BN
I0829 09:22:54.248534 916722 net.cpp:406] B1_1_SConv_BN <- B1_1_SConvBlockV2_T1
I0829 09:22:54.248540 916722 net.cpp:367] B1_1_SConv_BN -> B1_1_SConvBlockV2_T1 (in-place)
I0829 09:22:54.248629 916722 net.cpp:122] Setting up B1_1_SConv_BN
I0829 09:22:54.248636 916722 net.cpp:129] Top shape: 32 1024 16 16 (8388608)
I0829 09:22:54.248642 916722 net.cpp:137] Memory required for data: 400949376
I0829 09:22:54.248648 916722 layer_factory.hpp:77] Creating layer B1_1_SConv_Scale
I0829 09:22:54.248654 916722 net.cpp:84] Creating Layer B1_1_SConv_Scale
I0829 09:22:54.248659 916722 net.cpp:406] B1_1_SConv_Scale <- B1_1_SConvBlockV2_T1
I0829 09:22:54.248664 916722 net.cpp:380] B1_1_SConv_Scale -> B1_1_SConvBlockV2_Scale
I0829 09:22:54.248688 916722 layer_factory.hpp:77] Creating layer B1_1_SConv_Scale
I0829 09:22:54.248742 916722 net.cpp:122] Setting up B1_1_SConv_Scale
I0829 09:22:54.248749 916722 net.cpp:129] Top shape: 32 1024 16 16 (8388608)
I0829 09:22:54.248754 916722 net.cpp:137] Memory required for data: 434503808
I0829 09:22:54.248760 916722 layer_factory.hpp:77] Creating layer B1_1_SConv_Conv1x1
I0829 09:22:54.248769 916722 net.cpp:84] Creating Layer B1_1_SConv_Conv1x1
I0829 09:22:54.248775 916722 net.cpp:406] B1_1_SConv_Conv1x1 <- B1_1_SConvBlockV2_Scale
I0829 09:22:54.248780 916722 net.cpp:380] B1_1_SConv_Conv1x1 -> B1_1_SConvBlockV2_Conv1x1
I0829 09:22:54.249527 916722 net.cpp:122] Setting up B1_1_SConv_Conv1x1
I0829 09:22:54.249536 916722 net.cpp:129] Top shape: 32 128 16 16 (1048576)
I0829 09:22:54.249541 916722 net.cpp:137] Memory required for data: 438698112
I0829 09:22:54.249547 916722 layer_factory.hpp:77] Creating layer B1_1_SConv_ReLU
I0829 09:22:54.249552 916722 net.cpp:84] Creating Layer B1_1_SConv_ReLU
I0829 09:22:54.249557 916722 net.cpp:406] B1_1_SConv_ReLU <- B1_1_SConvBlockV2_Conv1x1
I0829 09:22:54.249562 916722 net.cpp:367] B1_1_SConv_ReLU -> B1_1_SConvBlockV2_Conv1x1 (in-place)
I0829 09:22:54.249568 916722 net.cpp:122] Setting up B1_1_SConv_ReLU
I0829 09:22:54.249573 916722 net.cpp:129] Top shape: 32 128 16 16 (1048576)
I0829 09:22:54.249578 916722 net.cpp:137] Memory required for data: 442892416
I0829 09:22:54.249583 916722 layer_factory.hpp:77] Creating layer B1_1_SConv_Dropout
I0829 09:22:54.249589 916722 net.cpp:84] Creating Layer B1_1_SConv_Dropout
I0829 09:22:54.249594 916722 net.cpp:406] B1_1_SConv_Dropout <- B1_1_SConvBlockV2_Conv1x1
I0829 09:22:54.249599 916722 net.cpp:380] B1_1_SConv_Dropout -> B1_1_SConvBlockV2_Dropout
I0829 09:22:54.249632 916722 net.cpp:122] Setting up B1_1_SConv_Dropout
I0829 09:22:54.249639 916722 net.cpp:129] Top shape: 32 128 16 16 (1048576)
I0829 09:22:54.249644 916722 net.cpp:137] Memory required for data: 447086720
I0829 09:22:54.249648 916722 layer_factory.hpp:77] Creating layer B1_Pooling
I0829 09:22:54.249655 916722 net.cpp:84] Creating Layer B1_Pooling
I0829 09:22:54.249660 916722 net.cpp:406] B1_Pooling <- B1_1_SConvBlockV2_Dropout
I0829 09:22:54.249667 916722 net.cpp:380] B1_Pooling -> Pooling2
I0829 09:22:54.249687 916722 net.cpp:122] Setting up B1_Pooling
I0829 09:22:54.249693 916722 net.cpp:129] Top shape: 32 128 8 8 (262144)
I0829 09:22:54.249698 916722 net.cpp:137] Memory required for data: 448135296
I0829 09:22:54.249702 916722 layer_factory.hpp:77] Creating layer B2_0_SConv_SparseConv
I0829 09:22:54.249711 916722 net.cpp:84] Creating Layer B2_0_SConv_SparseConv
I0829 09:22:54.249716 916722 net.cpp:406] B2_0_SConv_SparseConv <- Pooling2
I0829 09:22:54.249720 916722 net.cpp:380] B2_0_SConv_SparseConv -> B2_0_SConvBlockV2_T1
I0829 09:22:54.249902 916722 net.cpp:122] Setting up B2_0_SConv_SparseConv
I0829 09:22:54.249910 916722 net.cpp:129] Top shape: 32 1024 8 8 (2097152)
I0829 09:22:54.249917 916722 net.cpp:137] Memory required for data: 456523904
I0829 09:22:54.249922 916722 layer_factory.hpp:77] Creating layer B2_0_SConv_BN
I0829 09:22:54.249928 916722 net.cpp:84] Creating Layer B2_0_SConv_BN
I0829 09:22:54.249933 916722 net.cpp:406] B2_0_SConv_BN <- B2_0_SConvBlockV2_T1
I0829 09:22:54.249941 916722 net.cpp:367] B2_0_SConv_BN -> B2_0_SConvBlockV2_T1 (in-place)
I0829 09:22:54.250025 916722 net.cpp:122] Setting up B2_0_SConv_BN
I0829 09:22:54.250033 916722 net.cpp:129] Top shape: 32 1024 8 8 (2097152)
I0829 09:22:54.250043 916722 net.cpp:137] Memory required for data: 464912512
I0829 09:22:54.250058 916722 layer_factory.hpp:77] Creating layer B2_0_SConv_Scale
I0829 09:22:54.250064 916722 net.cpp:84] Creating Layer B2_0_SConv_Scale
I0829 09:22:54.250069 916722 net.cpp:406] B2_0_SConv_Scale <- B2_0_SConvBlockV2_T1
I0829 09:22:54.250077 916722 net.cpp:380] B2_0_SConv_Scale -> B2_0_SConvBlockV2_Scale
I0829 09:22:54.250102 916722 layer_factory.hpp:77] Creating layer B2_0_SConv_Scale
I0829 09:22:54.250156 916722 net.cpp:122] Setting up B2_0_SConv_Scale
I0829 09:22:54.250164 916722 net.cpp:129] Top shape: 32 1024 8 8 (2097152)
I0829 09:22:54.250169 916722 net.cpp:137] Memory required for data: 473301120
I0829 09:22:54.250174 916722 layer_factory.hpp:77] Creating layer B2_0_SConv_Conv1x1
I0829 09:22:54.250185 916722 net.cpp:84] Creating Layer B2_0_SConv_Conv1x1
I0829 09:22:54.250191 916722 net.cpp:406] B2_0_SConv_Conv1x1 <- B2_0_SConvBlockV2_Scale
I0829 09:22:54.250196 916722 net.cpp:380] B2_0_SConv_Conv1x1 -> B2_0_SConvBlockV2_Conv1x1
I0829 09:22:54.251272 916722 net.cpp:122] Setting up B2_0_SConv_Conv1x1
I0829 09:22:54.251281 916722 net.cpp:129] Top shape: 32 192 8 8 (393216)
I0829 09:22:54.251287 916722 net.cpp:137] Memory required for data: 474873984
I0829 09:22:54.251292 916722 layer_factory.hpp:77] Creating layer B2_0_SConv_ReLU
I0829 09:22:54.251298 916722 net.cpp:84] Creating Layer B2_0_SConv_ReLU
I0829 09:22:54.251303 916722 net.cpp:406] B2_0_SConv_ReLU <- B2_0_SConvBlockV2_Conv1x1
I0829 09:22:54.251312 916722 net.cpp:367] B2_0_SConv_ReLU -> B2_0_SConvBlockV2_Conv1x1 (in-place)
I0829 09:22:54.251317 916722 net.cpp:122] Setting up B2_0_SConv_ReLU
I0829 09:22:54.251322 916722 net.cpp:129] Top shape: 32 192 8 8 (393216)
I0829 09:22:54.251327 916722 net.cpp:137] Memory required for data: 476446848
I0829 09:22:54.251332 916722 layer_factory.hpp:77] Creating layer B2_0_SConv_Dropout
I0829 09:22:54.251336 916722 net.cpp:84] Creating Layer B2_0_SConv_Dropout
I0829 09:22:54.251340 916722 net.cpp:406] B2_0_SConv_Dropout <- B2_0_SConvBlockV2_Conv1x1
I0829 09:22:54.251346 916722 net.cpp:380] B2_0_SConv_Dropout -> B2_0_SConvBlockV2_Dropout
I0829 09:22:54.251368 916722 net.cpp:122] Setting up B2_0_SConv_Dropout
I0829 09:22:54.251374 916722 net.cpp:129] Top shape: 32 192 8 8 (393216)
I0829 09:22:54.251379 916722 net.cpp:137] Memory required for data: 478019712
I0829 09:22:54.251384 916722 layer_factory.hpp:77] Creating layer B2_1_SConv_SparseConv
I0829 09:22:54.251394 916722 net.cpp:84] Creating Layer B2_1_SConv_SparseConv
I0829 09:22:54.251399 916722 net.cpp:406] B2_1_SConv_SparseConv <- B2_0_SConvBlockV2_Dropout
I0829 09:22:54.251406 916722 net.cpp:380] B2_1_SConv_SparseConv -> B2_1_SConvBlockV2_T1
I0829 09:22:54.251567 916722 net.cpp:122] Setting up B2_1_SConv_SparseConv
I0829 09:22:54.251574 916722 net.cpp:129] Top shape: 32 1536 8 8 (3145728)
I0829 09:22:54.251579 916722 net.cpp:137] Memory required for data: 490602624
I0829 09:22:54.251585 916722 layer_factory.hpp:77] Creating layer B2_1_SConv_BN
I0829 09:22:54.251591 916722 net.cpp:84] Creating Layer B2_1_SConv_BN
I0829 09:22:54.251596 916722 net.cpp:406] B2_1_SConv_BN <- B2_1_SConvBlockV2_T1
I0829 09:22:54.251602 916722 net.cpp:367] B2_1_SConv_BN -> B2_1_SConvBlockV2_T1 (in-place)
I0829 09:22:54.251682 916722 net.cpp:122] Setting up B2_1_SConv_BN
I0829 09:22:54.251688 916722 net.cpp:129] Top shape: 32 1536 8 8 (3145728)
I0829 09:22:54.251693 916722 net.cpp:137] Memory required for data: 503185536
I0829 09:22:54.251700 916722 layer_factory.hpp:77] Creating layer B2_1_SConv_Scale
I0829 09:22:54.251709 916722 net.cpp:84] Creating Layer B2_1_SConv_Scale
I0829 09:22:54.251714 916722 net.cpp:406] B2_1_SConv_Scale <- B2_1_SConvBlockV2_T1
I0829 09:22:54.251720 916722 net.cpp:380] B2_1_SConv_Scale -> B2_1_SConvBlockV2_Scale
I0829 09:22:54.251745 916722 layer_factory.hpp:77] Creating layer B2_1_SConv_Scale
I0829 09:22:54.251802 916722 net.cpp:122] Setting up B2_1_SConv_Scale
I0829 09:22:54.251808 916722 net.cpp:129] Top shape: 32 1536 8 8 (3145728)
I0829 09:22:54.251819 916722 net.cpp:137] Memory required for data: 515768448
I0829 09:22:54.251830 916722 layer_factory.hpp:77] Creating layer B2_1_SConv_Conv1x1
I0829 09:22:54.251840 916722 net.cpp:84] Creating Layer B2_1_SConv_Conv1x1
I0829 09:22:54.251845 916722 net.cpp:406] B2_1_SConv_Conv1x1 <- B2_1_SConvBlockV2_Scale
I0829 09:22:54.251852 916722 net.cpp:380] B2_1_SConv_Conv1x1 -> B2_1_SConvBlockV2_Conv1x1
I0829 09:22:54.254365 916722 net.cpp:122] Setting up B2_1_SConv_Conv1x1
I0829 09:22:54.254379 916722 net.cpp:129] Top shape: 32 192 8 8 (393216)
I0829 09:22:54.254385 916722 net.cpp:137] Memory required for data: 517341312
I0829 09:22:54.254391 916722 layer_factory.hpp:77] Creating layer B2_1_SConv_ReLU
I0829 09:22:54.254398 916722 net.cpp:84] Creating Layer B2_1_SConv_ReLU
I0829 09:22:54.254403 916722 net.cpp:406] B2_1_SConv_ReLU <- B2_1_SConvBlockV2_Conv1x1
I0829 09:22:54.254411 916722 net.cpp:367] B2_1_SConv_ReLU -> B2_1_SConvBlockV2_Conv1x1 (in-place)
I0829 09:22:54.254420 916722 net.cpp:122] Setting up B2_1_SConv_ReLU
I0829 09:22:54.254423 916722 net.cpp:129] Top shape: 32 192 8 8 (393216)
I0829 09:22:54.254428 916722 net.cpp:137] Memory required for data: 518914176
I0829 09:22:54.254433 916722 layer_factory.hpp:77] Creating layer B2_1_SConv_Dropout
I0829 09:22:54.254438 916722 net.cpp:84] Creating Layer B2_1_SConv_Dropout
I0829 09:22:54.254443 916722 net.cpp:406] B2_1_SConv_Dropout <- B2_1_SConvBlockV2_Conv1x1
I0829 09:22:54.254448 916722 net.cpp:380] B2_1_SConv_Dropout -> B2_1_SConvBlockV2_Dropout
I0829 09:22:54.254473 916722 net.cpp:122] Setting up B2_1_SConv_Dropout
I0829 09:22:54.254479 916722 net.cpp:129] Top shape: 32 192 8 8 (393216)
I0829 09:22:54.254484 916722 net.cpp:137] Memory required for data: 520487040
I0829 09:22:54.254488 916722 layer_factory.hpp:77] Creating layer B2_2_SConv_SparseConv
I0829 09:22:54.254496 916722 net.cpp:84] Creating Layer B2_2_SConv_SparseConv
I0829 09:22:54.254501 916722 net.cpp:406] B2_2_SConv_SparseConv <- B2_1_SConvBlockV2_Dropout
I0829 09:22:54.254506 916722 net.cpp:380] B2_2_SConv_SparseConv -> B2_2_SConvBlockV2_T1
I0829 09:22:54.254669 916722 net.cpp:122] Setting up B2_2_SConv_SparseConv
I0829 09:22:54.254678 916722 net.cpp:129] Top shape: 32 1536 8 8 (3145728)
I0829 09:22:54.254683 916722 net.cpp:137] Memory required for data: 533069952
I0829 09:22:54.254688 916722 layer_factory.hpp:77] Creating layer B2_2_SConv_BN
I0829 09:22:54.254698 916722 net.cpp:84] Creating Layer B2_2_SConv_BN
I0829 09:22:54.254703 916722 net.cpp:406] B2_2_SConv_BN <- B2_2_SConvBlockV2_T1
I0829 09:22:54.254710 916722 net.cpp:367] B2_2_SConv_BN -> B2_2_SConvBlockV2_T1 (in-place)
I0829 09:22:54.254788 916722 net.cpp:122] Setting up B2_2_SConv_BN
I0829 09:22:54.254794 916722 net.cpp:129] Top shape: 32 1536 8 8 (3145728)
I0829 09:22:54.254801 916722 net.cpp:137] Memory required for data: 545652864
I0829 09:22:54.254806 916722 layer_factory.hpp:77] Creating layer B2_2_SConv_Scale
I0829 09:22:54.254812 916722 net.cpp:84] Creating Layer B2_2_SConv_Scale
I0829 09:22:54.254817 916722 net.cpp:406] B2_2_SConv_Scale <- B2_2_SConvBlockV2_T1
I0829 09:22:54.254824 916722 net.cpp:380] B2_2_SConv_Scale -> B2_2_SConvBlockV2_Scale
I0829 09:22:54.254846 916722 layer_factory.hpp:77] Creating layer B2_2_SConv_Scale
I0829 09:22:54.254901 916722 net.cpp:122] Setting up B2_2_SConv_Scale
I0829 09:22:54.254909 916722 net.cpp:129] Top shape: 32 1536 8 8 (3145728)
I0829 09:22:54.254914 916722 net.cpp:137] Memory required for data: 558235776
I0829 09:22:54.254920 916722 layer_factory.hpp:77] Creating layer B2_2_SConv_Conv1x1
I0829 09:22:54.254928 916722 net.cpp:84] Creating Layer B2_2_SConv_Conv1x1
I0829 09:22:54.254932 916722 net.cpp:406] B2_2_SConv_Conv1x1 <- B2_2_SConvBlockV2_Scale
I0829 09:22:54.254940 916722 net.cpp:380] B2_2_SConv_Conv1x1 -> B2_2_SConvBlockV2_Conv1x1
I0829 09:22:54.257511 916722 net.cpp:122] Setting up B2_2_SConv_Conv1x1
I0829 09:22:54.257524 916722 net.cpp:129] Top shape: 32 192 8 8 (393216)
I0829 09:22:54.257531 916722 net.cpp:137] Memory required for data: 559808640
I0829 09:22:54.257537 916722 layer_factory.hpp:77] Creating layer B2_2_SConv_ReLU
I0829 09:22:54.257556 916722 net.cpp:84] Creating Layer B2_2_SConv_ReLU
I0829 09:22:54.257562 916722 net.cpp:406] B2_2_SConv_ReLU <- B2_2_SConvBlockV2_Conv1x1
I0829 09:22:54.257568 916722 net.cpp:367] B2_2_SConv_ReLU -> B2_2_SConvBlockV2_Conv1x1 (in-place)
I0829 09:22:54.257576 916722 net.cpp:122] Setting up B2_2_SConv_ReLU
I0829 09:22:54.257580 916722 net.cpp:129] Top shape: 32 192 8 8 (393216)
I0829 09:22:54.257586 916722 net.cpp:137] Memory required for data: 561381504
I0829 09:22:54.257589 916722 layer_factory.hpp:77] Creating layer B2_2_SConv_Dropout
I0829 09:22:54.257597 916722 net.cpp:84] Creating Layer B2_2_SConv_Dropout
I0829 09:22:54.257601 916722 net.cpp:406] B2_2_SConv_Dropout <- B2_2_SConvBlockV2_Conv1x1
I0829 09:22:54.257607 916722 net.cpp:380] B2_2_SConv_Dropout -> B2_2_SConvBlockV2_Dropout
I0829 09:22:54.257632 916722 net.cpp:122] Setting up B2_2_SConv_Dropout
I0829 09:22:54.257638 916722 net.cpp:129] Top shape: 32 192 8 8 (393216)
I0829 09:22:54.257645 916722 net.cpp:137] Memory required for data: 562954368
I0829 09:22:54.257649 916722 layer_factory.hpp:77] Creating layer B2_Pooling
I0829 09:22:54.257656 916722 net.cpp:84] Creating Layer B2_Pooling
I0829 09:22:54.257661 916722 net.cpp:406] B2_Pooling <- B2_2_SConvBlockV2_Dropout
I0829 09:22:54.257666 916722 net.cpp:380] B2_Pooling -> Pooling3
I0829 09:22:54.257689 916722 net.cpp:122] Setting up B2_Pooling
I0829 09:22:54.257695 916722 net.cpp:129] Top shape: 32 192 4 4 (98304)
I0829 09:22:54.257700 916722 net.cpp:137] Memory required for data: 563347584
I0829 09:22:54.257704 916722 layer_factory.hpp:77] Creating layer B3_0_SConv_SparseConv
I0829 09:22:54.257712 916722 net.cpp:84] Creating Layer B3_0_SConv_SparseConv
I0829 09:22:54.257717 916722 net.cpp:406] B3_0_SConv_SparseConv <- Pooling3
I0829 09:22:54.257723 916722 net.cpp:380] B3_0_SConv_SparseConv -> B3_0_SConvBlockV2_T1
I0829 09:22:54.257884 916722 net.cpp:122] Setting up B3_0_SConv_SparseConv
I0829 09:22:54.257891 916722 net.cpp:129] Top shape: 32 1536 4 4 (786432)
I0829 09:22:54.257896 916722 net.cpp:137] Memory required for data: 566493312
I0829 09:22:54.257902 916722 layer_factory.hpp:77] Creating layer B3_0_SConv_BN
I0829 09:22:54.257913 916722 net.cpp:84] Creating Layer B3_0_SConv_BN
I0829 09:22:54.257920 916722 net.cpp:406] B3_0_SConv_BN <- B3_0_SConvBlockV2_T1
I0829 09:22:54.257925 916722 net.cpp:367] B3_0_SConv_BN -> B3_0_SConvBlockV2_T1 (in-place)
I0829 09:22:54.258005 916722 net.cpp:122] Setting up B3_0_SConv_BN
I0829 09:22:54.258011 916722 net.cpp:129] Top shape: 32 1536 4 4 (786432)
I0829 09:22:54.258018 916722 net.cpp:137] Memory required for data: 569639040
I0829 09:22:54.258025 916722 layer_factory.hpp:77] Creating layer B3_0_SConv_Scale
I0829 09:22:54.258031 916722 net.cpp:84] Creating Layer B3_0_SConv_Scale
I0829 09:22:54.258036 916722 net.cpp:406] B3_0_SConv_Scale <- B3_0_SConvBlockV2_T1
I0829 09:22:54.258041 916722 net.cpp:380] B3_0_SConv_Scale -> B3_0_SConvBlockV2_Scale
I0829 09:22:54.258067 916722 layer_factory.hpp:77] Creating layer B3_0_SConv_Scale
I0829 09:22:54.258126 916722 net.cpp:122] Setting up B3_0_SConv_Scale
I0829 09:22:54.258131 916722 net.cpp:129] Top shape: 32 1536 4 4 (786432)
I0829 09:22:54.258136 916722 net.cpp:137] Memory required for data: 572784768
I0829 09:22:54.258142 916722 layer_factory.hpp:77] Creating layer B3_0_SConv_Conv1x1
I0829 09:22:54.258155 916722 net.cpp:84] Creating Layer B3_0_SConv_Conv1x1
I0829 09:22:54.258160 916722 net.cpp:406] B3_0_SConv_Conv1x1 <- B3_0_SConvBlockV2_Scale
I0829 09:22:54.258167 916722 net.cpp:380] B3_0_SConv_Conv1x1 -> B3_0_SConvBlockV2_Conv1x1
I0829 09:22:54.260654 916722 net.cpp:122] Setting up B3_0_SConv_Conv1x1
I0829 09:22:54.260668 916722 net.cpp:129] Top shape: 32 192 4 4 (98304)
I0829 09:22:54.260675 916722 net.cpp:137] Memory required for data: 573177984
I0829 09:22:54.260682 916722 layer_factory.hpp:77] Creating layer B3_0_SConv_ReLU
I0829 09:22:54.260689 916722 net.cpp:84] Creating Layer B3_0_SConv_ReLU
I0829 09:22:54.260694 916722 net.cpp:406] B3_0_SConv_ReLU <- B3_0_SConvBlockV2_Conv1x1
I0829 09:22:54.260706 916722 net.cpp:367] B3_0_SConv_ReLU -> B3_0_SConvBlockV2_Conv1x1 (in-place)
I0829 09:22:54.260721 916722 net.cpp:122] Setting up B3_0_SConv_ReLU
I0829 09:22:54.260726 916722 net.cpp:129] Top shape: 32 192 4 4 (98304)
I0829 09:22:54.260742 916722 net.cpp:137] Memory required for data: 573571200
I0829 09:22:54.260746 916722 layer_factory.hpp:77] Creating layer B3_0_SConv_Dropout
I0829 09:22:54.260754 916722 net.cpp:84] Creating Layer B3_0_SConv_Dropout
I0829 09:22:54.260758 916722 net.cpp:406] B3_0_SConv_Dropout <- B3_0_SConvBlockV2_Conv1x1
I0829 09:22:54.260764 916722 net.cpp:380] B3_0_SConv_Dropout -> B3_0_SConvBlockV2_Dropout
I0829 09:22:54.260790 916722 net.cpp:122] Setting up B3_0_SConv_Dropout
I0829 09:22:54.260797 916722 net.cpp:129] Top shape: 32 192 4 4 (98304)
I0829 09:22:54.260802 916722 net.cpp:137] Memory required for data: 573964416
I0829 09:22:54.260805 916722 layer_factory.hpp:77] Creating layer B3_1_SConv_SparseConv
I0829 09:22:54.260814 916722 net.cpp:84] Creating Layer B3_1_SConv_SparseConv
I0829 09:22:54.260818 916722 net.cpp:406] B3_1_SConv_SparseConv <- B3_0_SConvBlockV2_Dropout
I0829 09:22:54.260824 916722 net.cpp:380] B3_1_SConv_SparseConv -> B3_1_SConvBlockV2_T1
I0829 09:22:54.260985 916722 net.cpp:122] Setting up B3_1_SConv_SparseConv
I0829 09:22:54.260993 916722 net.cpp:129] Top shape: 32 1536 4 4 (786432)
I0829 09:22:54.260998 916722 net.cpp:137] Memory required for data: 577110144
I0829 09:22:54.261003 916722 layer_factory.hpp:77] Creating layer B3_1_SConv_BN
I0829 09:22:54.261013 916722 net.cpp:84] Creating Layer B3_1_SConv_BN
I0829 09:22:54.261016 916722 net.cpp:406] B3_1_SConv_BN <- B3_1_SConvBlockV2_T1
I0829 09:22:54.261023 916722 net.cpp:367] B3_1_SConv_BN -> B3_1_SConvBlockV2_T1 (in-place)
I0829 09:22:54.261101 916722 net.cpp:122] Setting up B3_1_SConv_BN
I0829 09:22:54.261107 916722 net.cpp:129] Top shape: 32 1536 4 4 (786432)
I0829 09:22:54.261112 916722 net.cpp:137] Memory required for data: 580255872
I0829 09:22:54.261129 916722 layer_factory.hpp:77] Creating layer B3_1_SConv_Scale
I0829 09:22:54.261138 916722 net.cpp:84] Creating Layer B3_1_SConv_Scale
I0829 09:22:54.261143 916722 net.cpp:406] B3_1_SConv_Scale <- B3_1_SConvBlockV2_T1
I0829 09:22:54.261148 916722 net.cpp:380] B3_1_SConv_Scale -> B3_1_SConvBlockV2_Scale
I0829 09:22:54.261175 916722 layer_factory.hpp:77] Creating layer B3_1_SConv_Scale
I0829 09:22:54.261231 916722 net.cpp:122] Setting up B3_1_SConv_Scale
I0829 09:22:54.261237 916722 net.cpp:129] Top shape: 32 1536 4 4 (786432)
I0829 09:22:54.261242 916722 net.cpp:137] Memory required for data: 583401600
I0829 09:22:54.261248 916722 layer_factory.hpp:77] Creating layer B3_1_SConv_Conv1x1
I0829 09:22:54.261260 916722 net.cpp:84] Creating Layer B3_1_SConv_Conv1x1
I0829 09:22:54.261265 916722 net.cpp:406] B3_1_SConv_Conv1x1 <- B3_1_SConvBlockV2_Scale
I0829 09:22:54.261270 916722 net.cpp:380] B3_1_SConv_Conv1x1 -> B3_1_SConvBlockV2_Conv1x1
I0829 09:22:54.263718 916722 net.cpp:122] Setting up B3_1_SConv_Conv1x1
I0829 09:22:54.263731 916722 net.cpp:129] Top shape: 32 192 4 4 (98304)
I0829 09:22:54.263737 916722 net.cpp:137] Memory required for data: 583794816
I0829 09:22:54.263743 916722 layer_factory.hpp:77] Creating layer B3_1_SConv_ReLU
I0829 09:22:54.263752 916722 net.cpp:84] Creating Layer B3_1_SConv_ReLU
I0829 09:22:54.263757 916722 net.cpp:406] B3_1_SConv_ReLU <- B3_1_SConvBlockV2_Conv1x1
I0829 09:22:54.263763 916722 net.cpp:367] B3_1_SConv_ReLU -> B3_1_SConvBlockV2_Conv1x1 (in-place)
I0829 09:22:54.263770 916722 net.cpp:122] Setting up B3_1_SConv_ReLU
I0829 09:22:54.263775 916722 net.cpp:129] Top shape: 32 192 4 4 (98304)
I0829 09:22:54.263780 916722 net.cpp:137] Memory required for data: 584188032
I0829 09:22:54.263784 916722 layer_factory.hpp:77] Creating layer B3_1_SConv_Dropout
I0829 09:22:54.263792 916722 net.cpp:84] Creating Layer B3_1_SConv_Dropout
I0829 09:22:54.263797 916722 net.cpp:406] B3_1_SConv_Dropout <- B3_1_SConvBlockV2_Conv1x1
I0829 09:22:54.263803 916722 net.cpp:380] B3_1_SConv_Dropout -> B3_1_SConvBlockV2_Dropout
I0829 09:22:54.263831 916722 net.cpp:122] Setting up B3_1_SConv_Dropout
I0829 09:22:54.263844 916722 net.cpp:129] Top shape: 32 192 4 4 (98304)
I0829 09:22:54.263849 916722 net.cpp:137] Memory required for data: 584581248
I0829 09:22:54.263854 916722 layer_factory.hpp:77] Creating layer B3_2_SConv_SparseConv
I0829 09:22:54.263860 916722 net.cpp:84] Creating Layer B3_2_SConv_SparseConv
I0829 09:22:54.263865 916722 net.cpp:406] B3_2_SConv_SparseConv <- B3_1_SConvBlockV2_Dropout
I0829 09:22:54.263872 916722 net.cpp:380] B3_2_SConv_SparseConv -> B3_2_SConvBlockV2_T1
I0829 09:22:54.264034 916722 net.cpp:122] Setting up B3_2_SConv_SparseConv
I0829 09:22:54.264041 916722 net.cpp:129] Top shape: 32 1536 4 4 (786432)
I0829 09:22:54.264047 916722 net.cpp:137] Memory required for data: 587726976
I0829 09:22:54.264052 916722 layer_factory.hpp:77] Creating layer B3_2_SConv_BN
I0829 09:22:54.264061 916722 net.cpp:84] Creating Layer B3_2_SConv_BN
I0829 09:22:54.264066 916722 net.cpp:406] B3_2_SConv_BN <- B3_2_SConvBlockV2_T1
I0829 09:22:54.264072 916722 net.cpp:367] B3_2_SConv_BN -> B3_2_SConvBlockV2_T1 (in-place)
I0829 09:22:54.264154 916722 net.cpp:122] Setting up B3_2_SConv_BN
I0829 09:22:54.264160 916722 net.cpp:129] Top shape: 32 1536 4 4 (786432)
I0829 09:22:54.264165 916722 net.cpp:137] Memory required for data: 590872704
I0829 09:22:54.264173 916722 layer_factory.hpp:77] Creating layer B3_2_SConv_Scale
I0829 09:22:54.264180 916722 net.cpp:84] Creating Layer B3_2_SConv_Scale
I0829 09:22:54.264184 916722 net.cpp:406] B3_2_SConv_Scale <- B3_2_SConvBlockV2_T1
I0829 09:22:54.264190 916722 net.cpp:380] B3_2_SConv_Scale -> B3_2_SConvBlockV2_Scale
I0829 09:22:54.264214 916722 layer_factory.hpp:77] Creating layer B3_2_SConv_Scale
I0829 09:22:54.264276 916722 net.cpp:122] Setting up B3_2_SConv_Scale
I0829 09:22:54.264283 916722 net.cpp:129] Top shape: 32 1536 4 4 (786432)
I0829 09:22:54.264288 916722 net.cpp:137] Memory required for data: 594018432
I0829 09:22:54.264294 916722 layer_factory.hpp:77] Creating layer B3_2_SConv_Conv1x1
I0829 09:22:54.264304 916722 net.cpp:84] Creating Layer B3_2_SConv_Conv1x1
I0829 09:22:54.264309 916722 net.cpp:406] B3_2_SConv_Conv1x1 <- B3_2_SConvBlockV2_Scale
I0829 09:22:54.264315 916722 net.cpp:380] B3_2_SConv_Conv1x1 -> B3_2_SConvBlockV2_Conv1x1
I0829 09:22:54.266785 916722 net.cpp:122] Setting up B3_2_SConv_Conv1x1
I0829 09:22:54.266798 916722 net.cpp:129] Top shape: 32 192 4 4 (98304)
I0829 09:22:54.266805 916722 net.cpp:137] Memory required for data: 594411648
I0829 09:22:54.266811 916722 layer_factory.hpp:77] Creating layer B3_2_SConv_ReLU
I0829 09:22:54.266819 916722 net.cpp:84] Creating Layer B3_2_SConv_ReLU
I0829 09:22:54.266824 916722 net.cpp:406] B3_2_SConv_ReLU <- B3_2_SConvBlockV2_Conv1x1
I0829 09:22:54.266829 916722 net.cpp:367] B3_2_SConv_ReLU -> B3_2_SConvBlockV2_Conv1x1 (in-place)
I0829 09:22:54.266836 916722 net.cpp:122] Setting up B3_2_SConv_ReLU
I0829 09:22:54.266841 916722 net.cpp:129] Top shape: 32 192 4 4 (98304)
I0829 09:22:54.266846 916722 net.cpp:137] Memory required for data: 594804864
I0829 09:22:54.266850 916722 layer_factory.hpp:77] Creating layer B3_2_SConv_Dropout
I0829 09:22:54.266857 916722 net.cpp:84] Creating Layer B3_2_SConv_Dropout
I0829 09:22:54.266862 916722 net.cpp:406] B3_2_SConv_Dropout <- B3_2_SConvBlockV2_Conv1x1
I0829 09:22:54.266868 916722 net.cpp:380] B3_2_SConv_Dropout -> B3_2_SConvBlockV2_Dropout
I0829 09:22:54.266892 916722 net.cpp:122] Setting up B3_2_SConv_Dropout
I0829 09:22:54.266898 916722 net.cpp:129] Top shape: 32 192 4 4 (98304)
I0829 09:22:54.266903 916722 net.cpp:137] Memory required for data: 595198080
I0829 09:22:54.266907 916722 layer_factory.hpp:77] Creating layer B3_Pooling
I0829 09:22:54.266914 916722 net.cpp:84] Creating Layer B3_Pooling
I0829 09:22:54.266919 916722 net.cpp:406] B3_Pooling <- B3_2_SConvBlockV2_Dropout
I0829 09:22:54.266924 916722 net.cpp:380] B3_Pooling -> Pooling4
I0829 09:22:54.266942 916722 net.cpp:122] Setting up B3_Pooling
I0829 09:22:54.266947 916722 net.cpp:129] Top shape: 32 192 1 1 (6144)
I0829 09:22:54.266957 916722 net.cpp:137] Memory required for data: 595222656
I0829 09:22:54.266971 916722 layer_factory.hpp:77] Creating layer fc1
I0829 09:22:54.266986 916722 net.cpp:84] Creating Layer fc1
I0829 09:22:54.266991 916722 net.cpp:406] fc1 <- Pooling4
I0829 09:22:54.266997 916722 net.cpp:380] fc1 -> fc1
I0829 09:22:54.267424 916722 net.cpp:122] Setting up fc1
I0829 09:22:54.267431 916722 net.cpp:129] Top shape: 32 384 (12288)
I0829 09:22:54.267436 916722 net.cpp:137] Memory required for data: 595271808
I0829 09:22:54.267443 916722 layer_factory.hpp:77] Creating layer classifier
I0829 09:22:54.267449 916722 net.cpp:84] Creating Layer classifier
I0829 09:22:54.267453 916722 net.cpp:406] classifier <- fc1
I0829 09:22:54.267459 916722 net.cpp:380] classifier -> classifier
I0829 09:22:54.267525 916722 net.cpp:122] Setting up classifier
I0829 09:22:54.267532 916722 net.cpp:129] Top shape: 32 10 (320)
I0829 09:22:54.267536 916722 net.cpp:137] Memory required for data: 595273088
I0829 09:22:54.267542 916722 layer_factory.hpp:77] Creating layer softmax_loss
I0829 09:22:54.267554 916722 net.cpp:84] Creating Layer softmax_loss
I0829 09:22:54.267558 916722 net.cpp:406] softmax_loss <- classifier
I0829 09:22:54.267563 916722 net.cpp:406] softmax_loss <- label
I0829 09:22:54.267572 916722 net.cpp:380] softmax_loss -> softmax_loss
…
I0829 09:22:54.268620 916722 solver.cpp:172] Creating test net (#0) specified by net file: train_test.pt
I0829 09:22:54.268683 916722 net.cpp:294] The NetState phase (1) differed from the phase (0) specified by a rule in layer InputData
I0829 09:22:54.268723 916722 net.cpp:51] Initializing net from parameters: 
state {
  phase: TEST
}
layer {
  name: "InputData"
  type: "ImageData"
  top: "data"
  top: "label"
  include {
    phase: TEST
  }
  transform_param {
    mirror: true
    crop_size: 32
  }
  image_data_param {
    source: "/home/jcwang/work/1.CIFAR10/test.txt"
    batch_size: 1
    shuffle: true
    is_color: true
  }
}
layer {
  name: "B0_0_ConvBNScaleReLU_Conv"
  type: "Convolution"
  bottom: "data"
  top: "B0_0_ConvBNScaleReLU_Conv"
  convolution_param {
    num_output: 64
    bias_term: false
    pad: 1
    kernel_size: 3
    stride: 1
    weight_filler {
      type: "xavier"
    }
    bias_filler {
      type: "constant"
    }
  }
}
layer {
  name: "B0_0_ConvBNScaleReLU_BN"
  type: "BatchNorm"
  bottom: "B0_0_ConvBNScaleReLU_Conv"
  top: "B0_0_ConvBNScaleReLU_Conv"
  param {
    lr_mult: 0
    decay_mult: 0
  }
  param {
    lr_mult: 0
    decay_mult: 0
  }
  param {
    lr_mult: 0
    decay_mult: 0
  }
  batch_norm_param {
    moving_average_fraction: 0.999
    eps: 0.001
  }
}
layer {
  name: "B0_0_ConvBNScaleReLU_Scale"
  type: "Scale"
  bottom: "B0_0_ConvBNScaleReLU_Conv"
  top: "B0_0_ConvBNScaleReLU_Conv"
  scale_param {
    filler {
      value: 1
    }
    bias_term: true
    bias_filler {
      value: 0
    }
    l1_lambda: 0
  }
}
layer {
  name: "B0_0_ConvBNScaleReLU_ReLU"
  type: "ReLU"
  bottom: "B0_0_ConvBNScaleReLU_Conv"
  top: "B0_0_ConvBNScaleReLU_Conv"
}
layer {
  name: "B0_0_ConvBNScaleReLU_Dropout"
  type: "Dropout"
  bottom: "B0_0_ConvBNScaleReLU_Conv"
  top: "ConvBNScaleReLU"
  dropout_param {
    dropout_ratio: 0.25
  }
}
layer {
  name: "B0_1_SConv_SparseConv"
  type: "SparseConvolution"
  bottom: "ConvBNScaleReLU"
  top: "B0_1_SConvBlockV2_T1"
  sparse_convolution_param {
    weight_filler {
      type: "xavier"
    }
    channel_expand_multiplier: 8
  }
}
layer {
  name: "B0_1_SConv_BN"
  type: "BatchNorm"
  bottom: "B0_1_SConvBlockV2_T1"
  top: "B0_1_SConvBlockV2_T1"
  param {
    lr_mult: 0
    decay_mult: 0
  }
  param {
    lr_mult: 0
    decay_mult: 0
  }
  param {
    lr_mult: 0
    decay_mult: 0
  }
  batch_norm_param {
    moving_average_fraction: 0.999
    eps: 0.001
  }
}
layer {
  name: "B0_1_SConv_Scale"
  type: "Scale"
  bottom: "B0_1_SConvBlockV2_T1"
  top: "B0_1_SConvBlockV2_Scale"
  scale_param {
    bias_term: true
  }
}
layer {
  name: "B0_1_SConv_Conv1x1"
  type: "Convolution"
  bottom: "B0_1_SConvBlockV2_Scale"
  top: "B0_1_SConvBlockV2_Conv1x1"
  convolution_param {
    num_output: 64
    bias_term: true
    pad: 0
    kernel_size: 1
    stride: 1
    weight_filler {
      type: "xavier"
    }
    bias_filler {
      type: "constant"
    }
  }
}
layer {
  name: "B0_1_SConv_ReLU"
  type: "ReLU"
  bottom: "B0_1_SConvBlockV2_Conv1x1"
  top: "B0_1_SConvBlockV2_Conv1x1"
}
layer {
  name: "B0_1_SConv_Dropout"
  type: "Dropout"
  bottom: "B0_1_SConvBlockV2_Conv1x1"
  top: "B0_1_SConvBlockV2_Dropout"
  dropout_param {
    dropout_ratio: 0.25
  }
}
layer {
  name: "B0_Pooling"
  type: "Pooling"
  bottom: "B0_1_SConvBlockV2_Dropout"
  top: "Pooling1"
  pooling_param {
    pool: MAX
    kernel_size: 2
    stride: 2
    pad: 0
  }
}
layer {
  name: "B1_0_SConv_SparseConv"
  type: "SparseConvolution"
  bottom: "Pooling1"
  top: "B1_0_SConvBlockV2_T1"
  sparse_convolution_param {
    weight_filler {
      type: "xavier"
    }
    channel_expand_multiplier: 8
  }
}
layer {
  name: "B1_0_SConv_BN"
  type: "BatchNorm"
  bottom: "B1_0_SConvBlockV2_T1"
  top: "B1_0_SConvBlockV2_T1"
  param {
    lr_mult: 0
    decay_mult: 0
  }
  param {
    lr_mult: 0
    decay_mult: 0
  }
  param {
    lr_mult: 0
    decay_mult: 0
  }
  batch_norm_param {
    moving_average_fraction: 0.999
    eps: 0.001
  }
}
layer {
  name: "B1_0_SConv_Scale"
  type: "Scale"
  bottom: "B1_0_SConvBlockV2_T1"
  top: "B1_0_SConvBlockV2_Scale"
  scale_param {
    bias_term: true
  }
}
layer {
  name: "B1_0_SConv_Conv1x1"
  type: "Convolution"
  bottom: "B1_0_SConvBlockV2_Scale"
  top: "B1_0_SConvBlockV2_Conv1x1"
  convolution_param {
    num_output: 128
    bias_term: true
    pad: 0
    kernel_size: 1
    stride: 1
    weight_filler {
      type: "xavier"
    }
    bias_filler {
      type: "constant"
    }
  }
}
layer {
  name: "B1_0_SConv_ReLU"
  type: "ReLU"
  bottom: "B1_0_SConvBlockV2_Conv1x1"
  top: "B1_0_SConvBlockV2_Conv1x1"
}
layer {
  name: "B1_0_SConv_Dropout"
  type: "Dropout"
  bottom: "B1_0_SConvBlockV2_Conv1x1"
  top: "B1_0_SConvBlockV2_Dropout"
  dropout_param {
    dropout_ratio: 0.25
  }
}
layer {
  name: "B1_1_SConv_SparseConv"
  type: "SparseConvolution"
  bottom: "B1_0_SConvBlockV2_Dropout"
  top: "B1_1_SConvBlockV2_T1"
  sparse_convolution_param {
    weight_filler {
      type: "xavier"
    }
    channel_expand_multiplier: 8
  }
}
layer {
  name: "B1_1_SConv_BN"
  type: "BatchNorm"
  bottom: "B1_1_SConvBlockV2_T1"
  top: "B1_1_SConvBlockV2_T1"
  param {
    lr_mult: 0
    decay_mult: 0
  }
  param {
    lr_mult: 0
    decay_mult: 0
  }
  param {
    lr_mult: 0
    decay_mult: 0
  }
  batch_norm_param {
    moving_average_fraction: 0.999
    eps: 0.001
  }
}
layer {
  name: "B1_1_SConv_Scale"
  type: "Scale"
  bottom: "B1_1_SConvBlockV2_T1"
  top: "B1_1_SConvBlockV2_Scale"
  scale_param {
    bias_term: true
  }
}
layer {
  name: "B1_1_SConv_Conv1x1"
  type: "Convolution"
  bottom: "B1_1_SConvBlockV2_Scale"
  top: "B1_1_SConvBlockV2_Conv1x1"
  convolution_param {
    num_output: 128
    bias_term: true
    pad: 0
    kernel_size: 1
    stride: 1
    weight_filler {
      type: "xavier"
    }
    bias_filler {
      type: "constant"
    }
  }
}
layer {
  name: "B1_1_SConv_ReLU"
  type: "ReLU"
  bottom: "B1_1_SConvBlockV2_Conv1x1"
  top: "B1_1_SConvBlockV2_Conv1x1"
}
layer {
  name: "B1_1_SConv_Dropout"
  type: "Dropout"
  bottom: "B1_1_SConvBlockV2_Conv1x1"
  top: "B1_1_SConvBlockV2_Dropout"
  dropout_param {
    dropout_ratio: 0.25
  }
}
layer {
  name: "B1_Pooling"
  type: "Pooling"
  bottom: "B1_1_SConvBlockV2_Dropout"
  top: "Pooling2"
  pooling_param {
    pool: MAX
    kernel_size: 2
    stride: 2
    pad: 0
  }
}
layer {
  name: "B2_0_SConv_SparseConv"
  type: "SparseConvolution"
  bottom: "Pooling2"
  top: "B2_0_SConvBlockV2_T1"
  sparse_convolution_param {
    weight_filler {
      type: "xavier"
    }
    channel_expand_multiplier: 8
  }
}
layer {
  name: "B2_0_SConv_BN"
  type: "BatchNorm"
  bottom: "B2_0_SConvBlockV2_T1"
  top: "B2_0_SConvBlockV2_T1"
  param {
    lr_mult: 0
    decay_mult: 0
  }
  param {
    lr_mult: 0
    decay_mult: 0
  }
  param {
    lr_mult: 0
    decay_mult: 0
  }
  batch_norm_param {
    moving_average_fraction: 0.999
    eps: 0.001
  }
}
layer {
  name: "B2_0_SConv_Scale"
  type: "Scale"
  bottom: "B2_0_SConvBlockV2_T1"
  top: "B2_0_SConvBlockV2_Scale"
  scale_param {
    bias_term: true
  }
}
layer {
  name: "B2_0_SConv_Conv1x1"
  type: "Convolution"
  bottom: "B2_0_SConvBlockV2_Scale"
  top: "B2_0_SConvBlockV2_Conv1x1"
  convolution_param {
    num_output: 192
    bias_term: true
    pad: 0
    kernel_size: 1
    stride: 1
    weight_filler {
      type: "xavier"
    }
    bias_filler {
      type: "constant"
    }
  }
}
layer {
  name: "B2_0_SConv_ReLU"
  type: "ReLU"
  bottom: "B2_0_SConvBlockV2_Conv1x1"
  top: "B2_0_SConvBlockV2_Conv1x1"
}
layer {
  name: "B2_0_SConv_Dropout"
  type: "Dropout"
  bottom: "B2_0_SConvBlockV2_Conv1x1"
  top: "B2_0_SConvBlockV2_Dropout"
  dropout_param {
    dropout_ratio: 0.25
  }
}
layer {
  name: "B2_1_SConv_SparseConv"
  type: "SparseConvolution"
  bottom: "B2_0_SConvBlockV2_Dropout"
  top: "B2_1_SConvBlockV2_T1"
  sparse_convolution_param {
    weight_filler {
      type: "xavier"
    }
    channel_expand_multiplier: 8
  }
}
layer {
  name: "B2_1_SConv_BN"
  type: "BatchNorm"
  bottom: "B2_1_SConvBlockV2_T1"
  top: "B2_1_SConvBlockV2_T1"
  param {
    lr_mult: 0
    decay_mult: 0
  }
  param {
    lr_mult: 0
    decay_mult: 0
  }
  param {
    lr_mult: 0
    decay_mult: 0
  }
  batch_norm_param {
    moving_average_fraction: 0.999
    eps: 0.001
  }
}
layer {
  name: "B2_1_SConv_Scale"
  type: "Scale"
  bottom: "B2_1_SConvBlockV2_T1"
  top: "B2_1_SConvBlockV2_Scale"
  scale_param {
    bias_term: true
  }
}
layer {
  name: "B2_1_SConv_Conv1x1"
  type: "Convolution"
  bottom: "B2_1_SConvBlockV2_Scale"
  top: "B2_1_SConvBlockV2_Conv1x1"
  convolution_param {
    num_output: 192
    bias_term: true
    pad: 0
    kernel_size: 1
    stride: 1
    weight_filler {
      type: "xavier"
    }
    bias_filler {
      type: "constant"
    }
  }
}
layer {
  name: "B2_1_SConv_ReLU"
  type: "ReLU"
  bottom: "B2_1_SConvBlockV2_Conv1x1"
  top: "B2_1_SConvBlockV2_Conv1x1"
}
layer {
  name: "B2_1_SConv_Dropout"
  type: "Dropout"
  bottom: "B2_1_SConvBlockV2_Conv1x1"
  top: "B2_1_SConvBlockV2_Dropout"
  dropout_param {
    dropout_ratio: 0.25
  }
}
layer {
  name: "B2_2_SConv_SparseConv"
  type: "SparseConvolution"
  bottom: "B2_1_SConvBlockV2_Dropout"
  top: "B2_2_SConvBlockV2_T1"
  sparse_convolution_param {
    weight_filler {
      type: "xavier"
    }
    channel_expand_multiplier: 8
  }
}
layer {
  name: "B2_2_SConv_BN"
  type: "BatchNorm"
  bottom: "B2_2_SConvBlockV2_T1"
  top: "B2_2_SConvBlockV2_T1"
  param {
    lr_mult: 0
    decay_mult: 0
  }
  param {
    lr_mult: 0
    decay_mult: 0
  }
  param {
    lr_mult: 0
    decay_mult: 0
  }
  batch_norm_param {
    moving_average_fraction: 0.999
    eps: 0.001
  }
}
layer {
  name: "B2_2_SConv_Scale"
  type: "Scale"
  bottom: "B2_2_SConvBlockV2_T1"
  top: "B2_2_SConvBlockV2_Scale"
  scale_param {
    bias_term: true
  }
}
layer {
  name: "B2_2_SConv_Conv1x1"
  type: "Convolution"
  bottom: "B2_2_SConvBlockV2_Scale"
  top: "B2_2_SConvBlockV2_Conv1x1"
  convolution_param {
    num_output: 192
    bias_term: true
    pad: 0
    kernel_size: 1
    stride: 1
    weight_filler {
      type: "xavier"
    }
    bias_filler {
      type: "constant"
    }
  }
}
layer {
  name: "B2_2_SConv_ReLU"
  type: "ReLU"
  bottom: "B2_2_SConvBlockV2_Conv1x1"
  top: "B2_2_SConvBlockV2_Conv1x1"
}
layer {
  name: "B2_2_SConv_Dropout"
  type: "Dropout"
  bottom: "B2_2_SConvBlockV2_Conv1x1"
  top: "B2_2_SConvBlockV2_Dropout"
  dropout_param {
    dropout_ratio: 0.25
  }
}
layer {
  name: "B2_Pooling"
  type: "Pooling"
  bottom: "B2_2_SConvBlockV2_Dropout"
  top: "Pooling3"
  pooling_param {
    pool: MAX
    kernel_size: 2
    stride: 2
    pad: 0
  }
}
layer {
  name: "B3_0_SConv_SparseConv"
  type: "SparseConvolution"
  bottom: "Pooling3"
  top: "B3_0_SConvBlockV2_T1"
  sparse_convolution_param {
    weight_filler {
      type: "xavier"
    }
    channel_expand_multiplier: 8
  }
}
layer {
  name: "B3_0_SConv_BN"
  type: "BatchNorm"
  bottom: "B3_0_SConvBlockV2_T1"
  top: "B3_0_SConvBlockV2_T1"
  param {
    lr_mult: 0
    decay_mult: 0
  }
  param {
    lr_mult: 0
    decay_mult: 0
  }
  param {
    lr_mult: 0
    decay_mult: 0
  }
  batch_norm_param {
    moving_average_fraction: 0.999
    eps: 0.001
  }
}
layer {
  name: "B3_0_SConv_Scale"
  type: "Scale"
  bottom: "B3_0_SConvBlockV2_T1"
  top: "B3_0_SConvBlockV2_Scale"
  scale_param {
    bias_term: true
  }
}
layer {
  name: "B3_0_SConv_Conv1x1"
  type: "Convolution"
  bottom: "B3_0_SConvBlockV2_Scale"
  top: "B3_0_SConvBlockV2_Conv1x1"
  convolution_param {
    num_output: 192
    bias_term: true
    pad: 0
    kernel_size: 1
    stride: 1
    weight_filler {
      type: "xavier"
    }
    bias_filler {
      type: "constant"
    }
  }
}
layer {
  name: "B3_0_SConv_ReLU"
  type: "ReLU"
  bottom: "B3_0_SConvBlockV2_Conv1x1"
  top: "B3_0_SConvBlockV2_Conv1x1"
}
layer {
  name: "B3_0_SConv_Dropout"
  type: "Dropout"
  bottom: "B3_0_SConvBlockV2_Conv1x1"
  top: "B3_0_SConvBlockV2_Dropout"
  dropout_param {
    dropout_ratio: 0.25
  }
}
layer {
  name: "B3_1_SConv_SparseConv"
  type: "SparseConvolution"
  bottom: "B3_0_SConvBlockV2_Dropout"
  top: "B3_1_SConvBlockV2_T1"
  sparse_convolution_param {
    weight_filler {
      type: "xavier"
    }
    channel_expand_multiplier: 8
  }
}
layer {
  name: "B3_1_SConv_BN"
  type: "BatchNorm"
  bottom: "B3_1_SConvBlockV2_T1"
  top: "B3_1_SConvBlockV2_T1"
  param {
    lr_mult: 0
    decay_mult: 0
  }
  param {
    lr_mult: 0
    decay_mult: 0
  }
  param {
    lr_mult: 0
    decay_mult: 0
  }
  batch_norm_param {
    moving_average_fraction: 0.999
    eps: 0.001
  }
}
layer {
  name: "B3_1_SConv_Scale"
  type: "Scale"
  bottom: "B3_1_SConvBlockV2_T1"
  top: "B3_1_SConvBlockV2_Scale"
  scale_param {
    bias_term: true
  }
}
layer {
  name: "B3_1_SConv_Conv1x1"
  type: "Convolution"
  bottom: "B3_1_SConvBlockV2_Scale"
  top: "B3_1_SConvBlockV2_Conv1x1"
  convolution_param {
    num_output: 192
    bias_term: true
    pad: 0
    kernel_size: 1
    stride: 1
    weight_filler {
      type: "xavier"
    }
    bias_filler {
      type: "constant"
    }
  }
}
layer {
  name: "B3_1_SConv_ReLU"
  type: "ReLU"
  bottom: "B3_1_SConvBlockV2_Conv1x1"
  top: "B3_1_SConvBlockV2_Conv1x1"
}
layer {
  name: "B3_1_SConv_Dropout"
  type: "Dropout"
  bottom: "B3_1_SConvBlockV2_Conv1x1"
  top: "B3_1_SConvBlockV2_Dropout"
  dropout_param {
    dropout_ratio: 0.25
  }
}
layer {
  name: "B3_2_SConv_SparseConv"
  type: "SparseConvolution"
  bottom: "B3_1_SConvBlockV2_Dropout"
  top: "B3_2_SConvBlockV2_T1"
  sparse_convolution_param {
    weight_filler {
      type: "xavier"
    }
    channel_expand_multiplier: 8
  }
}
layer {
  name: "B3_2_SConv_BN"
  type: "BatchNorm"
  bottom: "B3_2_SConvBlockV2_T1"
  top: "B3_2_SConvBlockV2_T1"
  param {
    lr_mult: 0
    decay_mult: 0
  }
  param {
    lr_mult: 0
    decay_mult: 0
  }
  param {
    lr_mult: 0
    decay_mult: 0
  }
  batch_norm_param {
    moving_average_fraction: 0.999
    eps: 0.001
  }
}
layer {
  name: "B3_2_SConv_Scale"
  type: "Scale"
  bottom: "B3_2_SConvBlockV2_T1"
  top: "B3_2_SConvBlockV2_Scale"
  scale_param {
    bias_term: true
  }
}
layer {
  name: "B3_2_SConv_Conv1x1"
  type: "Convolution"
  bottom: "B3_2_SConvBlockV2_Scale"
  top: "B3_2_SConvBlockV2_Conv1x1"
  convolution_param {
    num_output: 192
    bias_term: true
    pad: 0
    kernel_size: 1
    stride: 1
    weight_filler {
      type: "xavier"
    }
    bias_filler {
      type: "constant"
    }
  }
}
layer {
  name: "B3_2_SConv_ReLU"
  type: "ReLU"
  bottom: "B3_2_SConvBlockV2_Conv1x1"
  top: "B3_2_SConvBlockV2_Conv1x1"
}
layer {
  name: "B3_2_SConv_Dropout"
  type: "Dropout"
  bottom: "B3_2_SConvBlockV2_Conv1x1"
  top: "B3_2_SConvBlockV2_Dropout"
  dropout_param {
    dropout_ratio: 0.25
  }
}
layer {
  name: "B3_Pooling"
  type: "Pooling"
  bottom: "B3_2_SConvBlockV2_Dropout"
  top: "Pooling4"
  pooling_param {
    pool: AVE
    global_pooling: true
  }
}
layer {
  name: "fc1"
  type: "InnerProduct"
  bottom: "Pooling4"
  top: "fc1"
  inner_product_param {
    num_output: 384
    bias_term: true
    weight_filler {
      type: "xavier"
    }
    bias_filler {
      type: "constant"
    }
  }
}
layer {
  name: "classifier"
  type: "InnerProduct"
  bottom: "fc1"
  top: "classifier"
  inner_product_param {
    num_output: 10
    bias_term: true
    weight_filler {
      type: "xavier"
    }
    bias_filler {
      type: "constant"
    }
  }
}
layer {
  name: "softmax_loss"
  type: "SoftmaxWithLoss"
  bottom: "classifier"
  bottom: "label"
  top: "softmax_loss"
}
layer {
  name: "accuracy"
  type: "Accuracy"
  bottom: "classifier"
  bottom: "label"
  top: "accuracy"
  include {
    phase: TEST
  }
}
I0829 09:22:54.269125 916722 layer_factory.hpp:77] Creating layer InputData
I0829 09:22:54.269141 916722 net.cpp:84] Creating Layer InputData
I0829 09:22:54.269147 916722 net.cpp:380] InputData -> data
I0829 09:22:54.269155 916722 net.cpp:380] InputData -> label
I0829 09:22:54.269166 916722 image_data_layer.cpp:38] Opening file /home/jcwang/work/1.CIFAR10/test.txt
I0829 09:22:54.271126 916722 image_data_layer.cpp:53] Shuffling data
I0829 09:22:54.271282 916722 image_data_layer.cpp:63] A total of 10001 images.
I0829 09:22:54.271363 916722 image_data_layer.cpp:90] output data size: 1,3,32,32
I0829 09:22:54.271579 916722 net.cpp:122] Setting up InputData
I0829 09:22:54.271589 916722 net.cpp:129] Top shape: 1 3 32 32 (3072)
I0829 09:22:54.271596 916722 net.cpp:129] Top shape: 1 (1)
I0829 09:22:54.271601 916722 net.cpp:137] Memory required for data: 12292
I0829 09:22:54.271605 916722 layer_factory.hpp:77] Creating layer label_InputData_1_split
I0829 09:22:54.271625 916722 net.cpp:84] Creating Layer label_InputData_1_split
I0829 09:22:54.271629 916722 net.cpp:406] label_InputData_1_split <- label
I0829 09:22:54.271636 916722 net.cpp:380] label_InputData_1_split -> label_InputData_1_split_0
I0829 09:22:54.271644 916722 net.cpp:380] label_InputData_1_split -> label_InputData_1_split_1
I0829 09:22:54.271669 916722 net.cpp:122] Setting up label_InputData_1_split
I0829 09:22:54.271675 916722 net.cpp:129] Top shape: 1 (1)
I0829 09:22:54.271680 916722 net.cpp:129] Top shape: 1 (1)
I0829 09:22:54.271684 916722 net.cpp:137] Memory required for data: 12300
I0829 09:22:54.271688 916722 layer_factory.hpp:77] Creating layer B0_0_ConvBNScaleReLU_Conv
I0829 09:22:54.271697 916722 net.cpp:84] Creating Layer B0_0_ConvBNScaleReLU_Conv
I0829 09:22:54.271701 916722 net.cpp:406] B0_0_ConvBNScaleReLU_Conv <- data
I0829 09:22:54.271708 916722 net.cpp:380] B0_0_ConvBNScaleReLU_Conv -> B0_0_ConvBNScaleReLU_Conv
I0829 09:22:54.271878 916722 net.cpp:122] Setting up B0_0_ConvBNScaleReLU_Conv
I0829 09:22:54.271886 916722 net.cpp:129] Top shape: 1 64 32 32 (65536)
I0829 09:22:54.271893 916722 net.cpp:137] Memory required for data: 274444
I0829 09:22:54.271898 916722 layer_factory.hpp:77] Creating layer B0_0_ConvBNScaleReLU_BN
I0829 09:22:54.271905 916722 net.cpp:84] Creating Layer B0_0_ConvBNScaleReLU_BN
I0829 09:22:54.271910 916722 net.cpp:406] B0_0_ConvBNScaleReLU_BN <- B0_0_ConvBNScaleReLU_Conv
I0829 09:22:54.271916 916722 net.cpp:367] B0_0_ConvBNScaleReLU_BN -> B0_0_ConvBNScaleReLU_Conv (in-place)
I0829 09:22:54.271992 916722 net.cpp:122] Setting up B0_0_ConvBNScaleReLU_BN
I0829 09:22:54.271998 916722 net.cpp:129] Top shape: 1 64 32 32 (65536)
I0829 09:22:54.272004 916722 net.cpp:137] Memory required for data: 536588
I0829 09:22:54.272012 916722 layer_factory.hpp:77] Creating layer B0_0_ConvBNScaleReLU_Scale
I0829 09:22:54.272022 916722 net.cpp:84] Creating Layer B0_0_ConvBNScaleReLU_Scale
I0829 09:22:54.272027 916722 net.cpp:406] B0_0_ConvBNScaleReLU_Scale <- B0_0_ConvBNScaleReLU_Conv
I0829 09:22:54.272033 916722 net.cpp:367] B0_0_ConvBNScaleReLU_Scale -> B0_0_ConvBNScaleReLU_Conv (in-place)
I0829 09:22:54.272059 916722 layer_factory.hpp:77] Creating layer B0_0_ConvBNScaleReLU_Scale
I0829 09:22:54.272131 916722 net.cpp:122] Setting up B0_0_ConvBNScaleReLU_Scale
I0829 09:22:54.272138 916722 net.cpp:129] Top shape: 1 64 32 32 (65536)
I0829 09:22:54.272143 916722 net.cpp:137] Memory required for data: 798732
I0829 09:22:54.272150 916722 layer_factory.hpp:77] Creating layer B0_0_ConvBNScaleReLU_ReLU
I0829 09:22:54.272156 916722 net.cpp:84] Creating Layer B0_0_ConvBNScaleReLU_ReLU
I0829 09:22:54.272161 916722 net.cpp:406] B0_0_ConvBNScaleReLU_ReLU <- B0_0_ConvBNScaleReLU_Conv
I0829 09:22:54.272166 916722 net.cpp:367] B0_0_ConvBNScaleReLU_ReLU -> B0_0_ConvBNScaleReLU_Conv (in-place)
I0829 09:22:54.272171 916722 net.cpp:122] Setting up B0_0_ConvBNScaleReLU_ReLU
I0829 09:22:54.272176 916722 net.cpp:129] Top shape: 1 64 32 32 (65536)
I0829 09:22:54.272181 916722 net.cpp:137] Memory required for data: 1060876
I0829 09:22:54.272186 916722 layer_factory.hpp:77] Creating layer B0_0_ConvBNScaleReLU_Dropout
I0829 09:22:54.272190 916722 net.cpp:84] Creating Layer B0_0_ConvBNScaleReLU_Dropout
I0829 09:22:54.272194 916722 net.cpp:406] B0_0_ConvBNScaleReLU_Dropout <- B0_0_ConvBNScaleReLU_Conv
I0829 09:22:54.272199 916722 net.cpp:380] B0_0_ConvBNScaleReLU_Dropout -> ConvBNScaleReLU
I0829 09:22:54.272222 916722 net.cpp:122] Setting up B0_0_ConvBNScaleReLU_Dropout
I0829 09:22:54.272228 916722 net.cpp:129] Top shape: 1 64 32 32 (65536)
I0829 09:22:54.272233 916722 net.cpp:137] Memory required for data: 1323020
I0829 09:22:54.272238 916722 layer_factory.hpp:77] Creating layer B0_1_SConv_SparseConv
I0829 09:22:54.272243 916722 net.cpp:84] Creating Layer B0_1_SConv_SparseConv
I0829 09:22:54.272248 916722 net.cpp:406] B0_1_SConv_SparseConv <- ConvBNScaleReLU
I0829 09:22:54.272253 916722 net.cpp:380] B0_1_SConv_SparseConv -> B0_1_SConvBlockV2_T1
I0829 09:22:54.272367 916722 net.cpp:122] Setting up B0_1_SConv_SparseConv
I0829 09:22:54.272382 916722 net.cpp:129] Top shape: 1 512 32 32 (524288)
I0829 09:22:54.272387 916722 net.cpp:137] Memory required for data: 3420172
I0829 09:22:54.272392 916722 layer_factory.hpp:77] Creating layer B0_1_SConv_BN
I0829 09:22:54.272401 916722 net.cpp:84] Creating Layer B0_1_SConv_BN
I0829 09:22:54.272406 916722 net.cpp:406] B0_1_SConv_BN <- B0_1_SConvBlockV2_T1
I0829 09:22:54.272413 916722 net.cpp:367] B0_1_SConv_BN -> B0_1_SConvBlockV2_T1 (in-place)
I0829 09:22:54.272564 916722 net.cpp:122] Setting up B0_1_SConv_BN
I0829 09:22:54.272573 916722 net.cpp:129] Top shape: 1 512 32 32 (524288)
I0829 09:22:54.272579 916722 net.cpp:137] Memory required for data: 5517324
I0829 09:22:54.272591 916722 layer_factory.hpp:77] Creating layer B0_1_SConv_Scale
I0829 09:22:54.272598 916722 net.cpp:84] Creating Layer B0_1_SConv_Scale
I0829 09:22:54.272603 916722 net.cpp:406] B0_1_SConv_Scale <- B0_1_SConvBlockV2_T1
I0829 09:22:54.272609 916722 net.cpp:380] B0_1_SConv_Scale -> B0_1_SConvBlockV2_Scale
I0829 09:22:54.272640 916722 layer_factory.hpp:77] Creating layer B0_1_SConv_Scale
I0829 09:22:54.272717 916722 net.cpp:122] Setting up B0_1_SConv_Scale
I0829 09:22:54.272724 916722 net.cpp:129] Top shape: 1 512 32 32 (524288)
I0829 09:22:54.272730 916722 net.cpp:137] Memory required for data: 7614476
I0829 09:22:54.272737 916722 layer_factory.hpp:77] Creating layer B0_1_SConv_Conv1x1
I0829 09:22:54.272745 916722 net.cpp:84] Creating Layer B0_1_SConv_Conv1x1
I0829 09:22:54.272749 916722 net.cpp:406] B0_1_SConv_Conv1x1 <- B0_1_SConvBlockV2_Scale
I0829 09:22:54.272766 916722 net.cpp:380] B0_1_SConv_Conv1x1 -> B0_1_SConvBlockV2_Conv1x1
I0829 09:22:54.273082 916722 net.cpp:122] Setting up B0_1_SConv_Conv1x1
I0829 09:22:54.273089 916722 net.cpp:129] Top shape: 1 64 32 32 (65536)
I0829 09:22:54.273094 916722 net.cpp:137] Memory required for data: 7876620
I0829 09:22:54.273100 916722 layer_factory.hpp:77] Creating layer B0_1_SConv_ReLU
I0829 09:22:54.273111 916722 net.cpp:84] Creating Layer B0_1_SConv_ReLU
I0829 09:22:54.273118 916722 net.cpp:406] B0_1_SConv_ReLU <- B0_1_SConvBlockV2_Conv1x1
I0829 09:22:54.273123 916722 net.cpp:367] B0_1_SConv_ReLU -> B0_1_SConvBlockV2_Conv1x1 (in-place)
I0829 09:22:54.273129 916722 net.cpp:122] Setting up B0_1_SConv_ReLU
I0829 09:22:54.273133 916722 net.cpp:129] Top shape: 1 64 32 32 (65536)
I0829 09:22:54.273138 916722 net.cpp:137] Memory required for data: 8138764
I0829 09:22:54.273142 916722 layer_factory.hpp:77] Creating layer B0_1_SConv_Dropout
I0829 09:22:54.273149 916722 net.cpp:84] Creating Layer B0_1_SConv_Dropout
I0829 09:22:54.273152 916722 net.cpp:406] B0_1_SConv_Dropout <- B0_1_SConvBlockV2_Conv1x1
I0829 09:22:54.273159 916722 net.cpp:380] B0_1_SConv_Dropout -> B0_1_SConvBlockV2_Dropout
I0829 09:22:54.273183 916722 net.cpp:122] Setting up B0_1_SConv_Dropout
I0829 09:22:54.273190 916722 net.cpp:129] Top shape: 1 64 32 32 (65536)
I0829 09:22:54.273195 916722 net.cpp:137] Memory required for data: 8400908
I0829 09:22:54.273200 916722 layer_factory.hpp:77] Creating layer B0_Pooling
I0829 09:22:54.273205 916722 net.cpp:84] Creating Layer B0_Pooling
I0829 09:22:54.273209 916722 net.cpp:406] B0_Pooling <- B0_1_SConvBlockV2_Dropout
I0829 09:22:54.273214 916722 net.cpp:380] B0_Pooling -> Pooling1
I0829 09:22:54.273233 916722 net.cpp:122] Setting up B0_Pooling
I0829 09:22:54.273239 916722 net.cpp:129] Top shape: 1 64 16 16 (16384)
I0829 09:22:54.273243 916722 net.cpp:137] Memory required for data: 8466444
I0829 09:22:54.273248 916722 layer_factory.hpp:77] Creating layer B1_0_SConv_SparseConv
I0829 09:22:54.273257 916722 net.cpp:84] Creating Layer B1_0_SConv_SparseConv
I0829 09:22:54.273262 916722 net.cpp:406] B1_0_SConv_SparseConv <- Pooling1
I0829 09:22:54.273267 916722 net.cpp:380] B1_0_SConv_SparseConv -> B1_0_SConvBlockV2_T1
I0829 09:22:54.273360 916722 net.cpp:122] Setting up B1_0_SConv_SparseConv
I0829 09:22:54.273366 916722 net.cpp:129] Top shape: 1 512 16 16 (131072)
I0829 09:22:54.273371 916722 net.cpp:137] Memory required for data: 8990732
I0829 09:22:54.273381 916722 layer_factory.hpp:77] Creating layer B1_0_SConv_BN
I0829 09:22:54.273396 916722 net.cpp:84] Creating Layer B1_0_SConv_BN
I0829 09:22:54.273401 916722 net.cpp:406] B1_0_SConv_BN <- B1_0_SConvBlockV2_T1
I0829 09:22:54.273406 916722 net.cpp:367] B1_0_SConv_BN -> B1_0_SConvBlockV2_T1 (in-place)
I0829 09:22:54.273496 916722 net.cpp:122] Setting up B1_0_SConv_BN
I0829 09:22:54.273504 916722 net.cpp:129] Top shape: 1 512 16 16 (131072)
I0829 09:22:54.273509 916722 net.cpp:137] Memory required for data: 9515020
I0829 09:22:54.273516 916722 layer_factory.hpp:77] Creating layer B1_0_SConv_Scale
I0829 09:22:54.273525 916722 net.cpp:84] Creating Layer B1_0_SConv_Scale
I0829 09:22:54.273530 916722 net.cpp:406] B1_0_SConv_Scale <- B1_0_SConvBlockV2_T1
I0829 09:22:54.273535 916722 net.cpp:380] B1_0_SConv_Scale -> B1_0_SConvBlockV2_Scale
I0829 09:22:54.273558 916722 layer_factory.hpp:77] Creating layer B1_0_SConv_Scale
I0829 09:22:54.273627 916722 net.cpp:122] Setting up B1_0_SConv_Scale
I0829 09:22:54.273633 916722 net.cpp:129] Top shape: 1 512 16 16 (131072)
I0829 09:22:54.273639 916722 net.cpp:137] Memory required for data: 10039308
I0829 09:22:54.273645 916722 layer_factory.hpp:77] Creating layer B1_0_SConv_Conv1x1
I0829 09:22:54.273654 916722 net.cpp:84] Creating Layer B1_0_SConv_Conv1x1
I0829 09:22:54.273659 916722 net.cpp:406] B1_0_SConv_Conv1x1 <- B1_0_SConvBlockV2_Scale
I0829 09:22:54.273664 916722 net.cpp:380] B1_0_SConv_Conv1x1 -> B1_0_SConvBlockV2_Conv1x1
I0829 09:22:54.274407 916722 net.cpp:122] Setting up B1_0_SConv_Conv1x1
I0829 09:22:54.274416 916722 net.cpp:129] Top shape: 1 128 16 16 (32768)
I0829 09:22:54.274422 916722 net.cpp:137] Memory required for data: 10170380
I0829 09:22:54.274427 916722 layer_factory.hpp:77] Creating layer B1_0_SConv_ReLU
I0829 09:22:54.274435 916722 net.cpp:84] Creating Layer B1_0_SConv_ReLU
I0829 09:22:54.274441 916722 net.cpp:406] B1_0_SConv_ReLU <- B1_0_SConvBlockV2_Conv1x1
I0829 09:22:54.274446 916722 net.cpp:367] B1_0_SConv_ReLU -> B1_0_SConvBlockV2_Conv1x1 (in-place)
I0829 09:22:54.274452 916722 net.cpp:122] Setting up B1_0_SConv_ReLU
I0829 09:22:54.274456 916722 net.cpp:129] Top shape: 1 128 16 16 (32768)
I0829 09:22:54.274461 916722 net.cpp:137] Memory required for data: 10301452
I0829 09:22:54.274466 916722 layer_factory.hpp:77] Creating layer B1_0_SConv_Dropout
I0829 09:22:54.274474 916722 net.cpp:84] Creating Layer B1_0_SConv_Dropout
I0829 09:22:54.274479 916722 net.cpp:406] B1_0_SConv_Dropout <- B1_0_SConvBlockV2_Conv1x1
I0829 09:22:54.274484 916722 net.cpp:380] B1_0_SConv_Dropout -> B1_0_SConvBlockV2_Dropout
I0829 09:22:54.274506 916722 net.cpp:122] Setting up B1_0_SConv_Dropout
I0829 09:22:54.274513 916722 net.cpp:129] Top shape: 1 128 16 16 (32768)
I0829 09:22:54.274518 916722 net.cpp:137] Memory required for data: 10432524
I0829 09:22:54.274521 916722 layer_factory.hpp:77] Creating layer B1_1_SConv_SparseConv
I0829 09:22:54.274528 916722 net.cpp:84] Creating Layer B1_1_SConv_SparseConv
I0829 09:22:54.274533 916722 net.cpp:406] B1_1_SConv_SparseConv <- B1_0_SConvBlockV2_Dropout
I0829 09:22:54.274538 916722 net.cpp:380] B1_1_SConv_SparseConv -> B1_1_SConvBlockV2_T1
I0829 09:22:54.274672 916722 net.cpp:122] Setting up B1_1_SConv_SparseConv
I0829 09:22:54.274679 916722 net.cpp:129] Top shape: 1 1024 16 16 (262144)
I0829 09:22:54.274684 916722 net.cpp:137] Memory required for data: 11481100
I0829 09:22:54.274690 916722 layer_factory.hpp:77] Creating layer B1_1_SConv_BN
I0829 09:22:54.274696 916722 net.cpp:84] Creating Layer B1_1_SConv_BN
I0829 09:22:54.274701 916722 net.cpp:406] B1_1_SConv_BN <- B1_1_SConvBlockV2_T1
I0829 09:22:54.274708 916722 net.cpp:367] B1_1_SConv_BN -> B1_1_SConvBlockV2_T1 (in-place)
I0829 09:22:54.274791 916722 net.cpp:122] Setting up B1_1_SConv_BN
I0829 09:22:54.274797 916722 net.cpp:129] Top shape: 1 1024 16 16 (262144)
I0829 09:22:54.274802 916722 net.cpp:137] Memory required for data: 12529676
I0829 09:22:54.274809 916722 layer_factory.hpp:77] Creating layer B1_1_SConv_Scale
I0829 09:22:54.274817 916722 net.cpp:84] Creating Layer B1_1_SConv_Scale
I0829 09:22:54.274827 916722 net.cpp:406] B1_1_SConv_Scale <- B1_1_SConvBlockV2_T1
I0829 09:22:54.274839 916722 net.cpp:380] B1_1_SConv_Scale -> B1_1_SConvBlockV2_Scale
I0829 09:22:54.274865 916722 layer_factory.hpp:77] Creating layer B1_1_SConv_Scale
I0829 09:22:54.274924 916722 net.cpp:122] Setting up B1_1_SConv_Scale
I0829 09:22:54.274931 916722 net.cpp:129] Top shape: 1 1024 16 16 (262144)
I0829 09:22:54.274936 916722 net.cpp:137] Memory required for data: 13578252
I0829 09:22:54.274942 916722 layer_factory.hpp:77] Creating layer B1_1_SConv_Conv1x1
I0829 09:22:54.274951 916722 net.cpp:84] Creating Layer B1_1_SConv_Conv1x1
I0829 09:22:54.274956 916722 net.cpp:406] B1_1_SConv_Conv1x1 <- B1_1_SConvBlockV2_Scale
I0829 09:22:54.274964 916722 net.cpp:380] B1_1_SConv_Conv1x1 -> B1_1_SConvBlockV2_Conv1x1
I0829 09:22:54.275732 916722 net.cpp:122] Setting up B1_1_SConv_Conv1x1
I0829 09:22:54.275741 916722 net.cpp:129] Top shape: 1 128 16 16 (32768)
I0829 09:22:54.275746 916722 net.cpp:137] Memory required for data: 13709324
I0829 09:22:54.275753 916722 layer_factory.hpp:77] Creating layer B1_1_SConv_ReLU
I0829 09:22:54.275758 916722 net.cpp:84] Creating Layer B1_1_SConv_ReLU
I0829 09:22:54.275763 916722 net.cpp:406] B1_1_SConv_ReLU <- B1_1_SConvBlockV2_Conv1x1
I0829 09:22:54.275772 916722 net.cpp:367] B1_1_SConv_ReLU -> B1_1_SConvBlockV2_Conv1x1 (in-place)
I0829 09:22:54.275779 916722 net.cpp:122] Setting up B1_1_SConv_ReLU
I0829 09:22:54.275784 916722 net.cpp:129] Top shape: 1 128 16 16 (32768)
I0829 09:22:54.275787 916722 net.cpp:137] Memory required for data: 13840396
I0829 09:22:54.275792 916722 layer_factory.hpp:77] Creating layer B1_1_SConv_Dropout
I0829 09:22:54.275797 916722 net.cpp:84] Creating Layer B1_1_SConv_Dropout
I0829 09:22:54.275802 916722 net.cpp:406] B1_1_SConv_Dropout <- B1_1_SConvBlockV2_Conv1x1
I0829 09:22:54.275810 916722 net.cpp:380] B1_1_SConv_Dropout -> B1_1_SConvBlockV2_Dropout
I0829 09:22:54.275858 916722 net.cpp:122] Setting up B1_1_SConv_Dropout
I0829 09:22:54.275866 916722 net.cpp:129] Top shape: 1 128 16 16 (32768)
I0829 09:22:54.275871 916722 net.cpp:137] Memory required for data: 13971468
I0829 09:22:54.275874 916722 layer_factory.hpp:77] Creating layer B1_Pooling
I0829 09:22:54.275882 916722 net.cpp:84] Creating Layer B1_Pooling
I0829 09:22:54.275887 916722 net.cpp:406] B1_Pooling <- B1_1_SConvBlockV2_Dropout
I0829 09:22:54.275892 916722 net.cpp:380] B1_Pooling -> Pooling2
I0829 09:22:54.275916 916722 net.cpp:122] Setting up B1_Pooling
I0829 09:22:54.275923 916722 net.cpp:129] Top shape: 1 128 8 8 (8192)
I0829 09:22:54.275928 916722 net.cpp:137] Memory required for data: 14004236
I0829 09:22:54.275933 916722 layer_factory.hpp:77] Creating layer B2_0_SConv_SparseConv
I0829 09:22:54.275940 916722 net.cpp:84] Creating Layer B2_0_SConv_SparseConv
I0829 09:22:54.275944 916722 net.cpp:406] B2_0_SConv_SparseConv <- Pooling2
I0829 09:22:54.275950 916722 net.cpp:380] B2_0_SConv_SparseConv -> B2_0_SConvBlockV2_T1
I0829 09:22:54.276093 916722 net.cpp:122] Setting up B2_0_SConv_SparseConv
I0829 09:22:54.276101 916722 net.cpp:129] Top shape: 1 1024 8 8 (65536)
I0829 09:22:54.276106 916722 net.cpp:137] Memory required for data: 14266380
I0829 09:22:54.276113 916722 layer_factory.hpp:77] Creating layer B2_0_SConv_BN
I0829 09:22:54.276118 916722 net.cpp:84] Creating Layer B2_0_SConv_BN
I0829 09:22:54.276124 916722 net.cpp:406] B2_0_SConv_BN <- B2_0_SConvBlockV2_T1
I0829 09:22:54.276129 916722 net.cpp:367] B2_0_SConv_BN -> B2_0_SConvBlockV2_T1 (in-place)
I0829 09:22:54.276249 916722 net.cpp:122] Setting up B2_0_SConv_BN
I0829 09:22:54.276255 916722 net.cpp:129] Top shape: 1 1024 8 8 (65536)
I0829 09:22:54.276262 916722 net.cpp:137] Memory required for data: 14528524
I0829 09:22:54.276270 916722 layer_factory.hpp:77] Creating layer B2_0_SConv_Scale
I0829 09:22:54.276278 916722 net.cpp:84] Creating Layer B2_0_SConv_Scale
I0829 09:22:54.276281 916722 net.cpp:406] B2_0_SConv_Scale <- B2_0_SConvBlockV2_T1
I0829 09:22:54.276288 916722 net.cpp:380] B2_0_SConv_Scale -> B2_0_SConvBlockV2_Scale
I0829 09:22:54.276319 916722 layer_factory.hpp:77] Creating layer B2_0_SConv_Scale
I0829 09:22:54.276397 916722 net.cpp:122] Setting up B2_0_SConv_Scale
I0829 09:22:54.276405 916722 net.cpp:129] Top shape: 1 1024 8 8 (65536)
I0829 09:22:54.276412 916722 net.cpp:137] Memory required for data: 14790668
I0829 09:22:54.276417 916722 layer_factory.hpp:77] Creating layer B2_0_SConv_Conv1x1
I0829 09:22:54.276449 916722 net.cpp:84] Creating Layer B2_0_SConv_Conv1x1
I0829 09:22:54.276458 916722 net.cpp:406] B2_0_SConv_Conv1x1 <- B2_0_SConvBlockV2_Scale
I0829 09:22:54.276464 916722 net.cpp:380] B2_0_SConv_Conv1x1 -> B2_0_SConvBlockV2_Conv1x1
I0829 09:22:54.277621 916722 net.cpp:122] Setting up B2_0_SConv_Conv1x1
I0829 09:22:54.277631 916722 net.cpp:129] Top shape: 1 192 8 8 (12288)
I0829 09:22:54.277637 916722 net.cpp:137] Memory required for data: 14839820
I0829 09:22:54.277642 916722 layer_factory.hpp:77] Creating layer B2_0_SConv_ReLU
I0829 09:22:54.277650 916722 net.cpp:84] Creating Layer B2_0_SConv_ReLU
I0829 09:22:54.277655 916722 net.cpp:406] B2_0_SConv_ReLU <- B2_0_SConvBlockV2_Conv1x1
I0829 09:22:54.277660 916722 net.cpp:367] B2_0_SConv_ReLU -> B2_0_SConvBlockV2_Conv1x1 (in-place)
I0829 09:22:54.277666 916722 net.cpp:122] Setting up B2_0_SConv_ReLU
I0829 09:22:54.277670 916722 net.cpp:129] Top shape: 1 192 8 8 (12288)
I0829 09:22:54.277675 916722 net.cpp:137] Memory required for data: 14888972
I0829 09:22:54.277679 916722 layer_factory.hpp:77] Creating layer B2_0_SConv_Dropout
I0829 09:22:54.277689 916722 net.cpp:84] Creating Layer B2_0_SConv_Dropout
I0829 09:22:54.277694 916722 net.cpp:406] B2_0_SConv_Dropout <- B2_0_SConvBlockV2_Conv1x1
I0829 09:22:54.277699 916722 net.cpp:380] B2_0_SConv_Dropout -> B2_0_SConvBlockV2_Dropout
I0829 09:22:54.277724 916722 net.cpp:122] Setting up B2_0_SConv_Dropout
I0829 09:22:54.277729 916722 net.cpp:129] Top shape: 1 192 8 8 (12288)
I0829 09:22:54.277734 916722 net.cpp:137] Memory required for data: 14938124
I0829 09:22:54.277738 916722 layer_factory.hpp:77] Creating layer B2_1_SConv_SparseConv
I0829 09:22:54.277747 916722 net.cpp:84] Creating Layer B2_1_SConv_SparseConv
I0829 09:22:54.277752 916722 net.cpp:406] B2_1_SConv_SparseConv <- B2_0_SConvBlockV2_Dropout
I0829 09:22:54.277758 916722 net.cpp:380] B2_1_SConv_SparseConv -> B2_1_SConvBlockV2_T1
I0829 09:22:54.277920 916722 net.cpp:122] Setting up B2_1_SConv_SparseConv
I0829 09:22:54.277926 916722 net.cpp:129] Top shape: 1 1536 8 8 (98304)
I0829 09:22:54.277931 916722 net.cpp:137] Memory required for data: 15331340
I0829 09:22:54.277936 916722 layer_factory.hpp:77] Creating layer B2_1_SConv_BN
I0829 09:22:54.277945 916722 net.cpp:84] Creating Layer B2_1_SConv_BN
I0829 09:22:54.277949 916722 net.cpp:406] B2_1_SConv_BN <- B2_1_SConvBlockV2_T1
I0829 09:22:54.277956 916722 net.cpp:367] B2_1_SConv_BN -> B2_1_SConvBlockV2_T1 (in-place)
I0829 09:22:54.278038 916722 net.cpp:122] Setting up B2_1_SConv_BN
I0829 09:22:54.278044 916722 net.cpp:129] Top shape: 1 1536 8 8 (98304)
I0829 09:22:54.278049 916722 net.cpp:137] Memory required for data: 15724556
I0829 09:22:54.278056 916722 layer_factory.hpp:77] Creating layer B2_1_SConv_Scale
I0829 09:22:54.278062 916722 net.cpp:84] Creating Layer B2_1_SConv_Scale
I0829 09:22:54.278066 916722 net.cpp:406] B2_1_SConv_Scale <- B2_1_SConvBlockV2_T1
I0829 09:22:54.278074 916722 net.cpp:380] B2_1_SConv_Scale -> B2_1_SConvBlockV2_Scale
I0829 09:22:54.278095 916722 layer_factory.hpp:77] Creating layer B2_1_SConv_Scale
I0829 09:22:54.278149 916722 net.cpp:122] Setting up B2_1_SConv_Scale
I0829 09:22:54.278157 916722 net.cpp:129] Top shape: 1 1536 8 8 (98304)
I0829 09:22:54.278162 916722 net.cpp:137] Memory required for data: 16117772
I0829 09:22:54.278168 916722 layer_factory.hpp:77] Creating layer B2_1_SConv_Conv1x1
I0829 09:22:54.278175 916722 net.cpp:84] Creating Layer B2_1_SConv_Conv1x1
I0829 09:22:54.278179 916722 net.cpp:406] B2_1_SConv_Conv1x1 <- B2_1_SConvBlockV2_Scale
I0829 09:22:54.278188 916722 net.cpp:380] B2_1_SConv_Conv1x1 -> B2_1_SConvBlockV2_Conv1x1
I0829 09:22:54.280678 916722 net.cpp:122] Setting up B2_1_SConv_Conv1x1
I0829 09:22:54.280696 916722 net.cpp:129] Top shape: 1 192 8 8 (12288)
I0829 09:22:54.280710 916722 net.cpp:137] Memory required for data: 16166924
I0829 09:22:54.280717 916722 layer_factory.hpp:77] Creating layer B2_1_SConv_ReLU
I0829 09:22:54.280725 916722 net.cpp:84] Creating Layer B2_1_SConv_ReLU
I0829 09:22:54.280730 916722 net.cpp:406] B2_1_SConv_ReLU <- B2_1_SConvBlockV2_Conv1x1
I0829 09:22:54.280736 916722 net.cpp:367] B2_1_SConv_ReLU -> B2_1_SConvBlockV2_Conv1x1 (in-place)
I0829 09:22:54.280755 916722 net.cpp:122] Setting up B2_1_SConv_ReLU
I0829 09:22:54.280758 916722 net.cpp:129] Top shape: 1 192 8 8 (12288)
I0829 09:22:54.280763 916722 net.cpp:137] Memory required for data: 16216076
I0829 09:22:54.280767 916722 layer_factory.hpp:77] Creating layer B2_1_SConv_Dropout
I0829 09:22:54.280776 916722 net.cpp:84] Creating Layer B2_1_SConv_Dropout
I0829 09:22:54.280779 916722 net.cpp:406] B2_1_SConv_Dropout <- B2_1_SConvBlockV2_Conv1x1
I0829 09:22:54.280786 916722 net.cpp:380] B2_1_SConv_Dropout -> B2_1_SConvBlockV2_Dropout
I0829 09:22:54.280812 916722 net.cpp:122] Setting up B2_1_SConv_Dropout
I0829 09:22:54.280817 916722 net.cpp:129] Top shape: 1 192 8 8 (12288)
I0829 09:22:54.280822 916722 net.cpp:137] Memory required for data: 16265228
I0829 09:22:54.280826 916722 layer_factory.hpp:77] Creating layer B2_2_SConv_SparseConv
I0829 09:22:54.280834 916722 net.cpp:84] Creating Layer B2_2_SConv_SparseConv
I0829 09:22:54.280839 916722 net.cpp:406] B2_2_SConv_SparseConv <- B2_1_SConvBlockV2_Dropout
I0829 09:22:54.280844 916722 net.cpp:380] B2_2_SConv_SparseConv -> B2_2_SConvBlockV2_T1
I0829 09:22:54.281018 916722 net.cpp:122] Setting up B2_2_SConv_SparseConv
I0829 09:22:54.281025 916722 net.cpp:129] Top shape: 1 1536 8 8 (98304)
I0829 09:22:54.281030 916722 net.cpp:137] Memory required for data: 16658444
I0829 09:22:54.281036 916722 layer_factory.hpp:77] Creating layer B2_2_SConv_BN
I0829 09:22:54.281044 916722 net.cpp:84] Creating Layer B2_2_SConv_BN
I0829 09:22:54.281049 916722 net.cpp:406] B2_2_SConv_BN <- B2_2_SConvBlockV2_T1
I0829 09:22:54.281055 916722 net.cpp:367] B2_2_SConv_BN -> B2_2_SConvBlockV2_T1 (in-place)
I0829 09:22:54.281145 916722 net.cpp:122] Setting up B2_2_SConv_BN
I0829 09:22:54.281152 916722 net.cpp:129] Top shape: 1 1536 8 8 (98304)
I0829 09:22:54.281157 916722 net.cpp:137] Memory required for data: 17051660
I0829 09:22:54.281163 916722 layer_factory.hpp:77] Creating layer B2_2_SConv_Scale
I0829 09:22:54.281169 916722 net.cpp:84] Creating Layer B2_2_SConv_Scale
I0829 09:22:54.281173 916722 net.cpp:406] B2_2_SConv_Scale <- B2_2_SConvBlockV2_T1
I0829 09:22:54.281179 916722 net.cpp:380] B2_2_SConv_Scale -> B2_2_SConvBlockV2_Scale
I0829 09:22:54.281203 916722 layer_factory.hpp:77] Creating layer B2_2_SConv_Scale
I0829 09:22:54.281260 916722 net.cpp:122] Setting up B2_2_SConv_Scale
I0829 09:22:54.281266 916722 net.cpp:129] Top shape: 1 1536 8 8 (98304)
I0829 09:22:54.281271 916722 net.cpp:137] Memory required for data: 17444876
I0829 09:22:54.281277 916722 layer_factory.hpp:77] Creating layer B2_2_SConv_Conv1x1
I0829 09:22:54.281286 916722 net.cpp:84] Creating Layer B2_2_SConv_Conv1x1
I0829 09:22:54.281291 916722 net.cpp:406] B2_2_SConv_Conv1x1 <- B2_2_SConvBlockV2_Scale
I0829 09:22:54.281298 916722 net.cpp:380] B2_2_SConv_Conv1x1 -> B2_2_SConvBlockV2_Conv1x1
I0829 09:22:54.283751 916722 net.cpp:122] Setting up B2_2_SConv_Conv1x1
I0829 09:22:54.283764 916722 net.cpp:129] Top shape: 1 192 8 8 (12288)
I0829 09:22:54.283771 916722 net.cpp:137] Memory required for data: 17494028
I0829 09:22:54.283776 916722 layer_factory.hpp:77] Creating layer B2_2_SConv_ReLU
I0829 09:22:54.283785 916722 net.cpp:84] Creating Layer B2_2_SConv_ReLU
I0829 09:22:54.283790 916722 net.cpp:406] B2_2_SConv_ReLU <- B2_2_SConvBlockV2_Conv1x1
I0829 09:22:54.283797 916722 net.cpp:367] B2_2_SConv_ReLU -> B2_2_SConvBlockV2_Conv1x1 (in-place)
I0829 09:22:54.283803 916722 net.cpp:122] Setting up B2_2_SConv_ReLU
I0829 09:22:54.283807 916722 net.cpp:129] Top shape: 1 192 8 8 (12288)
I0829 09:22:54.283812 916722 net.cpp:137] Memory required for data: 17543180
I0829 09:22:54.283826 916722 layer_factory.hpp:77] Creating layer B2_2_SConv_Dropout
I0829 09:22:54.283834 916722 net.cpp:84] Creating Layer B2_2_SConv_Dropout
I0829 09:22:54.283839 916722 net.cpp:406] B2_2_SConv_Dropout <- B2_2_SConvBlockV2_Conv1x1
I0829 09:22:54.283845 916722 net.cpp:380] B2_2_SConv_Dropout -> B2_2_SConvBlockV2_Dropout
I0829 09:22:54.283871 916722 net.cpp:122] Setting up B2_2_SConv_Dropout
I0829 09:22:54.283877 916722 net.cpp:129] Top shape: 1 192 8 8 (12288)
I0829 09:22:54.283882 916722 net.cpp:137] Memory required for data: 17592332
I0829 09:22:54.283886 916722 layer_factory.hpp:77] Creating layer B2_Pooling
I0829 09:22:54.283892 916722 net.cpp:84] Creating Layer B2_Pooling
I0829 09:22:54.283897 916722 net.cpp:406] B2_Pooling <- B2_2_SConvBlockV2_Dropout
I0829 09:22:54.283902 916722 net.cpp:380] B2_Pooling -> Pooling3
I0829 09:22:54.283931 916722 net.cpp:122] Setting up B2_Pooling
I0829 09:22:54.283937 916722 net.cpp:129] Top shape: 1 192 4 4 (3072)
I0829 09:22:54.283942 916722 net.cpp:137] Memory required for data: 17604620
I0829 09:22:54.283946 916722 layer_factory.hpp:77] Creating layer B3_0_SConv_SparseConv
I0829 09:22:54.283954 916722 net.cpp:84] Creating Layer B3_0_SConv_SparseConv
I0829 09:22:54.283958 916722 net.cpp:406] B3_0_SConv_SparseConv <- Pooling3
I0829 09:22:54.283964 916722 net.cpp:380] B3_0_SConv_SparseConv -> B3_0_SConvBlockV2_T1
I0829 09:22:54.284128 916722 net.cpp:122] Setting up B3_0_SConv_SparseConv
I0829 09:22:54.284135 916722 net.cpp:129] Top shape: 1 1536 4 4 (24576)
I0829 09:22:54.284140 916722 net.cpp:137] Memory required for data: 17702924
I0829 09:22:54.284145 916722 layer_factory.hpp:77] Creating layer B3_0_SConv_BN
I0829 09:22:54.284154 916722 net.cpp:84] Creating Layer B3_0_SConv_BN
I0829 09:22:54.284158 916722 net.cpp:406] B3_0_SConv_BN <- B3_0_SConvBlockV2_T1
I0829 09:22:54.284164 916722 net.cpp:367] B3_0_SConv_BN -> B3_0_SConvBlockV2_T1 (in-place)
I0829 09:22:54.284253 916722 net.cpp:122] Setting up B3_0_SConv_BN
I0829 09:22:54.284260 916722 net.cpp:129] Top shape: 1 1536 4 4 (24576)
I0829 09:22:54.284265 916722 net.cpp:137] Memory required for data: 17801228
I0829 09:22:54.284272 916722 layer_factory.hpp:77] Creating layer B3_0_SConv_Scale
I0829 09:22:54.284277 916722 net.cpp:84] Creating Layer B3_0_SConv_Scale
I0829 09:22:54.284282 916722 net.cpp:406] B3_0_SConv_Scale <- B3_0_SConvBlockV2_T1
I0829 09:22:54.284287 916722 net.cpp:380] B3_0_SConv_Scale -> B3_0_SConvBlockV2_Scale
I0829 09:22:54.284312 916722 layer_factory.hpp:77] Creating layer B3_0_SConv_Scale
I0829 09:22:54.284370 916722 net.cpp:122] Setting up B3_0_SConv_Scale
I0829 09:22:54.284376 916722 net.cpp:129] Top shape: 1 1536 4 4 (24576)
I0829 09:22:54.284381 916722 net.cpp:137] Memory required for data: 17899532
I0829 09:22:54.284387 916722 layer_factory.hpp:77] Creating layer B3_0_SConv_Conv1x1
I0829 09:22:54.284397 916722 net.cpp:84] Creating Layer B3_0_SConv_Conv1x1
I0829 09:22:54.284402 916722 net.cpp:406] B3_0_SConv_Conv1x1 <- B3_0_SConvBlockV2_Scale
I0829 09:22:54.284408 916722 net.cpp:380] B3_0_SConv_Conv1x1 -> B3_0_SConvBlockV2_Conv1x1
I0829 09:22:54.286911 916722 net.cpp:122] Setting up B3_0_SConv_Conv1x1
I0829 09:22:54.286924 916722 net.cpp:129] Top shape: 1 192 4 4 (3072)
I0829 09:22:54.286931 916722 net.cpp:137] Memory required for data: 17911820
I0829 09:22:54.286936 916722 layer_factory.hpp:77] Creating layer B3_0_SConv_ReLU
I0829 09:22:54.286945 916722 net.cpp:84] Creating Layer B3_0_SConv_ReLU
I0829 09:22:54.286950 916722 net.cpp:406] B3_0_SConv_ReLU <- B3_0_SConvBlockV2_Conv1x1
I0829 09:22:54.286957 916722 net.cpp:367] B3_0_SConv_ReLU -> B3_0_SConvBlockV2_Conv1x1 (in-place)
I0829 09:22:54.286963 916722 net.cpp:122] Setting up B3_0_SConv_ReLU
I0829 09:22:54.286967 916722 net.cpp:129] Top shape: 1 192 4 4 (3072)
I0829 09:22:54.286972 916722 net.cpp:137] Memory required for data: 17924108
I0829 09:22:54.286976 916722 layer_factory.hpp:77] Creating layer B3_0_SConv_Dropout
I0829 09:22:54.286983 916722 net.cpp:84] Creating Layer B3_0_SConv_Dropout
I0829 09:22:54.286991 916722 net.cpp:406] B3_0_SConv_Dropout <- B3_0_SConvBlockV2_Conv1x1
I0829 09:22:54.287005 916722 net.cpp:380] B3_0_SConv_Dropout -> B3_0_SConvBlockV2_Dropout
I0829 09:22:54.287030 916722 net.cpp:122] Setting up B3_0_SConv_Dropout
I0829 09:22:54.287037 916722 net.cpp:129] Top shape: 1 192 4 4 (3072)
I0829 09:22:54.287042 916722 net.cpp:137] Memory required for data: 17936396
I0829 09:22:54.287046 916722 layer_factory.hpp:77] Creating layer B3_1_SConv_SparseConv
I0829 09:22:54.287055 916722 net.cpp:84] Creating Layer B3_1_SConv_SparseConv
I0829 09:22:54.287060 916722 net.cpp:406] B3_1_SConv_SparseConv <- B3_0_SConvBlockV2_Dropout
I0829 09:22:54.287065 916722 net.cpp:380] B3_1_SConv_SparseConv -> B3_1_SConvBlockV2_T1
I0829 09:22:54.287236 916722 net.cpp:122] Setting up B3_1_SConv_SparseConv
I0829 09:22:54.287245 916722 net.cpp:129] Top shape: 1 1536 4 4 (24576)
I0829 09:22:54.287250 916722 net.cpp:137] Memory required for data: 18034700
I0829 09:22:54.287254 916722 layer_factory.hpp:77] Creating layer B3_1_SConv_BN
I0829 09:22:54.287263 916722 net.cpp:84] Creating Layer B3_1_SConv_BN
I0829 09:22:54.287268 916722 net.cpp:406] B3_1_SConv_BN <- B3_1_SConvBlockV2_T1
I0829 09:22:54.287273 916722 net.cpp:367] B3_1_SConv_BN -> B3_1_SConvBlockV2_T1 (in-place)
I0829 09:22:54.287356 916722 net.cpp:122] Setting up B3_1_SConv_BN
I0829 09:22:54.287362 916722 net.cpp:129] Top shape: 1 1536 4 4 (24576)
I0829 09:22:54.287367 916722 net.cpp:137] Memory required for data: 18133004
I0829 09:22:54.287379 916722 layer_factory.hpp:77] Creating layer B3_1_SConv_Scale
I0829 09:22:54.287385 916722 net.cpp:84] Creating Layer B3_1_SConv_Scale
I0829 09:22:54.287389 916722 net.cpp:406] B3_1_SConv_Scale <- B3_1_SConvBlockV2_T1
I0829 09:22:54.287395 916722 net.cpp:380] B3_1_SConv_Scale -> B3_1_SConvBlockV2_Scale
I0829 09:22:54.287421 916722 layer_factory.hpp:77] Creating layer B3_1_SConv_Scale
I0829 09:22:54.287487 916722 net.cpp:122] Setting up B3_1_SConv_Scale
I0829 09:22:54.287492 916722 net.cpp:129] Top shape: 1 1536 4 4 (24576)
I0829 09:22:54.287498 916722 net.cpp:137] Memory required for data: 18231308
I0829 09:22:54.287504 916722 layer_factory.hpp:77] Creating layer B3_1_SConv_Conv1x1
I0829 09:22:54.287518 916722 net.cpp:84] Creating Layer B3_1_SConv_Conv1x1
I0829 09:22:54.287523 916722 net.cpp:406] B3_1_SConv_Conv1x1 <- B3_1_SConvBlockV2_Scale
I0829 09:22:54.287528 916722 net.cpp:380] B3_1_SConv_Conv1x1 -> B3_1_SConvBlockV2_Conv1x1
I0829 09:22:54.290022 916722 net.cpp:122] Setting up B3_1_SConv_Conv1x1
I0829 09:22:54.290035 916722 net.cpp:129] Top shape: 1 192 4 4 (3072)
I0829 09:22:54.290042 916722 net.cpp:137] Memory required for data: 18243596
I0829 09:22:54.290048 916722 layer_factory.hpp:77] Creating layer B3_1_SConv_ReLU
I0829 09:22:54.290055 916722 net.cpp:84] Creating Layer B3_1_SConv_ReLU
I0829 09:22:54.290060 916722 net.cpp:406] B3_1_SConv_ReLU <- B3_1_SConvBlockV2_Conv1x1
I0829 09:22:54.290066 916722 net.cpp:367] B3_1_SConv_ReLU -> B3_1_SConvBlockV2_Conv1x1 (in-place)
I0829 09:22:54.290072 916722 net.cpp:122] Setting up B3_1_SConv_ReLU
I0829 09:22:54.290076 916722 net.cpp:129] Top shape: 1 192 4 4 (3072)
I0829 09:22:54.290081 916722 net.cpp:137] Memory required for data: 18255884
I0829 09:22:54.290086 916722 layer_factory.hpp:77] Creating layer B3_1_SConv_Dropout
I0829 09:22:54.290093 916722 net.cpp:84] Creating Layer B3_1_SConv_Dropout
I0829 09:22:54.290097 916722 net.cpp:406] B3_1_SConv_Dropout <- B3_1_SConvBlockV2_Conv1x1
I0829 09:22:54.290103 916722 net.cpp:380] B3_1_SConv_Dropout -> B3_1_SConvBlockV2_Dropout
I0829 09:22:54.290127 916722 net.cpp:122] Setting up B3_1_SConv_Dropout
I0829 09:22:54.290134 916722 net.cpp:129] Top shape: 1 192 4 4 (3072)
I0829 09:22:54.290139 916722 net.cpp:137] Memory required for data: 18268172
I0829 09:22:54.290143 916722 layer_factory.hpp:77] Creating layer B3_2_SConv_SparseConv
I0829 09:22:54.290151 916722 net.cpp:84] Creating Layer B3_2_SConv_SparseConv
I0829 09:22:54.290156 916722 net.cpp:406] B3_2_SConv_SparseConv <- B3_1_SConvBlockV2_Dropout
I0829 09:22:54.290161 916722 net.cpp:380] B3_2_SConv_SparseConv -> B3_2_SConvBlockV2_T1
I0829 09:22:54.290336 916722 net.cpp:122] Setting up B3_2_SConv_SparseConv
I0829 09:22:54.290344 916722 net.cpp:129] Top shape: 1 1536 4 4 (24576)
I0829 09:22:54.290350 916722 net.cpp:137] Memory required for data: 18366476
I0829 09:22:54.290355 916722 layer_factory.hpp:77] Creating layer B3_2_SConv_BN
I0829 09:22:54.290364 916722 net.cpp:84] Creating Layer B3_2_SConv_BN
I0829 09:22:54.290369 916722 net.cpp:406] B3_2_SConv_BN <- B3_2_SConvBlockV2_T1
I0829 09:22:54.290376 916722 net.cpp:367] B3_2_SConv_BN -> B3_2_SConvBlockV2_T1 (in-place)
I0829 09:22:54.290459 916722 net.cpp:122] Setting up B3_2_SConv_BN
I0829 09:22:54.290465 916722 net.cpp:129] Top shape: 1 1536 4 4 (24576)
I0829 09:22:54.290472 916722 net.cpp:137] Memory required for data: 18464780
I0829 09:22:54.290477 916722 layer_factory.hpp:77] Creating layer B3_2_SConv_Scale
I0829 09:22:54.290485 916722 net.cpp:84] Creating Layer B3_2_SConv_Scale
I0829 09:22:54.290489 916722 net.cpp:406] B3_2_SConv_Scale <- B3_2_SConvBlockV2_T1
I0829 09:22:54.290495 916722 net.cpp:380] B3_2_SConv_Scale -> B3_2_SConvBlockV2_Scale
I0829 09:22:54.290518 916722 layer_factory.hpp:77] Creating layer B3_2_SConv_Scale
I0829 09:22:54.290573 916722 net.cpp:122] Setting up B3_2_SConv_Scale
I0829 09:22:54.290580 916722 net.cpp:129] Top shape: 1 1536 4 4 (24576)
I0829 09:22:54.290585 916722 net.cpp:137] Memory required for data: 18563084
I0829 09:22:54.290591 916722 layer_factory.hpp:77] Creating layer B3_2_SConv_Conv1x1
I0829 09:22:54.290601 916722 net.cpp:84] Creating Layer B3_2_SConv_Conv1x1
I0829 09:22:54.290606 916722 net.cpp:406] B3_2_SConv_Conv1x1 <- B3_2_SConvBlockV2_Scale
I0829 09:22:54.290612 916722 net.cpp:380] B3_2_SConv_Conv1x1 -> B3_2_SConvBlockV2_Conv1x1
I0829 09:22:54.293145 916722 net.cpp:122] Setting up B3_2_SConv_Conv1x1
I0829 09:22:54.293159 916722 net.cpp:129] Top shape: 1 192 4 4 (3072)
I0829 09:22:54.293164 916722 net.cpp:137] Memory required for data: 18575372
I0829 09:22:54.293170 916722 layer_factory.hpp:77] Creating layer B3_2_SConv_ReLU
I0829 09:22:54.293177 916722 net.cpp:84] Creating Layer B3_2_SConv_ReLU
I0829 09:22:54.293181 916722 net.cpp:406] B3_2_SConv_ReLU <- B3_2_SConvBlockV2_Conv1x1
I0829 09:22:54.293187 916722 net.cpp:367] B3_2_SConv_ReLU -> B3_2_SConvBlockV2_Conv1x1 (in-place)
I0829 09:22:54.293195 916722 net.cpp:122] Setting up B3_2_SConv_ReLU
I0829 09:22:54.293200 916722 net.cpp:129] Top shape: 1 192 4 4 (3072)
I0829 09:22:54.293205 916722 net.cpp:137] Memory required for data: 18587660
I0829 09:22:54.293208 916722 layer_factory.hpp:77] Creating layer B3_2_SConv_Dropout
I0829 09:22:54.293215 916722 net.cpp:84] Creating Layer B3_2_SConv_Dropout
I0829 09:22:54.293220 916722 net.cpp:406] B3_2_SConv_Dropout <- B3_2_SConvBlockV2_Conv1x1
I0829 09:22:54.293226 916722 net.cpp:380] B3_2_SConv_Dropout -> B3_2_SConvBlockV2_Dropout
I0829 09:22:54.293251 916722 net.cpp:122] Setting up B3_2_SConv_Dropout
I0829 09:22:54.293256 916722 net.cpp:129] Top shape: 1 192 4 4 (3072)
I0829 09:22:54.293262 916722 net.cpp:137] Memory required for data: 18599948
I0829 09:22:54.293267 916722 layer_factory.hpp:77] Creating layer B3_Pooling
I0829 09:22:54.293278 916722 net.cpp:84] Creating Layer B3_Pooling
I0829 09:22:54.293282 916722 net.cpp:406] B3_Pooling <- B3_2_SConvBlockV2_Dropout
I0829 09:22:54.293288 916722 net.cpp:380] B3_Pooling -> Pooling4
I0829 09:22:54.293305 916722 net.cpp:122] Setting up B3_Pooling
I0829 09:22:54.293310 916722 net.cpp:129] Top shape: 1 192 1 1 (192)
I0829 09:22:54.293315 916722 net.cpp:137] Memory required for data: 18600716
I0829 09:22:54.293319 916722 layer_factory.hpp:77] Creating layer fc1
I0829 09:22:54.293325 916722 net.cpp:84] Creating Layer fc1
I0829 09:22:54.293330 916722 net.cpp:406] fc1 <- Pooling4
I0829 09:22:54.293337 916722 net.cpp:380] fc1 -> fc1
I0829 09:22:54.293766 916722 net.cpp:122] Setting up fc1
I0829 09:22:54.293772 916722 net.cpp:129] Top shape: 1 384 (384)
I0829 09:22:54.293777 916722 net.cpp:137] Memory required for data: 18602252
I0829 09:22:54.293783 916722 layer_factory.hpp:77] Creating layer classifier
I0829 09:22:54.293807 916722 net.cpp:84] Creating Layer classifier
I0829 09:22:54.293813 916722 net.cpp:406] classifier <- fc1
I0829 09:22:54.293819 916722 net.cpp:380] classifier -> classifier
I0829 09:22:54.293885 916722 net.cpp:122] Setting up classifier
I0829 09:22:54.293892 916722 net.cpp:129] Top shape: 1 10 (10)
I0829 09:22:54.293897 916722 net.cpp:137] Memory required for data: 18602292
I0829 09:22:54.293902 916722 layer_factory.hpp:77] Creating layer classifier_classifier_0_split
I0829 09:22:54.293910 916722 net.cpp:84] Creating Layer classifier_classifier_0_split
I0829 09:22:54.293913 916722 net.cpp:406] classifier_classifier_0_split <- classifier
I0829 09:22:54.293920 916722 net.cpp:380] classifier_classifier_0_split -> classifier_classifier_0_split_0
I0829 09:22:54.293927 916722 net.cpp:380] classifier_classifier_0_split -> classifier_classifier_0_split_1
I0829 09:22:54.293946 916722 net.cpp:122] Setting up classifier_classifier_0_split
I0829 09:22:54.293951 916722 net.cpp:129] Top shape: 1 10 (10)
I0829 09:22:54.293956 916722 net.cpp:129] Top shape: 1 10 (10)
I0829 09:22:54.293962 916722 net.cpp:137] Memory required for data: 18602372
I0829 09:22:54.293965 916722 layer_factory.hpp:77] Creating layer softmax_loss
I0829 09:22:54.293972 916722 net.cpp:84] Creating Layer softmax_loss
I0829 09:22:54.293977 916722 net.cpp:406] softmax_loss <- classifier_classifier_0_split_0
I0829 09:22:54.293982 916722 net.cpp:406] softmax_loss <- label_InputData_1_split_0
…
